realtime_model_ep329.pth (torch, 97610 bytes, 6 tensors)

net.0.weight f4 [128, 35]
000000 4d 80 1d c0 97 0c f8 41 61 b7 e3 be 9c 0c e9 be
       -2.4609559 31.006147 -0.44475845 -0.45517433
000010 21 1a b5 be e1 58 c9 bf da a1 e9 41 98 5c 1c bf
       -0.35371497 -1.5730249 29.20403 -0.61078787
000020 21 6a ce 3f f4 c8 06 3f 42 e6 ff bf 66 3f ec 41
       1.6126138 0.5265038 -1.9992144 29.530956
000030 e9 f8 1b bf 73 52 0c 40 b1 56 d6 bd a6 20 a4 bf
       -0.6092668 2.1925323 -0.10465754 -1.2822464
000040 1f 37 ec 41 9f 6f 53 bf 7e a9 9d 3f 5f fa 2b bf
       29.526915 -0.82592195 1.231735 -0.6717891
000050 f5 e6 0a c0 13 f4 ec 41 72 6d 2f bf f0 9f 26 40
       -2.1703465 29.619177 -0.68526375 2.6035118
000060 61 0b 00 bf cd b1 dc 40 c5 e8 cf 40 19 ba 0b 41
       -0.5001736 6.896704 6.4971642 8.732934
000070 46 ca dc 40 12 0f ca 40 3b 48 b9 40 c0 ee c5 40
       6.8996916 6.3143396 5.790067 6.1853943
000080 47 5b da 40 3c 5b 6b 40 fa e1 d7 40 1f 1e 1b c0
       6.8236423 3.6774435 6.746335 -2.4237134
000090 3c 59 f8 41 de 9f 95 be 83 45 96 be ba 38 a4 be
       31.043571 -0.2922353 -0.29349908 -0.3207453
0000a0 74 c8 aa bf 35 fa ea 41 5e 2a 60 bf 1b ca c6 3f
       -1.3342423 29.372171 -0.8756465 1.5530428
0000b0 f4 1d 10 3f 19 57 e9 bf 19 c7 ec 41 15 0f 28 bf
       0.56295705 -1.8229705 29.597216 -0.65648013
0000c0 f4 26 0e 40 64 6a 24 bc 0a 22 a5 bf 79 dd eb 41
       2.2211275 -0.010035131 -1.2901013 29.48314
0000d0 4b c8 5d bf 62 f2 9d 3f 01 d9 f3 be da ae 05 c0
       -0.8663375 1.2339594 -0.47626498 -2.088797
0000e0 86 fa eb 41 14 65 54 bf 08 68 23 40 ba 4c 52 bf
       29.497326 -0.8296673 2.5532246 -0.82148325
0000f0 cc 25 e0 40 f8 08 ce 40 ff 1e 0c 41 8f fe da 40
       7.004614 6.438595 8.757567 6.843574
000100 ec e2 c0 40 51 f4 b6 40 5d 40 c4 40 fa 23 da 40
       6.0277004 5.717324 6.132857 6.8168917
000110 4c d2 5f 40 1c 7e db 40 17 04 17 c0 cb 40 f9 41
       3.4972105 6.859144 -2.3596246 31.156637
000120 f4 68 62 be 68 83 0f bf 26 0e 84 3b 9a ae a7 bf
       -0.22110349 -0.56059885 0.004030007 -1.3100159
000130 70 34 ed 41 a7 10 10 bf b5 5f c5 3f a2 74 5f 3f
       29.650604 -0.5627541 1.5419832 0.8728734
000140 ea 9d ec bf 29 8d ee 41 60 76 92 be a6 96 0a 40
       -1.8485692 29.818926 -0.28605938 2.1654449
000150 b5 e0 2c 3e 92 15 a4 bf 0e 0d ef 41 fb 4b 24 bf
       0.16882594 -1.2819083 29.881374 -0.64178437
000160 64 24 e9 3f 1d 88 4f be cb 6c 0a c0 24 e1 ef 41
       1.821423 -0.20266767 -2.1628902 29.984932
000170 09 dd ea be 1f fb 22 40 0e 46 c5 be a0 51 ea 40
       -0.4587176 2.5465772 -0.3853001 7.322464
000180 0e c0 e0 40 d0 5c 0b 41 74 b8 de 40 5e b4 d1 40
       7.023444 8.710159 6.9600163 6.5532675
000190 d3 95 bd 40 a5 6e d1 40 b7 82 e2 40 ea 7a 6a 40
       5.924539 6.5447564 7.0784564 3.663752
0001a0 80 27 e0 40 73 cb 0f c0 25 05 f6 41 0c 80 1b c1
       7.004822 -2.2467926 30.752512 -9.718761
0001b0 03 ed e1 bf e3 10 4f c1 34 d3 a3 bf 89 91 ea 41
       -1.7650455 -12.941623 -1.2798829 29.321062
0001c0 e2 20 25 c1 57 d6 c9 3f 08 a8 3e c1 90 66 ce bf
       -10.320528 1.5768536 -11.916023 -1.612505
0001d0 0c ae e9 41 d4 dc 24 c1 e3 87 c6 3f be a1 4a c1
       29.209984 -10.303913 1.5510219 -12.664488
0001e0 6e 5c 97 bf 12 6a eb 41 60 e9 27 c1 a5 43 80 3f
       -1.1825082 29.426792 -10.494476 1.0020643
0001f0 f6 92 44 c1 82 bd 02 c0 ef a3 ea 41 a4 2c 26 c1
       -12.285879 -2.0428166 29.330046 -10.385899
000200 00 29 14 40 26 b1 4b c1 99 68 08 41 5d 7f fd 40
       2.3150024 -12.730749 8.525537 7.9217973
000210 b7 f2 3e 41 c4 c7 24 41 e2 3b 0b 41 69 8a 1d 41
       11.934257 10.298771 8.70212 9.846292
000220 f0 ef 05 41 a0 53 20 41 04 d9 d7 40 2b d9 10 41
       8.3710785 10.020416 6.745241 9.05302
000230 78 d1 28 3f 3f 2f a3 c1 e2 ad 2a 41 a4 1e 06 40
       0.65944624 -20.39807 10.667452 2.0956202
000240 d4 34 00 41 23 ea ad 3e 5e 00 96 c1 99 10 36 41
       8.0128975 0.33967695 -18.75018 11.379052
000250 35 9c c4 3f a3 b2 e7 40 98 3a 94 3e c0 48 97 c1
       1.5360171 7.2405562 0.28950953 -18.910522
000260 4d 51 2f 41 fb b9 51 40 57 31 0f 41 1a 27 86 3f
       10.957349 3.2769763 8.949546 1.0480683
000270 7c c6 98 c1 23 c7 34 41 6b a8 d1 3f 90 37 11 41
       -19.096916 11.298617 1.6379522 9.076065
000280 33 bb 40 3f 0f 95 97 c1 26 32 36 41 09 80 ab be
       0.75285643 -18.947783 11.387243 -0.3349612
000290 6d 27 04 41 46 a5 ce 40 bd 15 c5 40 0a 44 b7 40
       8.259625 6.457675 6.1589036 5.7270555
0002a0 6a a3 ca 40 33 3a 22 41 9a d1 bd 40 66 ee d0 40
       6.332448 10.139209 5.931836 6.5291014
0002b0 ab 47 f8 40 bb 3a fc 40 7e 6e 04 41 4e 1d 20 c0
       7.7587485 7.8821692 8.276976 -2.5017886
0002c0 cf 89 f6 41 3c 0f 43 bf 9b 29 d2 be 0a 93 20 bf
       30.81729 -0.7619512 -0.41047367 -0.62724364
0002d0 97 93 c7 bf 45 c3 e8 41 5f 11 9c bf c4 05 bf 3f
       -1.5591916 29.095346 -1.2192801 1.4923635
0002e0 60 60 7f 3e b3 5f d5 bf b1 89 ea 41 7d 15 75 bf
       0.24939108 -1.666983 29.317232 -0.95735914
0002f0 65 9f 15 40 3a 52 82 bd c9 25 a6 bf 55 02 ea 41
       2.3378537 -0.0636334 -1.2980281 29.251139
000300 7b b7 9e bf 75 21 77 3f 56 fb 52 bf e1 e2 f5 bf
       -1.2399744 0.96535426 -0.8241476 -1.9209863
000310 e1 8d ea 41 c7 dd 8b bf 94 6a 28 40 a9 a5 32 bf
       29.319277 -1.0927056 2.631505 -0.6978403
000320 d9 8c d8 40 2f ad c5 40 25 14 07 41 4c f3 d0 40
       6.7671933 6.1773906 8.442418 6.5296993
000330 ea 53 c0 40 7b dc b1 40 f1 da bf 40 6b 5f d2 40
       6.0102434 5.558164 5.9954762 6.5741477
000340 ca e5 51 40 2b b1 d2 40 ea 60 bf 3c ae 76 95 3d
       3.2796502 6.584127 0.023361642 0.07298027
000350 5c ac 09 be 53 3b 38 bb b4 12 e3 bd 69 f9 52 3d
       -0.13444656 -0.0028111532 -0.11087552 0.051507387
000360 09 03 a0 3c 4b 51 86 3d ad a6 05 be 0b 9e ac bd
       0.019532697 0.06558474 -0.13051863 -0.08428582
000370 b2 c9 12 be e1 22 ca 3d 36 27 e4 bd 42 e8 14 bc
       -0.14334753 0.09869934 -0.111402914 -0.009088578
000380 e4 30 e9 bd c7 bd 03 3e 12 6f d6 3d e4 97 55 bc
       -0.11386278 0.12865363 0.10470404 -0.013036702
000390 68 b8 a1 bd ac f6 e0 3d 37 6c 27 3e c2 2c 09 be
       -0.07896501 0.10984549 0.16349874 -0.1339598
0003a0 e2 f8 a9 3c 0e 59 d5 bd 4c 6a 3a 3d 30 a9 ca ba
       0.02074856 -0.104173765 0.04551153 -0.0015461799
0003b0 2a a2 ba bd 8e eb f6 bd d4 88 65 3d ab a9 13 be
       -0.091129616 -0.12056647 0.056038693 -0.14420192
0003c0 af b4 84 bd 9d 33 19 be e0 a2 04 be 8b 46 8b 3d
       -0.06479775 -0.14961095 -0.12952757 0.068005644
0003d0 84 2e d9 3d e7 38 20 c0 66 a1 f6 41 e6 ad 2f bf
       0.10604575 -2.503473 30.828808 -0.6862472
0003e0 2b 68 04 bf 32 42 cf be 4e c3 b6 bf aa 6c e9 41
       -0.5172145 -0.4048019 -1.4278352 29.178059
0003f0 1e 83 a0 bf 9e b9 c2 3f 8f ad 81 3e 5a 06 d1 bf
       -1.2540014 1.5212896 0.25327727 -1.6330063

net.0.bias f4 [128]
000000 fe 2a 42 40 b7 3a 3b 40 ec 86 4a 40 2f 3d 9c c0
       3.033874 2.9254587 3.164485 -4.8824687
000010 df 08 20 41 9c 89 2a 40 5f fc 41 be e0 30 23 40
       10.002166 2.664649 -0.18943928 2.549858
000020 c2 81 1f 40 20 14 47 40 c2 1a 1a 40 61 8a 27 40
       2.4922948 3.1106033 2.4078832 2.617821
000030 6e b7 1c 41 3c 9d 21 41 71 4c 28 40 40 39 22 40
       9.794783 10.100887 2.6296656 2.5347443
000040 51 8c 21 40 96 9d 1e 41 a8 d1 28 40 0f c4 1f 41
       2.5241892 9.913473 2.6377964 9.985366
000050 c3 34 6a 3c 67 8c 3b 40 a1 b9 19 be 33 d9 c5 3f
       0.014294806 2.9304445 -0.15012218 1.5456909
000060 01 c4 3c 40 bc d3 af c0 6f 07 21 41 36 03 1d 40
       2.9494631 -5.4945965 10.064315 2.453321
000070 70 61 22 40 ea 5f 48 40 1e c4 3f 40 18 13 1b 40
       2.537197 3.1308541 2.996345 2.4230404
000080 37 ee 1d 40 f3 ff 22 41 09 49 20 41 a2 64 3d 40
       2.4676645 10.187488 10.017831 2.9592671
000090 af e0 27 40 d7 57 1e 41 3f f0 1d 40 e4 a1 1d 40
       2.6230886 9.896445 2.4677885 2.463006
0000a0 09 4c 4f 40 77 7b 1e 41 39 d3 1d 40 08 4b 1d 40
       3.2390158 9.905143 2.466017 2.4577045
0000b0 2d 5d ae bd e0 ec b4 bc b1 81 e8 3f 34 c3 66 bd
       -0.085138656 -0.022085607 1.8164579 -0.056338504
0000c0 a7 19 31 40 4e 69 0f bd 77 e0 1f 40 06 4d 1c be
       2.7671907 -0.035012536 2.4980752 -0.15263757
0000d0 3d 56 1d 41 c5 f6 18 40 84 77 20 40 a8 69 1c 40
       9.833554 2.3900616 2.5072947 2.4439487
0000e0 96 43 16 40 c1 fc 1f 41 a5 0f 43 be c1 37 42 40
       2.347875 9.9992075 -0.19048937 3.034653
0000f0 cd 6a 15 40 1f c3 20 41 c0 75 50 40 1a a3 68 bd
       2.3346436 10.047637 3.257187 -0.05679617
000100 33 f1 4b 40 9b cf 4a 40 47 1c 23 40 e7 60 17 40
       3.1865966 3.1689212 2.548601 2.3652894
000110 23 0f 1e 41 20 43 1c 41 c0 1e 1c 40 ae 82 30 40
       9.8786955 9.766388 2.4393768 2.757976
000120 a7 a5 44 40 d3 89 1d 40 de d6 20 41 3e f6 23 40
       3.0726106 2.4615371 10.052458 2.5619044
000130 73 66 1c 41 6b 26 1f 40 c6 52 1f 40 3c 32 20 3d
       9.775012 2.4867198 2.489427 0.039110407
000140 4b c4 1e 40 6d 5a 25 40 59 9c 1d 40 fb 5d 34 be
       2.4807308 2.5836442 2.4626677 -0.17613976
000150 e2 96 1d 41 cb 00 eb 3f 04 a9 27 40 77 f2 94 c0
       9.849337 1.8359617 2.619691 -4.6545978
000160 64 95 9a c0 60 f0 22 40 cf 98 18 40 42 96 18 40
       -4.830736 2.5459213 2.3843267 2.384171
000170 e7 85 1f 40 dd e2 51 40 2d df 4c 40 d9 a1 3f 40
       2.4925478 3.2794716 3.2011216 2.9942534
000180 08 25 18 bd a6 43 19 40 3e e7 1f 41 d9 1d 25 40
       -0.03714469 2.394754 9.993956 2.5799468
000190 94 20 21 41 57 d0 2e 40 a8 45 20 40 dd 32 27 40
       10.070454 2.731466 2.5042515 2.6124794
0001a0 68 ed 23 41 d2 92 19 40 73 05 13 40 ae cc 17 40
       10.2454605 2.3995862 2.2972076 2.3718677
0001b0 23 38 1e 40 ee 19 2c 40 d3 44 21 40 62 17 1d 41
       2.4721763 2.6890826 2.5198257 9.818209
0001c0 99 5a 23 40 34 0a 94 c0 d1 ba 20 41 c0 96 1d 41
       2.5524046 -4.6262455 10.045609 9.849304
0001d0 1a 60 1c 41 a7 0c 50 40 93 1f 4d 40 4d e4 d4 3f
       9.773462 3.2507722 3.2050521 1.6632172
0001e0 c9 7e 20 40 76 43 52 40 d8 87 1f 41 c3 74 21 41
       2.5077384 3.2853675 9.970665 10.091006
0001f0 24 a0 30 40 35 f2 25 41 9e a9 29 40 91 07 48 40
       2.7597742 10.371633 2.6509776 3.1254618

net.2.weight f4 [128, 128]
000000 1f 3a a3 40 ee f5 a0 40 b1 7c a3 40 53 f2 48 c1
       5.100845 5.0300207 5.108971 -12.559161
000010 5b af 21 40 d7 0f 3b 40 1d 31 be 3b 8e 2a 3b 40
       2.5263278 2.9228418 0.0058041946 2.9244723
000020 85 50 21 40 48 9f a3 40 97 91 16 40 0b 32 52 40
       2.5205395 5.1131935 2.352636 3.2843044
000030 89 3a 31 40 8e ed 29 40 09 89 13 40 03 a7 19 40
       2.7691977 2.6551242 2.305239 2.4008186
000040 b8 7e 33 40 6a 06 35 40 62 f4 4f 40 ec 01 1c 40
       2.8046093 2.8285165 3.249291 2.4376173
000050 65 33 9a bd 34 2e a4 40 3b ad 67 3d 59 b2 0f 41
       -0.07529334 5.13064 0.05656169 8.981042
000060 f4 74 a3 40 0a 73 51 c1 b1 cd 17 40 14 8b 27 40
       5.1080265 -13.090586 2.3719294 2.6178637
000070 98 55 f8 3f 39 20 9f 40 4b cb 9e 40 ab e5 00 40
       1.9401121 4.9726834 4.962316 2.0140178
000080 d4 27 ec 3f 1b ee 26 40 1b 7e 1c 40 50 f7 a4 40
       1.8449655 2.6082828 2.4451969 5.1551895
000090 47 f0 5d 40 59 1d 28 40 a3 27 46 40 8e 4b 03 40
       3.4677904 2.6267912 3.0961692 2.0514865
0000a0 b8 00 a2 40 ab cf 26 40 9b 1f 04 40 ab 66 46 40
       5.0625877 2.606425 2.064429 3.1000164
0000b0 0d 22 b5 3c 2a dc 48 3d 60 31 19 41 fa 95 c0 3c
       0.022110963 0.04903809 9.574554 0.023509014
0000c0 ce fe 92 40 e5 06 3b 3d 79 a5 3a 40 8e 8e 4f 3d
       4.593604 0.045660872 2.9163496 0.05067306
0000d0 0c f3 28 40 a3 56 3c 40 aa d8 1d 40 e3 50 e8 3f
       2.6398344 2.942788 2.4663491 1.8149685
0000e0 be 06 19 40 b2 e4 19 40 b8 90 38 3d a5 2d a0 40
       2.3910365 2.4045835 0.04505989 5.005572
0000f0 00 99 51 40 fd bd 26 40 d6 17 a1 40 c1 0f 42 3d
       3.2749634 2.605346 5.0341597 0.047378305
000100 4e 4b 9d 40 9d 16 a7 40 27 46 57 40 09 e3 90 3f
       4.9154425 5.2215104 3.3636568 1.1319286
000110 ce e4 1e 40 dc 27 30 40 eb 34 82 40 76 05 92 40
       2.4827151 2.7524328 4.0689597 4.5631666
000120 04 72 a3 40 30 0b bc 3f 2e 55 24 40 a2 e7 8c 40
       5.107668 1.4690914 2.567699 4.4032755
000130 8a 7d 31 40 e0 55 37 40 b8 8b 3c 40 b9 6f b2 bd
       2.7732873 2.8646164 2.9460278 -0.08712716
000140 fe 36 34 40 7c d9 d3 3f c6 53 38 40 e5 0a 54 3d
       2.8158565 1.6550746 2.8801131 0.051768202
000150 da 1f 2c 40 24 bf 17 41 e5 0f 97 40 a4 e8 50 c1
       2.689444 9.484165 4.7206903 -13.056797
000160 88 49 4b c1 1d f7 c4 3f f5 a6 02 40 69 76 50 40
       -12.705452 1.5387913 2.0414402 3.2572272
000170 96 cb 28 40 a6 97 a4 40 21 3e a2 40 7b ce a2 40
       2.637426 5.143512 5.070084 5.087705
000180 be 73 9f bd 10 ea 10 40 65 f4 1c 40 89 10 67 40
       -0.07785748 2.264286 2.4524167 3.6103842
000190 05 91 22 40 21 df 8f 40 c9 88 d0 3f 48 35 22 40
       2.5401013 4.4959874 1.6291744 2.534502
0001a0 ab 90 16 40 b9 c2 68 40 0c ae b3 3f b7 2b 04 40
       2.3525798 3.636885 1.403749 2.0651681
0001b0 85 71 4c 40 1b d4 6e 40 73 24 3b 40 7f 1c 27 40
       3.1944287 3.731696 2.9240997 2.6111143
0001c0 e7 4e f8 3f 9c a8 49 c1 b2 3e 1d 40 f6 f5 2d 40
       1.9399079 -12.603664 2.4569516 2.7181373
0001d0 df 3f 27 40 94 f9 a2 40 3d 51 9f 40 c1 6f 18 41
       2.6132734 5.092966 4.978667 9.527284
0001e0 31 b3 24 40 88 84 a0 40 03 5e 25 40 80 59 25 40
       2.573437 5.016178 2.583863 2.5835876
0001f0 77 0b a2 40 62 a0 20 40 17 42 93 40 2d 51 a4 40
       5.0638995 2.509789 4.6018176 5.134909
000200 6f 6b a0 40 a1 a1 a0 40 1c 8f a3 40 47 83 4b c1
       5.0131145 5.01973 5.1112194 -12.71955
000210 97 26 39 40 88 c3 26 40 a7 e9 d6 3c a8 9d 2b 40
       2.8929803 2.6056843 0.026234461 2.6814976
000220 bd 3b 1c 40 70 58 a7 40 1f a0 0c 40 ae 96 51 40
       2.4411461 5.2295456 2.197273 3.2748218
000230 4f 84 44 40 ad ea 3a 40 76 5c 09 40 de 06 15 40
       3.0705755 2.9205735 2.1462684 2.3285441
000240 1c fe 2a 40 1c 10 45 40 8e 43 3f 40 e3 38 3a 40
       2.6717596 3.0791082 2.9884982 2.909722
000250 e1 a8 ad bd d7 d8 a6 40 41 69 66 bb 28 2f 10 41
       -0.08479477 5.2139697 -0.003515795 9.011513
000260 22 71 a5 40 81 a5 52 c1 bf 27 2e 40 f1 0e 22 40
       5.17006 -13.165406 2.721176 2.532162
000270 8b 4e f3 3f 39 ff a3 40 f2 e3 a3 40 ea bc 03 40
       1.9008344 5.124905 5.1215754 2.0584054
000280 3c e0 fb 3f d5 5b 41 40 1b f3 35 40 75 24 a4 40
       1.9677806 3.02123 2.842963 5.1294503
000290 47 89 4e 40 42 60 39 40 c6 ea 40 40 d9 36 f5 3f
       3.2271287 2.8965 3.0143294 1.9157363
0002a0 2f 51 a3 40 34 64 38 40 ad 55 03 40 bf b4 3c 40
       5.10366 2.881116 2.0521042 2.9485319
0002b0 99 77 1e 3b 91 e9 e7 3c a1 28 17 41 e1 09 21 3d
       0.0024180172 0.028309615 9.447419 0.039316062
0002c0 1e 1c 91 40 ba 9a 11 bd 24 8c 34 40 d4 49 14 3c
       4.5346823 -0.03554795 2.8210535 0.009050805
0002d0 a6 92 3c 40 4d 37 32 40 37 8a 0c 40 cc 5a f5 3f
       2.9464507 2.7846253 2.195936 1.9168334
0002e0 ea f2 14 40 5d b8 2d 40 f8 92 95 bd 76 13 a6 40
       2.3273263 2.7143776 -0.07303423 5.1898756
0002f0 6e 56 43 40 00 c4 3d 40 01 0e a1 40 00 3b 28 bd
       3.0521502 2.965088 5.0329595 -0.04107189
000300 71 f2 a0 40 d4 ab a8 40 21 57 46 40 38 57 95 3f
       5.029595 5.270975 3.099068 1.1667242
000310 22 0a 30 40 be 87 45 40 0e 5d 87 40 c3 64 8c 40
       2.7506185 3.08641 4.230109 4.3873
000320 e1 8c a5 40 f4 66 99 3f 4a 20 42 40 61 29 8a 40
       5.173447 1.1984544 3.0332208 4.317551
000330 f9 89 42 40 14 13 28 40 78 1f 29 40 33 06 c8 3c
       3.0396712 2.6261644 2.6425457 0.024417019
000340 c3 60 2f 40 f7 e8 dd 3f 14 21 30 40 a3 bb df 3c
       2.7402809 1.733672 2.752019 0.027311152
000350 fb 76 3f 40 a4 0a 15 41 45 51 97 40 c6 0e 51 c1
       2.991637 9.315098 4.7286706 -13.066107
000360 76 ed 4c c1 62 df c5 3f a9 de 07 40 77 32 3f 40
       -12.807974 1.5458796 2.122965 2.9874551
000370 72 5c 22 40 ba af a5 40 f4 e5 a2 40 e7 69 a5 40
       2.5368924 5.177701 5.0905704 5.1691775
000380 e9 c0 02 3d 7a 76 11 40 a8 72 2f 40 a2 8f 55 40
       0.031922255 2.2728562 2.741373 3.3368917
000390 cc b2 38 40 4e 98 8d 40 bc 21 c7 3f fc 48 1d 40
       2.885913 4.424842 1.555717 2.4575796
0003a0 69 e0 2d 40 48 b8 5c 40 6a 94 aa 3f 31 b4 f5 3f
       2.716822 3.4487476 1.3326542 1.9195615
0003b0 7e c9 4e 40 8d b8 71 40 4d fd 2e 40 66 9c 3e 40
       3.231048 3.776889 2.7342103 2.9782958
0003c0 1f 6d 02 40 40 89 4a c1 95 55 34 40 92 45 43 40
       2.0379102 -12.658508 2.8177235 3.0511212
0003d0 97 ac 37 40 5b a6 aa 40 ea e9 a4 40 62 e1 15 41
       2.869909 5.332807 5.153554 9.367525
0003e0 4b fc 1a 40 b7 14 a5 40 f3 f6 40 40 1c 0c 42 40
       2.4216487 5.1587787 3.0150726 3.031989
0003f0 33 7a a0 40 6b 86 32 40 06 60 97 40 95 0f a7 40
       5.014917 2.7894542 4.7304716 5.220652

net.2.bias f4 [128]
000000 51 93 2b bf 6e 35 6d be e7 de 0c c1 2c 16 c6 be
       -0.6702166 -0.23164913 -8.8044195 -0.3868879
000010 f7 09 3b 3d 77 70 0c 40 86 9f 97 bc 99 14 74 40
       0.0456638 2.1943643 -0.018508684 3.8137572
000020 a5 95 72 40 0d 81 b2 bd 44 3c 1b 41 02 b0 95 bf
       3.7903836 -0.08716021 9.702213 -1.1694338
000030 99 7d b1 bd 7d c1 19 bf 6b 07 72 40 ea f5 a2 3c
       -0.08666534 -0.60060865 3.7817028 0.019892652
000040 ad 40 73 40 bd c5 10 bf 05 ad 02 bf 65 76 bf be
       3.8008225 -0.56551725 -0.51045257 -0.37395015
000050 23 12 d4 bc 3a 62 7a 40 c5 8d e8 3c 82 12 d1 c0
       -0.025887555 3.9122453 0.028387913 -6.5335093
000060 fe c3 00 c1 2f da 0a c1 6a 54 aa bd 87 7a 6b 40
       -8.04785 -8.6782675 -0.08316882 3.6793535
000070 30 c2 70 40 66 f3 79 3f 5c b5 77 40 62 0e a7 bd
       3.7618523 0.9763702 3.8704443 -0.0815704
000080 b4 43 08 bd 58 66 25 bd e3 f6 72 40 5b 88 59 bf
       -0.03326769 -0.040380806 3.7963188 -0.84973687
000090 56 a2 80 3d 70 20 11 40 bc 2c 6f 40 58 fb 1e 41
       0.06280963 2.2676048 3.7371054 9.936363
0000a0 5f c2 01 40 6d 47 a1 bb 7c e4 63 bd 5f 04 ac bc
       2.0274885 -0.0049218447 -0.05563782 -0.020998178
0000b0 46 60 7d 40 d0 28 79 40 05 3a 8b 3d f9 a3 e4 bf
       3.959001 3.893116 0.06798176 -1.786254
0000c0 d4 91 cf c0 d7 6f f6 3c 32 77 aa be b1 63 34 bf
       -6.4865513 0.030082626 -0.33294064 -0.70464617
0000d0 b4 78 94 3c 28 27 09 bf 47 65 77 40 b4 a4 75 bc
       0.018123962 -0.5357537 3.8655565 -0.014992882
0000e0 ef 0a b3 3e 60 cd 75 40 5d 26 07 bf 23 1d 0d c1
       0.3496928 3.84066 -0.5279291 -8.819613
0000f0 dd 27 93 3c 84 01 ac c0 f8 de 79 be 13 ed 9b be
       0.017963344 -5.375185 -0.24401462 -0.3045431
000100 22 7e f4 c0 36 37 f9 bc 7e ab 6c 40 57 83 73 40
       -7.640397 -0.030421834 3.697967 3.8048913
000110 a1 74 0b 40 a2 1f 08 40 34 9a a6 bd 85 77 6c 40
       2.1789935 2.1269307 -0.08134881 3.694795
000120 da ae 80 3c c2 56 aa bd 70 df 79 40 fa 0e 06 c1
       0.015708376 -0.08317329 3.9042625 -8.378656
000130 ae c0 6f 40 c4 f2 67 40 2b 61 51 c0 ca 8a 79 3f
       3.7461352 3.6241922 -3.2715557 0.974774
000140 1c c8 02 bf f8 1a 05 bd 76 02 68 40 cd 55 06 bf
       -0.5108659 -0.032496423 3.6251502 -0.5247467
000150 a5 67 94 3d c8 d8 09 bd ec b7 c0 3c 43 51 0a 40
       0.07246331 -0.033654004 0.0235252 2.1612098
000160 f2 c9 75 40 b2 7c 24 bd 4a ba ea c0 9b 75 97 c0
       3.8404508 -0.04015798 -7.3352404 -4.733106
000170 2f f5 88 38 d2 f2 7d bd 06 ba 61 bd 1c fd 77 40
       6.530654e-05 -0.06199915 -0.055109046 3.8748236
000180 55 a4 e3 c0 af fc 69 3c af cd 73 40 f7 7d c3 bd
       -7.11381 0.014281436 3.809429 -0.0954551
000190 6f 54 a6 bd fa 3b 0c c1 14 66 43 c0 43 bb 0e 41
       -0.08121573 -8.764643 -3.0531054 8.920718
0001a0 c3 57 ed bc dc 04 c9 c0 96 1e 04 3d 3d 51 f6 c0
       -0.028972512 -6.281843 0.03225573 -7.697417
0001b0 08 3c d4 3f 33 a6 1f 3c 13 fb 0e 40 84 c5 6f 40
       1.658082 0.009744215 2.2340744 3.7464304
0001c0 08 b1 e6 be ba 06 6e bd 3c 6c e0 be a5 6d 2a 3f
       -0.4505694 -0.058111884 -0.43832576 0.66573554
0001d0 62 16 0a c1 23 ee aa c0 6e 70 74 3c c6 c5 28 bf
       -8.630465 -5.3415694 0.014919383 -0.6592678
0001e0 69 75 b4 c0 b9 ba cf c0 40 50 08 c1 82 83 9c bd
       -5.6393323 -6.4915433 -8.519592 -0.076422706
0001f0 65 12 73 40 a7 8d c6 bd 78 37 e3 be b9 d8 0f 40
       3.7979977 -0.09694987 -0.44378257 2.2476027

net.4.weight f4 [20, 128]
000000 04 6c c1 bf 11 32 a8 bf 8c 1a 01 41 a3 1f ac bf
       -1.5111089 -1.3140279 8.068981 -1.3447155
000010 d8 01 8d bc 88 ed 9f 40 15 85 7a 3d 25 26 83 40
       -0.017212793 4.9977455 0.061162073 4.0984063
000020 d8 fc 95 40 78 f0 0c bd 63 c3 be 3f c7 46 c8 bf
       4.6871147 -0.034409016 1.4903377 -1.56466
000030 37 53 f0 3c f7 77 be bf f2 19 91 40 2a 2a 6b bc
       0.029336555 -1.488036 4.534417 -0.014353314
000040 dc 9f 89 40 c8 02 99 bf 1c ea a6 bf 24 b0 a2 bf
       4.300764 -1.1953974 -1.3040195 -1.2710004
000050 3f c8 40 bd 8f 72 86 40 e2 5a 8a bd f7 89 f4 40
       -0.04706597 4.201484 -0.06755616 7.6418414
000060 b1 98 fe 40 8b ef fc 40 23 8e 1e 3c 09 cd 8c 40
       7.956139 7.904241 0.009677443 4.4000287
000070 f1 22 97 40 78 d5 9f 40 80 84 8e 40 8f 66 fb 3b
       4.7230153 4.994808 4.4536743 0.007672138
000080 7d 00 3d 3a ba b0 49 3d b6 e0 89 40 1d 89 c3 bf
       0.00072098506 0.049240805 4.3086805 -1.5276219
000090 a0 66 8d bd 4d 7b 9d 40 fc 56 90 40 45 f1 cd 3f
       -0.0690434 4.9213014 4.510618 1.6089255
0000a0 57 cd 9a 40 3c 69 16 bc 23 eb 1b 3d 0c 61 42 bb
       4.837566 -0.009180363 0.03806604 -0.0029659895
0000b0 73 c0 92 40 30 29 8c 40 b3 23 93 bd a2 12 ad 40
       4.5859923 4.380028 -0.071845435 5.4085245
0000c0 54 7a f8 40 98 b7 ad 3d 37 8c a6 bf c1 9e af bf
       7.7649326 0.08482283 -1.301154 -1.3720323
0000d0 1e a2 99 bf 35 05 b2 bf 27 6d 8a 40 81 3b 97 3d
       -1.2002599 -1.3907839 4.3258243 0.07384396
0000e0 21 26 aa be 28 0d 94 40 ed cc 95 bf 35 6b 00 41
       -0.33232215 4.626606 -1.1703163 8.026174
0000f0 9c 29 65 3d 5b 29 e8 40 d5 96 a3 bf f0 0a 95 bf
       0.055947885 7.2550483 -1.2780405 -1.1643963
000100 81 6b fa 40 83 be 03 bd 5e 94 8c 40 ab fb 89 40
       7.825623 -0.032164108 4.393111 4.311971
000110 5b 6d 9e 40 4c d1 9e 40 2d 74 2f 3d a9 38 83 40
       4.950849 4.963049 0.042835403 4.1006665
000120 46 92 2f bd f3 56 9e bf 90 d2 8c 40 b9 41 ff 40
       -0.042864107 -1.2370285 4.4007034 7.976773
000130 95 1d 91 40 63 97 71 40 44 59 cc 40 53 fd 9b 40
       4.534861 3.774865 6.3858967 4.8746734
000140 d8 0e b9 bf 2d ee 82 bb 42 41 90 40 5c 2e ab bf
       -1.4457655 -0.003995678 4.507966 -1.3373523
000150 05 05 8c bb f9 6f a4 3d 9c 32 a9 3d 33 80 98 40
       -0.0042730593 0.080291696 0.08261606 4.7656493
000160 b5 5f 90 40 85 38 1e 3d 6a 5b fb 40 46 19 e3 40
       4.511683 0.03862812 7.854909 7.096835
000170 60 e0 ac 3d 73 74 9b 40 5c 9a 5f 3d 2a 91 8f 40
       0.08441234 4.857965 0.054590568 4.48647
000180 59 aa f6 40 bf 5d 49 bd ba eb 8c 40 e2 24 97 bc
       7.7082944 -0.04916167 4.403775 -0.018450204
000190 2c ea 8c 3d ea 84 fe 40 c2 fe c7 40 c8 b1 48 3f
       0.06880602 7.953725 6.2498484 0.7839627
0001a0 be 7a 4b bc 2d 3d f5 40 d6 be 89 3c 9a 65 fb 40
       -0.012419401 7.6637177 0.01681463 7.8561525
0001b0 ae 9d 9c 40 92 41 d9 3c e5 93 9c 40 12 8a 87 40
       4.894248 0.026520524 4.8930535 4.2356043
0001c0 bb 31 b0 bf b9 a5 97 bd bb 55 b5 bf 7c 26 3f bf
       -1.3765177 -0.07404656 -1.4166788 -0.746681
0001d0 a2 79 fe 40 65 f4 e9 40 27 96 1d 3d b7 46 ad bf
       7.9523478 7.3110833 0.038473275 -1.3537205
0001e0 71 80 f1 40 0a 2e f3 40 08 6a 01 41 f9 6a 11 bd
       7.546929 7.59937 8.088387 -0.035502408
0001f0 26 5b 87 40 1c 00 a3 3d 68 9d b6 bf 2d b8 9e 40
       4.2298765 0.07959005 -1.4266787 4.9599824
000200 54 16 4a bf e1 55 1d bf 37 f2 ee 40 ad ad 5c bf
       -0.7894032 -0.61459166 7.4670672 -0.8620251
000210 4b f0 86 bd 05 93 93 40 97 6b b4 bc 02 f3 80 40
       -0.06588801 4.6116967 -0.02202396 4.029664
000220 61 2f 8a 40 f9 75 6d 3d a2 04 3d 3f bf cd 89 bf
       4.3182836 0.057973836 0.73835194 -1.0765914
000230 e7 35 bc bc 4b e7 49 bf 4c d3 86 40 90 45 f3 3b
       -0.022974921 -0.7886855 4.213293 0.007424064
000240 5f 02 83 40 4c 9d 1d bf 9b ac 2f bf cb be 31 bf
       4.0940394 -0.6156814 -0.6862275 -0.6943175
000250 e0 a7 9b 3d c8 45 82 40 bc 3f 1f 3d 71 ea f0 40
       0.07600379 4.071018 0.03887914 7.5286183
000260 f9 68 ed 40 a6 19 ec 40 2e b5 a9 3d 93 a2 83 40
       7.419064 7.378131 0.082865104 4.1135955
000270 00 7b 8b 40 96 f7 98 40 64 d7 87 40 d1 8e aa 3d
       4.3587646 4.780223 4.245043 0.08328021
000280 27 cb 34 3d 14 83 0d bd 7e 4c 85 40 58 37 66 bf
       0.044139054 -0.034548834 4.1655874 -0.899282
000290 d6 a4 54 bd 7a 16 92 40 f4 7d 86 40 c3 c7 79 3f
       -0.051915012 4.5652437 4.202875 0.9757044
0002a0 f4 b8 93 40 a3 33 21 3c f4 63 25 3d 72 9d 0c bd
       4.6163273 0.009838971 0.040378526 -0.03432984
0002b0 b7 6f 89 40 cd 99 85 40 0d 55 8a bd 36 c0 c7 40
       4.294887 4.1750245 -0.067545034 6.2422132
0002c0 b6 cb f2 40 02 ff e2 3b f5 bc 28 bf 26 bf 39 bf
       7.587367 0.006927372 -0.65913326 -0.72557294
0002d0 ef ee 39 bf 73 ab 5c bf 4c bd 88 40 99 95 96 bd
       -0.7263021 -0.8619911 4.2731075 -0.07352752
0002e0 17 49 3b 3f d0 ba 8b 40 4a 6d 24 bf 18 da ee 40
       0.731584 4.3665543 -0.6422926 7.464123
0002f0 3e 56 2d 3d d1 9d f0 40 50 05 26 bf ad f6 1f bf
       0.042318575 7.5192647 -0.64851856 -0.6248577
000300 9c 8d ef 40 0b 64 ae 3d 04 63 86 40 e1 ce 83 40
       7.4860363 0.085151754 4.199587 4.119004
000310 6e a4 91 40 ac 0e 92 40 ea ed df bb f9 6c 78 40
       4.551322 4.564291 -0.0068337815 3.8816512
000320 d7 b9 a6 bc f0 33 1d bf 57 db 87 40 f5 41 ec 40
       -0.020352287 -0.61407375 4.245525 7.3830514
000330 7a 15 88 40 b5 2e 6d 40 9b c7 e3 40 66 68 99 40
       4.2526217 3.7059758 7.118116 4.793994
000340 2f 72 62 bf 20 47 6d bc 3b d6 88 40 c3 47 54 bf
       -0.8845548 -0.01448229 4.276151 -0.82922
000350 48 42 2f bd 4a c0 70 bd e7 f1 5a 3d c4 02 8f 40
       -0.04278782 -0.05877713 0.053453352 4.4690876
000360 3d 5e 89 40 03 21 3e bd f5 0d f2 40 cd 79 ef 40
       4.2927537 -0.0464182 7.5642037 7.4836183
000370 b3 10 21 3d 39 84 a4 40 e4 7d 2c 3d b6 5e 86 40
       0.039322566 5.1411405 0.042112246 4.1990614
000380 df 46 f0 40 7e e6 89 3d 04 8c 84 40 5e 5e a8 bd
       7.5086513 0.06733416 4.1420918 -0.08221124
000390 4d af 77 bd d0 2b ed 40 9d 38 e1 40 ca 63 8d 3f
       -0.060469914 7.411598 7.038161 1.1046078
0003a0 95 ac 9e bd 7d 7f f4 40 e1 a3 87 3d 76 fa ee 40
       -0.07747761 7.6405625 0.06623054 7.468074
0003b0 97 4c 93 40 ed 31 51 3d d4 02 92 40 f7 65 82 40
       4.6030993 0.051073004 4.562845 4.074947
0003c0 54 20 29 bf a5 8b 50 3d 99 ba 4d bf b2 0f d7 be
       -0.66064954 0.050914425 -0.8036285 -0.42004162
0003d0 2b d2 ec 40 f3 44 f2 40 b3 20 a5 3d 0d c1 3e bf
       7.4006553 7.5709167 0.080628775 -0.7451332
0003e0 ec 46 f0 40 59 34 f4 40 1f 72 eb 40 8d 2e d8 bc
       7.5086575 7.63139 7.357681 -0.026389385
0003f0 1d 93 81 40 f6 1c 99 bd 09 55 40 bf ed b2 90 40
       4.049208 -0.07476227 -0.75129753 4.5218415

net.4.bias f4 [20]
000000 6a e1 ef 3f b2 66 0b 40 b6 6e b3 3f 22 36 c6 3f
       1.8740666 2.178143 1.4018161 1.548527
000010 23 d2 8a 3f c2 8a 8d 3f e5 37 bb 3f c8 00 bc 3f
       1.0845379 1.105797 1.4626433 1.4687738
000020 60 fd 20 be 31 cc ff 3f 3d f4 c6 3e c0 14 f3 3e
       -0.15721655 1.9984189 0.38858214 0.47476768
000030 87 09 64 3f e6 a6 df 3e c3 e0 87 3f 9c 37 ec be
       0.8907704 0.4368202 1.0615467 -0.46136177
000040 cf 5e d7 3e 5c be 7d bc f3 f9 4d 3f a3 49 e8 3c
       0.4206452 -0.01548728 0.8045952 0.028355425
