realtime_model_ep75.pth (torch, 97600 bytes, 6 tensors)

net.0.weight f4 [128, 35]
000000 40 ab 04 c0 0d d9 ed 41 61 c3 0d 3e e6 62 7a bf
       -2.0729523 29.730982 0.13844062 -0.9780716
000010 1e 53 4c 3e 20 e7 ae bf d3 8a e6 41 17 da 8d 3e
       0.19953582 -1.3664284 28.817785 0.27705452
000020 62 48 59 3f d8 40 72 3f ba 3d e5 bf 76 4c e8 41
       0.8487607 0.94630194 -1.7909462 29.037334
000030 61 d8 6d 3e 5f ff d6 3f a0 5b 17 3e 58 f2 8b bf
       0.23227073 1.6796683 0.14781046 -1.0933332
000040 e5 bb e8 41 8b d2 04 3d b8 f2 a1 3f 2c b7 8f bf
       29.091745 0.032427352 1.2652197 -1.1227775
000050 c5 1d ff bf 3f bb e9 41 6b 8c 54 3e b7 93 17 40
       -1.993096 29.216429 0.2075669 2.3683908
000060 59 6b 2e 3e 8c 4d e6 40 1c 7f d7 40 ec e6 0f 41
       0.17033137 7.196966 6.7342663 8.993877
000070 8b 18 e5 40 09 de d1 40 74 f9 bf 40 6a 4f cf 40
       7.159246 6.558354 5.999201 6.478444
000080 5a 8a e3 40 3e 3e 78 40 4e 3a df 40 a9 4a 02 c0
       7.1106386 3.878799 6.9758673 -2.035807
000090 87 29 ee 41 e5 9c 94 3e dc f5 50 bf 5c 1b 6d 3e
       29.770277 0.2902595 -0.8162515 0.23154968
0000a0 dc 5c 90 bf 11 e8 e7 41 9a c2 48 3c df fd 49 3f
       -1.1278338 28.988314 0.012253428 0.78903
0000b0 28 37 7b 3f ef b3 ce bf 0a d9 e8 41 ef 70 3d 3e
       0.98131037 -1.6148661 29.105976 0.18500112
0000c0 9d ab da 3f 86 b8 77 3e 09 fa 8c bf 41 67 e8 41
       1.7083622 0.24191484 -1.1013805 29.050417
0000d0 a4 19 03 bc e1 29 a2 3f dd 7a 6d bf c3 b3 f4 bf
       -0.008001719 1.266903 -0.927656 -1.9117359
0000e0 a6 c6 e8 41 81 6b 81 3d b8 5b 14 40 b9 28 1c be
       29.096996 0.06319333 2.318098 -0.1524991
0000f0 d3 c1 e9 40 55 a0 d5 40 4d 4c 10 41 ae 4d e3 40
       7.30491 6.675822 9.018628 7.1032324
000100 c6 b2 c8 40 26 a6 bd 40 24 a1 cd 40 18 54 e3 40
       6.271823 5.926532 6.4259205 7.1040154
000110 ac b8 6c 40 42 d7 e2 40 2e 57 fc bf 93 02 ef 41
       3.6987715 7.0887766 -1.9714105 29.876257
000120 11 9c b6 3e ad c0 8a bf 8e a7 0f 3f 37 23 8d bf
       0.35665944 -1.084005 0.56115043 -1.1026372
000130 50 10 ea 41 38 4b a2 3e 7f 4e 47 3f 69 11 a6 3f
       29.257965 0.31698012 0.7785415 1.2974063
000140 fd dd d1 bf df 8d ea 41 2f 48 0c 3f 01 5b d3 3f
       -1.639587 29.319273 0.54797643 1.6512147
000150 93 d9 d7 3e 96 ce 8b bf f4 84 eb 41 ca c7 55 3e
       0.42158183 -1.092242 29.439919 0.20876995
000160 ee bc ed 3f 2c e6 27 bf 8b 11 fe bf 9c 9b ec 41
       1.8573282 -0.6558559 -1.9849104 29.575981
000170 bf 3d da 3e f8 bc 13 40 6d a5 93 3e a3 ec f3 40
       0.42625234 2.3084087 0.28837147 7.6226363
000180 7b 53 e8 40 a1 89 0f 41 e7 04 e7 40 55 7f d9 40
       7.2601905 8.971101 7.2193484 6.7967935
000190 f6 42 c4 40 f5 cb da 40 92 ad eb 40 cc 49 77 40
       6.133174 6.837397 7.364938 3.8638792
0001a0 9b 7a e7 40 04 91 ee bf e0 8b ec 41 6a 95 29 c1
       7.2337165 -1.8638005 29.568298 -10.598978
0001b0 7c 9d 18 c0 e6 f8 4e c1 06 bb 89 bf 5a 63 e8 41
       -2.384612 -12.935766 -1.07602 29.048512
0001c0 27 c1 2a c1 a2 37 2c 3f f9 c1 41 c1 84 01 b4 bf
       -10.672156 0.6727239 -12.109857 -1.4062963
0001d0 ef 9c e6 41 68 a9 2b c1 e9 a3 6c 3f 7a ce 4b c1
       28.826628 -10.728859 0.9243761 -12.737909
0001e0 c0 d9 7e bf 44 db e8 41 30 77 2e c1 98 51 28 3f
       -0.9955101 29.107063 -10.9040985 0.657495
0001f0 90 85 50 c1 84 e4 ee bf 8a 4c e8 41 6d e6 2b c1
       -13.032608 -1.8663487 29.037373 -10.743756
000200 71 dd 03 40 ef 6e 4a c1 62 02 0b 41 34 85 00 41
       2.0603907 -12.652083 8.688082 8.03252
000210 67 d2 40 41 c1 9f 26 41 7b 2f 0d 41 e3 f8 1e 41
       12.051368 10.414002 8.824092 9.935763
000220 8e 93 08 41 96 d3 22 41 d2 98 db 40 88 8f 12 41
       8.536024 10.176657 6.862405 9.160042
000230 a7 5b 8c 3e 40 d5 9a c1 f2 fd 2c 41 88 c2 2c 40
       0.27413675 -19.354126 10.811998 2.6993732
000240 c4 a8 f8 40 aa 30 0a 3e f6 d7 94 c1 2e 3d 30 41
       7.7706013 0.13495126 -18.60545 11.014936
000250 d7 69 18 40 ca 4e e5 40 3f 49 aa 3d d7 2d 95 c1
       2.38146 7.165868 0.08314752 -18.647383
000260 24 a2 2a 41 c8 3b 76 40 7f b1 0d 41 64 7b 5c 3f
       10.664585 3.8473988 8.855834 0.8612578
000270 5b 35 97 c1 a6 c3 2f 41 0f 55 ec 3f 88 29 1a 41
       -18.901052 10.985266 1.8463458 9.635139
000280 68 90 13 3f 4f 34 96 c1 ca 53 30 41 2b fc fa bd
       0.5764222 -18.775541 11.020456 -0.122551285
000290 6b eb fd 40 0f f6 c6 40 17 0b bf 40 b0 d9 b0 40
       7.9349875 6.2175364 5.9701037 5.526573
0002a0 00 39 c4 40 a8 f1 1e 41 7a 56 b8 40 94 2e c9 40
       6.131958 9.933998 5.760556 6.286936
0002b0 eb 98 f0 40 da 3f f6 40 88 63 01 41 05 5e 07 c0
       7.5186667 7.6952944 8.0868 -2.1151135
0002c0 13 87 ec 41 69 18 50 be cc 26 6f bf 72 69 bc bd
       29.565954 -0.20321812 -0.93418574 -0.091997996
0002d0 18 6b ad bf 6e eb e5 41 88 00 b0 be 62 79 39 3f
       -1.3548307 28.739956 -0.34375405 0.7245084
0002e0 41 90 25 3f 07 fa ba bf 82 d4 e6 41 39 df 04 be
       0.6467324 -1.4607552 28.853764 -0.12975778
0002f0 56 5b e9 3f 30 ba 35 3e 1f 3c 8e bf 12 c7 e6 41
       1.8230999 0.17746806 -1.1112098 28.847202
000300 a5 52 ca be 03 1a 7d 3f f2 8e a4 bf 50 72 df bf
       -0.39516178 0.98867816 -1.2856123 -1.745676
000310 8a 92 e7 41 bf 88 59 be 1b 36 19 40 ab a8 53 bd
       28.946552 -0.2124357 2.3939273 -0.051674526
000320 82 19 e2 40 99 3a cd 40 56 3a 0b 41 1d 31 d9 40
       7.0656137 6.413403 8.701742 6.7872453
000330 ab 1a c8 40 9a 84 b8 40 c9 2d c9 40 63 83 db 40
       6.2532554 5.7661867 6.286839 6.8597884
000340 f3 cf 5e 40 74 02 da 40 ea 60 bf 3c ae 76 95 3d
       3.4814422 6.8127995 0.023361642 0.07298027
000350 5c ac 09 be 53 3b 38 bb b4 12 e3 bd 69 f9 52 3d
       -0.13444656 -0.0028111532 -0.11087552 0.051507387
000360 09 03 a0 3c 4b 51 86 3d ad a6 05 be 0b 9e ac bd
       0.019532697 0.06558474 -0.13051863 -0.08428582
000370 b2 c9 12 be e1 22 ca 3d 36 27 e4 bd 42 e8 14 bc
       -0.14334753 0.09869934 -0.111402914 -0.009088578
000380 e4 30 e9 bd c7 bd 03 3e 12 6f d6 3d e4 97 55 bc
       -0.11386278 0.12865363 0.10470404 -0.013036702
000390 68 b8 a1 bd ac f6 e0 3d 37 6c 27 3e c2 2c 09 be
       -0.07896501 0.10984549 0.16349874 -0.1339598
0003a0 e2 f8 a9 3c 0e 59 d5 bd 4c 6a 3a 3d 30 a9 ca ba
       0.02074856 -0.104173765 0.04551153 -0.0015461799
0003b0 2a a2 ba bd 8e eb f6 bd d4 88 65 3d ab a9 13 be
       -0.091129616 -0.12056647 0.056038693 -0.14420192
0003c0 af b4 84 bd 9d 33 19 be e0 a2 04 be 8b 46 8b 3d
       -0.06479775 -0.14961095 -0.12952757 0.068005644
0003d0 84 2e d9 3d 4c 79 07 c0 16 9e ec 41 5e e2 01 be
       0.10604575 -2.1167784 29.57719 -0.12684008
0003e0 c9 3c 85 bf fe d6 05 3e de 99 9c bf 05 94 e6 41
       -1.0409175 0.13070294 -1.2234457 28.822275
0003f0 94 81 c1 be 19 e7 40 3f e5 a1 26 3f 9a 9f b6 bf
       -0.37794173 0.7535263 0.6509078 -1.4267457

net.0.bias f4 [128]
000000 f0 97 53 40 4a a4 4c 40 7c f5 5b 40 13 4b 99 c0
       3.3061485 3.1975274 3.4368582 -4.7904143
000010 ef ef 1c 41 9b a1 3b 40 5f fc 41 be 7f 4a 34 40
       9.808578 2.9317386 -0.18943928 2.8170469
000020 6e 8b 30 40 cc 84 58 40 fc 14 2b 40 80 b5 38 40
       2.75851 3.3831053 2.6731558 2.886078
000030 10 9c 19 41 46 85 1e 41 88 45 39 40 d5 3d 33 40
       9.600601 9.907537 2.8948689 2.800649
000040 48 a4 32 40 c8 81 1b 41 c7 fb 39 40 90 aa 1c 41
       2.791277 9.719185 2.9059923 9.791641
000050 c3 34 6a 3c c0 fa 4c 40 a1 b9 19 be 1c 98 ab 3f
       0.014294806 3.2028046 -0.15012218 1.3405795
000060 fe 33 4e 40 25 94 ab c0 0b ef 1d 41 b0 11 2e 40
       3.2219234 -5.361834 9.87086 2.7198296
000070 05 51 33 40 9a cd 59 40 73 3d 51 40 a8 05 2c 40
       2.80182 3.403174 3.2693756 2.6878452
000080 6a dd 2e 40 ba e7 1f 41 ce 36 1d 41 64 d5 4e 40
       2.732264 9.994074 9.82588 3.2317743
000090 15 0a 39 40 90 3f 1b 41 28 11 2f 40 b9 92 2e 40
       2.8912404 9.703018 2.7354221 2.7277052
0000a0 e6 c0 60 40 df 62 1b 41 fb c8 2e 40 5e 6a 2e 40
       3.5117736 9.711638 2.7310169 2.7252421
0000b0 2d 5d ae bd e0 ec b4 bc 47 cc cb 3f 34 c3 66 bd
       -0.085138656 -0.022085607 1.5921715 -0.056338504
0000c0 9a 75 42 40 4e 69 0f bd 02 f9 30 40 06 4d 1c be
       3.0384278 -0.035012536 2.7651982 -0.15263757
0000d0 ce 3e 1a 41 77 11 2a 40 69 78 31 40 17 57 2d 40
       9.640333 2.657316 2.7729743 2.7084405
0000e0 ff 42 27 40 db e4 1c 41 a5 0f 43 be 20 ad 53 40
       2.613464 9.805873 -0.19048937 3.3074417
0000f0 de 93 26 40 51 aa 1d 41 f7 e8 61 40 1a a3 68 bd
       2.602775 9.854081 3.529844 -0.05679617
000100 2c 64 5d 40 fb 4e 5c 40 7c 4c 34 40 26 2e 28 40
       3.459239 3.4423206 2.8171682 2.6278167
000110 3e f5 1a 41 e0 27 19 41 c2 51 2d 40 e7 d4 41 40
       9.684874 9.572235 2.708115 3.0286195
000120 8e 16 56 40 cf 49 2e 40 18 bc 1d 41 68 46 35 40
       3.3451266 2.723255 9.858421 2.8324223
000130 24 4a 19 41 89 39 30 40 8e 6d 30 40 3c 32 20 3d
       9.580601 2.7535117 2.7566867 0.039110407
000140 07 da 2f 40 8c 3f 36 40 63 b6 2e 40 9c d1 32 be
       2.7476823 2.8476286 2.729882 -0.17462772
000150 bd 7b 1a 41 42 3c ce 3f 0d 0a 39 40 c8 03 92 c0
       9.65521 1.6112139 2.8912385 -4.5629616
000160 3a 9d 97 c0 07 d3 33 40 ff 93 29 40 7a bc 29 40
       -4.7379427 2.809755 2.649658 2.6521287
000170 08 9c 30 40 ec 59 63 40 0a 4b 5e 40 3f 18 51 40
       2.7595234 3.5523634 3.47333 3.2671049
000180 08 25 18 bd e8 47 2a 40 f9 cd 1c 41 e8 5a 36 40
       -0.03714469 2.6606388 9.800286 2.8492985
000190 b4 06 1e 41 5c 2f 40 40 ee 25 31 40 bf 39 38 40
       9.8766365 3.0028906 2.76794 2.8785245
0001a0 03 d5 20 41 1a d4 2a 40 d4 dd 23 40 82 a7 28 40
       10.052005 2.6691957 2.5604143 2.6352239
0001b0 d6 62 2f 40 99 55 3d 40 e7 60 32 40 7e fc 19 41
       2.7404075 2.9583495 2.7871644 9.624144
0001c0 26 47 34 40 34 1d 91 c0 69 a2 1d 41 ca 7a 1a 41
       2.8168426 -4.534815 9.852151 9.654978
0001d0 53 49 19 41 f4 93 61 40 c7 93 5e 40 f5 2e b8 3f
       9.580401 3.5246553 3.4777696 1.438933
0001e0 c0 8b 31 40 f3 bc 63 40 8b 6d 1c 41 87 5b 1e 41
       2.7741547 3.5584075 9.776744 9.897346
0001f0 e3 0f 42 40 93 dc 22 41 f1 07 3b 40 fd 77 59 40
       3.0322196 10.178851 2.9223597 3.3979485

net.2.weight f4 [128, 128]
000000 02 32 9f 40 98 eb 9c 40 86 83 9f 40 61 18 4d c1
       4.9748545 4.903759 4.984805 -12.818452
000010 01 44 1f 40 f8 b6 32 40 1d 31 be 3b 2a e6 32 40
       2.4885256 2.7924175 0.0058041946 2.795298
000020 09 0d 19 40 8d a0 9f 40 dc 37 0e 40 a0 c4 49 40
       2.3914206 4.9883485 2.2221594 3.152626
000030 94 ea 2e 40 4d 89 27 40 a2 34 0b 40 91 4f 11 40
       2.7330675 2.6177552 2.1750875 2.2704813
000040 3c 29 2b 40 10 56 32 40 91 a1 47 40 97 77 19 40
       2.6743917 2.7865028 3.1192362 2.3979242
000050 65 33 9a bd c6 22 a0 40 3b ad 67 3d 82 7c 0d 41
       -0.07529334 5.004245 0.05656169 8.842897
000060 d7 6b 9f 40 c8 e6 55 c1 59 c1 15 40 d9 1d 1f 40
       4.981914 -13.368843 2.339926 2.4861968
000070 e8 81 e7 3f 09 2a 9b 40 d2 e6 9a 40 18 18 f1 3f
       1.8086519 4.8488812 4.8406763 1.8835478
000080 3a 72 db 3f f8 83 24 40 4d 24 1a 40 24 05 a1 40
       1.7144234 2.5705547 2.4084656 5.0318775
000090 d0 98 55 40 d3 b3 25 40 40 d6 3d 40 e0 a1 f5 3f
       3.337452 2.5891006 2.9662018 1.9190025
0000a0 70 10 9e 40 b6 54 24 40 c2 91 f7 3f 93 ef 3d 40
       4.9395065 2.5676703 1.9341357 2.9677474
0000b0 0d 22 b5 3c 2a dc 48 3d 59 91 16 41 fa 95 c0 3c
       0.022110963 0.04903809 9.410485 0.023509014
0000c0 2c e5 8e 40 e5 06 3b 3d 4b 45 32 40 8e 8e 4f 3d
       4.465475 0.045660872 2.7854793 0.05067306
0000d0 5b 62 26 40 a1 f3 33 40 42 63 15 40 2a 92 d7 3f
       2.5997531 2.811745 2.3341832 1.6841481
0000e0 31 b6 10 40 07 7f 17 40 b8 90 38 3d f8 3f 9c 40
       2.26112 2.3671281 0.04505989 4.8828087
0000f0 6d 2e 49 40 3c 31 24 40 78 2b 9d 40 c1 0f 42 3d
       3.1434586 2.565505 4.9115562 0.047378305
000100 bd 5e 99 40 59 23 a3 40 2b d8 4e 40 7d 50 80 3f
       4.7928147 5.098065 3.2319438 1.0024563
000110 28 29 1c 40 59 54 2d 40 51 1c 7c 40 56 ec 8d 40
       2.440012 2.7082732 3.9392283 4.4350996
000120 c6 77 9f 40 b0 29 ab 3f 4c a3 21 40 47 cf 88 40
       4.983371 1.3372097 2.5255919 4.2753024
000130 f1 ea 2e 40 bd f1 2e 40 35 2d 34 40 b9 6f b2 bd
       2.7330897 2.7335045 2.8152592 -0.08712716
000140 3c cd 2b 40 8b 32 c3 3f ad fc 2f 40 bb 38 57 3d
       2.6844015 1.52498 2.749797 0.052544337
000150 2b 57 29 40 73 22 15 41 3f 00 93 40 95 0f 55 c1
       2.6459453 9.32091 4.59378 -13.316304
000160 19 6f 4f c1 dc 3e b4 3f 21 99 f4 3f 89 1b 48 40
       -12.964623 1.4081683 1.9109231 3.1266806
000170 66 83 20 40 7c a3 a0 40 ba 4c 9e 40 9c e2 9e 40
       2.50802 5.0199566 4.946866 4.9651623
000180 be 73 9f bd 23 93 08 40 84 d5 1a 40 37 b5 5e 40
       -0.07785748 2.1339805 2.419282 3.4798105
000190 52 60 20 40 42 c5 8b 40 96 e4 bf 3f f7 dc 19 40
       2.505879 4.3678293 1.4991634 2.4041116
0001a0 75 7d 14 40 2b 63 60 40 ab d0 a2 3f d7 97 f7 3f
       2.3201573 3.5060527 1.271993 1.9343213
0001b0 9c 34 44 40 7f 7f 66 40 50 ce 32 40 e3 64 24 40
       3.065711 3.6015317 2.7938423 2.5686576
0001c0 87 a4 e7 3f 43 cb 4d c1 68 18 1b 40 25 1e 2b 40
       1.8097085 -12.862124 2.4233646 2.6737149
0001d0 51 cd 24 40 3e 12 9f 40 f4 5f 9b 40 fe ce 15 41
       2.5750315 4.970977 4.855463 9.363035
0001e0 a3 66 1c 40 cb 96 9c 40 e4 bd 22 40 c4 96 22 40
       2.4437644 4.8934073 2.54284 2.540452
0001f0 34 0a 9e 40 2e b5 1e 40 0a 2b 8f 40 a3 51 a0 40
       4.9387455 2.4798083 4.474004 5.0099654
000200 41 58 9c 40 33 89 9c 40 83 93 9f 40 12 14 50 c1
       4.885773 4.891748 4.986757 -13.0049
000210 79 40 39 40 64 38 1e 40 a7 e9 d6 3c 4f 25 23 40
       2.89456 2.4721918 0.026234461 2.5491521
000220 49 c4 13 40 4d 54 a3 40 1f 12 04 40 aa fa 48 40
       2.3088553 5.1040406 2.063606 3.1402993
000230 e4 c0 44 40 26 0c 3b 40 bd d0 00 40 6d 79 0c 40
       3.074273 2.9226165 2.0127404 2.1949112
000240 a8 75 22 40 7e d8 44 40 25 bf 36 40 c6 27 3a 40
       2.5384312 3.0757136 2.8554165 2.9086776
000250 e1 a8 ad bd 41 c6 a2 40 41 69 66 bb dd 51 0e 41
       -0.08479477 5.086701 -0.003515795 8.894986
000260 58 5e a1 40 b3 8a 57 c1 bd b4 2e 40 e9 6f 19 40
       5.0427666 -13.471362 2.7297814 2.3974555
000270 d8 0d e2 3f 3a 05 a0 40 9c 02 a0 40 8d 5e f6 3f
       1.7660475 5.000638 5.0003185 1.9247605
000280 3c bc ea 3f d9 74 41 40 98 20 36 40 65 2e a0 40
       1.8338695 3.0227568 2.8457394 5.0056634
000290 3d 01 46 40 3c 7c 39 40 9e 66 38 40 70 db e3 3f
       3.0938256 2.8982077 2.8812633 1.7801342
0002a0 aa 5f 9f 40 8b 6b 38 40 6c 98 f5 3f de 0b 34 40
       4.9804277 2.881564 1.918714 2.8132243
0002b0 99 77 1e 3b 91 e9 e7 3c 85 c6 14 41 e1 09 21 3d
       0.0024180172 0.028309615 9.298467 0.039316062
0002c0 d7 f0 8c 40 ba 9a 11 bd e4 f7 2b 40 d4 49 14 3c
       4.4043994 -0.03554795 2.687005 0.009050805
0002d0 6e 7a 3c 40 00 a2 29 40 86 e1 03 40 52 32 e4 3f
       2.9449725 2.6505127 2.0606399 1.7827857
0002e0 7b 6d 0c 40 9b d1 2d 40 f8 92 95 bd 12 28 a2 40
       2.1941822 2.7159183 -0.07303423 5.0673914
0002f0 b9 bb 3a 40 7e b0 3d 40 f6 22 9d 40 00 3b 28 bd
       2.9177077 2.9638972 4.9105177 -0.04107189
000300 96 06 9d 40 0b b5 a4 40 a0 bb 3d 40 9d 5a 84 3f
       4.907054 5.1471 2.9645767 1.0340153
000310 47 be 2f 40 71 1e 45 40 54 24 83 40 fb 38 88 40
       2.7459886 3.079983 4.0981846 4.2569556
000320 d3 8b a1 40 01 2a 88 3f f8 dd 41 40 c4 fd 85 40
       5.0483184 1.0637819 3.029173 4.1872272
000330 5d 77 42 40 1e 7d 1f 40 f4 8f 20 40 33 06 c8 3c
       3.0385354 2.4920115 2.5087862 0.024417019
000340 96 c7 26 40 6c d0 cc 3f 4e 99 27 40 f3 1b e6 3c
       2.6059318 1.6001105 2.618732 0.0280895
000350 ca 1a 3f 40 c8 ab 12 41 44 30 93 40 7b a0 55 c1
       2.98601 9.166939 4.599642 -13.35168
000360 05 7e 51 c1 94 ba b4 3f d7 a2 fe 3f b6 a3 36 40
       -13.0932665 1.4119439 1.9893445 2.8537421
000370 6a e3 19 40 f2 ba a1 40 78 ef 9e 40 5f 7b a1 40
       2.4045053 5.0540705 4.966732 5.04631
000380 e9 c0 02 3d 3a eb 08 40 0d e9 2f 40 02 04 4d 40
       0.031922255 2.139357 2.7485993 3.2033696
000390 39 13 39 40 be 6b 89 40 45 15 b6 3f 56 bb 14 40
       2.8917983 4.294402 1.4225241 2.323934
0003a0 35 67 2e 40 96 28 54 40 7d 4b 99 3f e0 9a e4 3f
       2.7250493 3.3149772 1.1976162 1.7859764
0003b0 fb 5a 46 40 09 37 69 40 90 73 26 40 ce 56 3e 40
       3.099303 3.643984 2.6008034 2.9740481
0003c0 c6 c2 f3 3f 99 16 4f c1 98 c2 34 40 27 d6 42 40
       1.9043815 -12.943017 2.824377 3.0443208
0003d0 43 be 37 40 12 c1 a6 40 7f f7 a0 40 c8 7e 13 41
       2.8709877 5.211068 5.030212 9.218452
0003e0 f0 7b 12 40 a9 24 a1 40 3d c9 40 40 2b b9 41 40
       2.2888145 5.035725 3.0122826 3.0269268
0003f0 a1 6e 9c 40 77 3c 33 40 b2 37 93 40 3c 08 a3 40
       4.8885045 2.8005655 4.6005487 5.094755

net.2.bias f4 [128]
000000 a4 d7 3d bf 2b 50 92 be 2c 64 0a c1 e9 8f e8 be
       -0.74157166 -0.28576788 -8.649456 -0.45422295
000010 f7 09 3b 3d c0 2b 28 40 86 9f 97 bc 5d 53 84 40
       0.0456638 2.6276703 -0.018508684 4.135176
000020 13 e5 83 40 0d 81 b2 bd f7 7c 06 41 62 62 a0 bf
       4.121713 -0.08716021 8.405509 -1.2530024
000030 99 7d b1 bd ba 06 2c bf 34 ab 83 40 ea f5 a2 3c
       -0.08666534 -0.67197764 4.114649 0.019892652
000040 81 09 84 40 96 d3 1b bf 40 3b 12 bf 72 17 e1 be
       4.12616 -0.6086973 -0.5712166 -0.439632
000050 23 12 d4 bc ee 7b 87 40 c5 8d e8 3c 7a 3f ce c0
       -0.025887555 4.233878 0.028387913 -6.4452486
000060 4c 92 fd c0 d4 6c 08 c1 6a 54 aa bd 85 34 80 40
       -7.9241085 -8.526569 -0.08316882 4.006411
000070 76 09 83 40 96 ad b5 3f f7 69 86 40 62 0e a7 bd
       4.094905 1.4193599 4.200435 -0.0815704
000080 b4 43 08 bd 58 66 25 bd f4 df 83 40 47 a3 6e bf
       -0.03326769 -0.040380806 4.121088 -0.9321789
000090 56 a2 80 3d 59 9f 2c 40 1b 05 82 40 48 47 0a 41
       0.06280963 2.6972258 4.063123 8.642403
0000a0 08 84 1d 40 6d 47 a1 bb 7c e4 63 bd 5f 04 ac bc
       2.4611835 -0.0049218447 -0.05563782 -0.020998178
0000b0 bc 54 89 40 69 17 87 40 05 3a 8b 3d 42 4b c6 bf
       4.2915936 4.2216077 0.06798176 -1.5491717
0000c0 e4 d2 cc c0 d7 6f f6 3c de f1 c5 be aa 2f 46 bf
       -6.4007435 0.030082626 -0.38661093 -0.7741648
0000d0 1f 5f 18 bd 38 8d 1a bf 75 23 86 40 b4 a4 75 bc
       -0.03720009 -0.6037173 4.1918283 -0.014992882
0000e0 b1 c5 02 bd 9e 80 85 40 35 46 14 bf f7 b4 0a c1
       -0.031926814 4.1719503 -0.5791963 -8.669181
0000f0 dd 27 93 3c 08 52 aa c0 e3 5b 93 be 77 76 b5 be
       0.017963344 -5.3225136 -0.28781042 -0.35441944
000100 f2 30 f1 c0 36 37 f9 bc c2 c5 80 40 bc 38 84 40
       -7.537225 -0.030421834 4.0241404 4.1319256
000110 28 43 27 40 7e ef 23 40 34 9a a6 bd b1 91 80 40
       2.613474 2.5614924 -0.08134881 4.0177846
000120 da ae 80 3c f8 96 0f be f0 92 87 40 ad 92 03 c1
       0.015708376 -0.14022434 4.2366867 -8.2233095
000130 ac 73 82 40 23 0a 7c 40 8e 7d 4e c0 d4 df b5 3f
       4.07662 3.9381187 -3.2264132 1.4208932
000140 a0 0e 16 bf f8 1a 05 bd f5 64 7d 40 a7 fd 18 bf
       -0.58616066 -0.032496423 3.959287 -0.5976204
000150 a5 67 94 3d c8 d8 09 bd ec b7 c0 3c d9 c1 25 40
       0.07246331 -0.033654004 0.0235252 2.5899565
000160 80 6b 85 40 b2 7c 24 bd 81 63 e7 c0 af e0 96 c0
       4.1693726 -0.04015798 -7.2308965 -4.714927
000170 2f f5 88 38 9f 72 b6 3e 06 ba 61 bd c0 99 86 40
       6.530654e-05 0.35634324 -0.055109046 4.2062683
000180 b7 9e e0 c0 af fc 69 3c 0f 57 84 40 f7 7d c3 bd
       -7.0193744 0.014281436 4.1356273 -0.0954551
000190 eb 38 a6 bd 15 cf 09 c1 3b cb 3f c0 0d 68 f6 40
       -0.08116325 -8.613057 -2.9967792 7.7002015
0001a0 c3 57 ed bc 3f 7b c6 c0 96 1e 04 3d 9b b6 f2 c0
       -0.028972512 -6.2025447 0.03225573 -7.5847907
0001b0 65 45 06 40 33 a6 1f 3c 3e 9e 2a 40 57 65 82 40
       2.0979855 0.009744215 2.6659083 4.0748706
0001c0 96 8a 03 bf ba 06 6e bd 7b 6d 02 bf 0d 67 29 3d
       -0.5138334 -0.058111884 -0.50948304 0.041358043
0001d0 32 b4 07 c1 ba dc a8 c0 6e 70 74 3c e7 71 39 bf
       -8.481493 -5.276944 0.014919383 -0.72439426
0001e0 f2 25 b2 c0 b4 07 cd c0 b1 e1 05 c1 82 83 9c bd
       -5.567132 -6.4071903 -8.3676 -0.076422706
0001f0 cd cb 83 40 a7 8d c6 bd f7 b8 02 bf b4 56 2b 40
       4.118628 -0.09694987 -0.51063484 2.677167

net.4.weight f4 [20, 128]
000000 db 74 95 bf 31 72 73 bf ec 88 ee 40 74 6e 7d bf
       -1.1676286 -0.9509612 7.454214 -0.98996663
000010 d8 01 8d bc 80 ae 98 40 15 85 7a 3d 45 23 7f 40
       -0.017212793 4.7713013 0.061162073 3.9865277
000020 19 5f 92 40 78 f0 0c bd b5 0e 1d 40 ea a7 9d bf
       4.5741086 -0.034409016 2.4540226 -1.2316868
000030 37 53 f0 3c 9c 55 92 bf 23 92 8d 40 2a 2a 6b bc
       0.029336555 -1.1432376 4.424089 -0.014353314
000040 37 23 86 40 b0 88 55 bf a5 83 72 bf aa 08 6b bf
       4.1917987 -0.83411694 -0.94732124 -0.91810095
000050 3f c8 40 bd d8 e7 82 40 e2 5a 8a bd 53 7a e1 40
       -0.04706597 4.0908012 -0.06755616 7.046182
000060 90 3c eb 40 3e 4d e9 40 23 8e 1e 3c f2 46 89 40
       7.351143 7.290679 0.009677443 4.2899103
000070 05 7e 93 40 6e 1e 96 40 48 f1 8a 40 8f 66 fb 3b
       4.6091332 4.6912146 4.3419533 0.007672138
000080 7d 00 3d 3a ba b0 49 3d b4 61 86 40 72 d1 98 bf
       0.00072098506 0.049240805 4.1994267 -1.1938918
000090 a0 66 8d bd 4a 3e 96 40 a3 c5 8c 40 76 a5 24 40
       -0.0690434 4.6951036 4.3991256 2.572599
0000a0 54 47 93 40 3c 69 16 bc 23 eb 1b 3d 0c 61 42 bb
       4.602457 -0.009180363 0.03806604 -0.0029659895
0000b0 82 24 8f 40 d6 ae 88 40 b3 23 93 bd 71 48 9e 40
       4.4732065 4.2713423 -0.071845435 4.946343
0000c0 03 6e e5 40 98 b7 ad 3d 19 a1 70 bf 06 49 83 bf
       7.169679 0.08482283 -0.93995816 -1.025666
0000d0 b0 3e 55 bf c3 27 85 bf d9 e8 86 40 81 3b 97 3d
       -0.8329878 -1.0402759 4.215924 0.07384396
0000e0 f7 53 ac bc b4 76 90 40 ed ed 4e bf e3 36 ed 40
       -0.021036131 4.51449 -0.80831796 7.41295
0000f0 9c 29 65 3d a3 55 d5 40 be 65 69 bf e8 d9 4c bf
       0.055947885 6.6667037 -0.9117087 -0.8002
000100 7f 49 e7 40 83 be 03 bd 8a 03 89 40 0a 82 86 40
       7.2277217 -0.032164108 4.281682 4.203374
000110 a5 fd 96 40 1f 8f 97 40 2d 74 2f 3d 44 6c 7f 40
       4.7184625 4.736221 0.042835403 3.990983
000120 46 92 2f bd 9f fa 5e bf b4 41 89 40 84 94 eb 40
       -0.042864107 -0.8710117 4.2892704 7.3618793
000130 5b 87 8d 40 2f fc 6a 40 dc 61 bb 40 b2 1c 92 40
       4.422773 3.671642 5.8556957 4.566003
000140 85 fa 8c bf 2d ee 82 bb 7a b0 8c 40 29 0b 7e bf
       -1.1013952 -0.003995678 4.3965425 -0.9923578
000150 05 05 8c bb f9 6f a4 3d 9c 32 a9 3d f0 51 91 40
       -0.0042730593 0.080291696 0.08261606 4.541252
000160 7c cd 8c 40 85 38 1e 3d 47 38 e8 40 07 a3 d0 40
       4.4000835 0.03862812 7.25687 6.519901
000170 60 e0 ac 3d ad 39 90 40 5c 9a 5f 3d 07 fb 8b 40
       0.08441234 4.5070405 0.054590568 4.374393
000180 a0 93 e3 40 bf 5d 49 bd 36 6e 89 40 e2 24 97 bc
       7.1117706 -0.04916167 4.2947035 -0.018450204
000190 2c ea 8c 3d f2 e4 ea 40 71 2b b7 40 52 ac df 3f
       0.06880602 7.3404474 5.724053 1.7474463
0001a0 be 7a 4b bc b0 35 e2 40 d6 be 89 3c 0d 30 e8 40
       -0.012419401 7.0690536 0.01681463 7.2558656
0001b0 bf 0a 94 40 92 41 d9 3c be 54 95 40 ed 0c 84 40
       4.626312 0.026520524 4.6665945 4.126578
0001c0 c0 bd 82 bf b9 a5 97 bd 5a aa 88 bf b4 42 bf bc
       -1.0214157 -0.07404656 -1.0676987 -0.023347236
0001d0 a2 e1 ea 40 20 08 d7 40 27 96 1d 3d e1 6d 80 bf
       7.340043 6.719742 0.038473275 -1.0033532
0001e0 78 81 de 40 92 25 e0 40 59 35 ef 40 f9 6a 11 bd
       6.9533043 7.004586 7.475262 -0.035502408
0001f0 96 de 83 40 1c 00 a3 3d 3f 93 89 bf 5e 7d 97 40
       4.120921 0.07959005 -1.0748061 4.7340536
000200 55 a0 d9 be 34 ed 77 be b9 10 d7 40 e1 89 fd be
       -0.42505136 -0.2421158 6.7207913 -0.49519256
000210 4b f0 86 bd 51 3e 8b 40 97 6b b4 bc f4 c0 7d 40
       -0.06588801 4.351357 -0.02202396 3.964902
000220 22 12 88 40 f9 75 6d 3d d7 a8 49 3f 57 92 37 bf
       4.2522135 0.057973836 0.78773254 -0.7170767
000230 e7 35 bc bc d3 50 d9 be a1 d0 84 40 90 45 f3 3b
       -0.022974921 -0.42444476 4.1504674 0.007424064
000240 27 0d 81 40 62 79 76 be 28 c6 a1 be 6b 9e a7 be
       4.0328555 -0.24069741 -0.31596494 -0.3273805
000250 e0 a7 9b 3d d2 3f 80 40 bc 3f 1f 3d 47 4c d9 40
       0.07600379 4.0077906 0.03887914 6.790561
000260 6f a8 d5 40 09 3c d4 40 2e b5 a9 3d 20 a2 81 40
       6.6768107 6.6323285 0.082865104 4.0510406
000270 30 56 89 40 05 b3 8b 40 b5 c8 85 40 d1 8e aa 3d
       4.291771 4.365603 4.1807504 0.08328021
000280 27 cb 34 3d 14 83 0d bd 83 54 83 40 20 8e 0a bf
       0.044139054 -0.034548834 4.1040664 -0.54123116
000290 d6 a4 54 bd a6 c5 89 40 68 70 84 40 05 39 83 3f
       -0.051915012 4.305377 4.1387215 1.0251776
0002a0 23 d0 8a 40 a3 33 21 3c f4 63 25 3d 72 9d 0c bd
       4.3379073 0.009838971 0.040378526 -0.03432984
0002b0 2f 56 87 40 3b a8 83 40 0d 55 8a bd 4f 2d b3 40
       4.2292705 4.114286 -0.067545034 5.599281
0002c0 0b 2f db 40 02 ff e2 3b 96 d6 92 be db 3e b8 be
       6.8494925 0.006927372 -0.2867934 -0.35985455
0002d0 eb 67 b5 be 5d c8 fd be a9 c0 86 40 99 95 96 bd
       -0.35430846 -0.49566928 4.211018 -0.07352752
0002e0 35 95 f6 3c 37 a6 89 40 0a 1f 89 be 35 fd d6 40
       0.030100444 4.30154 -0.26781493 6.718409
0002f0 3e 56 2d 3d a3 1c d9 40 2d 61 8b be 94 43 81 be
       0.042318575 6.7847457 -0.27222577 -0.2524687
000300 1b e7 d7 40 0b 64 ae 3d 19 55 84 40 03 dd 81 40
       6.746961 0.085151754 4.135388 4.058229
000310 db e8 88 40 f8 b2 89 40 ea ed df bb 1c 71 74 40
       4.2784247 4.303097 -0.0068337815 3.8194036
000320 d7 b9 a6 bc 9e d0 77 be 71 cf 85 40 32 60 d4 40
       -0.020352287 -0.24200675 4.1815724 6.6367426
000330 53 03 86 40 f7 95 69 40 2b 61 cd 40 ba d6 8b 40
       4.187906 3.6497781 6.4181113 4.3699617
000340 a2 be 05 bf 20 47 6d bc 8b c9 86 40 13 ab ee be
       -0.5224401 -0.01448229 4.2121024 -0.46614894
000350 48 42 2f bd 4a c0 70 bd e7 f1 5a 3d 9b d0 86 40
       -0.04278782 -0.05877713 0.053453352 4.2129645
000360 dd 4f 87 40 03 21 3e bd 1a 67 da 40 8e 2a d8 40
       4.228499 -0.0464182 6.8250856 6.7551947
000370 b3 10 21 3d d9 97 94 40 e4 7d 2c 3d c8 4b 84 40
       0.039322566 4.643536 0.042112246 4.1342506
000380 89 a5 d8 40 7e e6 89 3d f2 94 82 40 5e 5e a8 bd
       6.770207 0.06733416 4.080682 -0.08221124
000390 05 b0 77 bd ce 4e d5 40 74 e9 ca 40 2d c5 93 3f
       -0.0604706 6.6658697 6.3409977 1.1544548
0003a0 95 ac 9e bd f7 e4 dc 40 e1 a3 87 3d d7 4a d7 40
       -0.07747761 6.90295 0.06623054 6.7278857
0003b0 1b 3c 88 40 ed 31 51 3d ce ad 89 40 ab 70 80 40
       4.257337 0.051073004 4.3024664 4.0137534
0003c0 59 3e 95 be a5 8b 50 3d 64 22 e1 be 6f d6 3d 3d
       -0.2914913 0.050914425 -0.4397155 0.046347078
0003d0 e4 f8 d4 40 a6 b6 da 40 b3 20 a5 3d b4 68 c1 be
       6.655382 6.834796 0.080628775 -0.37775195
0003e0 35 b0 d8 40 39 99 dc 40 f3 95 d3 40 8d 2e d8 bc
       6.7715096 6.893704 6.6120543 -0.026389385
0003f0 2d 3b 7f 40 f6 1c 99 bd 2d bb c4 be 4e 67 88 40
       3.9879868 -0.07476227 -0.38424054 4.2626104

net.4.bias f4 [20]
000000 35 65 12 40 6c eb 0a 40 81 07 00 40 b0 7b 06 40
       2.2874272 2.170619 2.000458 2.1012993
000010 c0 51 b5 3f 88 41 b1 3f 24 cb e1 3f 34 17 eb 3f
       1.4165573 1.3848124 1.7640119 1.8366456
000020 ae 8b fd 3d cd 15 0d 40 92 37 9d 3e bf dc ee 3e
       0.123801574 2.2044556 0.3070646 0.4665279
000030 1e cd 4b 3f ea 0e b1 3e 81 3a 6f 3f d5 b0 c6 be
       0.7960986 0.3458169 0.93448645 -0.38806787
000040 a5 34 ee 3e f6 5a ec 3b 71 9e 43 3f 7f ff 60 bd
       0.4652454 0.007212992 0.7641364 -0.05493116
