realtime_model_ep38.pth (torch, 97600 bytes, 6 tensors)

net.0.weight f4 [128, 35]
00000000: a4f2 00c0 b133 ec41 1216 b93e 2698 60bf
00000010: 3981 8f3e ca57 abbf f3fe e541 7951 073f
00000020: 0974 843f 6563 8d3f 88e9 e0bf 42aa e741
00000030: 4627 f53e e6fc cd3f c4ac 953e 0ea0 87bf
00000040: 1901 e841 d56c 8e3e c4e3 bd3f 695d 9bbf
00000050: 05cf fbbf 3743 e941 b01a ec3e f8a8 1a40
00000060: 4989 c03e e8fb e840 4a80 d940 eaeb 1041
00000070: d459 e740 9231 d440 6426 c240 8dcc d140
00000080: 9aad e540 c531 7c40 dd5c e140 6426 fdbf
00000090: 0f85 ec41 2660 033f 4333 37bf 10c7 9f3e
000000a0: 5acf 8cbf 405d e741 b908 873e 22a0 793f
000000b0: 77cf 913f d561 cabf c837 e841 72eb dc3e
000000c0: eea7 d13f 10a6 c53e d4a9 88bf 7ead e741
000000d0: 2d63 733e 631b be3f c372 82bf b466 f1bf
000000e0: a24f e841 2629 a23e a96f 1740 b2f6 573d
000000f0: 666f ec40 b8a0 d740 eb50 1141 c38d e540
00000100: 4c05 cb40 e3d1 bf40 0e1d d040 6176 e540
00000110: 75aa 7040 bbf8 e440 a2e0 f4bf 715b ed41
00000120: d97d 143f 7bb1 7bbf df85 243f a98f 89bf
00000130: 2082 e941 c68e 113f 98a4 763f be8b ba3f
00000140: 4b85 cdbf 62e9 e941 8f6d 4b3f ec5e ca3f
00000150: 1941 113f 0d78 87bf c9c7 ea41 0ac6 e83e
00000160: 28d4 0440 10d6 3ebf 61bf fabf 2c21 ec41
00000170: a80d 2e3f 00c6 1640 12cc fd3e 1c9f f640
00000180: c957 ea40 a390 1041 134b e940 e7d6 db40
00000190: ae74 c640 7a4d dd40 e1d4 ed40 a644 7b40
000001a0: 2ba1 e940 0999 e7bf c410 eb41 af6f 28c1
000001b0: 6089 16c0 3877 4ec1 4988 86bf f50a e841
000001c0: af93 28c1 79ed 583f 4a29 41c1 d411 b0bf
000001d0: 432c e641 fda6 29c1 d43c 573f da1b 4bc1
000001e0: 6a04 77bf ed53 e841 9a81 2cc1 a353 553f
000001f0: 7f63 53c1 88e6 ebbf aa06 e841 0bae 29c1
00000200: b871 0640 dc8b 49c1 a4ee 0b41 3d29 0141
00000210: dd70 4141 e136 2741 e9e8 0d41 e78d 1f41
00000220: 5e56 0941 9974 2341 9bbd dc40 0931 1341
00000230: ff8d 5f3e f39f 99c1 67e5 2a41 b9bf 2840
00000240: c011 f740 e372 de3d eac4 94c1 d94c 2d41
00000250: 0626 0c40 becd e240 8737 503d 52fe 94c1
00000260: 91d5 2741 6893 7b40 4776 0c41 031e 543f
00000270: b1ea 96c1 7200 2d41 6b46 d33f 0094 1c41
00000280: 9e34 0d3f 9631 96c1 5f56 2d41 6edd 21be
00000290: 7a8c fa40 7ab9 c440 ab62 bd40 1135 af40
000002a0: c191 c240 43fd 1d41 e1b7 b640 b73c c740
000002b0: ccea ee40 f3b4 f440 f78b 0041 39b5 03c0
000002c0: 72ec ea41 3c50 883c 0a01 56bf c135 74bc
000002d0: a0f4 a9bf e26c e541 bead c0bd 0b0a 693f
000002e0: 163e 4c3f 08c1 b6bf 0e3f e641 45ef ea3d
000002f0: 8240 e03f 8f86 a13e be05 8abf 7a19 e641
00000300: 4327 1bbe c970 9a3f 2e21 b1bf f039 dcbf
00000310: 6127 e741 e716 213d 7e2a 1c40 8b94 153e
00000320: 87ba e440 b62f cf40 1539 0c41 2760 db40
00000330: 205e ca40 729f ba40 1399 cb40 cb96 dd40
00000340: e1a5 6240 2115 dc40 ea60 bf3c ae76 953d
00000350: 5cac 09be 533b 38bb b412 e3bd 69f9 523d
00000360: 0903 a03c 4b51 863d ada6 05be 0b9e acbd
00000370: b2c9 12be e122 ca3d 3627 e4bd 42e8 14bc
00000380: e430 e9bd c7bd 033e 126f d63d e497 55bc
00000390: 68b8 a1bd acf6 e03d 376c 273e c22c 09be
000003a0: e2f8 a93c 0e59 d5bd 4c6a 3a3d 30a9 caba
000003b0: 2aa2 babd 8eeb f6bd d488 653d aba9 13be
000003c0: afb4 84bd 9d33 19be e0a2 04be 8b46 8b3d
000003d0: 842e d93d 4ad0 03c0 5003 eb41 5d96 be3d
000003e0: db50 71bf edd2 543e 1823 99bf 4e15 e641
000003f0: 8551 03be 407a 703f 9754 4d3f 4966 b2bf
-2.0148096 29.52524 0.3614965 -0.8773216 0.28028277 -1.3386166 28.749487 0.5285869
1.0347911 1.1045958 -1.7571268 28.958134 0.47881526 1.6092803 0.29233372 -1.059572
29.000536 0.27817407 1.4835134 -1.2137882 -1.9672552 29.15782 0.4611411 2.416563
0.3760474 7.2807503 6.7969103 9.057596 7.2297153 6.631051 6.0671864 6.5562196
7.1774416 3.9405377 7.042586 -1.9777341 29.56497 0.51318586 -0.71562594 0.3120656
-1.1000779 28.920532 0.26373842 0.9750997 1.1391438 -1.5811106 29.027237 0.4314838
1.6379373 0.38603258 -1.0676827 28.959713 0.23768301 1.4852108 -1.0191272 -1.8859468
29.038883 0.3167202 2.3661902 0.0527255 7.3885984 6.738369 9.082255 7.173555
6.3443966 5.994371 6.5035467 7.1707006 3.7604039 7.1553626 -1.9131052 29.66965
0.5800453 -0.9831769 0.6426677 -1.0746967 29.188538 0.5685848 0.963449 1.4573896
-1.6056303 29.238956 0.7946405 1.5810218 0.56739956 -1.0583512 29.347551 0.45463592
2.075449 -0.74545383 -1.9589654 29.516197 0.6798959 2.355835 0.49569756 7.7069225
7.323216 9.035312 7.2904143 6.869983 6.201743 6.9157076 7.432236 3.926065
7.300924 -1.8093578 29.383186 -10.5272665 -2.3521347 -12.904106 -1.0510341 29.00535
-10.536056 0.84737355 -12.07258 -1.3755441 28.771612 -10.603269 0.8407719 -12.6943
-0.9649111 29.04098 -10.781641 0.83330745 -13.211791 -1.8429728 29.003254 -10.604991
2.1006908 -12.596645 8.745762 8.072568 12.0900545 10.450898 8.869363 9.972144
8.583586 10.215966 6.898145 9.199471 0.21831511 -19.2031 10.681006 2.6367018
7.7209167 0.10861757 -18.59615 10.831262 2.1898208 7.087615 0.050834205 -18.62418
10.48964 3.930872 8.778876 0.82858294 -18.864595 10.812609 1.6505865 9.786133
0.5515841 -18.774212 10.833587 -0.15807125 7.829648 6.147641 5.9182944 5.475228
6.080292 9.874331 5.709946 6.2261615 7.4661617 7.6470885 8.034171 -2.057936
29.365452 0.016639821 -0.83595335 -0.014905394 -1.3277779 28.678165 -0.09408139 0.9103095
0.79782236 -1.4277658 28.780788 0.11471418 1.7519686 0.31547973 -1.0783002 28.76244
-0.15151696 1.2065669 -1.3838251 -1.7205181 28.894228 0.039328482 2.4400935 0.14607446
7.1477695 6.474574 8.763936 6.8554873 6.32399 5.8319635 6.362436 6.9246573
3.5413744 6.877579 0.023361642 0.07298027 -0.13444656 -0.0028111532 -0.11087552 0.051507387
0.019532697 0.06558474 -0.13051863 -0.08428582 -0.14334753 0.09869934 -0.111402914 -0.009088578
-0.11386278 0.12865363 0.10470404 -0.013036702 -0.07896501 0.10984549 0.16349874 -0.1339598
0.02074856 -0.104173765 0.04551153 -0.0015461799 -0.091129616 -0.12056647 0.056038693 -0.14420192
-0.06479775 -0.14961095 -0.12952757 0.068005644 0.10604575 -2.059588 29.376617 0.09306023
-0.94264 0.20783587 -1.1963835 28.760403 -0.12824066 0.9393654 0.802072 -1.3937465

net.0.bias f4 [128]
00000000: c677 5840 1281 5140 6ddf 6040 711c 98c0
00000010: bd18 1c41 7051 4040 5ffc 41be c6fa 3840
00000020: 8739 3540 da6b 5d40 9dbb 2f40 f56d 3d40
00000030: 3cc4 1841 42ae 1d41 d5eb 3d40 f1e7 3740
00000040: 5954 3740 51a9 1a41 12b2 3e40 dcd3 1b41
00000050: c334 6a3c dbde 5140 a1b9 19be 382a a43f
00000060: aa16 5340 dd7a aac0 9418 1d41 b4be 3240
00000070: 47f3 3740 4bb5 5e40 e62d 5640 47aa 3040
00000080: e37f 3340 fd10 1f41 be5f 1c41 0abf 5340
00000090: 11c6 3d40 3168 1a41 a6c6 3340 f634 3340
000000a0: 95ac 6540 498b 1a41 456e 3340 c41c 3340
000000b0: 2d5d aebd e0ec b4bc 86a3 c33f c66f 56bd
000000c0: 4a47 4740 4e69 0fbd 13aa 3540 28e6 15be
000000d0: 2967 1941 ecc1 2e40 f820 3640 ccf8 3140
000000e0: a6ea 2b40 8d0f 1c41 a50f 43be 679c 5840
000000f0: e64a 2b40 cfd2 1c41 4ad6 6640 1aa3 68bd
00000100: 0b51 6240 1d3b 6140 5004 3940 56c5 2c40
00000110: 6f1d 1a41 cd4f 1841 b416 3240 39a5 4640
00000120: 78fd 5a40 5ae0 3240 37e5 1c41 5f14 3a40
00000130: 0572 1841 4de8 3440 281e 3540 3c32 203d
00000140: 6389 3440 66df 3a40 d867 3340 76a3 31be
00000150: 44a4 1941 ab0e c63f 0edf 3d40 96d6 90c0
00000160: 736e 96c0 6f70 3840 a939 2e40 ca71 2e40
00000170: 864a 3540 5848 6840 1a33 6340 5604 5640
00000180: 0825 18bd 61f1 2e40 08f7 1b41 c516 3b40
00000190: 792f 1d41 1900 4540 c6c3 3540 f0e4 3c40
000001a0: 4afe 1f41 ef90 2f40 cc77 2840 5d48 2d40
000001b0: 781c 3440 2a17 4240 1b12 3740 bb24 1941
000001c0: 6ce9 3840 27f0 8fc0 edcb 1c41 4ca2 1941
000001d0: a571 1841 bf87 6640 ca7f 6340 1304 b03f
000001e0: a437 3640 94a9 6840 f396 1b41 1c84 1d41
000001f0: faf0 4640 0907 2241 6cdc 3f40 605d 5e40
3.3823104 3.2735028 3.5136368 -4.753472 9.75604 3.0049706 -0.18943928 2.890306
2.8316362 3.4597077 2.745826 2.9598362 9.547909 9.855043 2.967519 2.8735316
2.8645232 9.666337 2.9796185 9.7392235 0.014294806 3.279227 -0.15012218 1.2825384
3.2982583 -5.327498 9.8185005 2.7928896 2.8742235 3.4798152 3.3465514 2.760393
2.8046806 9.941648 9.773375 3.308535 2.965214 9.650437 2.8089995 2.8001075
3.5886586 9.659005 2.8036053 2.7986307 -0.085138656 -0.022085607 1.5284278 -0.05235269
3.1137261 -0.035012536 2.8385055 -0.14638579 9.587686 2.730586 2.8457623 2.7808104
2.6861968 9.753797 -0.19048937 3.384546 2.6764464 9.801467 3.6068292 -0.05679617
3.5361965 3.519233 2.8908882 2.6995444 9.632186 9.519483 2.7826357 3.1038344
3.4217205 2.7949433 9.805961 2.9074934 9.527837 2.8266785 2.8299656 0.039110407
2.8208854 2.9198852 2.8032131 -0.17347512 9.602604 1.5473226 2.9667392 -4.5261946
-4.7009826 2.8818624 2.7222693 2.7256951 2.8326735 3.6294155 3.549994 3.3440146
-0.03714469 2.7334826 9.74781 2.9232647 9.82409 3.078131 2.840074 2.9514732
9.999582 2.743221 2.6323118 2.7075417 2.8142376 3.0326638 2.86048 9.571467
2.889247 -4.4980655 9.799787 9.602123 9.527745 3.6020353 3.5546746 1.3751243
2.847146 3.6353502 9.724353 9.844753 3.108458 10.126718 2.9978285 3.4744492

net.2.weight f4 [128, 128]
00000000: d799 9d40 5556 9b40 53f2 9d40 def2 4dc1
00000010: 398d 1d40 0f80 2f40 1d31 be3b 8bb5 2f40
00000020: 46de 1540 400c 9e40 4905 0b40 6e8d 4640
00000030: a230 2d40 75d2 2540 1602 0840 ad1e 0e40
00000040: c7f3 2740 ac96 3040 f670 4440 62c5 1740
00000050: 6533 9abd 1b8f 9e40 3bad 673d 0cd7 0c41
00000060: 27d6 9d40 33c5 56c1 ea0f 1440 7fe6 1b40
00000070: b61b e13f 6898 9940 b054 9940 92b7 ea3f
00000080: c007 d53f d3cf 2240 5e6f 1840 0972 9f40
00000090: fc67 5240 d5fd 2340 b5a0 3a40 5635 ef3f
000000a0: 317d 9c40 989a 2240 4e2d f13f 71b8 3a40
000000b0: 0d22 b53c 2adc 483d 4bf3 1541 4920 c23c
000000c0: 414c 8d40 e506 3b3d df0f 2f40 e340 4f3d
000000d0: fdac 2440 cfbe 3040 3030 1240 8d2a d13f
000000e0: 867e 0d40 9ad1 1540 b890 383d 80af 9a40
000000f0: 2bf6 4540 247d 2240 2d99 9b40 c10f 423d
00000100: 76ce 9740 508f a140 1c9f 4b40 e2c0 733f
00000110: 9172 1a40 389d 2b40 86e6 7840 6854 8c40
00000120: 95e2 9d40 0eb6 a43f 69ef 1f40 f636 8740
00000130: 1a2c 2d40 94bd 2b40 68f9 3040 b96f b2bd
00000140: eb9a 2840 0ccc bc3f 84c5 2c40 af05 583d
00000150: 4a9f 2740 b484 1441 ee69 9140 f8ea 55c1
00000160: fb48 50c1 44da ad3f 9a38 ee3f 62e8 4440
00000170: e449 1d40 1311 9f40 72bb 9c40 8e51 9d40
00000180: be73 9fbd 115c 0540 6c21 1940 737f 5b40
00000190: 42aa 1e40 842d 8a40 ec7a b93f ecaa 1640
000001a0: b5c8 1240 242a 5d40 9369 9c3f 5a2e f13f
000001b0: 3b00 4140 af48 6340 5c9e 2f40 87ac 2240
000001c0: ee3f e13f 55a5 4ec1 4566 1940 0566 2940
000001d0: 1115 2340 9e82 9d40 60cf 9940 9130 1541
000001e0: 862d 1940 0b03 9b40 430b 2140 12df 2040
000001f0: aa72 9c40 6801 1d40 5d93 8d40 dfbe 9e40
00000200: adcf 9a40 b202 9b40 8813 9e40 4af9 50c1
00000210: 1d45 3840 a219 1b40 a7e9 d63c bd0c 2040
00000220: d5ad 1040 a2d0 a140 4df7 0040 69dc 4540
00000230: eac3 4340 d910 3a40 236b fb3f 2160 0940
00000240: 6d58 1f40 b9d0 4340 dda6 3340 5e2e 3940
00000250: e1a8 adbd cd42 a140 4169 66bb dfc5 0d41
00000260: 6fd8 9f40 1f75 58c1 07c4 2d40 de50 1640
00000270: b8d6 db3f 9284 9e40 d482 9e40 c22d f03f
00000280: a180 e43f 957b 4040 6627 3540 6dac 9e40
00000290: 45e9 4240 ad81 3840 4349 3540 b89e dd3f
000002a0: e8dd 9d40 cf6b 3740 8464 ef3f f0ec 3040
000002b0: 9977 1e3b 91e9 e73c 793b 1441 8dc8 213d
000002c0: d965 8b40 ba9a 11bd 8fda 2840 15bb 133c
000002d0: 277d 3b40 2285 2640 5ac6 0040 7cfa dd3f
000002e0: c24d 0940 93de 2c40 f892 95bd dfa9 a040
000002f0: db9b 3740 a7b4 3c40 a2a2 9b40 003b 28bd
00000300: 5e88 9b40 4532 a340 939b 3a40 2334 7c3f
00000310: 7cbd 2e40 bc1b 4440 3a97 8140 e7ae 8640
00000320: 4a07 a040 d8e7 813f 59e0 4040 4873 8440
00000330: 3c72 4140 ff60 1c40 7874 1d40 3306 c83c
00000340: 1cae 2340 d897 c63f d97a 2440 3fbc e73c
00000350: e717 3e40 2421 1241 12a8 9140 8a86 56c1
00000360: ad62 52c1 5585 ae3f 8572 f83f 3988 3340
00000370: 83c2 1640 2d3a a040 ea6e 9d40 bafb 9f40
00000380: e9c0 023d 0dcc 0540 b4f4 2e40 e3e6 4940
00000390: 921b 3840 dce1 8740 4edb af3f 13a1 1140
000003a0: 5073 2d40 0008 5140 2f13 933f 0063 de3f
000003b0: 473f 4340 9c19 6640 f25b 2340 db54 3d40
000003c0: fb8c ed3f 63fb 4fc1 c0cf 3340 ced1 4140
000003d0: eec0 3640 0344 a540 6378 9f40 88f3 1241
000003e0: 0f5b 0f40 5fa2 9f40 f3cd 3f40 77b7 4040
000003f0: b6e6 9a40 d54b 3240 56ae 9140 c285 a140
4.9250293 4.8542886 4.9358306 -12.871794 2.4617445 2.742191 0.0058041946 2.7454555
2.3416915 4.9389954 2.1721976 3.1023822 2.7060933 2.5909703 2.1251273 2.2206223
2.624254 2.7591963 3.0693946 2.3714223 -0.07529334 4.954969 0.05656169 8.802502
4.9323916 -13.423144 2.3134713 2.4359434 1.7586582 4.7998543 4.791588 1.8337271
1.664299 2.5439346 2.3817973 4.9826703 3.2875967 2.5623677 2.9160588 1.8688152
4.890282 2.5406857 1.8841951 2.9175074 0.022110963 0.04903809 9.371898 0.023697035
4.4155583 0.045660872 2.7353437 0.05059899 2.5730584 2.761646 2.2841911 1.634111
2.2108474 2.340918 0.04505989 4.8339233 3.09315 2.538888 4.862448 0.047378305
4.7439528 5.048744 3.1815863 0.9521619 2.4132426 2.6814709 3.88907 4.3853035
4.933909 1.2868059 2.4989874 4.225459 2.7058167 2.683446 2.7652225 -0.08712716
2.6344554 1.474977 2.6995554 0.052739795 2.6190972 9.282398 4.544181 -13.369865
-13.0178175 1.3582234 1.8611023 3.0766835 2.457635 4.9708343 4.8978815 4.9162054
-0.07785748 2.0837443 2.392665 3.429654 2.4791417 4.318056 1.4490638 2.3541822
2.2935002 3.455697 1.2219719 1.884227 3.015639 3.5513113 2.7440405 2.5417802
1.7597635 -12.915364 2.396867 2.6468518 2.5481608 4.9221945 4.8065643 9.324357
2.3934035 4.8441215 2.5163124 2.5136151 4.888997 2.4532108 4.4242387 4.9607997
4.837851 4.844079 4.939884 -13.060862 2.8792183 2.4234395 0.026234461 2.5007775
2.2606099 5.056718 2.015094 3.0915778 3.0588326 2.9072783 1.964207 2.1464922
2.489772 3.0596144 2.8070595 2.893455 -0.08479477 5.0394044 -0.003515795 8.860808
4.99517 -13.528594 2.7150896 2.3486857 1.7174902 4.953683 4.95347 1.8763964
1.7851754 3.0075428 2.8305297 4.958548 3.0454876 2.8829148 2.8325965 1.7314062
4.933338 2.865955 1.870255 2.7644615 0.0024180172 0.028309615 9.26452 0.0394979
4.3561826 -0.03554795 2.6383398 0.009016772 2.9295137 2.6018758 2.0121064 1.7342067
2.145371 2.7010849 -0.07303423 5.020736 2.8688877 2.9485261 4.8636026 -0.04107189
4.8603964 5.0998864 2.9157455 0.98517054 2.7303152 3.0641928 4.0497103 4.2088504
5.00089 1.0148878 3.013693 4.1390724 3.0225973 2.4434202 2.4602337 0.024417019
2.5575018 1.5515089 2.569998 0.028288005 2.970209 9.133091 4.5517664 -13.407846
-13.149091 1.363444 1.9409949 2.8051894 2.355622 5.0071015 4.9197893 4.9994783
0.031922255 2.0905793 2.7336855 3.1547172 2.8766828 4.2463207 1.3738801 2.2754562
2.710163 3.2661133 1.1490229 1.7373962 3.0507371 3.595313 2.552487 2.9583042
1.8558649 -12.998874 2.809555 3.0284305 2.8555255 5.164552 4.9834456 9.184456
2.2399328 4.9885707 2.9969451 3.0111978 4.840663 2.7858784 4.5525312 5.047578

net.2.bias f4 [128]
00000000: ac67 44bf 9dd0 9bbe 8dce 09c1 6511 f5be
00000010: f709 3b3d fd4e 2e40 869f 97bc 203e 8740
00000020: 88ec 8640 0d81 b2bd 4660 0341 6052 a4bf
00000030: 997d b1bd fc81 32bf a8bb 8640 eaf5 a23c
00000040: f903 8740 6529 20bf cab5 17bf 34a5 ecbe
00000050: 2312 d4bc 666c 8a40 c58d e83c 6420 cdc0
00000060: 5c67 fcc0 5dd5 07c1 6a54 aabd b032 8340
00000070: 4d15 8640 c837 c23f 5270 8940 620e a7bd
00000080: b443 08bd 5866 25bd 0dda 8640 ab0f 76bf
00000090: 56a2 803d d7b5 3240 3d03 8540 c10d 0741
000000a0: 35a6 2340 6d47 a1bb 7ce4 63bd 5f04 acbc
000000b0: 8363 8c40 8921 8a40 053a 8b3d bb07 bbbf
000000c0: e9b5 cbc0 d76f f63c bbdd cfbe 1569 4cbf
000000d0: 2ea7 6abd 32e7 20bf 3721 8940 b4a4 75bc
000000e0: b1c5 02bd b68b 8840 8707 19bf d81e 0ac1
000000f0: dd27 933c e646 a9c0 9936 9cbe 52b1 bebe
00000100: 7307 f0c0 3637 f9bc c3c2 8340 4d39 8740
00000110: 8560 2d40 6618 2a40 349a a6bd b57f 8340
00000120: daae 803c f25f 23be 379e 8a40 a6fc 02c1
00000130: 1680 8540 01f8 8040 f8c3 49c0 a09e c23f
00000140: 72e5 1cbf f81a 05bd 42c7 8140 ec7c 1fbf
00000150: a567 943d c8d8 09bd ecb7 c03c 2ed4 2b40
00000160: 5b6e 8840 b27c 24bd bf37 e6c0 16d7 95c0
00000170: 2ff5 8838 6485 e83e 06ba 61bd cba5 8940
00000180: f87a dfc0 affc 693c a753 8740 f77d c3bd
00000190: eb38 a6bd 0838 09c1 eef4 3ac0 08f5 f040
000001a0: c357 edbc 8b65 c5c0 961e 043d 5c87 f1c0
000001b0: 1e63 0c40 33a6 1f3c 9abf 3040 ce68 8540
000001c0: cb32 09bf ba06 6ebd e7bf 08bf 0d67 293d
000001d0: c61b 07c1 5ccf a7c0 6e70 743c 3176 3fbf
000001e0: 0516 b1c0 29ec cbc0 8048 05c1 8283 9cbd
000001f0: b2bb 8640 a78d c6bd 4dc0 08bf 9666 3140
-0.7672069 -0.30432597 -8.612927 -0.47864833 0.0456638 2.723571 -0.018508684 4.2263336
4.2163734 -0.08716021 8.211004 -1.2837639 -0.08666534 -0.6972959 4.2104073 0.019892652
4.219235 -0.62563163 -0.59261763 -0.4621979 -0.025887555 4.325732 0.028387913 -6.410204
-7.887617 -8.489591 -0.08316882 4.0999374 4.1901 1.5173273 4.294961 -0.0815704
-0.03326769 -0.040380806 4.2141175 -0.9611766 0.06280963 2.7923486 4.1566453 8.440858
2.5570195 -0.0049218447 -0.05563782 -0.020998178 4.3871474 4.3165936 0.06798176 -1.4611734
-6.365956 0.030082626 -0.40598854 -0.7984784 -0.05728834 -0.62852776 4.2853045 -0.014992882
-0.031926814 4.2670546 -0.5977711 -8.63253 0.017963344 -5.2899046 -0.30510405 -0.3724466
-7.5009093 -0.030421834 4.1175246 4.2257447 2.709016 2.6577392 -0.08134881 4.109339
0.015708376 -0.15954569 4.3318133 -8.186682 4.1718855 4.030274 -3.152586 1.5204659
-0.61287606 -0.032496423 4.0555735 -0.6229999 0.07246331 -0.033654004 0.0235252 2.6848254
4.263471 -0.04015798 -7.194305 -4.6825056 6.530654e-05 0.4541427 -0.055109046 4.3014884
-6.983761 0.014281436 4.2289615 -0.0954551 -0.08116325 -8.5761795 -2.9211993 7.529911
-0.028972512 -6.1686454 0.03225573 -7.5477734 2.1935496 0.009744215 2.7616944 4.1690435
-0.5359313 -0.058111884 -0.5341782 0.041358043 -8.444281 -5.2440624 0.014919383 -0.7478972
-5.533938 -6.372578 -8.3302 -0.076422706 4.210412 -0.09694987 -0.5341843 2.7718863

net.4.weight f4 [20, 128]
00000000: 292b 8bbf c9dd 5dbf 4799 eb40 1b48 68bf
00000010: d801 8dbc 4e5a 9840 1585 7a3d 058d 7f40
00000020: 9c93 9240 78f0 0cbd 41cf 2440 60a4 93bf
00000030: 3753 f03c b801 88bf fbc9 8d40 2a2a 6bbc
00000040: e05b 8640 de05 40bf bf45 5dbf f5f6 55bf
00000050: 3fc8 40bd 401e 8340 e25a 8abd 6db9 de40
00000060: b465 e840 0361 e640 238e 1e3c 5d7e 8940
00000070: 2fb1 9340 226d 9540 c126 8b40 8f66 fb3b
00000080: 7d00 3d3a bab0 493d 2e9a 8640 c1c3 8ebf
00000090: a066 8dbd 0bea 9540 42fb 8c40 e87c 2c40
000000a0: 78e8 9240 3c69 16bc 23eb 1b3d 0c61 42bb
000000b0: 1759 8f40 29e8 8840 b323 93bd 08b6 9c40
000000c0: 34ae e240 98b7 ad3d b528 5bbf 33d8 71bf
000000d0: de77 3fbf dd61 75bf 5620 8740 813b 973d
000000e0: f753 acbc 06ac 9040 f16c 39bf 884b ea40
000000f0: 9c29 653d 95a5 d240 c2aa 53bf 4735 37bf
00000100: d583 e440 83be 03bd 6639 8940 57bb 8640
00000110: 47a2 9640 883a 9740 2d74 2f3d 98db 7f40
00000120: 4692 2fbd 9743 49bf 9677 8940 9da4 e840
00000130: 6bbc 8d40 ec7f 6b40 9c4b b940 d064 9140
00000140: 9ca8 82bf 2dee 82bb f9e6 8c40 4760 69bf
00000150: 0505 8cbb f96f a43d 9c32 a93d acff 9040
00000160: 0703 8d40 8538 1e3d 4472 e540 730e ce40
00000170: 60e0 ac3d f14b 8f40 5c9a 5f3d 4730 8c40
00000180: dbd0 e040 bf5d 49bd 01a7 8940 e224 97bc
00000190: 2cea 8c3d 8ff9 e740 a31f b540 a9cd ee3f
000001a0: be7a 4bbc 0177 df40 d6be 893c 7c64 e540
000001b0: 2a84 9340 9241 d93c 3200 9540 9a45 8440
000001c0: c04d 70bf b9a5 97bd 5b76 7cbf b442 bfbc
000001d0: 5bf8 e740 fa50 d440 2796 1d3d 93ec 6bbf
000001e0: 0ec5 db40 0267 dd40 394a ec40 f96a 11bd
000001f0: 1b17 8440 1c00 a33d 5e25 7ebf 6529 9740
00000200: 534f 8ebe 5eed b2bd a395 d240 4bf2 afbe
00000210: 4bf0 86bd ece5 8940 976b b4bc 686b 7d40
00000220: d5e6 8740 f975 6d3d c3f6 8d3f 60ff 12bf
00000230: e735 bcbc 4aaf 8dbe 87ac 8440 9045 f33b
00000240: 76ea 8040 0a46 b1bd fcb0 27be abb4 34be
00000250: e0a7 9b3d c417 8040 bc3f 1f3d 31da d440
00000260: 0e32 d140 8dc1 cf40 2eb5 a93d c87c 8140
00000270: 5428 8940 0594 8940 689f 8540 d18e aa3d
00000280: 27cb 343d 1483 0dbd 7731 8340 e0a4 cbbe
00000290: d6a4 54bd fd6c 8840 8847 8440 ff59 ac3f
000002a0: a960 8940 a333 213c f463 253d 729d 0cbd
000002b0: 2b2b 8740 6f86 8340 0d55 8abd a477 af40
000002c0: 36bd d640 02ff e23b 4408 08be 50aa 58be
000002d0: afb8 4abe 1c10 b1be 689b 8640 9995 96bd
000002e0: 3595 f63c 207d 8940 f6c8 e8bd ce82 d240
000002f0: 3e56 2d3d aead d440 034a eebd 4c0c c7bd
00000300: 2f74 d340 0b64 ae3d af2b 8440 06bc 8140
00000310: e380 8740 a459 8840 eaed dfbb 0628 7440
00000320: d7b9 a6bc 3375 b0bd c1a6 8540 14e5 cf40
00000330: f9d8 8540 657b 6940 e720 c940 32aa 8940
00000340: a3e5 bfbe 2047 6dbc 3fa2 8640 c9f8 a2be
00000350: 4842 2fbd 4ac0 70bd e7f1 5a3d 307c 8540
00000360: 1527 8740 0321 3ebd 26f4 d540 81c1 d340
00000370: b310 213d e1fe 9140 e47d 2c3d e121 8440
00000380: 2c33 d440 7ee6 893d 9b72 8240 5e5e a8bd
00000390: 05b0 77bd 62d4 d040 62b0 c640 1ddf bc3f
000003a0: 95ac 9ebd 4e73 d840 e1a3 873d e6d6 d240
000003b0: 5f77 8640 ed31 513d e354 8840 0b4e 8040
000003c0: c126 0fbe a58b 503d 619f 94be 6fd6 3d3d
000003d0: 197f d040 3d46 d640 b320 a53d 3c62 69be
000003e0: e23e d440 9827 d840 ae1b cf40 8d2e d8bc
000003f0: aff4 7e40 f61c 99bd 2471 6fbe 610f 8740
-1.0872546 -0.8666654 7.3624606 -0.90735024 -0.017212793 4.7610235 0.061162073 3.9929821
4.5805187 -0.034409016 2.5751498 -1.1534538 0.029336555 -1.0625525 4.430906 -0.014353314
4.198715 -0.7500895 -0.8643455 -0.8357995 -0.04706597 4.0974426 -0.06755616 6.960135
7.262415 7.1993423 0.009677443 4.296675 4.615379 4.669572 4.3484807 0.007672138
0.00072098506 0.049240805 4.206321 -1.1153489 -0.0690434 4.6848197 4.405671 2.6951237
4.5908775 -0.009180363 0.03806604 -0.0029659895 4.479625 4.27834 -0.071845435 4.8972206
7.083765 0.08482283 -0.8560899 -0.9447052 -0.7479228 -0.9585245 4.2226973 0.07384396
-0.021036131 4.520999 -0.72431856 7.32172 0.055947885 6.5827127 -0.8268243 -0.7156567
7.141093 -0.032164108 4.2882566 4.2103686 4.7073092 4.725895 0.042835403 3.997778
-0.042864107 -0.7861876 4.295848 7.2700944 4.4292502 3.6796827 5.7904797 4.543556
-1.0207705 -0.003995678 4.403195 -0.9116253 -0.0042730593 0.080291696 0.08261606 4.53121
4.4066195 0.03862812 7.1701984 6.439264 0.08441234 4.47802 0.054590568 4.380893
7.025495 -0.04916167 4.301636 -0.018450204 0.06880602 7.2492137 5.660112 1.8656512
-0.012419401 6.983277 0.01681463 7.168516 4.6098833 0.026520524 4.656274 4.1334963
-0.9386864 -0.07404656 -0.98618096 -0.023347236 7.249067 6.634885 0.038473275 -0.9215786
6.8678045 6.918824 7.3840604 -0.035502408 4.1278205 0.07959005 -0.9927577 4.723803
-0.27794895 -0.087366804 6.580766 -0.34364542 -0.06588801 4.3093166 -0.02202396 3.9596806
4.2469277 0.057973836 1.1090931 -0.5742092 -0.022974921 -0.27672797 4.1460605 0.007424064
4.0286207 -0.08655937 -0.16376108 -0.17647044 0.07600379 4.002901 0.03887914 6.6516347
6.53736 6.492377 0.082865104 4.046482 4.286173 4.299319 4.175709 0.08328021
0.044139054 -0.034548834 4.099788 -0.39774227 -0.051915012 4.263304 4.133732 1.3464965
4.2930493 0.009838971 0.040378526 -0.03432984 4.2240195 4.1101604 -0.067545034 5.4833546
6.710597 0.006927372 -0.13284403 -0.21158719 -0.19797014 -0.34582603 4.2064705 -0.07352752
0.030100444 4.296524 -0.11366455 6.5784674 0.042318575 6.646201 -0.1163521 -0.09719142
6.6079326 0.085151754 4.1303325 4.054202 4.2344832 4.2609425 -0.0068337815 3.8149428
-0.020352287 -0.08616104 4.1766057 6.4967136 4.182736 3.6481564 6.2852664 4.302026
-0.37479886 -0.01448229 4.2073054 -0.31830433 -0.04278782 -0.05877713 0.053453352 4.1714096
4.2235208 -0.0464182 6.6860533 6.617371 0.039322566 4.562363 0.042112246 4.1291356
6.6312466 0.06733416 4.07649 -0.08221124 -0.0604706 6.5259256 6.209031 1.4755589
-0.07747761 6.7640753 0.06623054 6.5887327 4.2020717 0.051073004 4.260362 4.0095267
-0.13979627 0.050914425 -0.29027846 0.046347078 6.515515 6.696074 0.080628775 -0.2279138
6.632676 6.754833 6.472129 -0.026389385 3.9836843 -0.07476227 -0.23383003 4.2206273

net.4.bias f4 [20]
00000000: 09df 1840 0a24 1840 f809 0a40 79a6 0d40
00000010: 7f5b b93f 8f8f b43f e5a3 f23f 0da1 f83f
00000020: 060f 473e 8de7 1640 f35d 793e 9a6f cf3e
00000030: 9bd9 533f e9fa 9d3e 7c46 643f a013 d3be
00000040: f660 ee3e 3d59 93ba 94c0 453f ab69 bfbd
2.388613 2.3771996 2.1568584 2.2132857 1.4481047 1.4106311 1.8956267 1.9424149
0.19439325 2.3578827 0.24352245 0.40514833 0.82753915 0.30855492 0.8917005 -0.4122591
0.4655835 -0.0011241805 0.77246976 -0.093463264
