realtime_model_ep149.pth (torch, 97610 bytes, 6 tensors)

net.0.weight f4 [128, 35]
-2.2148983 30.161154 -0.10607597 -0.7979949 0.046886932 -1.4349706 28.95373 -0.06574355
0.916453 0.677955 -1.866688 29.214119 -0.09773345 1.8474994 0.03337548 -1.159152
29.239065 -0.30513704 1.1621952 -0.92847395 -2.0564313 29.356161 -0.13504793 2.3816886
-0.15997878 7.0812745 6.6446004 8.901913 7.0631886 6.4726524 5.9144425 6.3680725
7.0088935 3.7984152 6.8897157 -2.1777048 30.199825 0.046181392 -0.6360379 0.07917573
-1.1963593 29.12343 -0.33036473 0.8567885 0.713537 -1.6905874 29.281916 -0.14479148
1.8762589 0.12773116 -1.1671667 29.196873 -0.34536755 1.164076 -0.7330712 -1.975037
29.235878 -0.27923378 2.331365 -0.4822185 7.189274 6.5861588 8.926668 7.0072007
6.1861415 5.8417935 6.3156176 7.002278 3.6183505 7.0026393 -2.113458 30.307907
0.11228864 -0.90486336 0.4075248 -1.1712253 29.395908 -0.024930978 0.84619766 1.0269752
-1.7153811 29.497974 0.21867758 1.8189147 0.30688292 -1.1580902 29.589169 -0.1279936
1.7529818 -0.46137315 -2.0482495 29.717758 0.08442376 2.3236046 -0.04359023 7.506685
7.1704082 8.878942 7.1231246 6.7111278 6.0482626 6.726959 7.263162 3.7837148
7.147566 -2.0030122 29.966795 -10.41327 -2.1614861 -12.979817 -1.1434524 29.143452
-10.679806 0.8056824 -12.159137 -1.4809077 28.963663 -10.708311 1.1202843 -12.733889
-1.0603889 29.212559 -10.894612 0.7251785 -12.7366295 -1.9290181 29.137009 -10.744821
2.083537 -12.738447 8.612896 7.9767075 11.995453 10.361648 8.768236 9.889854
8.464562 10.111058 6.8061304 9.105932 0.41449836 -19.716938 10.780439 2.4776318
7.852185 0.2029731 -18.665754 11.158344 2.27681 7.288848 0.15849896 -18.753868
10.784206 3.6561737 8.896634 0.92702484 -18.976717 11.115679 1.8297867 9.3838625
0.63998663 -18.845789 11.160168 -0.13423061 8.095703 6.30876 6.041677 5.5985456
6.2037024 10.00687 5.8254447 6.374931 7.601885 7.765775 8.157711 -2.2564037
29.98812 -0.43560526 -0.7518895 -0.23946948 -1.4230736 28.864967 -0.67911434 0.7938135
0.38841596 -1.5361803 29.019886 -0.4518032 1.9923987 0.068598345 -1.1767602 28.983435
-0.72496396 0.88980615 -1.0851303 -1.8087902 29.075603 -0.54754573 2.408605 -0.37092304
6.951136 6.324585 8.6108 6.6924925 6.168244 5.682578 6.1776934 6.759167
3.4012945 6.7273917 0.023361642 0.07298027 -0.13444656 -0.0028111532 -0.11087552 0.051507387
0.019532697 0.06558474 -0.13051863 -0.08428582 -0.14334753 0.09869934 -0.111402914 -0.009088578
-0.11386278 0.12865363 0.10470404 -0.013036702 -0.07896501 0.10984549 0.16349874 -0.1339598
0.02074856 -0.104173765 0.04551153 -0.0015461799 -0.091129616 -0.12056647 0.056038693 -0.14420192
-0.06479775 -0.14961095 -0.12952757 0.068005644 0.10604575 -2.2580752 29.999453 -0.35935715
-0.8586257 -0.016809827 -1.2916974 28.947443 -0.7133833 0.82281345 0.39251885 -1.5021783
00000000: e5c0 0dc0 0b4a f141 5c3e d9bd 6549 4cbf
00000010: 830c 403d 1ead b7bf 3da1 e741 8ea4 86bd
00000020: aa9c 6a3f 758e 2d3f a2ef eebf 84b6 e941
00000030: 7a28 c8bd dc7a ec3f bab4 083d 185f 94bf
00000040: 9be9 e941 ec3a 9cbe d0c2 943f 78b0 6dbf
00000050: 929c 03c0 6bd9 ea41 014a 0abe 966d 1840
00000060: 7ad1 23be cd99 e240 91a0 d440 3c6e 0e41
00000070: a405 e240 f81f cf40 1d43 bd40 40c7 cb40
00000080: db48 e040 3c19 7340 8d78 dc40 845f 0bc0
00000090: 3e99 f141 b328 3d3d 61d3 22bf e326 a23d
000000a0: 4d22 99bf c9fc e841 9125 a9be 7e56 5b3f
000000b0: 5caa 363f 2b65 d8bf 5d41 ea41 3844 14be
000000c0: 4029 f03f f5cb 023e b865 95bf 3293 e941
000000d0: 04d4 b0be 7100 953f 8eaa 3bbf 03ce fcbf
000000e0: 14e3 e941 bbf7 8ebe 1635 1540 58e5 f6be
000000f0: 880e e640 d0c1 d240 a2d3 0e41 fd3a e040
00000100: dff4 c540 f9ef ba40 8a19 ca40 a912 e040
00000110: 0e93 6740 9f15 e040 e542 07c0 9876 f241
00000120: 96f7 e53d 20a5 67bf 17a7 d03e b6ea 95bf
00000130: d22a eb41 0d3c ccbc 69a0 583f ec73 833f
00000140: 9c91 dbbf dafb eb41 04ed 5f3e 32d2 e83f
00000150: c21f 9d3e 4d3c 94bf 9eb6 ec41 c110 03be
00000160: b561 e03f 1a39 ecbe 8516 03c0 f8bd ed41
00000170: 5de6 ac3d f0b5 1440 ab8b 32bd c336 f040
00000180: fc73 e540 2510 0e41 a3f0 e340 8fc1 d640
00000190: 5e8b c140 4043 d740 d36b e840 6228 7240
000001a0: dcb8 e440 5a31 00c0 ffbb ef41 c19c 26c1
000001b0: ca55 0ac0 55ad 4fc1 a65c 92bf ca25 e941
000001c0: 7ce0 2ac1 3441 4e3f d38b 42c1 628e bdbf
000001d0: 95b5 e741 3e55 2bc1 7a65 8f3f 02be 4bc1
000001e0: d3ba 87bf 52b3 e941 5550 2ec1 4ca5 393f
000001f0: 3cc9 4bc1 11ea f6bf 9818 e941 c9ea 2bc1
00000200: ac58 0540 aed0 4bc1 6cce 0941 3041 ff40
00000210: 60ed 3f41 4fc9 2541 b24a 0c41 d83c 1e41
00000220: d96e 0741 e5c6 2141 d2cb d940 e6b1 1141
00000230: 2139 d43e 4abc 9dc1 ae7c 2c41 8591 1e40
00000240: 1945 fb40 2ed8 4f3e 7753 95c1 9488 3241
00000250: 41b7 1140 3e3e e940 8d4d 223e ec07 96c1
00000260: 1c8c 2c41 c0fe 6940 9d58 0e41 8051 6d3f
00000270: 51d0 97c1 d2d9 3141 7336 ea3f 4d24 1641
00000280: 2ad6 233f 2dc4 96c1 0c90 3241 c073 09be
00000290: 0088 0141 5de1 c940 6b55 c140 4927 b340
000002a0: bb84 c640 241c 2041 0b6a ba40 6fff cb40
000002b0: a442 f340 3b81 f840 fc85 0241 eb68 10c0
000002c0: abe7 ef41 a707 dfbe d57b 40bf 7d37 75be
000002d0: 4727 b6bf 74eb e641 70da 2dbf 5d37 4b3f
000002e0: 75de c63e 8ea1 c4bf ba28 e841 c052 e7be
000002f0: ec06 ff3f 4a7d 8c3d 14a0 96bf 13de e741
00000300: 3d97 39bf 56ca 633f 8de5 8abf 7086 e7bf
00000310: d69a e841 f52b 0cbf 9626 1a40 a0e9 bdbe
00000320: b56f de40 0063 ca40 d6c5 0941 e628 d640
00000330: 4162 c540 aed7 b540 aaaf c540 194b d840
00000340: cfae 5940 cb46 d740 ea60 bf3c ae76 953d
00000350: 5cac 09be 533b 38bb b412 e3bd 69f9 523d
00000360: 0903 a03c 4b51 863d ada6 05be 0b9e acbd
00000370: b2c9 12be e122 ca3d 3627 e4bd 42e8 14bc
00000380: e430 e9bd c7bd 033e 126f d63d e497 55bc
00000390: 68b8 a1bd acf6 e03d 376c 273e c22c 09be
000003a0: e2f8 a93c 0e59 d5bd 4c6a 3a3d 30a9 caba
000003b0: 2aa2 babd 8eeb f6bd d488 653d aba9 13be
000003c0: afb4 84bd 9d33 19be e0a2 04be 8b46 8b3d
000003d0: 842e d93d 4e84 10c0 e1fe ef41 a9fd b7be
000003e0: e5ce 5bbf c3b4 89bc 5756 a5bf 5d94 e741
000003f0: 4aa0 36bf e7a3 523f 3bf8 c83e 6147 c0bf

net.0.bias f4 [128]
3.1968026 3.0882955 3.3272681 -4.839477 9.880982 2.8249729 -0.18943928 2.710264
2.6520178 3.2735624 2.5671134 2.7787962 9.6732235 9.979843 2.7888756 2.694359
2.6845238 9.791935 2.798783 9.863943 0.014294806 3.0933905 -0.15012218 1.4239132
3.1124902 -5.4168878 9.9429655 2.6132953 2.6960459 3.293669 3.1594126 2.5819938
2.6265056 10.066326 9.897324 3.1221564 2.7838283 9.775327 2.6283596 2.621932
3.4020295 9.784091 2.6250815 2.6183367 -0.085138656 -0.022085607 1.6837374 -0.056338504
2.9296882 -0.035012536 2.658422 -0.15263757 9.712504 2.550503 2.6667743 2.602726
2.5072947 9.878021 -0.19048937 3.1975687 2.4955633 9.926581 3.4200656 -0.05679617
3.3494825 3.3324168 2.7098575 2.5228882 9.757499 9.644927 2.600386 2.9200172
3.2355893 2.6186152 9.930956 2.723915 9.653336 2.6468809 2.6498687 0.039110407
2.640963 2.7421067 2.6230278 -0.17495577 9.727903 1.7029598 2.782326 -4.612108
-4.787363 2.7043402 2.543633 2.5450187 2.6528115 3.442486 3.363815 3.157318
-0.03714469 2.55436 9.872545 2.74165 9.949048 2.8941252 2.6625435 2.7721636
10.124059 2.5614665 2.4552386 2.529884 2.6330738 2.8505216 2.6803257 9.696728
2.7111292 -4.583756 9.924287 9.727789 9.652436 3.4143722 3.3680232 1.5305247
2.6676643 3.4485667 9.849259 9.969798 2.9228172 10.250702 2.8134737 3.288436
00000000: 6a98 4c40 a2a6 4540 f6f1 5440 ffdc 9ac0
00000010: 8118 1e41 5bcc 3440 5ffc 41be f774 2d40
00000020: a9ba 2940 0c82 5140 964b 2440 ccd7 3140
00000030: 86c5 1a41 70ad 1f41 f07c 3240 6170 2c40
00000040: 3dcf 2b40 c4ab 1c41 431f 3340 b6d2 1d41
00000050: c334 6a3c 1cfa 4540 a1b9 19be ca42 b63f
00000060: 0a33 4740 2557 adc0 6316 1f41 3b40 2740
00000070: 048c 2c40 79cb 5240 d133 4a40 633f 2540
00000080: ab18 2840 ac0f 2141 705b 1e41 69d1 4740
00000090: 3e2a 3240 bd67 1c41 0b37 2840 bccd 2740
000000a0: daba 5940 a38b 1c41 5601 2840 d492 2740
000000b0: 2d5d aebd e0ec b4bc b584 d73f 34c3 66bd
000000c0: 0380 3b40 4e69 0fbd 9623 2a40 064d 1cbe
000000d0: 6b66 1b41 713b 2340 6eac 2a40 1093 2640
000000e0: 8477 2040 600c 1e41 a50f 43be f7a4 4c40
000000f0: 4fb7 1f40 47d3 1e41 5be2 5a40 1aa3 68bd
00000100: ec5d 5640 5146 5540 4e6e 2d40 0077 2140
00000110: b71e 1c41 9f51 1a41 b96c 2640 90e1 3a40
00000120: e513 4f40 6497 2740 32e5 1e41 a054 2e40
00000130: 1074 1a41 7f66 2940 7397 2940 3c32 203d
00000140: 8a05 2940 ad7e 2f40 b0df 2740 9b27 33be
00000150: 7ea5 1b41 96fa d93f a111 3240 6496 93c0
00000160: 1432 99c0 e913 2d40 e2ca 2240 96e1 2240
00000170: aac7 2940 b151 5c40 bf48 5740 8011 4a40
00000180: 0825 18bd a27a 2340 f2f5 1d41 3277 2f40
00000190: 4d2f 1f41 5939 3940 1d67 2a40 216b 3140
000001a0: 25fc 2141 11ef 2340 a122 1d40 9fe9 2140
000001b0: 4884 2840 f26e 3640 758a 2b40 cc25 1b41
000001c0: 2483 2d40 21ae 92c0 e1c9 1e41 06a5 1b41
000001d0: 6170 1a41 1385 5a40 b18d 5740 3ce8 c33f
000001e0: 03bb 2a40 51b5 5c40 9196 1d41 4b84 1f41
000001f0: 700f 3b40 e002 2441 f40f 3440 bc75 5240

net.2.weight f4 [128, 128]
5.0309424 4.9597397 5.040135 -12.722551 2.5111248 2.8498507 0.0058041946 2.8522205
2.4483502 5.0439935 2.2796056 3.210417 2.7551522 2.6402245 2.2324386 2.3278103
2.7318175 2.810439 3.176476 2.4209828 -0.07529334 5.0602956 0.05656169 8.897556
5.037973 -13.269681 2.3607738 2.5440407 1.8664159 4.904083 4.8952913 1.940958
1.7719251 2.593118 2.430751 5.087005 3.3948073 2.6116521 3.0235312 1.9771243
4.994645 2.5906014 1.9915466 3.0257576 0.022110963 0.04903809 9.4728565 0.023509014
4.5222244 0.045660872 2.843021 0.05067306 2.6229668 2.8692868 2.3921366 1.7416574
2.318511 2.3894606 0.04505989 4.93768 3.2012367 2.5886014 4.9665775 0.047378305
4.8476877 5.153306 3.289847 1.0596912 2.4640553 2.732723 3.996522 4.49176
5.038892 1.3951678 2.5494113 4.331909 2.7565243 2.7911124 2.8727589 -0.08712716
2.7420382 1.5822666 2.8072574 0.05188609 2.670201 9.382943 4.6499577 -13.22023
-12.868885 1.4656061 1.9682631 3.1840384 2.5652473 5.075264 5.001906 5.0200505
-0.07785748 2.1914442 2.4404504 3.537226 2.5273998 4.4244127 1.5564473 2.4614153
2.3411806 3.5636115 1.3298407 1.9918191 3.1226034 3.6589236 2.8510602 2.5926778
1.8670436 -12.766509 2.4446652 2.6982117 2.5977886 5.0255494 4.910527 9.425458
2.5010202 4.9485254 2.5662646 2.5646849 4.994561 2.5001252 4.530578 5.0655537
4.941381 4.9474096 5.0411525 -12.901756 2.8995743 2.5298507 0.026234461 2.6063364
2.3660343 5.158907 2.1213324 3.1982138 3.0786076 2.927486 2.0704398 2.252529
2.5961006 3.08243 2.9128413 2.914435 -0.08479477 5.142034 -0.003515795 8.940868
5.098251 -13.364565 2.7324734 2.455509 1.824117 5.054989 5.0537863 1.98244
1.8917106 3.027763 2.8503625 5.059927 3.1513257 2.9031622 2.9388402 1.8385066
5.034613 2.8870049 1.976365 2.8714554 0.0024180172 0.028309615 9.354661 0.039316062
4.460987 -0.03554795 2.744803 0.009050805 2.9509184 2.7082832 2.1188486 1.8405784
2.2518618 2.72077 -0.07303423 5.1210966 2.9756668 2.9697192 4.9644423 -0.04107189
4.9608393 5.201475 3.0225909 1.0915447 2.7529697 3.0875576 4.1553745 4.313487
5.1031337 1.1218823 3.0359387 4.2437267 3.0445497 2.5498397 2.566473 0.024417019
2.6637566 1.6577603 2.6763828 0.027429871 2.9933374 9.2227955 4.6556168 -13.248333
-12.990237 1.4696913 2.0469096 2.911378 2.4619186 5.1083364 5.020972 5.1002893
0.031922255 2.1970918 2.75174 3.2609665 2.895424 4.3508725 1.4800869 2.3815393
2.7279112 3.3727245 1.2557756 1.8436117 3.1563962 3.7014616 2.658246 2.9809651
1.9620355 -12.840143 2.827678 3.0520039 2.8761916 5.26448 5.084262 9.27467
2.3463287 5.0899153 3.0185783 3.0341065 4.943815 2.8025177 4.656925 5.149662
00000000: 7bfd a040 30b6 9e40 c948 a140 928f 4bc1
00000010: 45b6 2040 f463 3640 1d31 be3b c88a 3640
00000020: c5b1 1c40 6568 a140 0fe5 1140 7977 4d40
00000030: 6a54 3040 70f9 2840 46e0 0e40 d8fa 1440
00000040: 19d6 2e40 3cde 3340 624b 4b40 62f1 1a40
00000050: 6533 9abd f1ed a140 3bad 673d 645c 0e41
00000060: 1337 a140 9d50 54c1 eb16 1740 90d1 2240
00000070: b7e6 ee3f 3fee 9c40 3aa6 9c40 5071 f83f
00000080: 71ce e23f a5f5 2540 6d91 1b40 bfc8 a240
00000090: 8644 5940 4f25 2740 8981 4140 6912 fd3f
000000a0: 22d4 9f40 6acc 2540 00eb fe3f 03a6 4140
000000b0: 0d22 b53c 2adc 483d d290 1741 fa95 c03c
000000c0: 10b6 9040 e506 3b3d 0ef4 3540 8e8e 4f3d
000000d0: b0de 2740 65a2 3740 c418 1940 a1ee de3f
000000e0: 7c62 1440 ecec 1840 b890 383d 7901 9e40
000000f0: 10e1 4c40 a5ab 2540 34ee 9e40 c10f 423d
00000100: 4220 9b40 e2e7 a440 da8c 5240 f6a3 873f
00000110: 15b3 1d40 efe4 2e40 04c7 7f40 7fbc 8f40
00000120: 9a3e a140 dc94 b23f 8e29 2340 009f 8a40
00000130: e56a 3040 96a1 3240 48db 3740 b96f b2bd
00000140: 8e7d 2f40 b687 ca3f 1baa 3340 8286 543d
00000150: 93e4 2a40 8920 1641 74cc 9440 1086 53c1
00000160: f4e6 4dc1 fb98 bb3f 0cf0 fb3f 49c7 4b40
00000170: 032d 2440 9068 a240 9d0f a040 41a4 a040
00000180: be73 9fbd 9f40 0c40 5730 1c40 e961 6240
00000190: ebc0 2140 ca94 8d40 aa39 c73f d487 1d40
000001a0: e7d5 1540 3612 6440 3838 aa3f eef3 fe3f
000001b0: bcd8 4740 ce2b 6a40 c577 3640 6fee 2540
000001c0: 49fb ee3f 9f43 4cc1 6575 1c40 80af 2c40
000001d0: 2b42 2640 4dd1 a040 0a23 9d40 adce 1641
000001e0: b710 2040 525a 9e40 ae3d 2440 cc23 2440
000001f0: 72d3 9f40 0d02 2040 7ffa 9040 0419 a240
00000200: cb1f 9e40 2e51 9e40 1f51 a140 986d 4ec1
00000210: a092 3940 13e9 2140 a7e9 d63c 37ce 2640
00000220: 1b6d 1740 c415 a540 e9c3 0740 89af 4c40
00000230: e807 4540 ee5b 3b40 1682 0440 6f29 1040
00000240: 8326 2640 8846 4540 fe6b 3a40 1a86 3a40
00000250: e1a8 adbd 8b8b a440 4169 66bb cc0d 0f41
00000260: df24 a340 42d5 55c1 d8e0 2e40 0f27 1d40
00000270: aa7c e93f 78c2 a140 9eb8 a140 98c0 fd3f
00000280: 9323 f23f dec6 4140 576c 3640 ecea a140
00000290: 52af 4940 69cd 3940 f515 3c40 2f54 eb3f
000002a0: 8d1b a140 b0c4 3840 87f9 fc3f edc5 3740
000002b0: 9977 1e3b 91e9 e73c b1ac 1541 e109 213d
000002c0: 68c0 8e40 ba9a 11bd daaa 2f40 d449 143c
000002d0: d9db 3c40 8354 2d40 379b 0740 1398 eb3f
000002e0: 811e 1040 1821 2e40 f892 95bd 06e0 a340
000002f0: 5371 3e40 e10f 3e40 b6dc 9e40 003b 28bd
00000300: 32bf 9e40 7c72 a640 2172 4140 bdb7 8b3f
00000310: a830 3040 8b9a 4540 d4f8 8440 1608 8a40
00000320: df4c a340 d799 8f3f d24c 4240 9ccc 8740
00000330: e7d9 4240 9330 2340 1841 2440 3306 c83c
00000340: fd7a 2a40 7d31 d43f db49 2b40 9cb4 e03c
00000350: d792 3f40 9290 1341 d0fa 9440 2cf9 53c1
00000360: 03d8 4fc1 d81e bc3f 9100 0340 0454 3a40
00000370: 1390 1d40 7e77 a340 cdab a040 9235 a340
00000380: e9c0 023d 279d 0c40 821c 3040 adb3 5040
00000390: a04e 3940 593a 8b40 7d73 bd3f 246b 1840
000003a0: 1996 2e40 b8da 5740 41bd a03f 78fb eb3f
000003b0: 6502 4a40 bfe4 6c40 b420 2a40 22c8 3e40
000003c0: fb23 fb3f 3a71 4dc1 adf8 3440 0854 4340
000003d0: 8613 3840 9f76 a840 46b2 a240 0c65 1441
000003e0: 402a 1640 96e0 a240 6330 4140 cd2e 4240
000003f0: bc33 9e40 735c 3340 8805 9540 08ca a440

net.2.bias f4 [128]
-0.704206 -0.25869775 -8.703259 -0.41829044 0.0456638 2.4831464 -0.018508684 3.994887
3.977739 -0.08716021 8.91487 -1.2078383 -0.08666534 -0.63465303 3.9693816 0.019892652
3.984248 -0.58460057 -0.5401072 -0.4064312 -0.025887555 4.093357 0.028387913 -6.4865837
-7.9724565 -8.580226 -0.08316882 3.864037 3.9505987 1.2760818 4.056714 -0.0815704
-0.03326769 -0.040380806 3.9790204 -0.88935876 0.06280963 2.553789 3.9212105 9.159455
2.316603 -0.0049218447 -0.05563782 -0.020998178 4.147145 4.0776925 0.06798176 -1.6545949
-6.441654 0.030082626 -0.3585985 -0.7384217 -0.007923173 -0.5673318 4.0490828 -0.014992882
-0.031926814 4.027468 -0.5526224 -8.72248 0.017963344 -5.356958 -0.26342234 -0.3282466
-7.5821676 -0.030421834 3.8814976 3.9888368 2.4687455 2.4162018 -0.08134881 3.8768764
0.015708376 -0.11163882 4.091237 -8.277575 3.9324212 3.7967992 -3.291729 1.2754532
-0.5467494 -0.032496423 3.813321 -0.5599701 0.07246331 -0.033654004 0.0235252 2.446883
4.0256023 -0.04015798 -7.2763667 -4.74486 6.530654e-05 0.2172197 -0.055109046 4.0622
-7.062234 0.014281436 3.992923 -0.0954551 -0.08116325 -8.666794 -3.0669794 8.19532
-0.028972512 -6.241617 0.03225573 -7.6320014 1.9539734 0.009744215 2.5218008 3.9312005
-0.48184815 -0.058111884 -0.47326514 0.22941901 -8.535016 -5.313422 0.014919383 -0.6902786
-5.6043725 -6.4477158 -8.421609 -0.076422706 3.9784198 -0.09694987 -0.47586694 2.534075
00000000: d846 34bf 0874 84be 8d40 0bc1 2a2a d6be
00000010: f709 3b3d dfeb 1e40 869f 97bc 3bac 7f40
00000020: 4793 7e40 0d81 b2bd 4fa3 0e41 729a 9abf
00000030: 997d b1bd 9f78 22bf 590a 7e40 eaf5 a23c
00000040: ebfd 7e40 62a8 15bf 7744 0abf c017 d0be
00000050: 2312 d4bc c8fc 8240 c58d e83c 1892 cfc0
00000060: 5d1e ffc0 9b48 09c1 6a54 aabd 624c 7740
00000070: 9cd6 7c40 a656 a33f 9ad0 8140 620e a7bd
00000080: b443 08bd 5866 25bd 45a8 7e40 04ad 63bf
00000090: 56a2 803d 4771 2340 1df5 7a40 218d 1241
000000a0: 3943 1440 6d47 a1bb 7ce4 63bd 5f04 acbc
000000b0: 69b5 8440 757c 8240 053a 8b3d c4c9 d3bf
000000c0: 0822 cec0 d76f f63c 399a b7be 3409 3dbf
000000d0: 32d0 01bc a83c 11bf 1692 8140 b4a4 75bc
000000e0: b1c5 02bd 05e1 8040 a978 0dbf 478f 0bc1
000000f0: dd27 933c 336c abc0 4bdf 86be f00f a8be
00000100: 1ea1 f2c0 3637 f9bc 756a 7840 1a49 7f40
00000110: edff 1d40 0da3 1a40 349a a6bd be1e 7840
00000120: daae 803c e5a2 e4bd 6aeb 8240 f270 04c1
00000130: caac 7b40 c2fe 7240 b0ab 52c0 0d42 a33f
00000140: c5f7 0bbf f81a 05bd 740d 7440 335a 0fbf
00000150: a567 943d c8d8 09bd ecb7 c03c bb99 1c40
00000160: bcd1 8040 b27c 24bd ffd7 e8c0 e5d5 97c0
00000170: 2ff5 8838 d76e 5e3e 06ba 61bd 8bfd 8140
00000180: d2fd e1c0 affc 693c 0d8c 7f40 f77d c3bd
00000190: eb38 a6bd 30ab 0ac1 6449 44c0 0820 0341
000001a0: c357 edbc 54bb c7c0 961e 043d 5b39 f4c0
000001b0: cd1b fa3f 33a6 1f3c 2f65 2140 ca98 7b40
000001c0: cdb4 f6be ba06 6ebd cf4f f2be d1ec 6a3e
000001d0: 6d8f 08c1 8e07 aac0 6e70 743c 19b6 30bf
000001e0: 0557 b3c0 b053 cec0 e9be 06c1 8283 9cbd
000001f0: 6e9e 7e40 a78d c6bd d5a4 f3be 492e 2240

net.4.weight f4 [20, 128]
-1.2784568 -1.0691252 7.6498184 -1.1050245 -0.017212793 4.840931 0.061162073 4.0224805
4.610268 -0.034409016 2.1202278 -1.338545 0.029336555 -1.2546048 4.4594555 -0.014353314
4.226871 -0.95168215 -1.063047 -1.0325087 -0.04706597 4.1263776 -0.06755616 7.235412
7.5434217 7.485866 0.009677443 4.3252974 4.645595 4.7834654 4.3777976 0.007672138
0.00072098506 0.049240805 4.2345657 -1.3011963 -0.0690434 4.764706 4.434909 2.238284
4.674629 -0.009180363 0.03806604 -0.0029659895 4.509325 4.306304 -0.071845435 5.0892906
7.3587694 0.08482283 -1.0573742 -1.1375852 -0.95268565 -1.1537178 4.2512712 0.07384396
-0.021036131 4.5504007 -0.9259896 7.6080184 0.055947885 6.85367 -1.0310422 -0.9188231
7.417621 -0.032164108 4.317441 4.2383127 4.7898226 4.805947 0.042835403 4.026255
-0.042864107 -0.99022925 4.3250136 7.557525 4.4587274 3.7047126 6.022655 4.659785
-1.2126403 -0.003995678 4.4322233 -1.1038154 -0.0042730593 0.080291696 0.08261606 4.610368
4.43589 0.03862812 7.446809 6.7031817 0.08441234 4.6136804 0.054590568 4.4103146
7.3012705 -0.04916167 4.329777 -0.018450204 0.06880602 7.535527 5.889364 1.4148653
-0.012419401 7.257979 0.01681463 7.446574 4.7081704 0.026520524 4.7362623 4.161658
-1.136613 -0.07404656 -1.180661 -0.25733715 7.5348253 6.9076457 0.038473275 -1.1167737
7.1419272 7.1935134 7.670303 -0.035502408 4.1560163 0.07959005 -1.188772 4.803586
-0.6396242 -0.46927893 6.9826365 -0.71716124 -0.06588801 4.467131 -0.02202396 4.0159025
4.303551 0.057973836 0.31595784 -0.9247943 -0.022974921 -0.6400222 4.2002597 0.007424064
4.0821123 -0.46669018 -0.5389262 -0.548195 0.07600379 4.0581236 0.03887914 7.050444
6.937656 6.894048 0.082865104 4.100908 4.3437037 4.521426 4.2315226 0.08328021
0.044139054 -0.034548834 4.1534405 -0.74985254 -0.051915012 4.421135 4.189368 0.5532944
4.4584417 0.009838971 0.040378526 -0.03432984 4.2805495 4.1634073 -0.067545034 5.826373
7.109341 0.006927372 -0.5126 -0.5762921 -0.5841666 -0.7147933 4.260834 -0.07352752
0.030100444 4.352381 -0.49395865 6.9801097 0.042318575 7.0437684 -0.5011918 -0.48043913
7.0070434 0.085151754 4.1860723 4.10721 4.3974705 4.419091 -0.0068337815 3.8690348
-0.020352287 -0.47102025 4.232181 6.8985987 4.2389417 3.6949196 6.666768 4.52832
-0.7379025 -0.01448229 4.2625523 -0.6819392 -0.04278782 -0.05877713 0.053453352 4.32779
4.279159 -0.0464182 7.085174 7.0124803 0.039322566 4.8221073 0.042112246 4.185203
7.030163 0.06733416 4.129917 -0.08221124 -0.0604706 6.9275727 6.5886827 0.6826252
-0.07747761 7.162759 0.06623054 6.988211 4.3953137 0.051073004 4.418318 4.0630198
-0.513593 0.050914425 -0.6581183 -0.33473802 6.9169583 7.0942574 0.080628775 -0.5968096
7.031226 7.153515 6.873727 -0.026389385 4.0372925 -0.07476227 -0.6042625 4.378191
00000000: 79a4 a3bf 18d9 88bf 50cb f440 7171 8dbf
00000010: d801 8dbc e8e8 9a40 1585 7a3d 29b8 8040
00000020: 5187 9340 78f0 0cbd d0b1 0740 7155 abbf
00000030: 3753 f03c e496 a0bf dcb3 8e40 2a2a 6bbc
00000040: 8742 8740 71a1 73bf ed11 88bf 3f29 84bf
00000050: 3fc8 40bd 490b 8440 e25a 8abd 7f88 e740
00000060: b663 f140 378c ef40 238e 1e3c d668 8a40
00000070: b7a8 9440 2612 9940 eb16 8c40 8f66 fb3b
00000080: 7d00 3d3a bab0 493d 9081 8740 9a8d a6bf
00000090: a066 8dbd 7978 9840 c6ea 8d40 0c40 0f40
000000a0: 9096 9540 3c69 16bc 23eb 1b3d 0c61 42bb
000000b0: 644c 9040 3ecd 8940 b323 93bd 78db a240
000000c0: 0a7b eb40 98b7 ad3d 0a58 87bf 649c 91bf
000000d0: 35e3 73bf 06ad 93bf 6a0a 8840 813b 973d
000000e0: f753 acbc e29c 9140 a80d 6dbf e374 f340
000000f0: 9c29 653d 4451 db40 31f9 83bf fe37 6bbf
00000100: 275d ed40 83be 03bd 7a28 8a40 42a0 8740
00000110: 3a46 9940 51ca 9940 2d74 2f3d 15d7 8040
00000120: 4692 2fbd aa7f 7dbf 8366 8a40 3fd7 f140
00000130: e5ad 8e40 031a 6d40 97b9 c040 f51c 9540
00000140: cc37 9bbf 2dee 82bb c6d4 8d40 d349 8dbf
00000150: 0505 8cbb f96f a43d 9c32 a93d 2288 9340
00000160: d0f2 8d40 8538 1e3d 424c ee40 7780 d640
00000170: 60e0 ac3d 45a3 9340 5c9a 5f3d 4c21 8d40
00000180: 02a4 e940 bf5d 49bd 888d 8a40 e224 97bc
00000190: 2cea 8c3d 0a23 f140 ab75 bc40 4e1a b53f
000001a0: be7a 4bbc 5d41 e840 d6be 893c 564a ee40
000001b0: 55a9 9640 9241 d93c 768f 9740 4d2c 8540
000001c0: 897c 91bf b9a5 97bd e61f 97bf b2c1 83be
000001d0: 4a1d f140 6f0b dd40 2796 1d3d 71f2 8ebf
000001e0: ab8a e440 4331 e640 1f73 f540 f96a 11bd
000001f0: 16fe 8440 1c00 a33d ae29 98bf fab6 9940
00000200: 69be 23bf 5445 f0be c271 df40 e197 37bf
00000210: 4bf0 86bd bdf2 8e40 976b b4bc 4682 8040
00000220: b1b6 8940 f975 6d3d 3ac5 a13e 52bf 6cbf
00000230: e735 bcbc 7fd8 23bf 8768 8640 9045 f33b
00000240: aaa0 8240 04f2 eebe 11f7 09bf 8256 0cbf
00000250: e0a7 9b3d 26dc 8140 bc3f 1f3d 3d9d e140
00000260: 4701 de40 0b9c dc40 2eb5 a93d a33a 8340
00000270: 9fff 8a40 86af 9040 a268 8740 d18e aa3d
00000280: 27cb 343d 1483 0dbd fce8 8440 56f6 3fbf
00000290: d6a4 54bd f079 8d40 4d0f 8640 b4a4 0d3f
000002a0: 8eab 8e40 a333 213c f463 253d 729d 0cbd
000002b0: 43fa 8840 a23a 8540 0d55 8abd a671 ba40
000002c0: b97f e340 02ff e23b c139 03bf e187 13bf
000002d0: f18b 15bf b2fc 36bf c158 8840 9995 96bd
000002e0: 3595 f63c b546 8b40 26e8 fcbe 0f5d df40
000002f0: 3e56 2d3d 8d66 e140 1b4e 00bf 1efc f5be
00000300: b339 e040 0b64 ae3d 4ef4 8540 446e 8340
00000310: 14b8 8c40 3269 8d40 eaed dfbb 449e 7740
00000320: d7b9 a6bc 9129 f1be 076e 8740 52c1 dc40
00000330: 69a5 8740 9079 6c40 2a56 d540 ffe7 9040
00000340: 2ee7 3cbf 2047 6dbc d466 8840 9193 2ebf
00000350: 4842 2fbd 4ac0 70bd e7f1 5a3d 417d 8a40
00000360: dfee 8840 0321 3ebd bfb9 e240 3d66 e040
00000370: b310 213d b44e 9a40 e47d 2c3d 2fed 8540
00000380: 18f7 e040 7ee6 893d 4828 8440 5e5e a8bd
00000390: 05b0 77bd adae dd40 7dd6 d240 86c0 2e3f
000003a0: 95ac 9ebd 5235 e540 e1a3 873d 6d9f df40
000003b0: 69a6 8c40 ed31 513d dc62 8d40 4204 8240
000003c0: d57a 03bf a58b 503d 717a 28bf c862 abbe
000003d0: b957 dd40 2804 e340 b320 a53d 84c8 18bf
000003e0: ceff e040 98e9 e440 92f5 db40 8d2e d8bc
000003f0: 8031 8140 f61c 99bd f2b0 1abf 241a 8c40

net.4.bias f4 [20]
2.13693 1.8612891 1.7654655 1.869394 1.26633 1.3362874 1.6230854 1.7013507
-0.03281522 1.9862952 0.31764624 0.4940604 0.7951464 0.39047825 1.0232294 -0.379821
0.46194142 0.007860403 0.7574986 0.06551793
00000000: 76c3 0840 b93e ee3f c6fa e13f 4d48 ef3f
00000010: 1a17 a23f 770b ab3f 43c1 cf3f dcc5 d93f
00000020: 4169 06bd ec3e fe3f 87a2 a23e 7cf5 fc3e
00000030: b78e 4b3f c4ec c73e 2ef9 823f e677 c2be
00000040: 9683 ec3e ebc8 003c 6eeb 413f 442e 863d
