realtime_model_ep141.pth (torch, 97610 bytes, 6 tensors)

net.0.weight f4 [128, 35]
00000000: 175b 0dc0 40eb f041 4777 94bd 923f 52bf
00000010: bb8d 833d 149a b7bf f777 e741 c415 cbbc
00000020: 8110 623f 2fcb 333f 80e4 eebf 9885 e941
00000030: 462a 6bbd 5c98 e93f dd55 1e3d 6e75 94bf
00000040: 8abe e941 744b 87be a1a9 953f f308 73bf
00000050: 10b1 03c0 08b5 ea41 fcee bebd 9da9 1740
00000060: 8157 04be 7caf e240 b3a5 d440 1870 0e41
00000070: df0e e240 f51a cf40 713d bd40 25de cb40
00000080: 4159 e040 1116 7340 bc77 dc40 b4f9 0ac0
00000090: 933a f141 9543 a33d 63ca 28bf 3b93 c53d
000000a0: 1a0f 99bf acd3 e841 3731 94be 63c9 523f
000000b0: a8e2 3c3f e359 d8bf a010 ea41 8d03 d6bd
000000c0: a346 ed3f d22c 083e 0b7c 95bf 5368 e941
000000d0: 20e8 9bbe 78e6 953f e004 41bf f7f6 fcbf
000000e0: ddbe e941 6723 73be 1a71 1440 e131 e7be
000000f0: 2b24 e640 f4c6 d240 85d5 0e41 3344 e040
00000100: e8ef c540 4bea ba40 7130 ca40 2723 e040
00000110: f28f 6740 d714 e040 4add 06c0 9217 f241
00000120: 2f78 153e 3b97 6dbf 46ac d93e f2d7 95bf
00000130: 3a01 eb41 e977 833c 371b 503f 9a9c 863f
00000140: db86 dbbf 9aca eb41 39a1 843e 8aee e53f
00000150: f4e0 9f3e 0253 94bf 2f8b ec41 c94f b2bd
00000160: 1c4d e13f 19e4 f6be 442b 03c0 3099 ed41
00000170: 074e 013e a7f1 1340 f3c5 4dbc 994c f040
00000180: 1c79 e540 0a12 0e41 ecf9 e340 5ebc d640
00000190: 9085 c140 335a d740 387c e840 af24 7240
000001a0: ceb7 e440 4494 ffbf 0c63 ef41 fa0f 27c1
000001b0: e40c 0cc0 84c0 4fc1 d444 92bf 1104 e941
000001c0: e211 2bc1 39f3 433f 6ba0 42c1 bf7c bdbf
000001d0: fd8b e741 6d91 2bc1 f732 8c3f 89ea 4bc1
000001e0: 95ca 87bf 0b90 e941 a186 2ec1 7a61 363f
000001f0: 515a 4cc1 6a0b f7bf 8dfb e841 7e1b 2cc1
00000200: 646f 0440 f7d8 4bc1 05c5 0941 0723 ff40
00000210: 5dde 3f41 38b9 2541 153b 0c41 ca28 1e41
00000220: 4167 0741 2dbb 2141 9aaf d940 dea2 1141
00000230: ed01 d13e 436b 9dc1 8f8f 2c41 9e48 2040
00000240: c02f fb40 a50d 4f3e 0c3a 95c1 055f 3241
00000250: ed31 1440 c415 e940 89b8 213e 58e5 95c1
00000260: 1f6a 2c41 fb85 6b40 756b 0e41 e970 6d3f
00000270: c0b4 97c1 2fb3 3141 c20c eb3f b09b 1641
00000280: d215 243f 31ae 96c1 6863 3241 ca11 fbbd
00000290: 9265 0141 0ae3 c940 d061 c140 de34 b340
000002a0: c890 c640 0223 2041 c17e ba40 f6fe cb40
000002b0: 8c46 f340 e48d f840 938c 0241 b202 10c0
000002c0: 518a ef41 a57d cebe 7d7f 46bf 0f5d 64be
000002d0: f212 b6bf 2cc4 e641 699a 23bf 479b 423f
000002e0: 85be d23e d794 c4bf c8f9 e741 9528 d3be
000002f0: fb20 fc3f 5319 963d bbb4 96bf 18b5 e741
00000300: 775c 2fbf 4378 653f 59a5 8dbf 85ad e7bf
00000310: 6378 e841 3db1 01bf 2e61 1940 37d8 aebe
00000320: df84 de40 ff67 ca40 9ec7 0941 bd31 d640
00000330: 935d c540 e5d1 b540 38c6 c540 135b d840
00000340: 51ac 5940 1446 d740 ea60 bf3c ae76 953d
00000350: 5cac 09be 533b 38bb b412 e3bd 69f9 523d
00000360: 0903 a03c 4b51 863d ada6 05be 0b9e acbd
00000370: b2c9 12be e122 ca3d 3627 e4bd 42e8 14bc
00000380: e430 e9bd c7bd 033e 126f d63d e497 55bc
00000390: 68b8 a1bd acf6 e03d 376c 273e c22c 09be
000003a0: e2f8 a93c 0e59 d5bd 4c6a 3a3d 30a9 caba
000003b0: 2aa2 babd 8eeb f6bd d488 653d aba9 13be
000003c0: afb4 84bd 9d33 19be e0a2 04be 8b46 8b3d
000003d0: 842e d93d 141e 10c0 82a1 ef41 0872 a7be
000003e0: 87d2 61bf 3c82 b5b9 fd41 a5bf 0c6d e741
000003f0: af5f 2cbf dd07 4a3f 41d9 d43e b03a c0bf
-2.2086847 30.114868 -0.07249313 -0.8212825 0.06423517 -1.4343896 28.933577 -0.024790652
0.8830643 0.7023191 -1.8663483 29.190231 -0.057413362 1.8249621 0.038656104 -1.1598337
29.218037 -0.26424754 1.1692392 -0.9493553 -2.057682 29.338394 -0.093229264 2.3697274
-0.12924005 7.0839214 6.645227 8.902367 7.0643153 6.4720407 5.91375 6.3708673
7.0108953 3.7982218 6.889616 -2.1714907 30.1536 0.079718746 -0.6593382 0.096472226
-1.1957734 29.103355 -0.28943798 0.8233854 0.7378335 -1.6902431 29.258118 -0.10449896
1.8537182 0.13298348 -1.167848 29.17594 -0.30450535 1.1710958 -0.75398064 -1.9762868
29.218195 -0.23743974 2.3194032 -0.45155242 7.191915 6.5867863 8.927129 7.008325
6.1855354 5.8411 6.3184133 7.004291 3.6181607 7.002544 -2.1072564 30.261509
0.14596628 -0.92808884 0.42514247 -1.1706526 29.375599 0.016048389 0.81291527 1.0516541
-1.715053 29.473927 0.25904253 1.7963421 0.31226313 -1.1587832 29.56796 -0.08706624
1.7601657 -0.482209 -2.0495157 29.699799 0.12627421 2.3116243 -0.012559402 7.5093503
7.171034 8.879404 7.124258 6.710494 6.047554 6.7297606 7.2651634 3.783489
7.147437 -1.9967122 29.923363 -10.441401 -2.1882868 -12.984501 -1.1427255 29.126986
-10.691866 0.76543003 -12.164165 -1.4803694 28.943354 -10.723004 1.0953053 -12.74476
-1.0608698 29.195333 -10.907868 0.7124249 -12.77205 -1.9300358 29.122828 -10.756712
2.0692987 -12.74047 8.6106 7.973026 11.991788 10.357719 8.764424 9.884958
8.462708 10.108197 6.8026857 9.1022625 0.40821782 -19.677374 10.7850485 2.5044322
7.849579 0.20220049 -18.653343 11.148198 2.3155472 7.283907 0.15793051 -18.736984
10.775908 3.6800525 8.901235 0.9275041 -18.963257 11.106246 1.8363268 9.41301
0.64095795 -18.835054 11.149269 -0.12259252 8.087297 6.3089647 6.04319 5.6002035
6.2051735 10.008547 5.827973 6.374873 7.6023617 7.7673206 8.15932 -2.2501645
29.942537 -0.40330234 -0.7753828 -0.22301124 -1.4224532 28.845787 -0.63907486 0.76018184
0.4116098 -1.5357922 28.996964 -0.412419 1.9697565 0.07329049 -1.1773905 28.963425
-0.68500465 0.8963663 -1.1066085 -1.8099829 29.058783 -0.5066107 2.3965564 -0.34149334
6.9537196 6.325195 8.611235 6.6935716 6.1676726 5.681872 6.1804466 6.7611175
3.4011424 6.7273045 0.023361642 0.07298027 -0.13444656 -0.0028111532 -0.11087552 0.051507387
0.019532697 0.06558474 -0.13051863 -0.08428582 -0.14334753 0.09869934 -0.111402914 -0.009088578
-0.11386278 0.12865363 0.10470404 -0.013036702 -0.07896501 0.10984549 0.16349874 -0.1339598
0.02074856 -0.104173765 0.04551153 -0.0015461799 -0.091129616 -0.12056647 0.056038693 -0.14420192
-0.06479775 -0.14961095 -0.12952757 0.068005644 0.10604575 -2.2518358 29.953861 -0.32704186
-0.88211864 -0.00034620042 -1.2910763 28.928246 -0.673335 0.7891825 0.41572002 -1.501791

net.0.bias f4 [128]
00000000: e5d1 4c40 f1df 4540 fd2b 5540 fa01 9bc0
00000010: a31d 1e41 1f02 3540 5ffc 41be c1aa 2d40
00000020: 22f0 2940 d8bb 5140 5d80 2440 260e 3240
00000030: 82ca 1a41 96b2 1f41 a2b1 3240 6ea5 2c40
00000040: e404 2c40 acb0 1c41 8a55 3340 efd7 1d41
00000050: c334 6a3c b133 4640 a1b9 19be 0d22 b63f
00000060: a96c 4740 0c74 adc0 d91b 1f41 a775 2740
00000070: 96c0 2c40 4505 5340 c76e 4a40 eb73 2540
00000080: 424d 2840 e314 2141 3e61 1e41 780b 4840
00000090: 1d61 3240 df6c 1c41 356d 2840 3c02 2840
000000a0: 29f5 5940 ae90 1c41 0a36 2840 9ac8 2740
000000b0: 2d5d aebd e0ec b4bc c13e d73f 34c3 66bd
000000c0: bdb8 3b40 4e69 0fbd 3759 2a40 064d 1cbe
000000d0: 786b 1b41 3e71 2340 6ae1 2a40 82c7 2640
000000e0: 84ac 2040 cc11 1e41 a50f 43be a7df 4c40
000000f0: 89ed 1f40 59d8 1e41 de1c 5b40 1aa3 68bd
00000100: 5498 5640 d380 5540 96a4 2d40 8eaa 2140
00000110: c623 1c41 9656 1a41 caa3 2640 531a 3b40
00000120: bc4d 4f40 46ca 2740 3fea 1e41 248d 2e40
00000130: 0179 1a41 f69b 2940 37cd 2940 3c32 203d
00000140: 403b 2940 ccb2 2f40 7f15 2840 0936 33be
00000150: 74aa 1b41 f4b3 d93f 864a 3240 63bb 93c0
00000160: c256 99c0 df47 2d40 b6ff 2240 ab17 2340
00000170: 72fd 2940 5c8c 5c40 9682 5740 ef4b 4a40
00000180: 0825 18bd cdaf 2340 48fb 1d41 04ae 2f40
00000190: 7834 1f41 1c72 3940 049b 2a40 4ea0 3140
000001a0: 8401 2241 f325 2440 6556 1d40 611d 2240
000001b0: d2ba 2840 4fa6 3640 2ec0 2b40 d42a 1b41
000001c0: 83b7 2d40 40d3 92c0 45cf 1e41 eea9 1b41
000001d0: 6e75 1a41 99c0 5a40 0fc8 5740 50a2 c33f
000001e0: 85f0 2a40 daef 5c40 9e9b 1d41 6389 1f41
000001f0: 0449 3b40 6e08 2441 0849 3440 a1af 5240
3.200311 3.0917933 3.3308098 -4.8439913 9.882236 2.8282545 -0.18943928 2.713547
2.6552815 3.27709 2.5703347 2.7821136 9.67444 9.9811 2.7920918 2.697597
2.6877985 9.793133 2.802096 9.865218 0.014294806 3.096905 -0.15012218 1.4229141
3.116007 -5.420416 9.944299 2.616556 2.6992545 3.2971966 3.1630113 2.5852
2.6297154 10.067599 9.898741 3.1257 2.7871773 9.77658 2.6316655 2.6251364
3.4055884 9.785322 2.6282983 2.6216187 -0.085138656 -0.022085607 1.6816026 -0.056338504
2.9331505 -0.035012536 2.6616952 -0.15263757 9.7137375 2.5537868 2.6700082 2.605927
2.5105295 9.879345 -0.19048937 3.2011507 2.498873 9.927819 3.423637 -0.05679617
3.3530474 3.3359878 2.7131705 2.5260348 9.758734 9.646139 2.603747 2.9234817
3.2391195 2.6217208 9.932189 2.7273645 9.654542 2.650144 2.6531503 0.039110407
2.6442413 2.745288 2.626312 -0.17501082 9.729115 1.7008042 2.7857985 -4.6166244
-4.7918406 2.7075117 2.5468574 2.5483196 2.656094 3.4460669 3.3673453 3.1608846
-0.03714469 2.557605 9.873848 2.744996 9.95031 2.8975897 2.6657114 2.7754092
10.12537 2.5648162 2.458398 2.5330431 2.6364026 2.8539007 2.6836047 9.697956
2.7143257 -4.5882874 9.925603 9.728987 9.653669 3.4180052 3.3715856 1.5283909
2.6709301 3.4521394 9.8504925 9.971042 2.9263315 10.252058 2.8169575 3.2919695

net.2.weight f4 [128, 128]
00000000: 3f17 a140 02d0 9e40 4e62 a140 bc93 4bc1
00000010: 21dd 2040 2997 3640 1d31 be3b c4be 3640
00000020: 89e5 1c40 0382 a140 1b18 1240 caa9 4d40
00000030: 177c 3040 7c20 2940 9313 0f40 fe2d 1540
00000040: 4d09 2f40 bd03 3440 927e 4b40 5e17 1b40
00000050: 6533 9abd 4207 a240 3bad 673d 465f 0e41
00000060: 9d50 a140 3a56 54c1 8f3f 1740 e503 2340
00000070: af4b ef3f 0e08 9d40 22c0 9c40 30d7 f83f
00000080: f134 e33f 6b1c 2640 93b8 1b40 a8e2 a240
00000090: 5077 5940 324c 2740 ceb4 4140 fb75 fd3f
000000a0: f4ed 9f40 02f3 2540 da50 ff3f fad7 4140
000000b0: 0d22 b53c 2adc 483d bc90 1741 fa95 c03c
000000c0: becf 9040 e506 3b3d fc26 3640 8e8e 4f3d
000000d0: a604 2840 36d5 3740 ba4a 1940 6e54 df3f
000000e0: 1396 1440 8513 1940 b890 383d 011b 9e40
000000f0: 8b13 4d40 d6d1 2540 e207 9f40 c10f 423d
00000100: eb39 9b40 bf01 a540 05bf 5240 cd0b 883f
00000110: 0dd8 1d40 8409 2f40 5cf9 7f40 40d6 8f40
00000120: 6c58 a140 bff8 b23f b14e 2340 d1b8 8a40
00000130: f490 3040 42d4 3240 230e 3840 b96f b2bd
00000140: d7af 2f40 f9ee ca3f 2ddd 3340 adcd 543d
00000150: 7509 2b40 a620 1641 80e6 9440 428a 53c1
00000160: 0ceb 4dc1 50ff bb3f 0056 fc3f 8ffa 4b40
00000170: d060 2440 1682 a240 9129 a040 35be a040
00000180: be73 9fbd e873 0c40 cb58 1c40 0595 6240
00000190: 14e9 2140 92ae 8d40 dba0 c73f 2ebb 1d40
000001a0: 57fe 1540 2345 6440 c59c aa3f fc58 ff3f
000001b0: c50c 4840 b65e 6a40 05ab 3640 6313 2640
000001c0: 4662 ef3f af47 4cc1 979d 1c40 30d4 2c40
000001d0: e868 2640 1deb a040 a53c 9d40 8dce 1641
000001e0: 9b44 2040 2b74 9e40 6163 2440 6948 2440
000001f0: 65ed 9f40 6b2b 2040 2514 9140 be32 a240
00000200: 293a 9e40 7b6b 9e40 9a6b a140 5875 4ec1
00000210: f6d9 3940 111c 2240 a7e9 d63c f201 2740
00000220: 95a0 1740 3230 a540 a1f6 0740 b8e1 4c40
00000230: 5d50 4540 92a3 3b40 fdb4 0440 465c 1040
00000240: 6b59 2640 fc8b 4540 e29e 3a40 21cc 3a40
00000250: e1a8 adbd 8fa5 a440 4169 66bb 7a14 0f41
00000260: 0f3f a340 bdde 55c1 1b2b 2f40 1e59 1d40
00000270: f0e0 e93f 31dd a140 cdd3 a140 f125 fe3f
00000280: 4489 f23f 210e 4240 25b4 3640 c805 a240
00000290: e9e1 4940 d614 3a40 0a49 3c40 46b7 eb3f
000002a0: 6b36 a140 ab0b 3940 045f fd3f aff7 3740
000002b0: 9977 1e3b 91e9 e73c 16af 1541 e109 213d
000002c0: 60da 8e40 ba9a 11bd 7ddd 2f40 d449 143c
000002d0: d521 3d40 0887 2d40 cacc 0740 2efd eb3f
000002e0: d851 1040 2468 2e40 f892 95bd cdfa a340
000002f0: a9a3 3e40 0356 3e40 8cf7 9e40 003b 28bd
00000300: 08da 9e40 508d a640 39a4 4140 031f 8c3f
00000310: 1a75 3040 3dde 4540 3d12 8540 0e22 8a40
00000320: 7e67 a340 95fd 8f3f 8891 4240 aae6 8740
00000330: 3b20 4340 f662 2340 ad73 2440 3306 c83c
00000340: f8ac 2a40 e497 d43f c47c 2b40 0e42 e13c
00000350: f4d6 3f40 1a93 1341 2315 9540 0001 54c1
00000360: c0df 4fc1 8084 bc3f 3c33 0340 0187 3a40
00000370: abc3 1d40 1b92 a340 b3c6 a040 8450 a340
00000380: e9c0 023d 17d0 0c40 5b66 3040 a7e6 5040
00000390: ef97 3940 5c54 8b40 14da bd3f 269e 1840
000003a0: 2fe0 2e40 780d 5840 2e21 a13f 8b60 ec3f
000003b0: 4c36 4a40 cc17 6d40 9b53 2a40 ac0c 3f40
000003c0: 448a fb3f ec78 4dc1 2442 3540 ab97 4340
000003d0: bf5a 3840 a191 a840 f6cc a240 6d67 1441
000003e0: cb5d 1640 6dfb a240 b875 4140 d972 4240
000003f0: 594e 9e40 d7a7 3340 841f 9540 82e4 a440
5.0340877 4.9628916 5.04325 -12.723568 2.5134966 2.852976 0.0058041946 2.8553934
2.4515097 5.0471206 2.2827213 3.213488 2.7575738 2.6426077 2.2355697 2.3309321
2.7349427 2.8127282 3.1796002 2.4233012 -0.07529334 5.063386 0.05656169 8.89826
5.0410905 -13.271051 2.3632543 2.5471127 1.8694972 4.907233 4.8984537 1.944067
1.7750531 2.5954845 2.4331405 5.090168 3.3979073 2.6140256 3.0266604 1.980163
4.997797 2.592957 1.9946549 3.0288072 0.022110963 0.04903809 9.472836 0.023509014
4.525359 0.045660872 2.8461294 0.05067306 2.6252837 2.8723884 2.395186 1.7447641
2.3216598 2.3918164 0.04505989 4.9407964 3.2043178 2.5909324 4.9697123 0.047378305
4.85082 5.156463 3.292909 1.0628601 2.4663117 2.7349558 3.9995947 4.4949036
5.0420437 1.3982161 2.551678 4.3350606 2.7588472 2.7942052 2.8758628 -0.08712716
2.7451074 1.5854179 2.8103745 0.05195396 2.6724522 9.382971 4.653137 -13.221254
-12.8698845 1.468729 1.9713745 3.187168 2.568409 5.0783796 5.005074 5.0232186
-0.07785748 2.1945744 2.4429195 3.5403454 2.529851 4.42756 1.5595964 2.4645495
2.3436487 3.5667198 1.3329092 1.9949031 3.1257794 3.6620307 2.8541882 2.5949333
1.8701866 -12.767501 2.4471185 2.700451 2.600153 5.0287004 4.913653 9.425427
2.5041873 4.9516807 2.5685656 2.5669196 4.997729 2.50265 4.533709 5.068694
4.9445996 4.95062 5.044385 -12.903648 2.9039283 2.532963 0.026234461 2.6094937
2.3691761 5.162133 2.124428 3.2012768 3.08303 2.9318585 2.0735466 2.255632
2.5992076 3.086669 2.9159474 2.918709 -0.08479477 5.14521 -0.003515795 8.942499
5.1014476 -13.366879 2.737006 2.4585643 1.827177 5.058251 5.0571046 1.9855329
1.894814 3.0321124 2.8547451 5.0632057 3.1544135 2.9075217 2.941958 1.8415306
5.037893 2.8913372 1.9794621 2.8744924 0.0024180172 0.028309615 9.355246 0.039316062
4.464157 -0.03554795 2.7478936 0.009050805 2.95519 2.7113667 2.1218743 1.8436639
2.2549953 2.7251062 -0.07303423 5.1243653 2.978739 2.9739997 4.967718 -0.04107189
4.964115 5.20475 3.0256484 1.0946964 2.7571473 3.0916893 4.1584764 4.316657
5.1063833 1.1249262 3.0401325 4.246907 3.0488422 2.552915 2.5695603 0.024417019
2.6668072 1.6608853 2.67949 0.027497318 2.9974947 9.223413 4.65883 -13.250244
-12.992126 1.4727936 2.050002 2.91449 2.4650676 5.111585 5.0242553 5.1035786
0.031922255 2.2002008 2.7562473 3.264078 2.8998983 4.354048 1.4832177 2.3846526
2.732433 3.375822 1.2588251 1.8466963 3.159564 3.7045774 2.6613529 2.9851484
1.965157 -12.842022 2.832162 3.056132 2.8805387 5.267777 5.0875196 9.27525
2.3494747 5.0931916 3.02281 3.0382597 4.947064 2.8071191 4.660097 5.152894

net.2.bias f4 [128]
00000000: 33c3 33bf d9d3 82be 964e 0bc1 e5f1 d4be
00000010: f709 3b3d 2a88 1f40 869f 97bc ea1f 8040
00000020: f52a 7f40 0d81 b2bd 8fe9 0d41 fc76 9abf
00000030: 997d b1bd d7f1 21bf 3aa4 7e40 eaf5 a23c
00000040: 6692 7f40 0bc6 14bf 4e8b 09bf e5c9 cebe
00000050: 2312 d4bc 7746 8340 c58d e83c 6dbf cfc0
00000060: c841 ffc0 3e57 09c1 6a54 aabd 2ce2 7740
00000070: f86e 7d40 0b7e a43f 591c 8240 620e a7bd
00000080: b443 08bd 5866 25bd 113e 7f40 704d 63bf
00000090: 56a2 803d bd0a 2440 5489 7b40 52cf 1141
000000a0: 78de 1440 6d47 a1bb 7ce4 63bd 5f04 acbc
000000b0: ef00 8540 10c8 8240 053a 8b3d f3c2 d3bf
000000c0: b64f cec0 d76f f63c 86fa b5be b677 3cbf
000000d0: cd67 9cbb f0ac 10bf 2bdd 8140 b4a4 75bc
000000e0: b1c5 02bd 682d 8140 0aa6 0cbf ff9d 0bc1
000000f0: dd27 933c 7ca2 abc0 3d09 85be d34f a6be
00000100: d8c9 f2c0 3637 f9bc 3301 7940 70e0 7f40
00000110: fb9c 1e40 ed40 1b40 349a a6bd efb3 7840
00000120: daae 803c 2410 debd 5a39 8340 9e7e 04c1
00000130: 1744 7c40 6393 7340 e80e 53c0 726a a43f
00000140: 197a 0bbf f81a 05bd faa7 7440 23d4 0ebf
00000150: a567 943d c8d8 09bd ecb7 c03c 2632 1d40
00000160: d51d 8140 b27c 24bd 7900 e9c0 ad12 98c0
00000170: 2ff5 8838 f421 663e 06ba 61bd cd48 8240
00000180: 1b29 e2c0 affc 693c fd11 8040 f77d c3bd
00000190: eb38 a6bd dcb9 0ac1 32a2 44c0 d26d 0241
000001a0: c357 edbc 0beb c7c0 961e 043d 6d5f f4c0
000001b0: 064b fb3f 33a6 1f3c 57ff 2140 da30 7c40
000001c0: da57 f5be ba06 6ebd da20 f1be 5531 443e
000001d0: d59d 08c1 653a aac0 6e70 743c 0a11 30bf
000001e0: d888 b3c0 e681 cec0 3acd 06c1 8283 9cbd
000001f0: 8930 7f40 a78d c6bd a779 f2be 9fc8 2240
-0.70219725 -0.25552252 -8.706686 -0.415908 0.0456638 2.4926858 -0.018508684 4.0038958
3.986997 -0.08716021 8.869521 -1.2067561 -0.08666534 -0.63259643 3.9787736 0.019892652
3.9933105 -0.5811469 -0.5372819 -0.40388408 -0.025887555 4.1023517 0.028387913 -6.4921174
-7.97678 -8.583799 -0.08316882 3.8731794 3.959898 1.2850965 4.0659604 -0.0815704
-0.03326769 -0.040380806 3.9881632 -0.88790035 0.06280963 2.5631554 3.9302568 9.113115
2.3260784 -0.0049218447 -0.05563782 -0.020998178 4.156364 4.0869217 0.06798176 -1.6543869
-6.4472303 0.030082626 -0.35542697 -0.73620164 -0.004773116 -0.5651388 4.058248 -0.014992882
-0.031926814 4.0367928 -0.54940856 -8.726073 0.017963344 -5.3635845 -0.2598361 -0.32482776
-7.587139 -0.030421834 3.8906982 3.9980736 2.4783313 2.4258378 -0.08134881 3.8859823
0.015708376 -0.10842922 4.100751 -8.280912 3.9416559 3.8058708 -3.2977848 1.2844985
-0.5448318 -0.032496423 3.8227525 -0.55792445 0.07246331 -0.033654004 0.0235252 2.4561858
4.0348916 -0.04015798 -7.2813077 -4.7522798 6.530654e-05 0.2247389 -0.055109046 4.071387
-7.0675178 0.014281436 4.002196 -0.0954551 -0.08116325 -8.670376 -3.0723996 8.151812
-0.028972512 -6.247442 0.03225573 -7.6366487 1.963227 0.009744215 2.5312097 3.9404817
-0.47918588 -0.058111884 -0.47095376 0.19159444 -8.538533 -5.3196282 0.014919383 -0.68776
-5.6104546 -6.4533567 -8.425104 -0.076422706 3.9873374 -0.09694987 -0.47358438 2.543495

net.4.weight f4 [20, 128]
00000000: 294e a1bf 926b 86bf 8746 f440 730d 8bbf
00000010: d801 8dbc abd8 9a40 1585 7a3d b8c9 8040
00000020: a198 9340 78f0 0cbd 6ff0 0940 990b a9bf
00000030: 3753 f03c d73e 9ebf f8c5 8e40 2a2a 6bbc
00000040: ff54 8740 94ca 6ebf fcab 85bf 73c7 81bf
00000050: 3fc8 40bd 2c1d 8440 e25a 8abd fd08 e740
00000060: ace1 f040 bc07 ef40 238e 1e3c f47a 8a40
00000070: c4b9 9440 a8ea 9840 8628 8c40 8f66 fb3b
00000080: 7d00 3d3a bab0 493d fc93 8740 8b42 a4bf
00000090: a066 8dbd 4268 9840 71fc 8d40 2f7f 1140
000000a0: bf83 9540 3c69 16bc 23eb 1b3d 0c61 42bb
000000b0: bd5d 9040 ccdf 8940 b323 93bd 3382 a240
000000c0: 9ffb ea40 98b7 ad3d d2ec 84bf a142 8fbf
000000d0: e4fd 6ebf 374e 91bf 971c 8840 813b 973d
000000e0: f753 acbc 6aae 9140 9135 68bf 84f0 f240
000000f0: 9c29 653d aad3 da40 e287 81bf ed59 66bf
00000100: 0cdd ec40 83be 03bd 243a 8a40 d8b2 8740
00000110: 2d34 9940 efb9 9940 2d74 2f3d 62e9 8040
00000120: 4692 2fbd 6c9d 78bf 2e78 8a40 6b52 f140
00000130: 65bf 8e40 b242 6d40 dc4b c040 daf3 9440
00000140: 19e0 98bf 2dee 82bb 7be6 8d40 74f1 8abf
00000150: 0505 8cbb f96f a43d 9c32 a93d 7b78 9340
00000160: 7704 8e40 8538 1e3d 1ecc ed40 b505 d640
00000170: 60e0 ac3d ea6c 9340 5c9a 5f3d d532 8d40
00000180: 4324 e940 bf5d 49bd fd9f 8a40 e224 97bc
00000190: 2cea 8c3d aa9e f040 3a09 bc40 3d96 b93f
000001a0: be7a 4bbc 1bc2 e740 d6be 893c 94c9 ed40
000001b0: 978c 9640 9241 d93c 2c7f 9740 c13e 8540
000001c0: 4918 8fbf b9a5 97bd b9c2 94bf b96b 63be
000001d0: 3d99 f040 fa8c dc40 2796 1d3d db93 8cbf
000001e0: a30b e440 01b2 e540 c4ee f440 f96a 11bd
000001f0: 8d10 8540 1c00 a33d 53c9 95bf e0a6 9940
00000200: 7f1a 1fbf 894c e6be a082 de40 6abf 32bf
00000210: 4bf0 86bd d070 8e40 976b b4bc d036 8040
00000220: ce6a 8940 f975 6d3d 95c4 ba3e ea4a 68bf
00000230: e735 bcbc 722d 1fbf 151e 8640 9045 f33b
00000240: b956 8240 380c e5be 7818 05bf a786 07bf
00000250: e0a7 9b3d 5191 8140 bc3f 1f3d 36b0 e040
00000260: 4613 dd40 06ad db40 2eb5 a93d 2bf0 8240
00000270: 44b3 8a40 df0c 9040 4f1d 8740 d18e aa3d
00000280: 27cb 343d 1483 0dbd f49e 8440 b37b 3bbf
00000290: d6a4 54bd 0bf8 8c40 1dc4 8540 1227 1a3f
000002a0: ac25 8e40 a333 213c f463 253d 729d 0cbd
000002b0: 6bae 8840 c6f0 8440 0d55 8abd 509c b940
000002c0: be92 e240 02ff e23b 808e fcbe 38d7 0ebf
000002d0: d27b 10bf 9038 32bf 570e 8840 9995 96bd
000002e0: 3595 f63c 47fb 8a40 fbfe f2be 106e de40
000002f0: 3e56 2d3d 757a e040 918b f6be 56f8 ebbe
00000300: 814c df40 0b64 ae3d 18a9 8540 8324 8340
00000310: 7133 8c40 1ae7 8c40 eaed dfbb 9c09 7740
00000320: d7b9 a6bc a115 e7be d822 8740 2ed2 db40
00000330: ce59 8740 34ec 6b40 9772 d440 5443 9040
00000340: 973c 38bf 2047 6dbc c61b 8840 cee6 29bf
00000350: 4842 2fbd 4ac0 70bd e7f1 5a3d 32fc 8940
00000360: a2a3 8840 0321 3ebd 8acc e140 ab7b df40
00000370: b310 213d b29a 9940 e47d 2c3d aaa1 8540
00000380: 050a e040 7ee6 893d 59de 8340 5e5e a8bd
00000390: 05b0 77bd afbf dc40 91f3 d140 fe3b 3b3f
000003a0: 95ac 9ebd 6748 e440 e1a3 873d ffb1 de40
000003b0: 3f12 8c40 ed31 513d e3e0 8c40 4cba 8140
000003c0: 8744 fdbe a58b 503d 61bb 23bf 4efa 92be
000003d0: e168 dc40 9417 e240 b320 a53d 4205 14bf
000003e0: 0013 e040 a9fc e340 9e06 db40 8d2e d8bc
000003f0: 8ae7 8040 f61c 99bd 8ce6 15bf 6498 8b40
-1.2601978 -1.0501578 7.6336093 -1.0863479 -0.017212793 4.8389487 0.061162073 4.024624
4.6123815 -0.034409016 2.1553 -1.3206664 0.029336555 -1.2362927 4.461666 -0.014353314
4.2291255 -0.9327786 -1.044311 -1.0138992 -0.04706597 4.128561 -0.06755616 7.219847
7.527548 7.469694 0.009677443 4.327509 4.6476765 4.7786446 4.3799467 0.007672138
0.00072098506 0.049240805 4.2368145 -1.2832807 -0.0690434 4.762727 4.4370656 2.2733877
4.6723323 -0.009180363 0.03806604 -0.0029659895 4.5114427 4.308569 -0.071845435 5.0783935
7.3432155 0.08482283 -1.0384772 -1.1192209 -0.93356156 -1.1351994 4.25349 0.07384396
-0.021036131 4.552541 -0.90706736 7.59186 0.055947885 6.838338 -1.0119593 -0.89980966
7.4019833 -0.032164108 4.3195972 4.2405815 4.787619 4.803947 0.042835403 4.028489
-0.042864107 -0.97115207 4.3271704 7.541311 4.4608636 3.7071958 6.00926 4.654767
-1.1943389 -0.003995678 4.434385 -1.0854936 -0.0042730593 0.080291696 0.08261606 4.608457
4.438045 0.03862812 7.4311666 6.6881967 0.08441234 4.607045 0.054590568 4.412455
7.2856765 -0.04916167 4.33203 -0.018450204 0.06880602 7.519368 5.8761263 1.4498974
-0.012419401 7.2424445 0.01681463 7.4308567 4.704662 0.026520524 4.734274 4.1639104
-1.1179286 -0.07404656 -1.1621925 -0.22209062 7.518706 6.892209 0.038473275 -1.0982622
7.1264205 7.177979 7.654146 -0.035502408 4.1582704 0.07959005 -1.1702064 4.8016205
-0.62149805 -0.44980267 6.9534454 -0.69823325 -0.06588801 4.451271 -0.02202396 4.006691
4.2942877 0.057973836 0.36478105 -0.9073931 -0.022974921 -0.6217872 4.191172 0.007424064
4.0730863 -0.44735885 -0.5199046 -0.5293984 0.07600379 4.048989 0.03887914 7.02151
6.9086027 6.864871 0.082865104 4.0918174 4.334383 4.501571 4.2223277 0.08328021
0.044139054 -0.034548834 4.1444035 -0.73235625 -0.051915012 4.4052787 4.1801896 0.60215867
4.4420986 0.009838971 0.040378526 -0.03432984 4.2712913 4.1543913 -0.067545034 5.800331
7.080413 0.006927372 -0.4932747 -0.5579715 -0.56438935 -0.6961756 4.2517505 -0.07352752
0.030100444 4.3431735 -0.4746016 6.9509354 0.042318575 7.0149484 -0.48153356 -0.46087903
6.978089 0.085151754 4.1768913 4.098207 4.3812795 4.4032106 -0.0068337815 3.8599615
-0.020352287 -0.4513369 4.2230034 6.8694067 4.2297125 3.6862917 6.638988 4.508219
-0.7196745 -0.01448229 4.2533903 -0.66367805 -0.04278782 -0.05877713 0.053453352 4.3120356
4.2699747 -0.0464182 7.056218 6.983846 0.039322566 4.8001337 0.042112246 4.1759844
7.001223 0.06733416 4.120892 -0.08221124 -0.0604706 6.898399 6.560982 0.73138416
-0.07747761 7.133838 0.06623054 6.959228 4.3772273 0.051073004 4.402452 4.0539913
-0.49466345 0.050914425 -0.6395779 -0.28706592 6.8878026 7.065378 0.080628775 -0.5782052
7.0023193 7.1245923 6.844558 -0.026389385 4.028264 -0.07476227 -0.5855491 4.3623524

net.4.bias f4 [20]
00000000: 082a 0a40 30ec f13f b294 e43f 3f8a f23f
00000010: 7a08 a73f b239 ac3f 8279 d03f fcec da3f
00000020: f566 e8bc 4e00 0040 66aa 9d3e d3da fe3e
00000030: 595c 4a3f dddb c53e 5a1b 823f c9a1 bfbe
00000040: 11c3 eb3e 944a 733b 8362 413f f29b 833d
2.1588154 1.8900204 1.7857878 1.8948439 1.3049462 1.3455107 1.6287081 1.7103572
-0.028369406 2.0000186 0.30794066 0.49776325 0.7904716 0.38644305 1.0164597 -0.3742812
0.4604726 0.003712331 0.7554094 0.064262286
