realtime_model_ep205.pth (torch, 97610 bytes, 6 tensors)

net.0.weight f4 [128, 35]
0	0xc012e0b8	-2.2949657
1	0x41f3afc4	30.460823
2	0xbe9ae463	-0.3025237
3	0xbf2d9e93	-0.6782009
4	0xbe0602ac	-0.13086957
5	0xbfbd5fe9	-1.4794894
6	0x41e88c12	29.068394
7	0xbea33add	-0.31880847
8	0x3f91b506	1.1383369
9	0x3f030203	0.51174945
10	0xbff42952	-1.907511
11	0x41eac0d6	29.344158
12	0xbeafa98c	-0.34309042
13	0x3ffcef8a	1.9760602
14	0xbcf37255	-0.029717604
15	0xbf9924a7	-1.196431
16	0x41eadff1	29.359346
17	0xbf0d581e	-0.5521258
18	0x3f9102bd	1.1328961
19	0xbf553cad	-0.8329571
20	0xc005ca3a	-2.090468
21	0x41ebc255	29.469889
22	0xbec93da7	-0.3930485
23	0x401cc3b5	2.449445
24	0xbeb12f74	-0.34606516
25	0x40e0c613	7.024179
26	0x40d330f5	6.599726
27	0x410daaf9	8.854241
28	0x40e07d36	7.0152845
29	0x40cdb379	6.4281583
30	0x40bc2e29	5.880635
31	0x40c9e4b3	6.3091674
32	0x40de8690	6.953926
33	0x4070b5c7	3.7610948
34	0x40db2ff7	6.849605
35	0xc0107f55	-2.2577717
36	0x41f3fe26	30.499096
37	0xbe19c4ac	-0.1501643
38	0xbf042659	-0.51621014
39	0xbdc948ae	-0.09828316
40	0xbf9ed528	-1.24088
41	0x41e9e67b	29.23754
42	0xbf155dfc	-0.58346534
43	0x3f8a14c8	1.0787592
44	0x3f0c34a0	0.547678
45	0xbfdd9f59	-1.7314254
46	0x41eb4a8d	29.411402
47	0xbec7c308	-0.39015985
48	0x40004ecc	2.0048094
49	0x3d84982d	0.06474338
50	0xbf9a2b7c	-1.204452
51	0x41ea8864	29.316597
52	0xbf17a613	-0.59237784
53	0x3f914697	1.1349667
54	0xbf23336f	-0.63750356
55	0xc00094d4	-2.0090837
56	0x41eacaef	29.349089
57	0xbf098a47	-0.5372662
58	0x40198b19	2.3991148
59	0xbf2b01a6	-0.6679939
60	0x40e43a76	7.1321363
61	0x40d151e0	6.5412445
62	0x410e1036	8.878958
63	0x40deb221	6.9592443
64	0x40c487f3	6.1415954
65	0x40b9da92	5.807931
66	0x40c836b7	6.256679
67	0x40de4fe6	6.947253
68	0x40652e1c	3.5809393
69	0x40deccae	6.9624853
70	0xc00c627f	-2.1935117
71	0x41f4deaa	30.608723
72	0xbdac1391	-0.084021695
73	0xbf490847	-0.78528255
74	0x3e698a12	0.22806576
75	0xbf9b9d4c	-1.2157378
76	0x41ec186a	29.51192
77	0xbe8df94f	-0.2772927
78	0x3f88a559	1.067546
79	0x3f5be04e	0.85889137
80	0xbfe0ca52	-1.7561743
81	0x41ed08df	29.629332
82	0xbcd5ee6c	-0.026114665
83	0x3ff94fdb	1.9477495
84	0x3e7945dd	0.24343057
85	0xbf990131	-1.1953489
86	0x41edafcb	29.710836
87	0xbebfaa35	-0.37434545
88	0x3fdc774e	1.7223909
89	0xbebb2d9c	-0.36558235
90	0xc005439d	-2.0822518
91	0x41eea97c	29.832756
92	0xbe310f7f	-0.17291068
93	0x401910f6	2.3916602
94	0xbe6c5fa5	-0.2308336
95	0x40ee6337	7.449611
96	0x40e404ea	7.1256
97	0x410d4ce9	8.831277
98	0x40e268db	7.0752997
99	0x40d55641	6.666779
100	0x40c07863	6.0146956
101	0x40d56190	6.6681595
102	0x40e6aa85	7.2083154
103	0x406fc9a8	3.7466831
104	0x40e371be	7.1076345
105	0xc0054ab4	-2.0826845
106	0x41f1f72f	30.245695
107	0xc122c088	-10.172005
108	0xc00151fd	-2.0206292
109	0xc14fc90e	-12.986586
110	0xbf980c70	-1.1878796
111	0x41e9db0d	29.231958
112	0xc128dd13	-10.553973
113	0x3f882d0b	1.0638746
114	0xc1420b90	-12.127823
115	0xbfc2d054	-1.5219827
116	0x41e88be8	29.068314
117	0xc129187e	-10.56848
118	0x3fa24847	1.2678307
119	0xc14b2dda	-12.698694
120	0xbf8c880f	-1.0979022
121	0x41ea734e	29.306301
122	0xc12c18f7	-10.756095
123	0x3f514d39	0.8175846
124	0xc148cf6e	-12.550642
125	0xbffb57bf	-1.9636153
126	0x41e9cd7a	29.22533
127	0xc129f866	-10.623144
128	0x400a5f8c	2.1620817
129	0xc14bdc4f	-12.741286
130	0x4109752d	8.591107
131	0x40fee75c	7.965742
132	0x413fb728	11.982216
133	0x41259828	10.3496475
134	0x410c0dca	8.753366
135	0x411e222a	9.883341
136	0x41070409	8.438485
137	0x412169e7	10.088355
138	0x40d95ef3	6.7928405
139	0x411188c3	9.095889
140	0x3efd3e02	0.4946137
141	0xc19fb51c	-19.963432
142	0x412bd397	10.739158
143	0x4015bed9	2.3397734
144	0x40fd9d03	7.9254165
145	0x3e7e4f2f	0.24834894
146	0xc195d1ab	-18.727377
147	0x4133a4ed	11.227765
148	0x4001e62c	2.0296736
149	0x40eabae4	7.335314
150	0x3e4d0512	0.20021465
151	0xc196a95f	-18.8327
152	0x412d7162	10.840181
153	0x406113b5	3.5168278
154	0x410e81e7	8.906714
155	0x3f7711ce	0.9651154
156	0xc1985b44	-19.044563
157	0x4132c9c7	11.174262
158	0x3fe377df	1.7770957
159	0x4113eef0	9.245834
160	0x3f2ce2f6	0.67533815
161	0xc19745ba	-18.909046
162	0x4133c9dd	11.236783
163	0xbe4ffd9b	-0.20311587
164	0x4102ba9f	8.170562
165	0x40cb2da5	6.349322
166	0x40c24b69	6.0717053
167	0x40b431a4	5.6310596
168	0x40c78dd8	6.236065
169	0x4120a91c	10.041286
170	0x40bb38be	5.8506765
171	0x40cd6cb1	6.419518
172	0x40f49c2b	7.6440635
173	0x40f979a3	7.796098
174	0x4102fe70	8.187119
175	0xc015885a	-2.3364472
176	0x41f242b1	30.282564
177	0xbf20521d	-0.62625295
178	0xbf219d95	-0.63131076
179	0xbed2e22b	-0.41188177
180	0xbfbbd9d1	-1.4675847
181	0x41e7c876	28.972881
182	0xbf6dc927	-0.9288506
183	0x3f822fb6	1.017081
184	0x3e69ea44	0.22843271
185	0xbfc9dd99	-1.5770751
186	0x41e92560	29.14325
187	0xbf318af7	-0.6935267
188	0x4007c440	2.1213531
189	0x3c064bfe	0.008196829
190	0xbf9b681c	-1.2141147
191	0x41e8c658	29.096848
192	0xbf77e9ba	-0.96841013
193	0x3f5d357f	0.86409754
194	0xbf7cb44e	-0.98712623
195	0xbfebe691	-1.8429738
196	0x41e975fa	29.182606
197	0xbf4d63c1	-0.8023034
198	0x401e83df	2.4767988
199	0xbf0d044b	-0.55084676
200	0x40dc9ced	6.894156
201	0x40c8f34f	6.2797008
202	0x410902fb	8.563228
203	0x40d4a13c	6.644682
204	0x40c3f401	6.1235356
205	0x40b4c029	5.648457
206	0x40c3cd62	6.118821
207	0x40d6888f	6.7041698
208	0x405742e0	3.3634567
209	0x40d5fd03	6.687135
210	0x3cbf60ea	0.023361642
211	0x3d9576ae	0.07298027
212	0xbe09ac5c	-0.13444656
213	0xbb383b53	-0.0028111532
214	0xbde312b4	-0.11087552
215	0x3d52f969	0.051507387
216	0x3ca00309	0.019532697
217	0x3d86514b	0.06558474
218	0xbe05a6ad	-0.13051863
219	0xbdac9e0b	-0.08428582
220	0xbe12c9b2	-0.14334753
221	0x3dca22e1	0.09869934
222	0xbde42736	-0.111402914
223	0xbc14e842	-0.009088578
224	0xbde930e4	-0.11386278
225	0x3e03bdc7	0.12865363
226	0x3dd66f12	0.10470404
227	0xbc5597e4	-0.013036702
228	0xbda1b868	-0.07896501
229	0x3de0f6ac	0.10984549
230	0x3e276c37	0.16349874
231	0xbe092cc2	-0.1339598
232	0x3ca9f8e2	0.02074856
233	0xbdd5590e	-0.104173765
234	0x3d3a6a4c	0.04551153
235	0xbacaa930	-0.0015461799
236	0xbdbaa22a	-0.091129616
237	0xbdf6eb8e	-0.12056647
238	0x3d6588d4	0.056038693
239	0xbe13a9ab	-0.14420192
240	0xbd84b4af	-0.06479775
241	0xbe19339d	-0.14961095
242	0xbe04a2e0	-0.12952757
243	0x3d8b468b	0.068005644
244	0x3dd92e84	0.10604575
245	0xc015a3b4	-2.3381166
246	0x41f25a0c	30.293968
247	0xbf0cd0ea	-0.5500628
248	0xbf3cf0fb	-0.73805207
249	0xbe41cb01	-0.18925096
250	0xbfab08dd	-1.336208
251	0x41e87183	29.055426
252	0xbf7691e4	-0.9631636
253	0x3f85e5df	1.0460776
254	0x3e6e1587	0.232504
255	0xbfc58381	-1.5430757

net.0.bias f4 [128]
0	0x4048a5fd	3.1351311
1	0x4041b463	3.026635
2	0x4050fddf	3.265495
3	0xc09b1cbc	-4.8472576
4	0x411ea436	9.915091
5	0x4030eb35	2.764356
6	0xbe41fc5f	-0.18943928
7	0x402993bd	2.6496422
8	0x4025db80	2.5915222
9	0x404d8eb5	3.2118351
10	0x40206f96	2.5068107
11	0x402df3e5	2.7180111
12	0x411b5256	9.707602
13	0x41203918	10.013939
14	0x402ea17a	2.7286057
15	0x40289336	2.633985
16	0x4027eedc	2.6239538
17	0x411d3967	9.826514
18	0x402f3b58	2.737997
19	0x411e5e7f	9.89807
20	0x3c6a34c3	0.014294806
21	0x40420802	3.0317388
22	0xbe19b9a1	-0.15012218
23	0x3fbc480c	1.4709487
24	0x40434040	3.0507965
25	0xc0ade58e	-5.434272
26	0x411fa0b4	9.976734
27	0x40236105	2.5527966
28	0x4028b109	2.6358054
29	0x404ed872	3.2319608
30	0x40463b30	3.0973625
31	0x402164da	2.5217805
32	0x40243d88	2.5662556
33	0x41219af6	10.100332
34	0x411ee6aa	9.931314
35	0x4043dcd4	3.0603533
36	0x402e44df	2.7229536
37	0x411cf39d	9.809476
38	0x40245438	2.5676403
39	0x4023f326	2.5617156
40	0x4055c511	3.340153
41	0x411d17fc	9.818356
42	0x402425c9	2.5648062
43	0x4023b1b0	2.5577202
44	0xbdae5d2d	-0.085138656
45	0xbcb4ece0	-0.022085607
46	0x3fde6693	1.7375053
47	0xbd66c334	-0.056338504
48	0x40379197	2.868261
49	0xbd0f694e	-0.035012536
50	0x40264349	2.5978568
51	0xbe1c4d06	-0.15263757
52	0x411bf2b8	9.7467575
53	0x401f5a1e	2.4898753
54	0x4026cf75	2.6064122
55	0x4022b8d8	2.542532
56	0x401c9a5d	2.4469216
57	0x411e97cc	9.91206
58	0xbe430fa5	-0.19048937
59	0x4048adf5	3.1356175
60	0x401bd3d8	2.434805
61	0x411f5f6d	9.960797
62	0x4056ec17	3.3581598
63	0xbd68a31a	-0.05679617
64	0x40526806	3.287599
65	0x40514ed2	3.2704358
66	0x40298a62	2.6490712
67	0x401da1c7	2.462999
68	0x411caae8	9.791725
69	0x411ade86	9.679327
70	0x4022875b	2.5395114
71	0x4036f2eb	2.8585765
72	0x404b2023	3.1738365
73	0x4023c618	2.5589657
74	0x411f7172	9.965197
75	0x402a66cf	2.662525
76	0x411b0135	9.687795
77	0x40258713	2.5863693
78	0x4025b64a	2.589251
79	0x3d20323c	0.039110407
80	0x402524b8	2.5803661
81	0x402ba64e	2.6820254
82	0x4023fe63	2.5624015
83	0xbe345dfb	-0.17613976
84	0x411c327e	9.762327
85	0x3fe0e029	1.7568408
86	0x402e223e	2.72084
87	0xc093d4be	-4.6197195
88	0xc09973f4	-4.7954044
89	0x40293c34	2.6442995
90	0x401eee60	2.4832993
91	0x401efee1	2.4843066
92	0x4025e666	2.5921874
93	0x40585a61	3.3805163
94	0x4053557a	3.302092
95	0x40461af1	3.0953944
96	0xbd182508	-0.03714469
97	0x401f9cbf	2.493942
98	0x411e80f9	9.906487
99	0x402b9097	2.6807
100	0x411fbae9	9.983132
101	0x40354a99	2.832678
102	0x40269010	2.6025429
103	0x402d8d62	2.7117543
104	0x412286f3	10.157947
105	0x402007df	2.5004804
106	0x40194c4e	2.3952823
107	0x401e1443	2.4699867
108	0x40249f78	2.5722332
109	0x40328737	2.7895029
110	0x4027a945	2.6197064
111	0x411bb219	9.730981
112	0x4029a99b	2.650977
113	0xc092ebb7	-4.591274
114	0x411f5494	9.958149
115	0x411c327e	9.762327
116	0x411afca1	9.686677
117	0x4056895a	3.3521333
118	0x405397bb	3.306136
119	0x3fcac9af	1.5842799
120	0x4026db2c	2.6071272
121	0x4058be14	3.3866014
122	0x411e2324	9.883579
123	0x41201045	10.003972
124	0x40371c8d	2.8611176
125	0x41248c9e	10.28433
126	0x40301fcc	2.7519407
127	0x404e81b9	3.2266676

net.2.weight f4 [128, 128]
0	0x40a1b28e	5.053046
1	0x409f6aac	4.9817715
2	0x40a2000f	5.062507
3	0xc14acef5	-12.675527
4	0x40224b60	2.5358505
5	0x4037ce96	2.871984
6	0x3bbe311d	0.0058041946
7	0x4037f106	2.874086
8	0x401e1957	2.4702966
9	0x40a21f16	5.0662947
10	0x40135104	2.3018198
11	0x404ee8ae	3.2329516
12	0x4031e4cf	2.7795904
13	0x402a8d45	2.6648724
14	0x40104ab3	2.2545593
15	0x401665ab	2.3499553
16	0x4030414f	2.7539861
17	0x403579af	2.835552
18	0x404cb6e5	3.198663
19	0x401c89da	2.4459138
20	0xbd9a3365	-0.07529334
21	0x40a2a5f0	5.082756
22	0x3d67ad3b	0.05656169
23	0x410ee5f4	8.931141
24	0x40a1ed5e	5.0602255
25	0xc153817e	-13.219114
26	0x4018a30f	2.3849523
27	0x40244172	2.5664945
28	0x3ff1c3a7	1.8887833
29	0x409da3f7	4.9262652
30	0x409d5b55	4.917399
31	0x3ffb49f1	1.963194
32	0x3fe5a31f	1.7940406
33	0x40278ad2	2.617848
34	0x401d24c7	2.4553697
35	0x40a37d84	5.1090717
36	0x405ab2aa	3.4171548
37	0x4028ba82	2.6363835
38	0x4042ecb6	3.0456977
39	0x3ffff8fc	1.9997859
40	0x40a08994	5.016794
41	0x402762d4	2.615407
42	0x4000e198	2.0137691
43	0x40431926	3.04841
44	0x3cb5220d	0.022110963
45	0x3d48dc2a	0.04903809
46	0x41182965	9.510106
47	0x3cc095fa	0.023509014
48	0x40916b57	4.544353
49	0x3d3b06e5	0.045660872
50	0x403760a3	2.8652732
51	0x3d4f8e8e	0.05067306
52	0x4029776d	2.6479142
53	0x40391035	2.8916142
54	0x401a8b9c	2.414771
55	0x3fe1c741	1.7638932
56	0x4015cb0b	2.3405178
57	0x401a823a	2.4141984
58	0x3d3890b8	0.04505989
59	0x409eb88a	4.9600267
60	0x404e5170	3.2237206
61	0x4027438e	2.6134982
62	0x409fa467	4.9888186
63	0x3d420fc1	0.047378305
64	0x409bd64c	4.8699093
65	0x40a59c63	5.17534
66	0x4053fe55	3.3123982
67	0x3f8a7132	1.0815794
68	0x401f51d4	2.4893694
69	0x4030855a	2.7581391
70	0x40809bf7	4.0190387
71	0x409071d6	4.513896
72	0x40a1f3bc	5.0610027
73	0x3fb57a9f	1.4178046
74	0x4024c686	2.574617
75	0x408b5390	4.3539505
76	0x403203b1	2.7814753
77	0x40341087	2.8135087
78	0x403948ed	2.895076
79	0xbdb26fb9	-0.08712716
80	0x4030ee3f	2.7645414
81	0x3fcd5880	1.6042633
82	0x40351635	2.8294804
83	0x3d540ae5	0.051768202
84	0x402c8368	2.6955204
85	0x4116b849	9.4199915
86	0x40957fb8	4.6718407
87	0xc152c53b	-13.173152
88	0xc14d2668	-12.821877
89	0x3fbe6e6c	1.4877448
90	0x3ffec843	1.9904865
91	0x404d326f	3.2062032
92	0x4025948a	2.587191
93	0x40a31f88	5.097599
94	0x40a0c3c6	5.023898
95	0x40a1587e	5.0420523
96	0xbd9f73be	-0.07785748
97	0x400dab9f	2.2136
98	0x401dbce2	2.4646535
99	0x4063ce2a	3.5594583
100	0x40234ea5	2.551675
101	0x408e498b	4.4464774
102	0x3fca0b69	1.5784732
103	0x401ef25f	2.4835432
104	0x40176349	2.365435
105	0x40657f95	3.585912
106	0x3fad182c	1.3523002
107	0x4000e9ae	2.0142627
108	0x40493ef3	3.144467
109	0x406b9938	3.6812267
110	0x4037e242	2.8731847
111	0x40278caa	2.6179605
112	0x3ff1cd81	1.889084
113	0xc14b8394	-12.719624
114	0x401e032a	2.468943
115	0x402e4f19	2.7235777
116	0x4027d831	2.6225703
117	0x40a1867b	5.047666
118	0x409dd958	4.932781
119	0x4117677a	9.462763
120	0x4021785d	2.5229714
121	0x409f0f33	4.9706054
122	0x4025d79f	2.5912855
123	0x4025c47a	2.590117
124	0x40a0878f	5.0165477
125	0x40218ac1	2.5240939
126	0x4091afe1	4.5527196
127	0x40a2ceab	5.087728
128	0x409ed9aa	4.9640703
129	0x409f0b2e	4.9701147
130	0x40a20a8a	5.0637865
131	0xc14d9223	-12.848178
132	0x403a6b58	2.9128017
133	0x402365b8	2.5530834
134	0x3cd6e9a7	0.026234461
135	0x402846fc	2.6293325
136	0x4018e70d	2.3891022
137	0x40a5cf68	5.181568
138	0x4009424e	2.144672
139	0x404e3198	3.221777
140	0x4045d9c8	3.0914173
141	0x403c3304	2.9406137
142	0x4005ff8a	2.0937219
143	0x4011a70e	2.2758212
144	0x4027a3a4	2.6193628
145	0x404629a4	3.0962915
146	0x403be8fb	2.936095
147	0x403b656a	2.9280648
148	0xbdada8e1	-0.08479477
149	0x40a54730	5.16494
150	0xbb666941	-0.003515795
151	0x410f802f	8.968795
152	0x40a3df75	5.1210275
153	0xc154e9b2	-13.3070545
154	0x402faa06	2.7447524
155	0x401ea8d8	2.4790554
156	0x3fec7f33	1.8476318
157	0x40a27a97	5.0774646
158	0x40a26e33	5.075952
159	0x40005edc	2.0057898
160	0x3ff51e5e	1.9149892
161	0x40429fd8	3.041006
162	0x4037428d	2.863437
163	0x40a2a239	5.0823026
164	0x404b2e8d	3.1747162
165	0x403aa5e6	2.9163756
166	0x403d92d8	2.9620876
167	0x3fee5ee5	1.862271
168	0x40a1d2ca	5.056981
169	0x40399f6d	2.9003556
170	0x3ffff54c	1.9996734
171	0x40394ae7	2.8951967
172	0x3b1e7799	0.0024180172
173	0x3ce7e991	0.028309615
174	0x4116361d	9.388211
175	0x3d2109e1	0.039316062
176	0x408f7c73	4.4839416
177	0xbd119aba	-0.03554795
178	0x403129e9	2.768183
179	0x3c1449d4	0.009050805
180	0x403dbbcd	2.9645875
181	0x402ed43a	2.7317033
182	0x40091ff4	2.1425753
183	0x3fee959e	1.863941
184	0x401199a6	2.275003
185	0x402efb6b	2.7340953
186	0xbd9592f8	-0.07303423
187	0x40a497ea	5.143544
188	0x403ff312	2.9992108
189	0x403eeebc	2.9833212
190	0x409f93f5	4.986811
191	0xbd283b00	-0.04107189
192	0x409f7667	4.9832034
193	0x40a72966	5.2238035
194	0x4042f44b	3.0461605
195	0x3f8eaa25	1.1145674
196	0x4031195c	2.7671728
197	0x404686bf	3.1019742
198	0x4085b816	4.1787214
199	0x408ac476	4.336482
200	0x40a4055b	5.1256537
201	0x3f92a10b	1.1455396
202	0x404333a0	3.050026
203	0x40888875	4.2666574
204	0x4043b800	3.0581055
205	0x4024b143	2.5733192
206	0x4025c03f	2.5898588
207	0x3cc80633	0.024417019
208	0x402bfce9	2.6873114
209	0x3fd72985	1.6809546
210	0x402cc757	2.6996667
211	0x3cdfbba3	0.027311152
212	0x40407cdb	3.0076206
213	0x41141928	9.256142
214	0x4095b4bf	4.6783137
215	0xc1531d76	-13.194693
216	0xc14efc9a	-12.93667
217	0x3fbf1a22	1.492985
218	0x40047ead	2.0702317
219	0x403bd182	2.9346623
220	0x401f0910	2.4849281
221	0x40a4300b	5.1308646
222	0x40a162f6	5.04333
223	0x40a3ebf0	5.122551
224	0x3d02c0e9	0.031922255
225	0x400e1a44	2.2203531
226	0x4030e797	2.7641351
227	0x40523190	3.284275
228	0x403a1c34	2.9079714
229	0x408bf62c	4.3738003
230	0x3fc06a36	1.5032413
231	0x4019e869	2.4048102
232	0x402f6071	2.7402613
233	0x40595980	3.3960876
234	0x3fa3c2ad	1.2793785
235	0x3feefb9d	1.8670536
236	0x404b7a0e	3.1793246
237	0x406e6255	3.7247517
238	0x402b9d72	2.6814847
239	0x403fafa6	2.9950957
240	0x3ffe1c4b	1.9852384
241	0xc14c965a	-12.786707
242	0x4035c5a1	2.8401873
243	0x4044401f	3.0664136
244	0x4038ed33	2.8894775
245	0x40a92c81	5.2866826
246	0x40a36a3b	5.1067176
247	0x4114eea4	9.308262
248	0x4017a43c	2.369399
249	0x40a39778	5.11224
250	0x40421380	3.0324402
251	0x40431969	3.048426
252	0x409eec60	4.9663544
253	0x40341f9d	2.8144295
254	0x4095c182	4.6798716
255	0x40a5835a	5.172284

net.2.bias f4 [128]
0	0xbf2d5480	-0.6770706
1	0xbe734367	-0.2375618
2	0xc10b938a	-8.72352
3	0xbec8f538	-0.39249587
4	0x3d3b09f7	0.0456638
5	0x4018287b	2.3774707
6	0xbc979f86	-0.018508684
7	0x4079bdb4	3.9022036
8	0x407883bf	3.8830411
9	0xbdb2810d	-0.08716021
10	0x41148479	9.282342
11	0xbf968998	-1.176074
12	0xbdb17d99	-0.08666534
13	0xbf1b79f6	-0.6073297
14	0x4077f139	3.874098
15	0x3ca2f5ea	0.019892652
16	0x40790282	3.890778
17	0xbf10ef4d	-0.56615144
18	0xbf04341e	-0.51642025
19	0xbec348b3	-0.38141403
20	0xbcd41223	-0.025887555
21	0x4080082b	4.000997
22	0x3ce88dc5	0.028387913
23	0xc0cfbb92	-6.491647
24	0xc0ff8ae4	-7.9857044
25	0xc1099930	-8.599899
26	0xbdaa546a	-0.08316882
27	0x40714be9	3.7702582
28	0x4076c49c	3.85575
29	0x3f965330	1.1744137
30	0x407d9902	3.9624639
31	0xbda70e62	-0.0815704
32	0xbd0843b4	-0.03326769
33	0xbd256658	-0.040380806
34	0x4078ad54	3.885579
35	0xbf5bcdab	-0.858607
36	0x3d80a256	0.06280963
37	0x401cbb28	2.448923
38	0x4074fbde	3.8278728
39	0x41188d19	9.534448
40	0x400d86cc	2.2113523
41	0xbba1476d	-0.0049218447
42	0xbd63e47c	-0.05563782
43	0xbcac045f	-0.020998178
44	0x4081ad81	4.0524297
45	0x407ef1b8	3.9835033
46	0x3d8b3a05	0.06798176
47	0xbfd8fdb4	-1.6952424
48	0xc0ce4785	-6.4462304
49	0x3cf66fd7	0.030082626
50	0xbeace08e	-0.33765072
51	0xbf36365e	-0.7117671
52	0x3c638bfa	0.0138883535
53	0xbf0a80e1	-0.54102904
54	0x407d262e	3.9554553
55	0xbc75a4b4	-0.014992882
56	0xbd02c5b1	-0.031926814
57	0x407bb209	3.9327414
58	0xbf083354	-0.5320332
59	0xc10bddaf	-8.741622
60	0x3c9327dd	0.017963344
61	0xc0ab4ccb	-5.353124
62	0xbe7b2e03	-0.24529271
63	0xbe9db9f3	-0.3080593
64	0xc0f2eb27	-7.591205
65	0xbcf93736	-0.030421834
66	0x40726d51	3.7879221
67	0x40794551	3.8948557
68	0x40173d91	2.3631327
69	0x4013d828	2.3100681
70	0xbda69a34	-0.08134881
71	0x40722903	3.7837532
72	0x3c80aeda	0.015708376
73	0xbdb7e042	-0.08978321
74	0x407fc117	3.9961603
75	0xc104c4ff	-8.298095
76	0x4075a361	3.8380969
77	0x406d0cef	3.7039144
78	0xc0522e0a	-3.28406
79	0x3f96356c	1.1735053
80	0xbf04aaaf	-0.5182294
81	0xbd051af8	-0.032496423
82	0x406df068	3.7177982
83	0xbf08495b	-0.5323693
84	0x3d9467a5	0.07246331
85	0xbd09d8c8	-0.033654004
86	0x3cc0b7ec	0.0235252
87	0x4015e4e5	2.3420956
88	0x407b9c7c	3.931426
89	0xbd247cb2	-0.04015798
90	0xc0e924dc	-7.2857494
91	0xc0978587	-4.7350497
92	0x3888f52f	6.530654e-05
93	0x3e00e5ac	0.12587613
94	0xbd61ba06	-0.055109046
95	0x407deb6f	3.9674947
96	0xc0e23452	-7.0688868
97	0x3c69fcaf	0.014281436
98	0x40798c2e	3.899181
99	0xbdc37df7	-0.0954551
100	0xbda63af5	-0.08116714
101	0xc10afaf3	-8.686267
102	0xc043f7a3	-3.0619895
103	0x4108ebe5	8.557591
104	0xbced57c3	-0.028972512
105	0xc0c7d1f3	-6.2443786
106	0x3d041e96	0.03225573
107	0xc0f493fd	-7.643065
108	0x3fecd103	1.8501285
109	0x3c1fa633	0.009744215
110	0x401aa973	2.4165924
111	0x40759290	3.8370705
112	0xbeea7f00	-0.45800018
113	0xbd6e06ba	-0.058111884
114	0xbee4b24b	-0.44667277
115	0x3ee7a174	0.45240366
116	0xc108dcd1	-8.55391
117	0xc0a9fe84	-5.312319
118	0x3c74706e	0.014919383
119	0xbf2a4a4e	-0.6651963
120	0xc0b35e9e	-5.6053
121	0xc0ce7515	-6.4517922
122	0xc1070f91	-8.4413
123	0xbd9c8382	-0.076422706
124	0x4078b479	3.8860152
125	0xbdc68da7	-0.09694987
126	0xbee6a24a	-0.45045692
127	0x401b7a02	2.4293218

net.4.weight f4 [20, 128]
0	0xbfae91c6	-1.3638237
1	0xbf946838	-1.1594305
2	0x40f97434	7.795435
3	0xbf98bd9c	-1.1932864
4	0xbc8d01d8	-0.017212793
5	0x409cae61	4.8962865
6	0x3d7a8515	0.061162073
7	0x40819a77	4.0501056
8	0x40946bbc	4.638151
9	0xbd0cf078	-0.034409016
10	0x3ff38a6f	1.9026622
11	0xbfb5ebf2	-1.421263
12	0x3cf05337	0.029336555
13	0xbfab9000	-1.340332
14	0x408f92fc	4.4866924
15	0xbc6b2a2a	-0.014353314
16	0x40881f01	4.2537847
17	0xbf854fc4	-1.0414968
18	0xbf936bea	-1.1517308
19	0xbf8f6549	-1.1202785
20	0xbd40c83f	-0.04706597
21	0x4084eb49	4.1537213
22	0xbd8a5ae2	-0.06755616
23	0x40ec0d4c	7.376623
24	0x40f5f9b6	7.6867323
25	0x40f432b8	7.6311913
26	0x3c1e8e23	0.009677443
27	0x408b479f	4.352493
28	0x40958ef3	4.6737
29	0x409b6f1a	4.857312
30	0x408cf8f3	4.4053893
31	0x3bfb668f	0.007672138
32	0x3a3d007d	0.00072098506
33	0x3d49b0ba	0.049240805
34	0x40885e99	4.2615476
35	0xbfb12bf5	-1.384154
36	0xbd8d66a0	-0.0690434
37	0x409a3d85	4.8200097
38	0x408ecc5c	4.462446
39	0x400150f9	2.0205672
40	0x40976d6e	4.732108
41	0xbc16693c	-0.009180363
42	0x3d1beb23	0.03806604
43	0xbb42610c	-0.0029659895
44	0x4091307b	4.537168
45	0x408aa937	4.333156
46	0xbd9323b3	-0.071845435
47	0x40a66a51	5.200478
48	0x40efff22	7.499894
49	0x3dadb798	0.08482283
50	0xbf92d6ae	-1.1471765
51	0xbf9ca13f	-1.2236708
52	0xbf85a493	-1.0440849
53	0xbf9ed52c	-1.2408805
54	0x4088e8cf	4.278419
55	0x3d973b81	0.07384396
56	0xbcac53f7	-0.021036131
57	0x40927f9f	4.5780787
58	0xbf820b2f	-1.0159663
59	0x40f81aca	7.75327
60	0x3d65299c	0.055947885
61	0x40dfc909	6.9932904
62	0xbf8fa15e	-1.122112
63	0xbf8134c8	-1.0094233
64	0x40f1e5f9	7.559323
65	0xbd03be83	-0.032164108
66	0x408b09e5	4.344958
67	0x40887c13	4.265146
68	0x409b177e	4.8466177
69	0x409b9093	4.861398
70	0x3d2f742d	0.042835403
71	0x4081b4f0	4.053337
72	0xbd2f9246	-0.042864107
73	0xbf8a67ca	-1.0812924
74	0x408b47fc	4.352537
75	0x40f68056	7.703166
76	0x408f90ae	4.486411
77	0x406ebadd	3.7301552
78	0x40c4c727	6.1493106
79	0x40978419	4.734875
80	0xbfa62e76	-1.2982929
81	0xbb82ee2d	-0.003995678
82	0x408eb617	4.459728
83	0xbf984545	-1.1896139
84	0xbb8c0505	-0.0042730593
85	0x3da46ff9	0.080291696
86	0x3da9329c	0.08261606
87	0x409549ae	4.665244
88	0x408ed4a3	4.4634566
89	0x3d1e3885	0.03862812
90	0x40f2d566	7.5885496
91	0x40dae3ac	6.840292
92	0x3dace060	0.08441234
93	0x40965e79	4.6990323
94	0x3d5f9a5c	0.054590568
95	0x408e0403	4.4379897
96	0x40ee2a5e	7.442672
97	0xbd495dbf	-0.04916167
98	0x408b6a30	4.3567123
99	0xbc9724e2	-0.018450204
100	0x3d8cea2c	0.06880602
101	0x40f5c905	7.6807885
102	0x40c07b4c	6.015051
103	0x3f9941c7	1.1973199
104	0xbc4b7abe	-0.012419401
105	0x40ecc45e	7.3989706
106	0x3c89bed6	0.01681463
107	0x40f2d7ae	7.588828
108	0x4098c0ae	4.7735205
109	0x3cd94192	0.026520524
110	0x40995517	4.791637
111	0x408608f3	4.1885924
112	0xbf9cca10	-1.2249165
113	0xbd97a5b9	-0.07404656
114	0xbfa23c8d	-1.2674729
115	0xbee62c7b	-0.4495581
116	0x40f5c143	7.6798415
117	0x40e1889d	7.0479264
118	0x3d1d9627	0.038473275
119	0xbf9a18ec	-1.2038856
120	0x40e90bdd	7.282698
121	0x40eab46e	7.334525
122	0x40fa18c9	7.8155255
123	0xbd116af9	-0.035502408
124	0x4085da9a	4.1829348
125	0x3da3001c	0.07959005
126	0xbfa35d02	-1.2762759
127	0x409b7b87	4.858829
128	0xbf3e4a69	-0.7433229
129	0xbf13f9bc	-0.5780294
130	0x40e4cad3	7.149759
131	0xbf52dcfd	-0.8236845
132	0xbd86f04b	-0.06588801
133	0x40916a1b	4.5442023
134	0xbcb46b97	-0.02202396
135	0x408193a5	4.049273
136	0x408acafd	4.337279
137	0x3d6d75f9	0.057973836
138	0x3e47d917	0.19516407
139	0xbf834c6a	-1.0257695
140	0xbcbc35e7	-0.022974921
141	0xbf3e7aed	-0.7440632
142	0x4087755b	4.2330756
143	0x3bf34590	0.007424064
144	0x4083aa25	4.1145196
145	0xbf133b81	-0.5751267
146	0xbf25625f	-0.6460323
147	0xbf277ee1	-0.65427977
148	0x3d9ba7e0	0.07600379
149	0x4082ea52	4.0911036
150	0x3d1f3fbc	0.03887914
151	0x40e6e873	7.215875
152	0x40e35345	7.1039147
153	0x40e1f444	7.0610676
154	0x3da9b52e	0.082865104
155	0x4084471d	4.133681
156	0x408c167e	4.3777456
157	0x40940f94	4.6269016
158	0x4088798d	4.2648377
159	0x3daa8ed1	0.08328021
160	0x3d34cb27	0.044139054
161	0xbd0d8314	-0.034548834
162	0x4085f328	4.185932
163	0xbf59d994	-0.8509762
164	0xbd54a4d6	-0.051915012
165	0x408ff0c0	4.4981384
166	0x40871f99	4.222607
167	0x3edce5fb	0.4314421
168	0x40913f0f	4.5389476
169	0x3c2133a3	0.009838971
170	0x3d2563f4	0.040378526
171	0xbd0c9d72	-0.03432984
172	0x408a0dfa	4.314206
173	0x40864364	4.1957264
174	0xbd8a550d	-0.067545034
175	0x40bf1d45	5.972323
176	0x40e8cab0	7.274742
177	0x3be2ff02	0.006927372
178	0xbf1eef81	-0.62084204
179	0xbf2e4496	-0.68073404
180	0xbf31a12c	-0.69386554
181	0xbf51fc70	-0.82025814
182	0x408964a5	4.2935357
183	0xbd969599	-0.07352752
184	0x3cf69535	0.030100444
185	0x408c58a2	4.3858194
186	0xbf1a3cd6	-0.6024908
187	0x40e4b51f	7.1471095
188	0x3d2d563e	0.042318575
189	0x40e6acc2	7.2085886
190	0xbf1c5f4e	-0.61082923
191	0xbf16e4cc	-0.58942866
192	0x40e58666	7.172656
193	0x3dae640b	0.085151754
194	0x408704a3	4.219316
195	0x408476aa	4.1394854
196	0x408f42f7	4.4769244
197	0x408fe1ea	4.4963274
198	0xbbdfedea	-0.0068337815
199	0x4079b507	3.901674
200	0xbca6b9d7	-0.020352287
201	0xbf14969e	-0.58042324
202	0x40887e3e	4.2654104
203	0x40e21a6a	7.0657244
204	0x4088b758	4.272381
205	0x406e6d19	3.7254088
206	0x40da63c1	6.824677
207	0x409455f9	4.6354947
208	0xbf577cd8	-0.8417487
209	0xbc6d4720	-0.01448229
210	0x408976d8	4.2957573
211	0xbf49351a	-0.7859665
212	0xbd2f4248	-0.04278782
213	0xbd70c04a	-0.05877713
214	0x3d5af1e7	0.053453352
215	0x408cee79	4.4041104
216	0x4089ff7b	4.3124366
217	0xbd3e2103	-0.0464182
218	0x40e8067a	7.2507906
219	0x40e5a26f	7.1760783
220	0x3d2110b3	0.039322566
221	0x409e2534	4.9420414
222	0x3d2c7de4	0.042112246
223	0x4086ff0b	4.218633
224	0x40e642db	7.195661
225	0x3d89e67e	0.06733416
226	0x40853202	4.1623545
227	0xbda85e5e	-0.08221124
228	0xbd77b005	-0.0604706
229	0x40e306c0	7.094574
230	0x40d7dfa9	6.7460523
231	0x3f101faf	0.56298345
232	0xbd9eac95	-0.07747761
233	0x40ea7ff1	7.328118
234	0x3d87a3e1	0.06623054
235	0x40e4edef	7.1540446
236	0x408fa0c2	4.4883738
237	0x3d5131ed	0.051073004
238	0x408fda6c	4.495413
239	0x40830dea	4.0954485
240	0xbf1ecc03	-0.6203005
241	0x3d508ba5	0.050914425
242	0xbf435bcf	-0.76311964
243	0xbf0b2549	-0.5435377
244	0x40e2aefe	7.0838614
245	0x40e84ca1	7.259354
246	0x3da520b3	0.080628775
247	0xbf33ca43	-0.702305
248	0x40e649c5	7.196505
249	0x40ea3455	7.318888
250	0x40e14d74	7.0407047
251	0xbcd82e8d	-0.026389385
252	0x40823b0c	4.069708
253	0xbd991cf6	-0.07476227
254	0xbf35c905	-0.71009856
255	0x408e8fd6	4.455058

net.4.bias f4 [20]
0	0x4001b666	2.0267577
1	0x3fe2a68e	1.7707078
2	0x3fcefb66	1.6170471
3	0x3fddf7c7	1.7341241
4	0x3f8fe63a	1.1242135
5	0x3f9f7b87	1.2459573
6	0x3fc912e8	1.5708895
7	0x3fd06bbe	1.628288
8	0xbdb2a4cc	-0.08722839
9	0x3ff00691	1.8752004
10	0x3eae820d	0.34083596
11	0x3ef8d731	0.48601678
12	0x3f517784	0.8182299
13	0x3ec40cb2	0.38290936
14	0x3f8568f4	1.0422654
15	0xbedd8e86	-0.432728
16	0x3ee9f730	0.45696402
17	0xbbbfba43	-0.0058510615
18	0x3f446adc	0.76725554
19	0x3d83e9e8	0.064410985
