realtime_model_ep243.pth (torch, 97610 bytes, 6 tensors)

net.0.weight f4 [128, 35]
000000 e4 63 16 c0 49 f8 f4 41 24 58 d3 be e6 89 18 bf
       -2.3498468 30.621233 -0.41278183 -0.59585416
000010 e6 81 83 be e6 5f c1 bf dc c3 e8 41 56 f4 f0 be
       -0.25685042 -1.5107391 29.095634 -0.47061414
000020 11 cb a3 3f e8 2f eb 3e 42 06 f8 bf 69 1e eb 41
       1.2796346 0.45934987 -1.937691 29.389849
000030 11 e9 f9 be 74 48 03 40 f3 bd 93 bd 18 cf 9c bf
       -0.48810628 2.0512972 -0.07213964 -1.22507
000040 fb 33 eb 41 dc c2 32 bf 3f ea 90 3f 85 88 4a bf
       29.400381 -0.6982858 1.1321486 -0.7911456
000050 c0 70 07 c0 f7 02 ec 41 a6 f4 0b bf ff 6d 1f 40
       -2.1162567 29.501448 -0.5467018 2.4910886
000060 80 1d df be 4f 2c df 40 e6 f8 d1 40 1d fe 0c 41
       -0.43577194 6.974159 6.561633 8.812039
000070 bc 22 df 40 e0 64 cc 40 3c 1a bb 40 88 75 c8 40
       6.97299 6.387314 5.8469524 6.264347
000080 8b 0a dd 40 33 8a 6e 40 d2 f5 d9 40 63 02 14 c0
       6.907537 3.727185 6.8112574 -2.3126457
000090 1b 46 f5 41 d2 26 85 be 92 21 de be 8e 64 65 be
       30.659231 -0.2600618 -0.43384987 -0.2240164
0000a0 07 d5 a2 bf a8 1d ea 41 41 2c 3c bf 1c 2c 9c 3f
       -1.2721261 29.26448 -0.73505026 1.2200961
0000b0 dd c9 fd 3e 7e 7c e1 bf 70 a7 eb 41 73 f1 08 bf
       0.49568072 -1.7616117 29.456757 -0.5349342
0000c0 fc 1e 05 40 a1 9d b7 3c 05 d6 9d bf bb db ea 41
       2.0800161 0.02241403 -1.2330939 29.35729
0000d0 96 01 3d bf 30 33 91 3f ee 76 18 bf 73 3b 02 c0
       -0.73830545 1.1343746 -0.5955647 -2.0348785
0000e0 dd 0a eb 41 6b d1 30 bf a1 36 1c 40 d6 dd 41 bf
       29.380304 -0.69069546 2.4408343 -0.7572912
0000f0 50 a0 e2 40 54 19 d0 40 21 63 0d 41 30 57 dd 40
       7.0820694 6.503092 8.836701 6.916893
000100 ea 38 c3 40 23 c6 b8 40 20 c7 c6 40 7d d3 dc 40
       6.1006975 5.7741866 6.2118073 6.9008164
000110 43 01 63 40 f5 91 dd 40 31 e5 0f c0 dc 28 f6 41
       3.546952 6.924067 -2.2483637 30.76995
000120 d1 c9 45 be 9b f6 33 bf fd 37 cf 3d e6 9c 9f bf
       -0.19315268 -0.70298165 0.10118101 -1.2469757
000130 37 52 ec 41 20 f7 da be 9e b4 9a 3f 25 41 4e 3f
       29.540144 -0.42766666 1.208637 0.8056815
000140 84 a6 e4 bf 3e 68 ed 41 cb e1 2d be 25 7e 01 40
       -1.7863317 29.6759 -0.16980664 2.0233243
000150 d2 de 4d 3e c6 aa 9c bf d2 05 ee 41 b9 e5 04 bf
       0.2010453 -1.2239616 29.752842 -0.5191303
000160 9d 56 dc 3f 33 79 a5 be aa e9 06 c0 d6 eb ee 41
       1.7213932 -0.3231903 -2.1080117 29.865154
000170 43 7e a6 be 5d c0 1b 40 73 3e a4 be c3 ca ec 40
       -0.32518205 2.433616 -0.32078895 7.399751
000180 94 ce e2 40 a1 a0 0c 41 12 10 e1 40 8b 09 d4 40
       7.087717 8.789216 7.0332117 6.626165
000190 14 67 bf 40 69 f4 d3 40 66 30 e5 40 51 a4 6d 40
       5.981333 6.623585 7.162158 3.713154
0001a0 bc 39 e2 40 bf c7 08 c0 b0 24 f3 41 7a 40 20 c1
       7.0695477 -2.1371915 30.392914 -10.015741
0001b0 53 5e f6 bf de f8 4f c1 4c 05 9c bf 1e f2 e9 41
       -1.9247535 -12.998259 -1.2189116 29.243221
0001c0 cd 8a 27 c1 b1 8d 9c 3f 7f 15 41 c1 14 ab c6 bf
       -10.471387 1.2230741 -12.067748 -1.5520959
0001d0 83 c9 e8 41 2b 9d 27 c1 85 f2 ad 3f 94 fe 4a c1
       29.098394 -10.475871 1.3589636 -12.687153
0001e0 12 30 90 bf 3d a6 ea 41 ae 9c 2a c1 c9 e8 5b 3f
       -1.126467 29.331171 -10.663252 0.85902077
0001f0 ce 48 47 c1 9b a9 fe bf 84 ee e9 41 39 a8 28 c1
       -12.455275 -1.989551 29.241463 -10.54107
000200 b8 47 0d 40 67 e5 4b c1 15 0d 09 41 6f 6b fe 40
       2.2075024 -12.743506 8.565694 7.9506145
000210 42 70 3f 41 57 4d 25 41 c0 bf 0b 41 61 e5 1d 41
       11.964907 10.331382 8.734314 9.868501
000220 28 a5 06 41 cb 0a 21 41 3f c8 d8 40 79 46 11 41
       8.415321 10.065135 6.774444 9.079705
000230 85 ad 0c 3f bc ad a0 c1 ca ab 2b 41 d7 bc 0f 40
       0.5495227 -20.084831 10.729441 2.2459009
000240 40 a4 ff 40 cc 56 8f 3e 8d b6 95 c1 98 a4 34 41
       7.9888 0.27995908 -18.714136 11.290184
000250 36 53 f0 3f fb 77 ea 40 cb 3f 6c 3e 6e b6 96 c1
       1.8775394 7.327146 0.2307121 -18.839077
000260 8d 44 2e 41 ac e5 5b 40 d8 d1 0e 41 8f 78 7e 3f
       10.891736 3.435893 8.926231 0.9940271
000270 6f 5b 98 c1 16 a1 33 41 82 5d e0 3f 0e 00 13 41
       -19.044645 11.226828 1.7528536 9.187513
000280 da 9b 33 3f d2 34 97 c1 92 d0 34 41 44 da 76 be
       0.70159686 -18.900791 11.3009205 -0.24106699
000290 26 6f 03 41 95 7e cc 40 a9 4a c3 40 d5 46 b5 40
       8.214636 6.390452 6.102864 5.6648965
0002a0 d5 ab c8 40 be 39 21 41 ba 31 bc 40 c7 a8 ce 40
       6.2709756 10.076597 5.88107 6.4581027
0002b0 fa e2 f5 40 1c 85 fa 40 a6 84 03 41 19 0b 19 c0
       7.683957 7.8287487 8.219885 -2.3913023
0002c0 e4 83 f3 41 4c e2 3b bf 9c 6a 0c bf a0 e3 08 bf
       30.4394 -0.73392177 -0.54850173 -0.5347233
0002d0 93 d9 bf bf 5b f7 e7 41 a7 30 8a bf 87 5b 94 3f
       -1.4988273 28.995779 -1.0796098 1.1590432
0002e0 5a bb 37 3e 19 bb cd bf 3d 7a e9 41 8e 54 56 bf
       0.17942563 -1.6072723 29.184687 -0.8372277
0002f0 86 97 0c 40 b6 97 07 bd 49 13 9f bf 28 11 e9 41
       2.1967483 -0.033103667 -1.242776 29.133377
000300 1d 80 8e bf 89 55 5d 3f 20 ca 71 bf 3f 36 ef bf
       -1.1132847 0.8645864 -0.94449043 -1.868843
000310 e4 ad e9 41 3d 71 74 bf 0f 34 21 40 1f 34 23 bf
       29.209908 -0.9548529 2.5188024 -0.63751405
000320 17 02 db 40 c5 b8 c7 40 9d 55 08 41 9e 45 d3 40
       6.844005 6.241305 8.520902 6.602248
000330 19 a3 c2 40 aa a8 b3 40 20 5c c2 40 75 0a d5 40
       6.0824094 5.614339 6.0737457 6.6575265
000340 f1 0d 55 40 30 c0 d4 40 ea 60 bf 3c ae 76 95 3d
       3.328976 6.6484604 0.023361642 0.07298027
000350 5c ac 09 be 53 3b 38 bb b4 12 e3 bd 69 f9 52 3d
       -0.13444656 -0.0028111532 -0.11087552 0.051507387
000360 09 03 a0 3c 4b 51 86 3d ad a6 05 be 0b 9e ac bd
       0.019532697 0.06558474 -0.13051863 -0.08428582
000370 b2 c9 12 be e1 22 ca 3d 36 27 e4 bd 42 e8 14 bc
       -0.14334753 0.09869934 -0.111402914 -0.009088578
000380 e4 30 e9 bd c7 bd 03 3e 12 6f d6 3d e4 97 55 bc
       -0.11386278 0.12865363 0.10470404 -0.013036702
000390 68 b8 a1 bd ac f6 e0 3d 37 6c 27 3e c2 2c 09 be
       -0.07896501 0.10984549 0.16349874 -0.1339598
0003a0 e2 f8 a9 3c 0e 59 d5 bd 4c 6a 3a 3d 30 a9 ca ba
       0.02074856 -0.104173765 0.04551153 -0.0015461799
0003b0 2a a2 ba bd 8e eb f6 bd d4 88 65 3d ab a9 13 be
       -0.091129616 -0.12056647 0.056038693 -0.14420192
0003c0 af b4 84 bd 9d 33 19 be e0 a2 04 be 8b 46 8b 3d
       -0.06479775 -0.14961095 -0.12952757 0.068005644
0003d0 84 2e d9 3d 78 26 19 c0 58 9b f3 41 16 6a 28 bf
       0.10604575 -2.392973 30.450851 -0.65786874
0003e0 5b be 27 bf 7f d3 9f be 9e 08 af bf 87 a0 e8 41
       -0.65524834 -0.31216046 -1.3674505 29.078382
0003f0 8f 98 8e bf 8b 10 98 3f 1d db 3b 3e 0a 61 c9 bf
       -1.1140307 1.1880049 0.18345304 -1.5732739

net.0.bias f4 [128]
000000 65 c8 45 40 7a d7 3e 40 2d 23 4e 40 7a 8b 9b c0
       3.090356 2.9819016 3.220897 -4.860776
000010 49 2e 1f 41 0a 12 2e 40 5f fc 41 be 43 ba 26 40
       9.9488 2.719851 -0.18943928 2.6051185
000020 69 04 23 40 e3 b2 4a 40 b0 99 1d 40 68 19 2b 40
       2.5471442 3.1671684 2.4625053 2.6734257
000030 fc dc 1b 41 20 c3 20 41 b2 cb 2b 40 32 bc 25 40
       9.741451 10.047638 2.6843076 2.5896115
000040 ed 15 25 40 13 c4 1d 41 87 60 2c 40 b4 e8 1e 41
       2.5794632 9.86037 2.6933916 9.931812
000050 c3 34 6a 3c e8 2b 3f 40 a1 b9 19 be d0 e0 c0 3f
       0.014294806 2.9870548 -0.15012218 1.5068607
000060 fb 62 40 40 ec 9b ae c0 6f 2a 20 41 ce 88 20 40
       3.0060413 -5.4565334 10.01036 2.50835
000070 e3 db 25 40 6b fd 4b 40 e8 5f 43 40 dd 8f 1e 40
       2.5915458 3.1873424 3.0527287 2.4775307
000080 7a 68 21 40 f4 24 22 41 56 70 1f 41 88 01 41 40
       2.5220017 10.134022 9.964926 3.0157185
000090 82 6b 2b 40 d5 7d 1d 41 c2 7a 21 40 d8 1d 21 40
       2.6784368 9.843221 2.5231175 2.5174465
0000a0 6b e9 52 40 3b a2 1d 41 4d 50 21 40 16 d8 20 40
       3.2954967 9.852107 2.5205262 2.5131888
0000b0 2d 5d ae bd e0 ec b4 bc 13 5e e3 3f 34 c3 66 bd
       -0.085138656 -0.022085607 1.7763084 -0.056338504
0000c0 91 b4 34 40 4e 69 0f bd 81 6a 23 40 06 4d 1c be
       2.823521 -0.035012536 2.5533755 -0.15263757
0000d0 07 7d 1c 41 95 80 1c 40 d8 f8 23 40 03 e4 1f 40
       9.780524 2.445348 2.5620632 2.4982917
0000e0 b8 c3 19 40 73 21 1f 41 a5 0f 43 be 46 d3 45 40
       2.4025707 9.945666 -0.19048937 3.09102
0000f0 51 f9 18 40 a7 e9 1f 41 68 11 54 40 1a a3 68 bd
       2.390217 9.994544 3.3135624 -0.05679617
000100 45 8d 4f 40 21 71 4e 40 e3 ae 26 40 5b d0 1a 40
       3.2429974 3.2256548 2.6044242 2.418967
000110 2a 35 1d 41 f6 68 1b 41 49 af 1f 40 12 17 34 40
       9.8254795 9.713125 2.4950736 2.813908
000120 11 44 48 40 87 f7 20 40 e7 fb 1f 41 b1 8a 27 40
       3.1291544 2.5151079 9.999 2.61784
000130 f1 8b 1b 41 b6 ae 22 40 e6 dc 22 40 3c 32 20 3d
       9.721665 2.5419135 2.5447326 0.039110407
000140 bb 4b 22 40 a5 d2 28 40 5d 25 21 40 fb 5d 34 be
       2.5358722 2.6378567 2.5179055 -0.17613976
000150 f9 bc 1c 41 46 d9 e5 3f 15 45 2b 40 ac 42 94 c0
       9.796136 1.7956932 2.6760914 -4.6331387
000160 d4 e3 99 c0 9a 68 26 40 e6 17 1c 40 74 24 1c 40
       -4.809061 2.6001344 2.4389586 2.439725
000170 12 0d 23 40 f7 7e 55 40 cb 7a 50 40 ef 3e 43 40
       2.5476727 3.3358743 3.2574947 3.0507162
000180 08 25 18 bd 8a c5 1c 40 03 0b 1f 41 a7 b3 28 40
       -0.03714469 2.4495568 9.940188 2.635965
000190 21 45 20 41 bb 6c 32 40 09 bd 23 40 2a b6 2a 40
       10.016877 2.7878864 2.5584128 2.6673684
0001a0 01 11 23 41 33 2a 1d 40 c5 79 16 40 7e 43 1b 40
       10.191651 2.4557006 2.3511822 2.4259944
0001b0 63 c5 21 40 f5 ab 2f 40 ca cf 24 40 90 3c 1c 41
       2.5276725 2.7448704 2.5751824 9.764786
0001c0 1e d5 26 40 8b 59 93 c0 70 de 1f 41 20 bd 1c 41
       2.6067576 -4.6046805 9.991806 9.796173
0001d0 f9 86 1b 41 ba ab 53 40 61 bc 50 40 47 c0 cf 3f
       9.720452 3.3073564 3.2614977 1.6230553
0001e0 f3 02 24 40 9b e1 55 40 83 ad 1e 41 63 9a 20 41
       2.56268 3.3418949 9.917361 10.037692
0001f0 cf 3e 34 40 0c 16 25 41 de 42 2d 40 46 a5 4b 40
       2.8163335 10.317883 2.7072062 3.1819625

net.2.weight f4 [128, 128]
000000 8a aa a2 40 d2 62 a0 40 9a f5 a2 40 64 0d 4a c1
       5.0833178 5.012063 5.0924807 -12.628269
000010 66 31 23 40 ed c7 39 40 1d 31 be 3b 1b e8 39 40
       2.54989 2.9028275 0.0058041946 2.9047916
000020 52 10 20 40 bd 15 a3 40 1c 4a 15 40 35 e4 50 40
       2.500996 5.0964036 2.3326483 3.2639287
000030 d8 c7 32 40 66 72 2b 40 cf 43 12 40 bc 5e 18 40
       2.7934475 2.6788573 2.2853887 2.3807821
000040 2a 3a 32 40 c2 66 36 40 6b ae 4e 40 49 72 1d 40
       2.7848 2.8500218 3.2293956 2.4601004
000050 65 33 9a bd 7d 9d a3 40 3b ad 67 3d 76 4c 0f 41
       -0.07529334 5.1129746 0.05656169 8.956167
000060 28 e5 a2 40 4c af 52 c1 06 7f 19 40 f4 3c 26 40
       5.090473 -13.167797 2.398378 2.5974703
000070 4e ba f5 3f 00 99 9e 40 bd 4e 9e 40 fa 3b ff 3f
       1.9197481 4.9561768 4.9471116 1.9940178
000080 aa 97 e9 3f 35 70 28 40 ed 08 1e 40 8d 72 a4 40
       1.8249409 2.6318486 2.4692948 5.1389832
000090 cb ab 5c 40 88 a0 29 40 56 e6 44 40 bb f8 01 40
       3.4479854 2.650423 3.0765586 2.0308063
0000a0 13 7e a1 40 81 4a 28 40 8e d9 02 40 b4 15 45 40
       5.04664 2.6295474 2.0445285 3.0794497
0000b0 0d 22 b5 3c 2a dc 48 3d fd 9a 18 41 fa 95 c0 3c
       0.022110963 0.04903809 9.537839 0.023509014
0000c0 b3 65 92 40 e5 06 3b 3d c9 5a 39 40 8e 8e 4f 3d
       4.5749145 0.045660872 2.896166 0.05067306
0000d0 f1 60 2a 40 dd 0a 3b 40 3f 87 1c 40 3d bb e5 3f
       2.6621668 2.922538 2.4457548 1.7947766
0000e0 d0 c3 17 40 44 67 1b 40 b8 90 38 3d 61 ac 9f 40
       2.3713264 2.4281778 0.04505989 4.9897923
0000f0 7f 4d 50 40 dd 2c 28 40 1f 98 a0 40 c1 0f 42 3d
       3.25473 2.6277382 5.0185695 0.047378305
000100 c8 c9 9c 40 96 91 a6 40 82 f9 55 40 b4 62 8e 3f
       4.8996315 5.2052717 3.3433537 1.1123872
000110 4a 40 20 40 c2 75 31 40 5d 97 81 40 8f 6c 91 40
       2.503924 2.7728124 4.049727 4.544502
000120 ec e9 a2 40 8f 72 b9 3f 10 b3 25 40 10 4e 8c 40
       5.091055 1.4488086 2.589054 4.384529
000130 5a ed 32 40 a4 0a 36 40 7b 42 3b 40 b9 6f b2 bd
       2.7957368 2.8443995 2.9259326 -0.08712716
000140 6a e8 32 40 bf 4c d1 3f da 0f 37 40 e5 0a 54 3d
       2.7954354 1.6351546 2.8603425 0.051768202
000150 60 72 2d 40 76 29 17 41 d9 78 96 40 b2 03 52 c1
       2.710106 9.447622 4.702252 -13.125902
000160 c6 64 4c c1 c4 61 c2 3f e8 5c 01 40 87 2c 4f 40
       -12.774603 1.5186086 2.0212955 3.2370927
000170 92 8c 27 40 f9 13 a4 40 c8 b8 a1 40 13 4c a2 40
       2.6179547 5.127438 5.0538063 5.0717864
000180 be 73 9f bd 77 a5 0f 40 d0 9a 1e 40 b0 c7 65 40
       -0.07785748 2.2444742 2.478199 3.590313
000190 41 2e 24 40 eb 43 8f 40 41 fd cd 3f a4 eb 20 40
       2.565323 4.477041 1.6092912 2.5143824
0001a0 51 40 18 40 7e 7a 67 40 37 0f b1 3f a3 e3 02 40
       2.3789256 3.6168513 1.3832768 2.0451438
0001b0 e7 35 4b 40 e3 92 6d 40 43 da 39 40 08 7a 28 40
       3.175165 3.7120903 2.9039466 2.6324482
0001c0 0e c0 f5 3f 9e c2 4a c1 78 e1 1e 40 ba 3f 2f 40
       1.9199235 -12.672514 2.4825115 2.7382646
0001d0 16 bf 28 40 91 79 a2 40 50 cd 9e 40 32 d9 17 41
       2.636663 5.0773396 4.9625626 9.490526
0001e0 41 71 23 40 b7 03 a0 40 1a c2 26 40 6d b3 26 40
       2.5537875 5.0004535 2.605597 2.6047013
0001f0 b4 7e a1 40 19 63 22 40 eb a9 92 40 31 c5 a3 40
       5.0467167 2.5372984 4.583242 5.117821
000200 55 d5 9f 40 6e 07 a0 40 52 02 a3 40 da bf 4c c1
       4.9947915 5.000907 5.0940332 -12.796839
000210 af fc 3a 40 2a 6a 25 40 a7 e9 d6 3c 3a 49 2a 40
       2.9216726 2.5846047 0.026234461 2.6607194
000220 2d e9 1a 40 bf c8 a6 40 93 46 0b 40 c0 37 50 40
       2.420482 5.212005 2.1761825 3.2534027
000230 1e 67 46 40 73 c3 3c 40 65 04 08 40 c9 ab 13 40
       3.1000438 2.9494293 2.1252682 2.30736
000240 8b a7 29 40 97 c3 46 40 94 eb 3d 40 ef fa 3b 40
       2.650851 3.1056879 2.9675035 2.9371908
000250 e1 a8 ad bd 7b 41 a6 40 41 69 66 bb d7 da 0f 41
       -0.08479477 5.195493 -0.003515795 8.990928
000260 bf da a4 40 da 05 54 c1 05 2f 30 40 57 af 20 40
       5.1517024 -13.251429 2.7528698 2.510702
000270 2d 8d f0 3f 0c 72 a3 40 f5 62 a3 40 0c 63 02 40
       1.8793083 5.1076717 5.1058297 2.0372953
000280 1e 2a f9 3f fb 30 43 40 d8 d1 37 40 a9 99 a3 40
       1.9465978 3.0498645 2.8721828 5.1125073
000290 a1 32 4d 40 4b 37 3b 40 6d 97 3f 40 69 6d f2 3f
       3.2062151 2.9252498 2.9936173 1.8939639
0002a0 5e c9 a2 40 c9 32 3a 40 a0 fd 01 40 79 52 3b 40
       5.087081 2.9093497 2.031105 2.9269087
0002b0 99 77 1e 3b 91 e9 e7 3c 47 9f 16 41 e1 09 21 3d
       0.0024180172 0.028309615 9.413886 0.039316062
0002c0 29 7b 90 40 ba 9a 11 bd 6d 2f 33 40 d4 49 14 3c
       4.515034 -0.03554795 2.7997696 0.009050805
0002d0 8e 52 3e 40 07 da 30 40 d2 26 0b 40 5d a0 f2 3f
       2.9737887 2.7633073 2.1742444 1.8955189
0002e0 b8 9d 13 40 a7 8c 2f 40 f8 92 95 bd 63 8d a5 40
       2.3065014 2.7429597 -0.07303423 5.173509
0002f0 d8 f9 41 40 02 85 3f 40 95 89 a0 40 00 3b 28 bd
       3.0308743 2.9924932 5.0167947 -0.04107189
000300 da 6b a0 40 fa 20 a8 40 eb f9 44 40 53 b2 92 3f
       5.0131655 5.2540255 3.0777538 1.146067
000310 25 b6 31 40 2a 26 47 40 ff b7 86 40 d3 c3 8b 40
       2.7767422 3.1117043 4.2099605 4.3676543
000320 64 fe a4 40 52 ad 96 3f 87 ce 43 40 ab 87 89 40
       5.1560535 1.1771643 3.0594804 4.297811
000330 b0 4d 44 40 53 b6 26 40 c4 c4 27 40 33 06 c8 3c
       3.0672417 2.6048782 2.6213846 0.024417019
000340 3e 01 2e 40 d3 35 db 3f aa cb 2e 40 a3 bb df 3c
       2.7188258 1.7125801 2.7311807 0.027311152
000350 85 1a 41 40 df 81 14 41 49 b2 96 40 3a 4b 52 c1
       3.0172436 9.281707 4.7092633 -13.143366
000360 43 2a 4e c1 9e 24 c3 3f 95 82 06 40 fa d6 3d 40
       -12.885318 1.524555 2.10172 2.9662461
000370 f1 0b 21 40 bf 26 a5 40 8a 5a a2 40 e7 e1 a4 40
       2.5163538 5.1609797 5.073552 5.152576
000380 e9 c0 02 3d 5d 1f 10 40 ff 6e 31 40 aa 35 54 40
       0.031922255 2.2519143 2.7723997 3.3157754
000390 a7 a5 3a 40 2e f5 8c 40 76 72 c4 3f 36 ed 1b 40
       2.9163606 4.404929 1.5347431 2.4363532
0003a0 52 e6 2f 40 10 5f 5b 40 6e d0 a7 3f c1 03 f3 3f
       2.7484326 3.4276772 1.3110483 1.8985521
0003b0 e6 7b 4d 40 5a 66 70 40 cf a0 2d 40 0d 4b 40 40
       3.2106872 3.756247 2.71294 3.0045807
0003c0 fa 12 01 40 b4 c4 4b c1 c2 4d 36 40 eb df 44 40
       2.0167832 -12.735523 2.848496 3.0761669
0003d0 bc 7f 39 40 47 21 aa 40 9a 60 a4 40 ee 57 15 41
       2.8984213 5.316562 5.136792 9.333967
0003e0 72 a8 19 40 30 8e a4 40 d9 ab 42 40 af b6 43 40
       2.400906 5.142357 3.0417387 3.0580251
0003f0 f2 e6 9f 40 d3 9f 34 40 fc bf 96 40 f3 7c a6 40
       4.9969416 2.822255 4.7109356 5.2027526

net.2.bias f4 [128]
000000 fc 69 28 bf 38 84 61 be 73 ff 0b c1 1c 7d bf be
       -0.6578672 -0.22023094 -8.749866 -0.37400138
000010 f7 09 3b 3d 4d 5e 13 40 86 9f 97 bc 3e 38 76 40
       0.0456638 2.3026307 -0.018508684 3.8471828
000020 f9 e6 74 40 0d 81 b2 bd 6b d5 18 41 a5 ed 93 bf
       3.8265975 -0.08716021 9.552104 -1.1556898
000030 99 7d b1 bd 7f 8a 16 bf ab 5a 74 40 ea f5 a2 3c
       -0.08666534 -0.5880508 3.818034 0.019892652
000040 61 7f 75 40 f9 0c 0d bf 51 3e ff be b2 ab b9 be
       3.8358996 -0.5509792 -0.4985223 -0.36263806
000050 23 12 d4 bc 42 8f 7c 40 c5 8d e8 3c 8a 33 d0 c0
       -0.025887555 3.9462438 0.028387913 -6.5062914
000060 ee 1a 00 c1 4e 03 0a c1 6a 54 aa bd 8a c0 6d 40
       -8.006575 -8.625807 -0.08316882 3.7148767
000070 a1 1f 73 40 f3 b3 8c 3f 4a 01 7a 40 62 0e a7 bd
       3.7988055 1.0992416 3.9063287 -0.0815704
000080 b4 43 08 bd 58 66 25 bd d7 2c 75 40 14 7f 56 bf
       -0.03326769 -0.040380806 3.8308618 -0.83787656
000090 56 a2 80 3d 09 fa 17 40 5f 6e 71 40 1a f0 1c 41
       0.06280963 2.374636 3.7723615 9.808619
0000a0 b2 bc 08 40 6d 47 a1 bb 7c e4 63 bd 5f 04 ac bc
       2.136517 -0.0049218447 -0.05563782 -0.020998178
0000b0 58 b9 7f 40 96 6b 7b 40 05 3a 8b 3d 85 30 dd bf
       3.9956875 3.9284415 0.06798176 -1.7280432
0000c0 3c bc ce c0 d7 6f f6 3c de 38 a4 be 91 55 31 bf
       -6.460478 0.030082626 -0.32074636 -0.6927119
0000d0 00 82 fe 3c e0 c5 05 bf bd 9e 79 40 b4 a4 75 bc
       0.031067848 -0.5225506 3.9003136 -0.014992882
0000e0 20 c6 58 3d 80 18 78 40 00 eb 03 bf 7a 46 0c c1
       0.05292332 3.8764954 -0.51530457 -8.767206
0000f0 dd 27 93 3c 06 90 ab c0 2c 98 6b be b7 58 95 be
       0.017963344 -5.361331 -0.23007268 -0.29169247
000100 51 77 f3 c0 36 37 f9 bc 7e e1 6e 40 a0 c2 75 40
       -7.608315 -0.030421834 3.732513 3.840004
000110 0d 6f 12 40 f7 0b 0f 40 34 9a a6 bd 30 a9 6e 40
       2.288028 2.2351053 -0.08134881 3.7290764
000120 da ae 80 3c 3e c5 93 bd 23 26 7c 40 f4 30 05 c1
       0.015708376 -0.07215355 3.9398277 -8.324451
000130 32 0b 72 40 15 d2 69 40 93 0b 52 c0 87 99 8c 3f
       3.7819333 3.6534474 -3.2819564 1.0984353
000140 6a 3e ff be f8 1a 05 bd 21 53 6a 40 d6 47 03 bf
       -0.49852306 -0.032496423 3.6613238 -0.5128149
000150 a5 67 94 3d c8 d8 09 bd ec b7 c0 3c 7e 27 11 40
       0.07246331 -0.033654004 0.0235252 2.2680354
000160 78 0a 78 40 b2 7c 24 bd 9d b1 e9 c0 6d 8e 97 c0
       3.875639 -0.04015798 -7.3029313 -4.736136
000170 2f f5 88 38 9e 12 65 3d 06 ba 61 bd 10 4e 7a 40
       6.530654e-05 0.055925958 -0.055109046 3.9110146
000180 ef b4 e2 c0 af fc 69 3c d0 09 76 40 f7 7d c3 bd
       -7.0845866 0.014281436 3.844349 -0.0954551
000190 6f 54 a6 bd 8a 64 0b c1 68 e1 43 c0 dc 3e 0d 41
       -0.08121573 -8.712046 -3.0606327 8.827847
0001a0 c3 57 ed bc b3 3e c8 c0 96 1e 04 3d 95 2b f5 c0
       -0.028972512 -6.2576537 0.03225573 -7.66157
0001b0 49 34 e3 3f 33 a6 1f 3c 7c e4 15 40 2a 0b 72 40
       1.7750331 0.009744215 2.3420706 3.7819314
0001c0 70 17 e1 be ba 06 6e bd bd d2 da be d5 58 11 3f
       -0.43963194 -0.058111884 -0.42738906 0.5677617
0001d0 20 44 09 c1 1c 54 aa c0 6e 70 74 3c 8f 98 25 bf
       -8.579132 -5.3227673 0.014919383 -0.6468591
0001e0 c7 c1 b3 c0 95 e7 ce c0 10 79 07 c1 82 83 9c bd
       -5.6174045 -6.4657693 -8.467056 -0.076422706
0001f0 ff 3c 75 40 a7 8d c6 bd e0 1a dd be 17 b8 16 40
       3.831848 -0.09694987 -0.43184566 2.354986

net.4.weight f4 [20, 128]
000000 a9 d3 b5 bf 21 05 9c bf fe 1e fc 40 df 33 a0 bf
       -1.4205219 -1.2189065 7.878783 -1.251583
000010 d8 01 8d bc d3 9c 9d 40 15 85 7a 3d d0 fa 81 40
       -0.017212793 4.9253936 0.061162073 4.0618668
000020 c2 cd 94 40 78 f0 0c bd 0b 96 e0 3f 41 fd bc bf
       4.650117 -0.034409016 1.754579 -1.4764787
000030 37 53 f0 3c ef d7 b2 bf ad f1 8f 40 2a 2a 6b bc
       0.029336555 -1.3972148 4.4982514 -0.014353314
000040 c9 7b 88 40 7a e3 8c bf 68 eb 9a bf a6 d2 96 bf
       4.2651105 -1.100692 -1.210309 -1.1783035
000050 3f c8 40 bd 46 4a 85 40 e2 5a 8a bd 11 a3 ee 40
       -0.04706597 4.1653166 -0.06755616 7.4574056
000060 e9 99 f8 40 2c dc f6 40 23 8e 1e 3c e8 a5 8b 40
       7.768788 7.7143764 0.009677443 4.364002
000070 fe f1 95 40 5f bb 9c 40 3c 59 8d 40 8f 66 fb 3b
       4.68579 4.8978724 4.417143 0.007672138
000080 7d 00 3d 3a ba b0 49 3d b8 bb 88 40 c9 3f b8 bf
       0.00072098506 0.049240805 4.272915 -1.4394466
000090 a0 66 8d bd 93 2b 9b 40 63 2c 8f 40 9f aa ef 3f
       -0.0690434 4.849069 4.4741683 1.8723944
0000a0 70 66 98 40 3c 69 16 bc 23 eb 1b 3d 0c 61 42 bb
       4.7625046 -0.009180363 0.03806604 -0.0029659895
0000b0 38 92 91 40 bb 05 8b 40 b3 23 93 bd 0e 6f a8 40
       4.549099 4.3444495 -0.071845435 5.2635565
0000c0 67 94 f2 40 98 b7 ad 3d 01 6b 9a bf 48 f0 a3 bf
       7.5806155 0.08482283 -1.2063905 -1.2807703
0000d0 91 55 8d bf f1 37 a6 bf c8 46 89 40 81 3b 97 3d
       -1.1041738 -1.2985822 4.2898903 0.07384396
0000e0 cf 6d a0 bd 7d e0 92 40 6a a3 89 bf e0 c3 fa 40
       -0.07833444 4.5899034 -1.0752995 7.8364105
0000f0 9c 29 65 3d 73 56 e2 40 60 4d 97 bf 86 d6 88 bf
       0.055947885 7.073053 -1.1820488 -1.0690467
000100 5d 7e f4 40 83 be 03 bd dd 69 8b 40 7b d8 88 40
       7.640425 -0.032164108 4.356673 4.276426
000110 3b 0d 9c 40 87 7f 9c 40 2d 74 2f 3d 9c 12 82 40
       4.876615 4.8905673 0.042835403 4.0647717
000120 46 92 2f bd dd 12 92 bf fc a7 8b 40 48 2b f9 40
       -0.042864107 -1.1412007 4.364256 7.7865334
000130 73 f1 8f 40 4c 67 6f 40 80 17 c7 40 85 d6 98 40
       4.498224 3.7406797 6.2216187 4.7761865
000140 41 74 ad bf 2d ee 82 bb 2d 16 8f 40 10 8e 9f bf
       -1.3551103 -0.003995678 4.471457 -1.2465229
000150 05 05 8c bb f9 6f a4 3d 9c 32 a9 3d 8e 35 96 40
       -0.0042730593 0.080291696 0.08261606 4.6940374
000160 cb 34 8f 40 85 38 1e 3d f0 6d f5 40 a9 64 dd 40
       4.4751945 0.03862812 7.66967 6.9185376
000170 60 e0 ac 3d 94 e3 97 40 5c 9a 5f 3d cb 64 8e 40
       0.08441234 4.7465305 0.054590568 4.449804
000180 21 c1 f0 40 bf 5d 49 bd 20 c7 8b 40 e2 24 97 bc
       7.5235753 -0.04916167 4.3680573 -0.018450204
000190 2c ea 8c 3d 25 72 f8 40 03 c7 c2 40 07 43 86 3f
       0.06880602 7.7639337 6.0867934 1.0489205
0001a0 be 7a 4b bc 1e 59 ef 40 d6 be 89 3c b8 72 f5 40
       -0.012419401 7.4796286 0.01681463 7.6702538
0001b0 7b e1 99 40 92 41 d9 3c 7e 43 9a 40 cc 65 86 40
       4.8087745 0.026520524 4.820739 4.1999264
0001c0 9f 41 a4 bf b9 a5 97 bd b4 97 a9 bf 6c 2a 10 bf
       -1.2832526 -0.07404656 -1.3249421 -0.5631473
0001d0 5c 69 f8 40 77 19 e4 40 27 96 1d 3d a5 7a a1 bf
       7.7628613 7.1281085 0.038473275 -1.2615553
0001e0 4f 9f eb 40 56 49 ed 40 bc c1 fc 40 f9 6a 11 bd
       7.363197 7.415202 7.898649 -0.035502408
0001f0 59 37 86 40 1c 00 a3 3d ee c5 aa bf 35 69 9c 40
       4.1942563 0.07959005 -1.3341653 4.8878427
000200 d0 49 46 bf 64 d0 1b bf c8 45 e8 40 ef a5 5a bf
       -0.7745638 -0.60864854 7.258518 -0.85409445
000210 4b f0 86 bd 80 af 92 40 97 6b b4 bc aa f1 81 40
       -0.06588801 4.5839233 -0.02202396 4.06075
000220 d4 2a 8b 40 f9 75 6d 3d 2c 31 a1 3e c1 54 87 bf
       4.348978 0.057973836 0.31482828 -1.057274
000230 e7 35 bc bc 91 6c 46 bf 09 d2 87 40 90 45 f3 3b
       -0.022974921 -0.7750941 4.244389 0.007424064
000240 a1 04 84 40 ae 3f 1b bf 66 4d 2d bf 5d 56 2f bf
       4.125565 -0.6064404 -0.67696226 -0.68491155
000250 e0 a7 9b 3d b0 46 83 40 bc 3f 1f 3d ed 59 ea 40
       0.07600379 4.102379 0.03887914 7.3234773
000260 dc c9 e6 40 c9 6e e5 40 2e b5 a9 3d 18 a3 84 40
       7.212141 7.1697736 0.082865104 4.144909
000270 1a 77 8c 40 dd 16 96 40 2f d7 88 40 d1 8e aa 3d
       4.389539 4.690291 4.2762675 0.08328021
000280 27 cb 34 3d 14 83 0d bd 19 4e 86 40 d6 ca 61 bf
       0.044139054 -0.034548834 4.1970334 -0.8820013
000290 d6 a4 54 bd 73 35 91 40 20 7d 87 40 12 f5 0c 3f
       -0.051915012 4.5377746 4.234024 0.5506145
0002a0 5c 9b 92 40 a3 33 21 3c f4 63 25 3d 72 9d 0c bd
       4.581465 0.009838971 0.040378526 -0.03432984
0002b0 2c 6d 8a 40 57 9d 86 40 0d 55 8a bd 5a 2d c2 40
       4.3258266 4.2067065 -0.067545034 6.068036
0002c0 e5 3b ec 40 02 ff e2 3b ef d3 26 bf ca 3f 36 bf
       7.3823113 0.006927372 -0.65167135 -0.71191084
0002d0 00 51 39 bf af df 59 bf f7 bf 89 40 99 95 96 bd
       -0.7238922 -0.8510694 4.304683 -0.07352752
0002e0 5e b7 88 3e 76 b7 8c 40 87 3a 22 bf 93 2f e8 40
       0.26702398 4.397395 -0.63370556 7.2558074
0002f0 3e 56 2d 3d 1e 1a ea 40 77 52 24 bf 6c af 1e bf
       0.042318575 7.315688 -0.6418833 -0.6198642
000300 2f f9 e8 40 0b 64 ae 3d 29 62 87 40 d6 d0 84 40
       7.280418 0.085151754 4.2307324 4.1504927
000310 8b 98 90 40 52 28 91 40 ea ed df bb 39 6c 7a 40
       4.518621 4.536172 -0.0068337815 3.9128554
000320 d7 b9 a6 bc 06 52 1c bf 85 db 88 40 69 95 e5 40
       -0.020352287 -0.6106266 4.276797 7.1744885
000330 63 15 89 40 81 1e 6f 40 cb ab dd 40 f7 68 96 40
       4.2838607 3.7362368 6.927221 4.700313
000340 aa 53 5f bf 20 47 6d bc 9c d4 89 40 8d 14 51 bf
       -0.87237036 -0.01448229 4.3072033 -0.81671983
000350 48 42 2f bd 4a c0 70 bd e7 f1 5a 3d 7d 2e 8e 40
       -0.04278782 -0.05877713 0.053453352 4.443175
000360 2f 5d 8a 40 03 21 3e bd 50 79 eb 40 38 09 e9 40
       4.323875 -0.0464182 7.3585587 7.2823753
000370 b3 10 21 3d c3 91 a0 40 e4 7d 2c 3d 5e 5d 87 40
       0.039322566 5.017793 0.042112246 4.2301474
000380 d3 b4 e9 40 7e e6 89 3d f7 8c 85 40 5e 5e a8 bd
       7.3033233 0.06733416 4.1734576 -0.08221124
000390 4d af 77 bd 35 81 e6 40 c1 24 db 40 f6 a2 2e 3f
       -0.060469914 7.2032723 6.8482366 0.6821741
0003a0 95 ac 9e bd e1 f0 ed 40 e1 a3 87 3d 19 62 e8 40
       -0.07747761 7.435654 0.06623054 7.261975
0003b0 1d 52 91 40 ed 31 51 3d cd 1f 91 40 71 68 83 40
       4.5412736 0.051073004 4.535132 4.106499
0003c0 5f b2 26 bf a5 8b 50 3d 5c 27 4b bf 70 c2 0f bf
       -0.6511592 0.050914425 -0.7935693 -0.56156063
0003d0 06 29 e6 40 b6 bb eb 40 b3 20 a5 3d 91 bc 3b bf
       7.1925077 7.366664 0.080628775 -0.73334605
0003e0 27 ba e9 40 56 a5 ed 40 d4 c7 e4 40 8d 2e d8 bc
       7.3039737 7.4264326 7.149393 -0.026389385
0003f0 7e 95 82 40 f6 1c 99 bd 21 ac 3d bf c9 d3 8f 40
       4.0807486 -0.07476227 -0.7409077 4.4946027

net.4.bias f4 [20]
000000 1e 2d fb 3f 3a ed ec 3f 68 e8 c2 3f a1 12 d5 3f
       1.9623144 1.8509896 1.5227175 1.664631
000010 92 33 88 3f e4 9c 95 3f 51 b5 c6 3f 2d ae c9 3f
       1.0640738 1.1688504 1.5524083 1.5756279
000020 1e e9 f0 bd 60 71 ef 3f 70 90 b7 3e 6c 02 f6 3e
       -0.117632136 1.8706474 0.35852385 0.48048723
000030 f8 1f 58 3f e0 a6 c9 3e 3e b4 84 3f 34 2e e8 be
       0.8442378 0.39385128 1.0367506 -0.4534775
000040 7d 60 e0 3e 61 e0 5d bc 89 7d 45 3f 4f c8 60 3d
       0.43823615 -0.013542266 0.77144676 0.05487853
