realtime_model_ep419.pth (torch, 97610 bytes, 6 tensors)

net.0.weight f4 [128, 35]
-2.588095 31.34757 -0.4278016 -0.32507458 -0.32858357 -1.6513085 29.263645 -0.7022284
1.918808 0.617854 -2.0748262 29.604382 -0.6857593 2.3150275 -0.15505268 -1.3542432
29.589941 -0.91150147 1.3760135 -0.57677114 -2.2401192 29.675753 -0.77497625 2.6976364
-0.5269868 6.7949486 6.4044576 8.623455 6.804762 6.213243 5.7136855 6.083734
6.7188425 3.6021152 6.656571 -2.550985 31.384424 -0.27584743 -0.16396427 -0.29573426
-1.4124836 29.431173 -0.9678787 1.8592343 0.65425277 -1.898563 29.670036 -0.73375803
2.3436184 -0.060568035 -1.3620664 29.545567 -0.9526963 1.3781989 -0.38138494 -2.1585174
29.553368 -0.9201654 2.6472573 -0.84831274 6.902654 6.345678 8.647854 6.7484202
5.926406 5.6407466 6.031021 6.711856 3.421709 6.7691774 -2.4861748 31.49984
-0.19674885 -0.42745128 0.030810915 -1.3885546 29.712168 -0.64571136 1.84866 0.965416
-1.9243909 29.894236 -0.3540676 2.2882235 0.119968124 -1.3541554 29.946331 -0.71889144
1.9665407 -0.10581915 -2.2329216 30.043386 -0.53995323 2.64147 -0.41103303 7.2218995
6.9319286 8.601817 6.8661823 6.4532723 5.849279 6.4442377 6.974996 3.5897076
6.9162965 -2.3752031 31.073948 -9.474946 -1.627171 -12.796418 -1.3592767 29.357506
-10.219254 1.8836356 -11.813145 -1.6894108 29.260414 -10.191445 1.7359235 -12.678678
-1.255738 29.46609 -10.385438 1.1416595 -12.170215 -2.1140356 29.363968 -10.283149
2.4029913 -12.74671 8.454841 7.858615 11.870022 10.238946 8.63734 9.791982
8.300609 9.949254 6.686794 8.997408 0.7893998 -20.660397 10.70915 1.9739548
7.963466 0.41811046 -18.738476 11.563876 1.2374879 7.1948977 0.36533126 -18.913641
11.128567 3.1312017 9.0190935 1.11987 -19.085789 11.477495 1.5137672 9.023849
0.8224597 -18.931213 11.571396 -0.4084045 8.32518 6.5643044 6.2577853 5.83128
6.4304748 10.243266 6.020488 6.6356177 7.8695645 7.9747653 8.372296 -2.6304793
31.152483 -0.744236 -0.28566882 -0.6006391 -1.6371083 29.147755 -1.3133663 1.7990746
0.3414725 -1.7423947 29.38361 -1.0362641 2.4614794 -0.11433858 -1.3697115 29.306715
-1.327993 1.1100682 -0.7291819 -1.9904228 29.368786 -1.1849295 2.725173 -0.7231549
6.663867 6.082979 8.331322 6.4334035 5.9077606 5.4802804 5.8925157 6.467602
3.202897 6.4927645 0.023361642 0.07298027 -0.13444656 -0.0028111532 -0.11087552 0.051507387
0.019532697 0.06558474 -0.13051863 -0.08428582 -0.14334753 0.09869934 -0.111402914 -0.009088578
-0.11386278 0.12865363 0.10470404 -0.013036702 -0.07896501 0.10984549 0.16349874 -0.1339598
0.02074856 -0.104173765 0.04551153 -0.0015461799 -0.091129616 -0.12056647 0.056038693 -0.14420192
-0.06479775 -0.14961095 -0.12952757 0.068005644 0.10604575 -2.6321528 31.164053 -0.6689251
-0.39239052 -0.37831822 -1.5057515 29.230541 -1.3484485 1.8279572 0.34520042 -1.7084178
00000000: 59a3 25c0 d3c7 fa41 d008 dbbe 2d70 a6be
00000010: 1b3c a8be 145e d3bf f21b ea41 3ec5 33bf
00000020: 809b f53f ae2b 1e3f f4c9 04c0 c6d5 ec41
00000030: ec8d 2fbf 6929 1440 21c6 1ebe d757 adbf
00000040: 33b8 ec41 2958 69bf 3621 b03f 46a7 13bf
00000050: 1d5e 0fc0 f167 ed41 d864 46bf 13a6 2c40
00000060: 9be8 06bf 3870 d940 51f1 cc40 acf9 0941
00000070: 9cc0 d940 e3d2 c640 83d6 b640 f3ad c240
00000080: c200 d740 0e89 6640 a102 d540 5743 23c0
00000090: 4d13 fb41 e03b 8dbe 40e6 27be 7b6a 97be
000000a0: 43cc b4bf 0b73 eb41 e6c6 77bf 64fb ed3f
000000b0: 1c7d 273f 1d04 f3bf 3c5c ed41 91d7 3bbf
000000c0: d8fd 1540 3016 78bd 3158 aebf 525d ec41
000000d0: e8e3 73bf d268 b03f e344 c3be 2625 0ac0
000000e0: 4c6d ec41 f68f 6bbf aa6c 2940 062b 59bf
000000f0: 8be2 dc40 cb0f cb40 9c5d 0a41 0ff3 d740
00000100: 1ea5 bd40 ff80 b440 20fe c040 86c7 d640
00000110: 48fd 5a40 1a9d d840 7d1d 1fc0 acff fb41
00000120: 8878 49be e5da dabe 2c67 fc3c 28bc b1bf
00000130: 85b2 ed41 574d 25bf e4a0 ec3f 8125 773f
00000140: 7152 f6bf 6527 ef41 5948 b5be 4172 1240
00000150: d9b1 f53d f754 adbf 1692 ef41 4509 38bf
00000160: 9bb7 fb3f b6b7 d8bd 30e8 0ec0 db58 f041
00000170: 603a 0abf d80d 2940 ec72 d2be cd19 e740
00000180: 5cd2 dd40 0ba1 0941 c4b7 db40 3581 ce40
00000190: 4b2d bb40 3237 ce40 2b33 df40 c5bd 6540
000001a0: 4d52 dd40 5403 18c0 7297 f841 6199 17c1
000001b0: 2447 d0bf 21be 4cc1 c7fc adbf 2cdc ea41
000001c0: 1082 23c1 f91a f13f a402 3dc1 9d3e d8bf
000001d0: 5415 ea41 2910 23c1 be32 de3f dddb 4ac1
000001e0: 06bc a0bf 8dba eb41 c12a 26c1 e621 923f
000001f0: 33b9 42c1 5c4c 07c0 68e9 ea41 c787 24c1
00000200: 9cca 1940 86f2 4bc1 0747 0741 c679 fb40
00000210: 9ceb 3d41 b9d2 2341 8b32 0a41 f5ab 1c41
00000220: 4bcf 0441 2530 1f41 37fa d540 62f5 0f41
00000230: 1b16 4a3f 7e48 a5c1 ae58 2b41 8daa fc3f
00000240: b7d4 fe40 9312 d63e 66e8 95c1 a305 3941
00000250: 0166 9e3f 9a3c e640 b30c bb3e 234f 97c1
00000260: 9c0e 3241 9c65 4840 354e 1041 e657 8f3f
00000270: b2af 98c1 d2a3 3741 20c3 c13f af61 1041
00000280: b88c 523f 2073 97c1 7024 3941 651a d1be
00000290: f033 0541 c80e d240 c73f c840 d999 ba40
000002a0: 73c6 cd40 6be4 2341 d6a7 c040 fb56 d440
000002b0: 79d3 fb40 4731 ff40 edf4 0541 c659 28c0
000002c0: 4938 f941 4086 3ebf 2f43 92be 7cc3 19bf
000002d0: c48c d1bf 9a2e e941 631c a8bf 1448 e63f
000002e0: 7cd5 ae3e ca06 dfbf a211 eb41 4da4 84bf
000002f0: e188 1d40 582a eabd b552 afbf 2774 ea41
00000300: adfb a9bf b716 8e3f aaab 3abf 2dc6 febf
00000310: 46f3 ea41 c5ab 97bf 3c69 2e40 ae20 39bf
00000320: 663e d540 c4a7 c240 184d 0541 71de cd40
00000330: 600c bd40 755e af40 7d8f bc40 98f6 ce40
00000340: 44fc 4c40 bac4 cf40 ea60 bf3c ae76 953d
00000350: 5cac 09be 533b 38bb b412 e3bd 69f9 523d
00000360: 0903 a03c 4b51 863d ada6 05be 0b9e acbd
00000370: b2c9 12be e122 ca3d 3627 e4bd 42e8 14bc
00000380: e430 e9bd c7bd 033e 126f d63d e497 55bc
00000390: 68b8 a1bd acf6 e03d 376c 273e c22c 09be
000003a0: e2f8 a93c 0e59 d5bd 4c6a 3a3d 30a9 caba
000003b0: 2aa2 babd 8eeb f6bd d488 653d aba9 13be
000003c0: afb4 84bd 9d33 19be e0a2 04be 8b46 8b3d
000003d0: 842e d93d 3175 28c0 fb4f f941 ad3e 2bbf
000003e0: 69e7 c8be edb2 c1be 77bc c0bf 26d8 e941
000003f0: f699 acbf 80fa e93f 1cbe b03e 6fad dabf

net.0.bias f4 [128]
2.9605834 2.8520236 3.092339 -4.9348555 10.093815 2.5905476 -0.18943928 2.4757156
2.4189034 3.0379272 2.3343623 2.5435317 9.885817 10.192381 2.5561256 2.460957
2.4500432 10.004103 2.5634482 10.077147 0.014294806 2.8575613 -0.15012218 1.6017245
2.8764184 -5.569856 10.156862 2.3793883 2.4639742 3.0584075 2.924755 2.3497117
2.3945262 10.279038 10.109321 2.8870244 2.5496562 9.988178 2.3939087 2.389591
3.1668031 9.996162 2.39267 2.3832765 -0.085138656 -0.022085607 1.8686166 -0.056338504
2.6932151 -0.035012536 2.4239056 -0.15263757 9.924147 2.3158336 2.4336073 2.3706958
2.2742617 10.091427 -0.19048937 2.9629812 2.2602532 10.138567 3.1854053 -0.05679617
3.114711 3.0962563 2.4738202 2.2927988 9.969645 9.857509 2.3659298 2.684685
3.0000107 2.3893692 10.143828 2.4884336 9.86604 2.4125702 2.4152148 0.039110407
2.4067216 2.5105882 2.3886435 -0.17613976 9.940411 1.8881787 2.5457458 -4.7067266
-4.8833046 2.472675 2.3107786 2.309708 2.4185858 3.2076535 3.1288862 2.9221158
-0.03714469 2.3210833 10.086025 2.504996 10.162145 2.657234 2.4310958 2.53871
10.337885 2.324534 2.2242067 2.299245 2.3982916 2.615122 2.4455972 9.909668
2.4791243 -4.678459 10.137962 9.939725 9.864671 3.1789327 3.1329954 1.7153313
2.4339428 3.2131782 10.062028 10.182465 2.6865437 10.464178 2.5773878 3.052798
00000000: 337a 3d40 8e87 3640 e2e8 4540 56ea 9dc0
00000010: 4480 2141 88cb 2540 5ffc 41be 2072 1e40
00000020: 50cf 1a40 666d 4240 3166 1540 39c9 2240
00000030: 4e2c 1e41 fe13 2341 9097 2340 5280 1d40
00000040: 82cd 1c40 ce10 2041 890f 2440 fe3b 2141
00000050: c334 6a3c 49e2 3640 a1b9 19be 4f05 cd3f
00000060: 3d17 3840 433c b2c0 8282 2241 e647 1840
00000070: c1b1 1d40 f3bc 4340 302f 3b40 ad61 1640
00000080: eb3f 1940 f176 2441 c7bf 2141 02c5 3840
00000090: 912d 2340 94cf 1f41 cd35 1940 0fef 1840
000000a0: e7ac 4a40 48f0 1f41 8121 1940 9a87 1840
000000b0: 2d5d aebd e0ec b4bc d42e ef3f 34c3 66bd
000000c0: a35d 2c40 4e69 0fbd 4521 1b40 064d 1cbe
000000d0: 4ec9 1e41 9e36 1440 39c0 1b40 7bb9 1740
000000e0: 818d 1140 7c76 2141 a50f 43be 7ca1 3d40
000000f0: fda7 1040 9237 2241 aedd 4b40 1aa3 68bd
00000100: 6d57 4740 1029 4640 1253 1e40 37bd 1240
00000110: aa83 1f41 5bb8 1d41 656b 1740 e1d1 2b40
00000120: 2d00 4040 6deb 1840 1f4d 2241 7f42 1f40
00000130: 4ddb 1d41 8d67 1a40 e192 1a40 3c32 203d
00000140: ba07 1a40 7aad 2040 89df 1840 fb5d 34be
00000150: ec0b 1f41 d7af f13f 80ed 2240 819d 96c0
00000160: 0844 9cc0 4f40 1e40 cce3 1340 42d2 1340
00000170: 1cca 1a40 324a 4d40 ac3f 4840 f203 3b40
00000180: 0825 18bd a18c 1440 5c60 2141 db51 2040
00000190: 2598 2241 1f10 2a40 1397 1b40 3a7a 2240
000001a0: fa67 2541 2ac5 1440 6759 0e40 d526 1340
000001b0: 9c7d 1940 295e 2740 aa84 1c40 008e 1e41
000001c0: f9a9 1e40 f0b5 95c0 1835 2241 1d09 1f41
000001d0: b1d5 1d41 a273 4b40 ff82 4840 fa8f db3f
000001e0: b8c5 1b40 b6a4 4d40 11fe 2041 60eb 2241
000001f0: 55f0 2b40 466d 2741 ecf3 2440 0b61 4340

net.2.weight f4 [128, 128]
5.1356344 5.06549 5.1420627 -12.456339 2.4970849 2.9613905 0.0058041946 2.9625463
2.5583665 5.1467686 2.3910701 3.3231122 2.7390728 2.6256704 2.3435178 2.4393978
2.8429549 2.8020458 3.2877471 2.410014 -0.07529334 5.165466 0.05656169 9.017323
5.1426635 -12.977673 2.3388069 2.6567776 1.979042 5.005929 4.993443 2.052436
1.8834828 2.5791574 2.41525 5.1880956 3.505917 2.5974557 3.1340218 2.0907779
5.0949845 2.5777838 2.1027884 3.1391156 0.022110963 0.04903809 9.626871 0.023509014
4.6302576 0.045660872 2.9550674 0.05067306 2.6124349 2.9813867 2.5054748 1.8535872
2.4291885 2.3753936 0.04505989 5.037528 3.3134923 2.5777662 5.0659137 0.047378305
4.9476094 5.2543726 3.4023929 1.1697288 2.456747 2.727552 4.1060987 4.599631
5.14115 1.5076829 2.5415604 4.43991 2.7455742 2.9032538 2.9845774 -0.08712716
2.854668 1.6934495 2.91822 0.051768202 2.6641834 9.536454 4.757022 -12.95402
-12.602469 1.57756 2.080116 3.2958572 2.67522 5.1759887 5.1030684 5.120186
-0.07785748 2.3025227 2.4202104 3.6489916 2.5086582 4.533001 1.6675035 2.5731318
2.3195925 3.675242 1.4427443 2.1033494 3.2319386 3.76946 2.9628744 2.5849159
1.9784685 -12.501147 2.4250991 2.693687 2.5842838 5.1248283 5.0112557 9.579707
2.6114156 5.0482817 2.5572968 2.5576696 5.098332 2.4753134 4.638254 5.1690855
5.046759 5.0541096 5.143119 -12.609396 2.8599648 2.6432898 0.026234461 2.718607
2.478049 5.2619953 2.234772 3.3126616 3.0365686 2.887368 2.1836483 2.366242
2.7091548 3.0488868 3.0260465 2.8784688 -0.08479477 5.247708 -0.003515795 9.043482
5.203568 -13.044323 2.6842072 2.5701187 1.9388967 5.156985 5.1514163 2.095893
2.0054004 2.9883811 2.8092854 5.161126 3.2643456 2.8634007 3.0512006 1.9541018
5.1348195 2.8486688 2.0895436 2.9866822 0.0024180172 0.028309615 9.496664 0.039316062
4.570285 -0.03554795 2.858855 0.009050805 2.9153814 2.8222735 2.234152 1.9545251
2.364527 2.6815953 -0.07303423 5.220578 3.0896816 2.933818 5.0634584 -0.04107189
5.0605674 5.302598 3.1368012 1.2035666 2.721053 3.0579638 4.266123 4.422757
5.205773 1.2360228 3.0034993 4.3531885 3.0081646 2.6638489 2.6801338 0.024417019
2.7780964 1.7711607 2.78914 0.027311152 2.962772 9.364291 4.7639766 -12.955997
-12.697662 1.5837405 2.1607192 3.0251153 2.5736864 5.2089615 5.1223755 5.2004538
0.031922255 2.3101547 2.7053175 3.3744934 2.8506424 4.460821 1.5930917 2.4952922
2.6799693 3.4860728 1.3707356 1.9566852 3.2675908 3.8136613 2.7720768 2.9484673
2.0755866 -12.548654 2.7820852 3.0231092 2.8371415 5.3634486 5.1849613 9.416856
2.4586747 5.1896644 2.9849148 3.00247 5.048203 2.7510948 4.7658887 5.253759
00000000: 1e57 a440 7e18 a240 c78b a440 2a4d 47c1
00000010: 3dd0 1f40 6c87 3d40 1d31 be3b 5c9a 3d40
00000020: 47bc 2340 54b2 a440 4b07 1940 dfad 5440
00000030: f84c 2f40 fc0a 2840 32fc 1540 181f 1c40
00000040: f9f2 3540 b854 3340 736a 5240 ab3d 1a40
00000050: 6533 9abd 7f4b a540 3bad 673d f446 1041
00000060: b390 a440 8ca4 4fc1 03af 1540 a508 2a40
00000070: 4051 fd3f 9230 a040 49ca 9f40 1d5b 0340
00000080: f715 f13f ea10 2540 7593 1a40 e104 a640
00000090: f260 6040 b73c 2640 d093 4840 4ecf 0540
000000a0: 1d0a a340 69fa 2440 1694 0640 45e7 4840
000000b0: 0d22 b53c 2adc 483d aa07 1a41 fa95 c03c
000000c0: 122b 9440 e506 3b3d d31f 3d40 8e8e 4f3d
000000d0: 2232 2740 0acf 3e40 b359 2040 5842 ed3f
000000e0: d377 1b40 7306 1840 b890 383d 6e33 a140
000000f0: 4210 5440 1ffa 2440 f71b a240 c10f 423d
00000100: d152 9e40 d223 a840 cec0 5940 acb9 953f
00000110: 583b 1d40 3690 2e40 2965 8340 2d30 9340
00000120: 4d84 a440 c1fb c03f eda8 2240 be13 8e40
00000130: 7db7 2f40 e9ce 3940 5103 3f40 b96f b2bd
00000140: e1b2 3640 f4c2 d83f 1ec4 3a40 e50a 543d
00000150: fb81 2a40 5195 1841 8639 9840 aa43 4fc1
00000160: b7a3 49c1 7ced c93f 9f20 0540 53ef 5240
00000170: ce36 2b40 b3a1 a540 564c a340 90d8 a340
00000180: be73 9fbd 885c 1340 bae4 1a40 1489 6940
00000190: db8d 2040 580e 9140 c170 d53f 31ae 2440
000001a0: 3474 1440 2a37 6b40 d8ab b83f 479d 0640
000001b0: 15d8 4e40 d53e 7140 bc9f 3d40 436f 2540
000001c0: 753e fd3f b304 48c1 d334 1b40 5e65 2c40
000001d0: e864 2540 98fe a340 355c a040 7b46 1941
000001e0: 6f21 2740 868b a140 c0aa 2340 dcb0 2340
000001f0: 8925 a340 896b 1e40 946c 9440 2669 a540
00000200: 0d7f a140 44bb a140 6e94 a440 16c0 49c1
00000210: aa09 3740 a92b 2940 a7e9 d63c a8fd 2d40
00000220: 5b98 1e40 4462 a840 8106 0f40 a602 5440
00000230: 2457 4240 a3ca 3840 e5c0 0b40 8270 1740
00000240: cb62 2d40 f620 4340 bfaa 4140 d538 3840
00000250: e1a8 adbd 39ed a740 4169 66bb 1ab2 1041
00000260: a183 a640 8cb5 50c1 0dca 2b40 d37c 2440
00000270: c42d f83f 0506 a540 67d8 a440 1c23 0640
00000280: 7b58 0040 a341 3f40 55cb 3340 f227 a540
00000290: 0aeb 5040 f541 3740 df46 4340 0220 fa3f
000002a0: 7150 a440 9750 3640 15bb 0540 cd25 3f40
000002b0: 9977 1e3b 91e9 e73c 56f2 1741 e109 213d
000002c0: c63f 9240 ba9a 11bd 7bf7 3640 d449 143c
000002d0: 9c95 3a40 21a0 3440 59fc 0e40 e12d fa3f
000002e0: 6954 1740 429f 2b40 f892 95bd fa0e a740
000002f0: 58bd 4540 adc3 3b40 da07 a240 003b 28bd
00000300: 2bf0 a140 e2ae a940 5ac1 4840 780e 9a3f
00000310: bb25 2e40 aeb5 4340 1484 8840 3a87 8d40
00000320: b195 a640 ff35 9e3f 5539 4040 524d 8b40
00000330: c585 4040 807c 2a40 5087 2b40 3306 c83c
00000340: 55cc 3140 65b5 e23f 4581 3240 a3bb df3c
00000350: 0e9e 3d40 23d4 1541 7f72 9840 c44b 4fc1
00000360: a029 4bc1 02b8 ca3f 3949 0a40 7d9b 4140
00000370: 47b7 2440 d0af a640 80ea a340 1e6a a640
00000380: e9c0 023d 93d9 1340 ec23 2d40 b3f7 5740
00000390: ed70 3640 0cbf 8e40 6eea cb3f deb2 1f40
000003a0: 9e84 2b40 d11b 5f40 4474 af3f a974 fa3f
000003b0: 3520 5140 0713 7440 b569 3140 b0b3 3c40
000003c0: 69d6 0440 49c7 48c1 af0d 3240 9f7a 4140
000003d0: ba93 3540 5fa1 ab40 34eb a540 71ab 1641
000003e0: ed5a 1d40 bb11 a640 d808 3f40 7828 4040
000003f0: e18a a140 f011 3040 2982 9840 cb1e a840

net.2.bias f4 [128]
-0.67776227 -0.23716614 -8.907272 -0.39480162 0.0456638 2.0869956 -0.018508684 3.7918415
3.7658675 -0.08716021 9.758107 -1.1790309 -0.08666534 -0.6080051 3.758931 0.019892652
3.7790487 -0.57254523 -0.51658577 -0.37983435 -0.025887555 3.8904572 0.028387913 -6.600661
-8.132435 -8.778347 -0.08316882 3.657144 3.7366302 0.85342634 3.8468006 -0.0815704
-0.03326769 -0.040380806 3.7749753 -0.8574187 0.06280963 2.1615777 3.7138891 9.9944105
1.9169519 -0.0049218447 -0.05563782 -0.020998178 3.9343603 3.8712785 0.06798176 -1.8525479
-6.552301 0.030082626 -0.33873534 -0.71106666 0.01152004 -0.5433844 3.8438532 -0.014992882
0.555905 3.8171484 -0.53439415 -8.920239 0.017963344 -5.4246154 -0.2507967 -0.3103439
-7.713298 -0.030421834 3.675466 3.7835562 2.0696557 2.0198295 -0.08134881 3.6736202
0.015708376 -0.08821562 3.8813126 -8.480964 3.7224162 3.605129 -3.2804418 0.8503345
-0.5181167 -0.032496423 3.601657 -0.5320981 0.07246331 -0.033654004 0.0235252 2.055616
3.817197 -0.04015798 -7.408195 -4.760856 6.530654e-05 -0.19337218 -0.055109046 3.850925
-7.1828446 0.014281436 3.7879806 -0.0954551 -0.08121573 -8.865481 -3.064528 8.977618
-0.028972512 -6.3450837 0.03225573 -7.774107 1.5339551 0.009744215 2.127135 3.7246025
-0.45576173 -0.058111884 -0.44440728 0.7016549 -8.729191 -5.3977027 0.014919383 -0.66648465
-5.699673 -6.556685 -8.619828 -0.076422706 3.7769597 -0.09694987 -0.45003387 2.1412542
00000000: d481 2dbf aedb 72be 3084 0ec1 7023 cabe
00000010: f709 3b3d 5691 0540 869f 97bc 88ad 7240
00000020: f903 7140 0d81 b2bd 3521 1c41 7cea 96bf
00000030: 997d b1bd 39a6 1bbf 5392 7040 eaf5 a23c
00000040: efdb 7140 5392 12bf f73e 04bf a679 c2be
00000050: 2312 d4bc 40fd 7840 c58d e83c 9d38 d3c0
00000060: 741e 02c1 1c74 0cc1 6a54 aabd a60e 6a40
00000070: f324 6f40 267a 5a3f fb31 7640 620e a7bd
00000080: b443 08bd 5866 25bd 3299 7140 cb7f 5bbf
00000090: 56a2 803d 4a57 0a40 5cb0 6d40 1be9 1f41
000000a0: ae5e f53f 6d47 a1bb 7ce4 63bd 5f04 acbc
000000b0: 8fcc 7b40 07c3 7740 053a 8b3d 4a20 edbf
000000c0: 73ac d1c0 d76f f63c b86e adbe 7708 36bf
000000d0: 8dbe 3c3c 3d1b 0bbf b101 7640 b4a4 75bc
000000e0: ca4f 0e3f 294c 7440 0ece 08bf 4db9 0ec1
000000f0: dd27 933c 7396 adc0 6d68 80be 65e5 9ebe
00000100: 56d3 f6c0 3637 f9bc d63a 6b40 c925 7240
00000110: 3d75 0440 e344 0140 349a a6bd 981c 6b40
00000120: daae 803c 64aa b4bd 6d67 7840 07b2 07c1
00000130: 113c 6e40 6fba 6640 c2f2 51c0 86af 593f
00000140: 4ca3 04bf f81a 05bd 8c81 6640 9537 08bf
00000150: a567 943d c8d8 09bd ecb7 c03c 368f 0340
00000160: f54c 7440 b27c 24bd ef0f edc0 ef58 98c0
00000170: 2ff5 8838 5b03 46be 06ba 61bd 8e75 7640
00000180: ddd9 e5c0 affc 693c 466e 7240 f77d c3bd
00000190: 6f54 a6bd 03d9 0dc1 3a21 44c0 53a4 0f41
000001a0: c357 edbc ed0a cbc0 961e 043d 7cc5 f8c0
000001b0: a458 c43f 33a6 1f3c fb22 0840 e35f 6e40
000001c0: 9a59 e9be ba06 6ebd 5a89 e3be a89f 333f
000001d0: c4aa 0bc1 fbb9 acc0 6e70 743c bd9e 2abf
000001e0: b963 b6c0 5dd0 d1c0 d1ea 09c1 8283 9cbd
000001f0: b5b9 7140 a78d c6bd d76a e6be 4f0a 0940

net.4.weight f4 [20, 128]
-1.5915083 -1.3976142 8.213932 -1.4267994 -0.017212793 5.049919 0.061162073 4.1194234
4.708558 -0.034409016 1.2679352 -1.6433295 0.029336555 -1.5685422 4.555188 -0.014353314
4.321075 -1.2787803 -1.3866713 -1.352796 -0.04706597 4.2222295 -0.06755616 7.784476
8.100124 8.04905 0.009677443 4.4206543 4.7446256 5.068926 4.4747033 0.007672138
0.00072098506 0.049240805 4.3290753 -1.6061327 -0.0690434 4.9733176 4.531591 1.3875089
4.8921285 -0.009180363 0.03806604 -0.0029659895 4.6073284 4.4003034 -0.071845435 5.5237603
7.907503 0.08482283 -1.3845955 -1.4529241 -1.284486 -1.4722817 4.3463364 0.07384396
-0.49726743 4.6478157 -1.2540045 8.171039 0.055947885 7.3962426 -1.3624103 -1.2481259
7.968614 -0.032164108 4.414124 4.332184 5.00471 5.015323 0.042835403 4.1211653
-0.042864107 -1.3211093 4.4216743 8.121712 4.5559893 3.794128 6.5149503 4.9500613
-1.5260487 -0.003995678 4.52902 -1.4177969 -0.0042730593 0.080291696 0.08261606 4.8171034
4.532672 0.03862812 7.997898 7.235589 0.08441234 4.944554 0.054590568 4.5076447
7.851063 -0.04916167 4.4241395 -0.018450204 0.06880602 8.098588 6.378112 0.5590364
-0.012419401 7.8061786 0.01681463 7.99952 4.958265 0.026520524 4.9451513 4.255917
-1.4587897 -0.07404656 -1.4977487 -0.8917692 8.097026 7.452969 0.038473275 -1.435209
7.6891894 7.7419224 8.233191 -0.035502408 4.250161 0.07959005 -1.508401 5.01191
-0.82633626 -0.64356905 7.6531367 -0.8926863 -0.06588801 4.637817 -0.02202396 3.9876885
4.2767444 0.057973836 1.1207995 -1.1174693 -0.022974921 -0.82446706 4.1713147 0.007424064
4.0515885 -0.6478177 -0.71819514 -0.7263343 0.07600379 4.0287805 0.03887914 7.713452
7.6045723 7.564146 0.082865104 4.071379 4.3171525 4.870977 4.202923 0.08328021
0.044139054 -0.034548834 4.123212 -0.9382416 -0.051915012 4.5909147 4.160832 1.3604984
4.6497617 0.009838971 0.040378526 -0.03432984 4.2530775 4.132432 -0.067545034 6.405348
7.772168 0.006927372 -0.68952346 -0.76146644 -0.7520519 -0.8954039 4.2306476 -0.07352752
0.9394117 4.3248315 -0.6737851 7.650117 0.042318575 7.7033143 -0.6782987 -0.6530083
7.6710405 0.085151754 4.15758 4.0765657 4.582561 4.5907097 -0.0068337815 3.839498
-0.020352287 -0.64074016 4.2033625 7.5691223 4.210491 3.6647067 7.2933893 4.8884716
-0.91897875 -0.01448229 4.2342153 -0.8639785 -0.04278782 -0.05877713 0.053453352 4.4931836
4.250732 -0.0464182 7.7492194 7.6662507 0.039322566 5.2643113 0.042112246 4.1570807
7.6935496 0.06733416 4.0997844 -0.08221124 -0.060469914 7.5976005 7.212731 1.4885465
-0.07747761 7.825296 0.06623054 7.6532574 4.6647143 0.051073004 4.58884 4.0324736
-0.6927644 0.050914425 -0.83616775 -0.31044355 7.5865765 7.755332 0.080628775 -0.77935565
7.6932673 7.8161597 7.5436487 -0.026389385 4.006738 -0.07476227 -0.78420764 4.5473237
00000000: 8bb6 cbbf 06e5 b2bf 446c 0341 5da1 b6bf
00000010: d801 8dbc f098 a140 1585 7a3d 51d2 8340
00000020: 82ac 9640 78f0 0cbd b34b a23f 9f58 d2bf
00000030: 3753 f03c fec5 c8bf 1ac4 9140 2a2a 6bbc
00000040: 3f46 8a40 13af a3bf 727e b1bf 6b28 adbf
00000050: 3fc8 40bd 811c 8740 e25a 8abd 6d1a f940
00000060: 1c9a 0141 e9c8 0041 238e 1e3c 0076 8d40
00000070: f9d3 9740 a434 a240 c530 8f40 8f66 fb3b
00000080: 7d00 3d3a bab0 493d c987 8a40 c295 cdbf
00000090: a066 8dbd 6b25 9f40 cb02 9140 e499 b13f
000000a0: 518c 9c40 3c69 16bc 23eb 1b3d 0c61 42bb
000000b0: 3c6f 9340 49cf 8c40 b323 93bd a5c2 b040
000000c0: 440a fd40 98b7 ad3d 6d3a b1bf 6bf9 b9bf
000000d0: 0a6a a4bf ba73 bcbf 3015 8b40 813b 973d
000000e0: d699 febe e8ba 9440 3883 a0bf 93bc 0241
000000f0: 9c29 653d 05ae ec40 7663 aebf 97c2 9fbf
00000100: e3fe fe40 83be 03bd 8140 8d40 40a1 8a40
00000110: 9626 a040 877d a040 2d74 2f3d 96e0 8340
00000120: 4692 2fbd 1c1a a9bf 5b7e 8d40 88f2 0141
00000130: aaca 9140 fed2 7240 797a d040 e766 9e40
00000140: 9055 c3bf 2dee 82bb bbed 9040 5e7a b5bf
00000150: 0505 8cbb f96f a43d 9c32 a93d b625 9a40
00000160: a60b 9140 8538 1e3d c8ee ff40 f289 e740
00000170: 60e0 ac3d c939 9e40 5c9a 5f3d a03e 9040
00000180: e83b fb40 bf5d 49bd 8d92 8d40 e224 97bc
00000190: 2cea 8c3d d193 0141 7e19 cc40 021d 0f3f
000001a0: be7a 4bbc 37cc f940 d6be 893c 11fc ff40
000001b0: 1baa 9e40 9241 d93c ae3e 9e40 7930 8840
000001c0: 9fb9 babf b9a5 97bd 3bb6 bfbf fc4a 64bf
000001d0: 6b8d 0141 b97e ee40 2796 1d3d eeb4 b7bf
000001e0: d70d f640 d4bd f740 26bb 0341 f96a 11bd
000001f0: 5201 8840 1c00 a33d 4913 c1bf 9161 a040
00000200: c68a 53bf f1c0 24bf 7fe6 f440 1787 64bf
00000210: 4bf0 86bd ff68 9440 976b b4bc 4a36 7f40
00000220: 17db 8840 f975 6d3d 5c76 8f3f 3c09 8fbf
00000230: e735 bcbc 4610 53bf 697b 8540 9045 f33b
00000240: 9da6 8140 61d7 25bf a3db 37bf 0bf1 39bf
00000250: e0a7 9b3d c5eb 8040 bc3f 1f3d 99d4 f640
00000260: a858 f340 7c0d f240 2eb5 a93d bd48 8240
00000270: 1d26 8a40 0bdf 9b40 587e 8640 d18e aa3d
00000280: 27cb 343d 1483 0dbd 5af1 8340 9a30 70bf
00000290: d6a4 54bd c6e8 9240 8925 8540 d024 ae3f
000002a0: d9ca 9440 a333 213c f463 253d 729d 0cbd
000002b0: 3619 8840 e23c 8440 0d55 8abd 9cf8 cc40
000002c0: 9ab5 f840 02ff e23b 9c84 30bf 77ef 42bf
000002d0: 7986 40bf 3139 65bf 7761 8740 9995 96bd
000002e0: 497d 703f 0565 8a40 2e7d 2cbf c2cd f440
000002f0: 3e56 2d3d 8d81 f640 fca4 2dbf 8d2b 27bf
00000300: 2a79 f540 0b64 ae3d e50a 8540 3a73 8240
00000310: 57a4 9240 18e7 9240 eaed dfbb 56ba 7540
00000320: d7b9 a6bc 8c07 24bf f281 8640 4036 f240
00000330: 58bc 8640 8e8a 6a40 7263 e940 5c6e 9c40
00000340: 3142 6bbf 2047 6dbc b17e 8740 b22d 5dbf
00000350: 4842 2fbd 4ac0 70bd e7f1 5a3d 29c8 8f40
00000360: ff05 8840 0321 3ebd 9bf9 f740 ed51 f540
00000370: b310 213d 3d75 a840 e47d 2c3d ce06 8540
00000380: 8f31 f640 7ee6 893d 6f31 8340 5e5e a8bd
00000390: 4daf 77bd 8b1f f340 b1ce e640 b188 be3f
000003a0: 95ac 9ebd d368 fa40 e1a3 873d 7ce7 f440
000003b0: 5745 9540 ed31 513d c7d7 9240 060a 8140
000003c0: 0259 31bf a58b 503d 170f 56bf 75f2 9ebe
000003d0: 3cc5 f240 ae2b f840 b320 a53d da83 47bf
000003e0: 3f2f f640 fb1d fa40 9265 f140 8d2e d8bc
000003f0: 3337 8040 f61c 99bd d5c1 48bf ad83 9140

net.4.bias f4 [20]
1.8147722 2.4675548 1.3227645 1.4779501 1.1352451 1.0957834 1.3965807 1.3622237
-0.152541 2.1570206 0.4187984 0.4901824 0.8925533 0.46136484 1.05935 -0.45584086
0.41740745 -0.046843473 0.8142586 0.011109387
00000000: 754a e83f 6bec 1d40 5950 a93f 782d bd3f
00000010: b64f 913f a142 8c3f 28c3 b23f 595d ae3f
00000020: b533 1cbe a00c 0a40 be6c d63e 30f9 fa3e
00000030: 607e 643f 0338 ec3e c898 873f f963 e9be
00000040: 6eb6 d53e f1de 3fbd 4073 503f 2504 363c
