realtime_model_ep184.pth (torch, 97610 bytes, 6 tensors)

net.0.weight f4 [128, 35]
00000000: b0ee 10c0 bae2 f241 fe3a 79be b93a 3abf
00000010: 0473 7cbd d22c bbbf e752 e841 0ca6 72be
00000020: 0302 873f 6932 103f 7e1e f2bf ba78 ea41
00000030: 9a2d 87be 013a f73f 8ca0 fcbb f439 97bf
00000040: d69e ea41 9138 f2be 3f06 913f 9245 5dbf
00000050: 12e8 04c0 4584 eb41 de6d 9ebe 1b54 1b40
00000060: 644d 93be a782 e140 51c6 d340 2afb 0d41
00000070: 451b e140 d153 ce40 62a2 bc40 879a ca40
00000080: da39 df40 c9a7 7140 64c0 db40 7b8d 0ec0
00000090: 6b31 f341 bc77 babd 1fc3 10bf f4d2 eebc
000000a0: 4aa2 9cbf c4ad e941 c867 00bf 85c1 7e3f
000000b0: d55d 193f 8694 dbbf df02 eb41 fe43 9fbe
000000c0: 8ae8 fa3f 059c b13d fc40 98bf b947 ea41
000000d0: 5d68 03bf 2a48 913f be3c 2bbf 5165 ffbf
000000e0: 468d ea41 df40 e8be 871b 1840 b816 1cbf
000000f0: 24f7 e440 5de7 d140 7f60 0e41 6450 df40
00000100: 7428 c540 f44e ba40 9bec c840 6d03 df40
00000110: b020 6640 375d df40 6470 0ac0 b710 f441
00000120: 92d2 ccbc 5e9f 55bf 638a 983e cd69 99bf
00000130: 21de eb41 ae7e 48be a4f0 7b3f 593a 693f
00000140: 70bf debf c1bf ec41 d6b3 573d d495 f33f
00000150: a6f3 873e 3b16 97bf 9e6d ed41 cf5c 97be
00000160: 2988 dc3f 0a52 cbbe 5e61 04c0 816a ee41
00000170: d48d b7bd 7e9f 1740 8042 30be a61f ef40
00000180: 1e9a e440 209d 0d41 cb06 e340 2ff6 d540
00000190: e3eb c040 f416 d640 655d e740 a8b9 7040
000001a0: dc01 e440 b85f 03c0 a63a f141 1a50 24c1
000001b0: 5306 05c0 bfb8 4fc1 9fe2 95bf c8b5 e941
000001c0: fcbf 29c1 a003 783f 1355 42c1 2dcb c0bf
000001d0: 0857 e841 da0e 2ac1 0cb0 9b3f f959 4bc1
000001e0: b5a3 8abf 7b46 ea41 df11 2dc1 9c43 493f
000001f0: 57cc 49c1 1495 f9bf 91a2 e941 11d5 2ac1
00000200: c3b0 0840 dddb 4bc1 159d 0941 8a11 ff40
00000210: 59d1 3f41 6cb1 2541 7e2e 0c41 1c33 1e41
00000220: 602e 0741 1f92 2141 6c92 d940 ec9f 1141
00000230: 47c6 ed3e c413 9fc1 5234 2c41 ac5a 1940
00000240: 4ea1 fc40 44a1 6c3e cbc3 95c1 a259 3341
00000250: 4bc2 0740 b061 ea40 7f9b 3c3e cd8a 96c1
00000260: b039 2d41 7222 6440 6d6a 0e41 0e39 733f
00000270: ca45 98c1 e091 3241 a939 e63f 16a3 1441
00000280: d947 293f cf2f 97c1 5574 3341 076a 39be
00000290: 1655 0241 20a1 ca40 a4e2 c140 9fbe b340
000002a0: 6e1a c740 8568 2041 28db ba40 f8dc cc40
000002b0: 030d f440 4310 f940 b0c7 0241 db97 13c0
000002c0: eb79 f141 6baf 11bf 624b 2ebf f168 b0be
000002d0: 54a9 b9bf 7994 e741 e318 59bf 9ad9 6e3f
000002e0: 1449 8e3e 48d4 c7bf 6ee2 e841 c498 1dbf
000002f0: 82e8 0440 68d9 f03c 0b7f 99bf 938a e841
00000300: e6f7 63bf 31f5 5c3f e975 82bf db22 eabf
00000310: 123d e941 733f 38bf ea11 1d40 b023 fdbe
00000320: f758 dd40 8d88 c940 0053 0941 193f d540
00000330: a694 c440 8535 b540 4883 c440 d93b d740
00000340: 3338 5840 a08d d640 ea60 bf3c ae76 953d
00000350: 5cac 09be 533b 38bb b412 e3bd 69f9 523d
00000360: 0903 a03c 4b51 863d ada6 05be 0b9e acbd
00000370: b2c9 12be e122 ca3d 3627 e4bd 42e8 14bc
00000380: e430 e9bd c7bd 033e 126f d63d e497 55bc
00000390: 68b8 a1bd acf6 e03d 376c 273e c22c 09be
000003a0: e2f8 a93c 0e59 d5bd 4c6a 3a3d 30a9 caba
000003b0: 2aa2 babd 8eeb f6bd d488 653d aba9 13be
000003c0: afb4 84bd 9d33 19be e0a2 04be 8b46 8b3d
000003d0: 842e d93d 35b3 13c0 3791 f141 6359 fcbe
000003e0: a59e 49bf 70ab f9bd 52d8 a8bf 743d e841
000003f0: 52e0 61bf 0d46 763f 2c60 903e 167a c3bf
-2.2645683 30.360706 -0.2433891 -0.72745854 -0.061633125 -1.4623053 29.04048 -0.23696154
1.0547489 0.5632692 -1.8915555 29.308949 -0.2640198 1.9314576 -0.0077095684 -1.1814561
29.327557 -0.47308782 1.1330031 -0.8643428 -2.0766644 29.439585 -0.30943197 2.4270084
-0.28769982 7.047199 6.6179585 8.873819 7.034579 6.4477315 5.894822 6.331363
6.975812 3.7758658 6.867235 -2.2273853 30.39913 -0.09104869 -0.5654773 -0.029153325
-1.2237027 29.209846 -0.5015836 0.9951404 0.599088 -1.7154701 29.376402 -0.3110656
1.9602215 0.086723365 -1.1894832 29.28502 -0.5133112 1.1350148 -0.6688956 -1.9952794
29.318981 -0.45361993 2.3766801 -0.60972166 7.1551685 6.5594926 8.898559 6.9785633
6.161188 5.822138 6.2788825 6.969168 3.595745 6.980129 -2.1631098 30.508162
-0.025002751 -0.834463 0.2979308 -1.1985413 29.483461 -0.19579574 0.98414063 0.91104656
-1.7402172 29.59363 0.05266174 1.9030099 0.26553077 -1.1803659 29.678524 -0.29562995
1.7229053 -0.39711028 -2.0684428 29.802004 -0.089625984 2.3691096 -0.17212868 7.4726133
7.143813 8.850861 7.094579 6.6863017 6.028795 6.690302 7.2301507 3.7613316
7.125227 -2.0527172 30.153637 -10.269556 -2.078511 -12.982604 -1.1709784 29.21376
-10.609371 0.9688053 -12.14577 -1.5062004 29.042496 -10.628626 1.21631 -12.709466
-1.083121 29.284414 -10.816863 0.7861879 -12.612388 -1.949862 29.204378 -10.677018
2.1357887 -12.741178 8.60085 7.970891 11.98861 10.355816 8.761351 9.887478
8.448822 10.098174 6.799124 9.101543 0.46440336 -19.884651 10.7627735 2.3961592
7.8946905 0.23108393 -18.720602 11.209383 2.1212337 7.3244247 0.18418692 -18.817774
10.826584 3.5646024 8.900983 0.95008934 -19.034077 11.160614 1.7986346 9.289816
0.66125256 -18.898344 11.215901 -0.18106852 8.145773 6.3321686 6.058916 5.617019
6.2219763 10.025517 5.8392525 6.4019737 7.6265883 7.783235 8.173752 -2.3061435
30.18453 -0.5690829 -0.68083775 -0.34455064 -1.45048 28.947496 -0.848036 0.93300784
0.2779013 -1.5611658 29.110561 -0.61561227 2.0766912 0.029400542 -1.1991895 29.067663
-0.8905014 0.8631163 -1.0192233 -1.8291887 29.15482 -0.71971816 2.4542184 -0.4944129
6.91711 6.297919 8.582764 6.6639524 6.1431456 5.662783 6.1410255 6.7260556
3.3784301 6.704788 0.023361642 0.07298027 -0.13444656 -0.0028111532 -0.11087552 0.051507387
0.019532697 0.06558474 -0.13051863 -0.08428582 -0.14334753 0.09869934 -0.111402914 -0.009088578
-0.11386278 0.12865363 0.10470404 -0.013036702 -0.07896501 0.10984549 0.16349874 -0.1339598
0.02074856 -0.104173765 0.04551153 -0.0015461799 -0.091129616 -0.12056647 0.056038693 -0.14420192
-0.06479775 -0.14961095 -0.12952757 0.068005644 0.10604575 -2.307813 30.195906 -0.49286947
-0.787577 -0.12190902 -1.3191016 29.030006 -0.8823291 0.9620064 0.28198373 -1.5271633

net.0.bias f4 [128]
00000000: 6325 4a40 ba33 4340 957d 5240 65f7 9ac0
00000010: 8168 1e41 3f65 3240 5ffc 41be ca0d 2b40
00000020: d854 2740 400e 4f40 efe7 2140 c36e 2f40
00000030: 4716 1b41 67fd 1f41 b619 3040 f20b 2a40
00000040: 9768 2940 0efd 1c41 3db6 3040 af22 1e41
00000050: c334 6a3c 3387 4340 a1b9 19be 79e8 b93f
00000060: a8bf 4440 88a1 adc0 6765 1f41 65da 2440
00000070: 0829 2a40 dd57 5040 64bc 4740 bcdc 2240
00000080: a2b5 2540 5e5f 2141 1bab 1e41 c35c 4540
00000090: 1cc0 2f40 d7b7 1c41 9ece 2540 116b 2540
000000a0: 6245 5740 17dc 1c41 079e 2540 b82b 2540
000000b0: 2d5d aebd e0ec b4bc 66be db3f 34c3 66bd
000000c0: 470f 3940 4e69 0fbd f7bc 2740 064d 1cbe
000000d0: d0b6 1b41 27d4 2040 2848 2840 a130 2440
000000e0: 1513 1e40 495c 1e41 a50f 43be 912e 4a40
000000f0: 984e 1d40 9923 1f41 786c 5840 1aa3 68bd
00000100: 4ce8 5340 cecf 5240 5e05 2b40 e417 1f40
00000110: 036f 1c41 72a2 1a41 6f02 2440 9670 3840
00000120: dd9f 4c40 e83a 2540 9435 1f41 68e4 2b40
00000130: 09c5 1a41 8d00 2740 4130 2740 3c32 203d
00000140: 9c9e 2640 771d 2d40 5b78 2540 fb5d 34be
00000150: 63f6 1b41 ac36 de3f 47a0 2f40 d8af 93c0
00000160: 794d 99c0 35b3 2a40 ef66 2040 5d79 2040
00000170: 7260 2740 28db 5940 e5d4 5440 949b 4740
00000180: 0825 18bd b515 2140 7145 1e41 680c 2d40
00000190: 3b7f 1f41 87c8 3640 d006 2840 4b06 2f40
000001a0: 7e4b 2241 f483 2140 d4c2 1a40 698a 1f40
000001b0: 901a 2640 4903 3440 4723 2940 3676 1b41
000001c0: 2f21 2b40 35c7 92c0 3119 1f41 31f6 1b41
000001d0: b8c0 1a41 900b 5840 1818 5540 9d21 c83f
000001e0: cf54 2840 f63e 5a40 29e7 1d41 7bd4 1f41
000001f0: 139c 3840 9051 2441 109e 3140 8b01 5040
3.158532 3.0500321 3.288915 -4.8426995 9.900514 2.7874296 -0.18943928 2.6727166
2.6145535 3.2352448 2.529781 2.7411354 9.692939 9.999366 2.7515693 2.656979
2.6470087 9.811781 2.761123 9.883468 0.014294806 3.055127 -0.15012218 1.452407
3.0741978 -5.425968 9.962256 2.5758297 2.6587543 3.2553627 3.1208735 2.5447226
2.589211 10.085783 9.916774 3.0837867 2.7461004 9.794883 2.590736 2.5846598
3.3636098 9.803733 2.5877702 2.5807934 -0.085138656 -0.022085607 1.716748 -0.056338504
2.8915575 -0.035012536 2.6209085 -0.15263757 9.732132 2.5129488 2.629404 2.565468
2.4699147 9.897531 -0.19048937 3.1590922 2.457922 9.946191 3.3816204 -0.05679617
3.3110533 3.2939334 2.6722026 2.4858332 9.777102 9.6646595 2.5626485 2.8818717
3.1972573 2.5817204 9.950581 2.6858158 9.673104 2.6094086 2.6123202 0.039110407
2.6034307 2.7049234 2.585471 -0.17613976 9.747653 1.7360435 2.7441576 -4.6152153
-4.790707 2.667188 2.5062826 2.5074074 2.6152616 3.4040012 3.325494 3.1188707
-0.03714469 2.51695 9.891953 2.7038822 9.968562 2.8559892 2.6254158 2.734759
10.143431 2.5236788 2.4181414 2.492823 2.5953712 2.8127005 2.6427782 9.71636
2.6739004 -4.5868173 9.94365 9.747605 9.67205 3.3757057 3.3295956 1.5635258
2.6301763 3.4100928 9.868936 9.989375 2.884526 10.269913 2.7752724 3.2500942

net.2.weight f4 [128, 128]
00000000: bb46 a140 01ff 9e40 6094 a140 c826 4bc1
00000010: a0ae 2140 22f5 3640 1d31 be3b 0819 3740
00000020: 2941 1d40 3ab3 a140 7177 1240 8d0d 4e40
00000030: 9a49 3140 e1f0 2940 2e71 0f40 608c 1540
00000040: a467 2f40 bdda 3440 e9dd 4b40 39ec 1b40
00000050: 6533 9abd db39 a240 3bad 673d 10b1 0e41
00000060: 7681 a140 d7e0 53c1 5709 1840 aa66 2340
00000070: 9d0e f03f b438 9d40 68f0 9c40 b796 f93f
00000080: dcef e33f 35ee 2640 9588 1c40 5112 a340
00000090: 8ad8 5940 aa1d 2840 c312 4240 9a41 fe3f
000000a0: 721e a040 9fc5 2640 5008 0040 473d 4240
000000b0: 0d22 b53c 2adc 483d e2ef 1741 fa95 c03c
000000c0: 03ff 9040 e506 3b3d bb86 3640 8e8e 4f3d
000000d0: 8ed9 2840 0a36 3840 2fb0 1940 b513 e03f
000000e0: d4f1 1440 b8e5 1940 b890 383d 304d 9e40
000000f0: 1e76 4d40 f5a5 2640 3b39 9f40 c10f 423d
00000100: 476b 9b40 3d31 a540 3623 5340 9bbf 883f
00000110: eab1 1e40 00e5 2f40 d52e 8040 4c05 9040
00000120: 4188 a140 2ac3 b33f 6b27 2440 7ce7 8a40
00000130: c265 3140 1936 3340 e06e 3840 b96f b2bd
00000140: fa13 3040 f8a5 cb3f 2e3c 3440 e50a 543d
00000150: a2e3 2b40 f77e 1641 2e14 9540 111d 53c1
00000160: 447e 4dc1 90bb bc3f 8515 fd3f 9458 4c40
00000170: b7bb 2440 2eb4 a240 c558 a040 deed a040
00000180: be73 9fbd c2d1 0c40 0423 1d40 55f4 6240
00000190: 73b4 2240 62dd 8d40 3e59 c83f f918 1e40
000001a0: 08c9 1640 38a5 6440 8662 ab3f 1e0f 0040
000001b0: a666 4840 e6be 6a40 8e09 3740 1eed 2640
000001c0: 521b f03f 20db 4bc1 0d69 1d40 0eaf 2d40
000001d0: f73a 2740 b81b a140 366e 9d40 e32d 1741
000001e0: 6d9f 2040 0ca4 9e40 9939 2540 ee23 2540
000001f0: 0b1c a040 22f2 2040 a643 9140 1463 a240
00000200: b36b 9e40 369d 9e40 989d a140 d6f2 4dc1
00000210: ee08 3a40 6985 2240 a7e9 d63c f167 2740
00000220: ed07 1840 0062 a540 c061 0840 fb4f 4d40
00000230: 8f79 4540 13d1 3b40 e81e 0540 b3c6 1040
00000240: 34c3 2640 08c4 4540 5809 3b40 1e01 3b40
00000250: e1a8 adbd 5ed9 a440 4169 66bb e452 0f41
00000260: 8671 a340 7e52 55c1 a64c 2f40 54c7 1d40
00000270: 13bc ea3f fc0d a240 8502 a240 d5fc fe3f
00000280: f55c f33f 6d3d 4240 dae0 3640 b935 a240
00000290: d34d 4a40 7d43 3a40 36b2 3c40 ea99 ec3f
000002a0: 8266 a140 513c 3940 5035 fe3f 4368 3840
000002b0: 9977 1e3b 91e9 e73c ee01 1641 e109 213d
000002c0: 550d 8f40 ba9a 11bd 0249 3040 d449 143c
000002d0: 4557 3d40 40f3 2d40 e83d 0840 3cd4 ec3f
000002e0: 6ab9 1040 b798 2e40 f892 95bd df2b a440
000002f0: 2211 3f40 8d8a 3e40 d027 9f40 003b 28bd
00000300: 690a 9f40 02bd a640 d312 4240 a1ea 8c3f
00000310: dbb1 3040 4a1e 4640 4348 8540 1955 8a40
00000320: 2c98 a340 fddc 903f fecc 4240 5719 8840
00000330: fd53 4340 29d0 2340 91df 2440 3306 c83c
00000340: 1d1c 2b40 1a68 d53f b9e6 2b40 a3bb df3c
00000350: 1f15 4040 39e5 1341 7746 9540 227e 53c1
00000360: 4b5d 4fc1 2259 bd3f a09e 0340 c3f0 3a40
00000370: 9f29 1e40 84c3 a340 71f6 a040 1380 a340
00000380: e9c0 023d a439 0d40 9989 3040 1251 5140
00000390: 5dbd 3940 2a87 8b40 25aa be3f e107 1940
000003a0: 9a02 2f40 8c78 5840 fefe a13f 243a ed3f
000003b0: 1b9b 4a40 bf81 6d40 ddbd 2a40 ab48 3f40
000003c0: e35b fc3f c8f6 4cc1 1267 3540 bed7 4340
000003d0: 5a8a 3840 f6c0 a840 f3fd a240 63ba 1441
000003e0: 40c4 1640 3b2b a340 ffad 4140 66b1 4240
000003f0: e17e 9e40 40c4 3340 a352 9540 f815 a540
5.039884 4.9686284 5.049362 -12.696968 2.5262833 2.8587117 0.0058041946 2.8609028
2.457102 5.0531282 2.2885401 3.219577 2.7701173 2.655327 2.241283 2.3366928
2.7407007 2.8258507 3.1854193 2.436293 -0.07529334 5.0695624 0.05656169 8.918228
5.0470533 -13.242393 2.37557 2.553141 1.875446 4.913172 4.9043465 1.949912
1.7807574 2.608289 2.4458363 5.095986 3.4038415 2.6268106 3.0323951 1.986377
5.0037165 2.6058118 2.0005074 3.03499 0.022110963 0.04903809 9.496065 0.023509014
4.5311294 0.045660872 2.8519733 0.05067306 2.6382785 2.8782983 2.4013784 1.7506014
2.32726 2.404646 0.04505989 4.9469223 3.2103343 2.6038792 4.975736 0.047378305
4.8568454 5.1622605 3.299024 1.0683473 2.479609 2.748352 4.005717 4.5006466
5.0478826 1.4043934 2.564906 4.3407574 2.7718358 2.8001769 2.8817673 -0.08712716
2.7512193 1.5910025 2.816173 0.051768202 2.6857686 9.405997 4.6587133 -13.194596
-12.843327 1.474474 1.9772192 3.1929064 2.5739572 5.0844946 5.010836 5.0290365
-0.07785748 2.2003026 2.4552622 3.5461628 2.5422637 4.4332743 1.5652235 2.4702742
2.35602 3.5725842 1.3389442 2.0009227 3.1312652 3.6679015 2.8599582 2.6082225
1.8758337 -12.740997 2.4595368 2.7138095 2.612974 5.0346336 4.9197035 9.448703
2.5097306 4.9575253 2.5816405 2.580318 5.003423 2.5147786 4.539508 5.0745945
4.950647 4.956691 5.0504875 -12.871786 2.906795 2.5393927 0.026234461 2.615719
2.3754838 5.168213 2.1309662 3.2080066 3.0855443 2.9346359 2.0800114 2.2621276
2.6056643 3.0900898 2.9224453 2.9219432 -0.08479477 5.151534 -0.003515795 8.957737
5.107608 -13.33264 2.7390532 2.465291 1.8338646 5.064207 5.0628076 1.9920908
1.9012743 3.0349991 2.8574739 5.069058 3.161 2.9103692 2.9483771 1.8484471
5.043763 2.8943064 1.986002 2.8813636 0.0024180172 0.028309615 9.375471 0.039316062
4.4703774 -0.03554795 2.754456 0.009050805 2.9584515 2.7179718 2.1287785 1.8502269
2.2613168 2.728071 -0.07303423 5.1303554 2.9854207 2.9772065 4.97361 -0.04107189
4.970021 5.2105722 3.032399 1.1009103 2.7608554 3.0955987 4.165071 4.322888
5.1123257 1.131744 3.0437617 4.2530932 3.0520012 2.55958 2.5761454 0.024417019
2.673591 1.6672394 2.6859572 0.027311152 3.0012891 9.243463 4.6648517 -13.218294
-12.960277 1.4792826 2.0565567 2.920945 2.4712903 5.1176167 5.030083 5.109384
0.031922255 2.206643 2.7583983 3.2705731 2.9021828 4.3602495 1.4895674 2.391106
2.7345338 3.3823576 1.2655942 1.8533368 3.165717 3.711044 2.6678383 2.9888103
1.9715542 -12.810249 2.834416 3.0600429 2.8834443 5.273555 5.0934997 9.295505
2.3557281 5.099027 3.0262449 3.0420775 4.952988 2.8088531 4.6663375 5.1589317

net.2.bias f4 [128]
00000000: 784b 30bf ec56 7dbe a96b 0bc1 1eb3 cebe
00000010: f709 3b3d 8bc1 1a40 869f 97bc 9dd8 7b40
00000020: d4aa 7a40 0d81 b2bd cb72 1241 f82e 98bf
00000030: 997d b1bd c979 1ebf 8c19 7a40 eaf5 a23c
00000040: 5721 7b40 b631 13bf 24eb 06bf 40f8 c8be
00000050: 2312 d4bc b814 8140 c58d e83c 929b cfc0
00000060: 6150 ffc0 ef71 09c1 6a54 aabd 736c 7340
00000070: dced 7840 a65b 9b3f 0ebd 7f40 620e a7bd
00000080: b443 08bd 5866 25bd 15cb 7a40 6612 5fbf
00000090: 56a2 803d 2050 1f40 a01a 7740 c970 1641
000000a0: 2b1d 1040 6d47 a1bb 7ce4 63bd 5f04 acbc
000000b0: 45c1 8240 ae89 8040 053a 8b3d e8c5 d6bf
000000c0: 1f29 cec0 d76f f63c 4ddb b1be 452b 39bf
000000d0: cc4d 7c3b 0f67 0dbf 6845 7f40 b4a4 75bc
000000e0: b1c5 02bd c8d7 7d40 f7a7 0abf 5db7 0bc1
000000f0: dd27 933c 8f47 abc0 3310 82be 1c9b a2be
00000100: 0cbf f2c0 3637 f9bc b68c 7440 f865 7b40
00000110: 8dd6 1940 b773 1640 349a a6bd ba45 7440
00000120: daae 803c eeab ccbd 3bf4 8040 e59c 04c1
00000130: c3c7 7740 4628 6f40 3052 52c0 5f42 9b3f
00000140: 8cc4 07bf f81a 05bd ed1a 7040 e150 0bbf
00000150: a567 943d c8d8 09bd ecb7 c03c 7e79 1840
00000160: 64bf 7d40 b27c 24bd 0af8 e8c0 8295 97c0
00000170: 2ff5 8838 4739 253e 06ba 61bd 6f09 8040
00000180: 0810 e2c0 affc 693c 27ab 7b40 f77d c3bd
00000190: f53a a6bd f5d3 0ac1 210e 44c0 ecdc 0641
000001a0: c357 edbc 77b8 c7c0 961e 043d 2861 f4c0
000001b0: 89f3 f13f 33a6 1f3c 1640 1d40 4cb4 7740
000001c0: 75f7 efbe ba06 6ebd 199d eabe ff73 bf3e
000001d0: 7bb6 08c1 dff1 a9c0 6e70 743c 011b 2dbf
000001e0: d34a b3c0 3058 cec0 31e8 06c1 8283 9cbd
000001f0: 7bcd 7a40 a78d c6bd a554 ecbe df0d 1e40
-0.68865156 -0.2474019 -8.713784 -0.4037103 0.0456638 2.418063 -0.018508684 3.935096
3.9166765 -0.08716021 9.153026 -1.1889334 -0.08666534 -0.6190458 3.9078093 0.019892652
3.92391 -0.5749773 -0.52702546 -0.392519 -0.025887555 4.033779 0.028387913 -6.4877405
-7.978562 -8.590316 -0.08316882 3.8034942 3.8895178 1.2137344 3.995914 -0.0815704
-0.03326769 -0.040380806 3.9186451 -0.8713745 0.06280963 2.4892654 3.861 9.402535
2.2517803 -0.0049218447 -0.05563782 -0.020998178 4.0860925 4.0168066 0.06798176 -1.6779146
-6.4425197 0.030082626 -0.34737626 -0.7233165 0.003849852 -0.5523538 3.9886112 -0.014992882
-0.031926814 3.9662952 -0.54162544 -8.732266 0.017963344 -5.352485 -0.25402984 -0.31758964
-7.585821 -0.030421834 3.8210883 3.9280987 2.4037201 2.3508127 -0.08134881 3.8167558
0.015708376 -0.099937305 4.0298133 -8.288304 3.8715675 3.736833 -3.2862663 1.212963
-0.5303428 -0.032496423 3.7516434 -0.54420286 0.07246331 -0.033654004 0.0235252 2.3824153
3.9648066 -0.04015798 -7.280278 -4.7370005 6.530654e-05 0.16135131 -0.055109046 4.0011516
-7.064457 0.014281436 3.9323213 -0.0954551 -0.08116714 -8.676747 -3.0633624 8.428936
-0.028972512 -6.2412677 0.03225573 -7.63686 1.8902446 0.009744215 2.4570365 3.8703794
-0.46868482 -0.058111884 -0.4582298 0.37393185 -8.544551 -5.3107753 0.014919383 -0.6761933
-5.602884 -6.448265 -8.431687 -0.076422706 3.9187915 -0.09694987 -0.4615833 2.4695966

net.4.weight f4 [20, 128]
00000000: 7d43 abbf bfde 90bf dab9 f740 844c 95bf
00000010: d801 8dbc f1e8 9b40 1585 7a3d 9623 8140
00000020: 27f4 9340 78f0 0cbd 46cb fd3f 0ebd b2bf
00000030: 3753 f03c 743d a8bf 2a1d 8f40 2a2a 6bbc
00000040: 37aa 8740 84cc 81bf 01f6 8fbf 33fa 8bbf
00000050: 3fc8 40bd 4275 8440 e25a 8abd d65e ea40
00000060: 8c45 f440 1a79 f240 238e 1e3c f6d1 8a40
00000070: ba16 9540 4176 9a40 2482 8c40 8f66 fb3b
00000080: 7d00 3d3a bab0 493d 94e9 8740 3afa adbf
00000090: a066 8dbd 3f78 9940 b855 8e40 1a72 0640
000000a0: 07a2 9640 3c69 16bc 23eb 1b3d 0c61 42bb
000000b0: 01b9 9040 a034 8a40 b323 93bd c70b a540
000000c0: e750 ee40 98b7 ad3d 6253 8fbf 664a 99bf
000000d0: d90d 82bf 5f71 9bbf 5173 8840 813b 973d
000000e0: f753 acbc 8708 9240 a60b 7dbf 5f61 f640
000000f0: 9c29 653d fc1e de40 d70e 8cbf b64f 7bbf
00000100: 0c36 f040 83be 03bd 5c93 8a40 8407 8840
00000110: 004e 9a40 ddca 9a40 2d74 2f3d a63f 8140
00000120: 4692 2fbd 1cd5 86bf 64d1 8a40 edc5 f440
00000130: 9c19 8f40 44d9 6d40 333f c340 de87 9640
00000140: 9edc a2bf 2dee 82bb 833f 8e40 caf1 94bf
00000150: 0505 8cbb f96f a43d 9c32 a93d 8d85 9440
00000160: e95d 8e40 8538 1e3d 6325 f140 4f40 d940
00000170: 60e0 ac3d 2f46 9540 5c9a 5f3d f58c 8d40
00000180: 597b ec40 bf5d 49bd 50f5 8a40 e224 97bc
00000190: 2cea 8c3d 990f f440 f5f5 be40 4684 a33f
000001a0: be7a 4bbc 9316 eb40 d6be 893c 5926 f140
000001b0: 66df 9740 9241 d93c 998f 9840 1494 8540
000001c0: b058 99bf b9a5 97bd f6dc 9ebf 52b2 c4be
000001d0: 7608 f440 ccdc df40 2796 1d3d c7b5 96bf
000001e0: 9a5e e740 9206 e940 685f f840 f96a 11bd
000001f0: d265 8540 1c00 a33d 1ef5 9fbf 66b6 9a40
00000200: 2227 36bf 4497 0bbf 75e1 e240 e49b 4abf
00000210: 4bf0 86bd c4a5 9040 976b b4bc ab53 8140
00000220: e789 8a40 f975 6d3d 2091 463e 6a98 7ebf
00000230: e735 bcbc 5c55 36bf a236 8740 9045 f33b
00000240: 9a6c 8340 15d6 0abf 3313 1dbf 4641 1fbf
00000250: e0a7 9b3d 70ab 8240 bc3f 1f3d 9d04 e540
00000260: a16c e140 3d0b e040 2eb5 a93d a208 8440
00000270: b3d4 8b40 a6eb 9240 c239 8840 d18e aa3d
00000280: 27cb 343d 1483 0dbd 60b5 8540 9bdc 51bf
00000290: d6a4 54bd aa2c 8f40 f6df 8640 b07f dc3e
000002a0: 486f 9040 a333 213c f463 253d 729d 0cbd
000002b0: 2dcd 8940 2306 8640 0d55 8abd 8077 bd40
000002c0: f7e6 e640 02ff e23b e391 16bf b617 26bf
000002d0: 1838 29bf 7ec5 49bf 8026 8940 9995 96bd
000002e0: 3595 f63c 4918 8c40 bdd6 11bf 25cc e240
000002f0: 3e56 2d3d ffca e440 eeeb 13bf 4981 0ebf
00000300: 06a2 e340 0b64 ae3d 04c5 8640 6b39 8440
00000310: 8f76 8e40 111d 8f40 eaed dfbb c838 7940
00000320: d7b9 a6bc 912f 0cbf ad3e 8840 0a31 e040
00000330: 4777 8840 f8f9 6d40 0399 d840 792c 9340
00000340: 6c5e 4fbf 2047 6dbc 3837 8940 ce12 41bf
00000350: 4842 2fbd 4ac0 70bd e7f1 5a3d be2c 8c40
00000360: babf 8940 0321 3ebd 1622 e640 aac4 e340
00000370: b310 213d 69d1 9c40 e47d 2c3d e6be 8640
00000380: d45e e440 7ee6 893d 4af4 8440 5e5e a8bd
00000390: 05b0 77bd c41d e140 a016 d640 a6b4 0f3f
000003a0: 95ac 9ebd 5f9c e840 e1a3 873d be08 e340
000003b0: 78a6 8e40 ed31 513d 0816 8f40 51d0 8240
000003c0: 1e83 16bf a58b 503d 692f 3bbf e439 fcbe
000003d0: 49c6 e040 f169 e640 b320 a53d 4590 2bbf
000003e0: 7666 e440 b550 e840 8764 df40 8d2e d8bc
000003f0: 80fd 8140 f61c 99bd f78c 2dbf 37cc 8d40
-1.3379971 -1.1317977 7.741437 -1.1663976 -0.017212793 4.872185 0.061162073 4.035594
4.6235538 -0.034409016 1.9827659 -1.3963945 0.029336555 -1.3143754 4.47231 -0.014353314
4.239528 -1.0140538 -1.124695 -1.093573 -0.04706597 4.1393137 -0.06755616 7.3240767
7.6334896 7.577283 0.009677443 4.33813 4.6590242 4.8269353 4.3908863 0.007672138
0.00072098506 0.049240805 4.247263 -1.3591988 -0.0690434 4.7959285 4.4479637 2.1007142
4.7072787 -0.009180363 0.03806604 -0.0029659895 4.5225835 4.318924 -0.071845435 5.1576877
7.447376 0.08482283 -1.1197321 -1.197583 -1.0160476 -1.2143973 4.2640767 0.07384396
-0.021036131 4.563541 -0.988459 7.699386 0.055947885 6.9412823 -1.0942029 -0.98168504
7.5065975 -0.032164108 4.330488 4.2509174 4.8220215 4.8372636 0.042835403 4.0390196
-0.042864107 -1.0533786 4.3380604 7.649161 4.471876 3.7163858 6.1014647 4.7040854
-1.2723577 -0.003995678 4.445253 -1.1636288 -0.0042730593 0.080291696 0.08261606 4.6413026
4.4489636 0.03862812 7.535814 6.7891 0.08441234 4.6648173 0.054590568 4.4234567
7.390057 -0.04916167 4.3424454 -0.018450204 0.06880602 7.626904 5.967524 1.2774742
-0.012419401 7.3465056 0.01681463 7.535931 4.7460203 0.026520524 4.767529 4.174326
-1.198019 -0.07404656 -1.2411182 -0.38417298 7.626033 6.9957027 0.038473275 -1.1774224
7.230298 7.282052 7.7616463 -0.035502408 4.168679 0.07959005 -1.2496679 4.8347654
-0.7115346 -0.5452769 7.0900216 -0.7914412 -0.06588801 4.520235 -0.02202396 4.0414634
4.329334 0.057973836 0.19391298 -0.99451315 -0.022974921 -0.71224 4.225419 0.007424064
4.107007 -0.54232913 -0.6135742 -0.62208974 0.07600379 4.0834274 0.03887914 7.156813
7.0445104 7.001372 0.082865104 4.126054 4.3697143 4.5912657 4.2570505 0.08328021
0.044139054 -0.034548834 4.1783905 -0.8197724 -0.051915012 4.474202 4.214839 0.43066168
4.513584 0.009838971 0.040378526 -0.03432984 4.306296 4.188249 -0.067545034 5.9208374
7.215694 0.006927372 -0.58816355 -0.6487993 -0.6610122 -0.78816974 4.2859497 -0.07352752
0.030100444 4.3779645 -0.5696829 7.08742 0.042318575 7.14978 -0.57781875 -0.55666023
7.1135283 0.085151754 4.2115498 4.132009 4.4519725 4.472298 -0.0068337815 3.8940907
-0.020352287 -0.5476008 4.257651 7.005986 4.26456 3.718382 6.768678 4.599179
-0.8100345 -0.01448229 4.2879906 -0.7541932 -0.04278782 -0.05877713 0.053453352 4.3804617
4.304654 -0.0464182 7.191661 7.117757 0.039322566 4.900563 0.042112246 4.210803
7.1365757 0.06733416 4.1548204 -0.08221124 -0.0604706 7.0348835 6.690262 0.5613502
-0.07747761 7.2690883 0.06623054 7.094817 4.457821 0.051073004 4.4714394 4.0879292
-0.5879382 0.050914425 -0.7311922 -0.49262917 7.0242047 7.2004323 0.080628775 -0.6701701
7.1375074 7.259852 6.9810214 -0.026389385 4.062195 -0.07476227 -0.6779322 4.4311786

net.4.bias f4 [20]
00000000: 7cf3 0340 50a8 e33f 7d96 d53f 12d4 e33f
00000010: a8bd 953f 2b40 a43f 0e07 cb3f 2e09 d43f
00000020: a298 74bd d6f7 f43f 19fa a93e dbcd f93e
00000030: 9b3a 4f3f fd31 c53e ffb4 843f f201 d4be
00000040: fb75 ec3e fb33 393b 6fb0 433f 9301 833d
2.061736 1.778574 1.668655 1.7799094 1.1698503 1.2832083 1.5861528 1.6565301
-0.059715874 1.9138134 0.33198622 0.48789868 0.809488 0.385147 1.0367736 -0.41407734
0.46183762 0.0028259743 0.7644109 0.06396785
