realtime_model_ep270.pth (torch, 97610 bytes, 6 tensors)

net.0.weight f4 [128, 35]
00000000: 76d3 18c0 e6ed f541 510b d2be d332 09bf
00000010: 11b2 a0be 7837 c4bf b100 e941 3648 01bf
00000020: 619e b03f 2883 f13e 14d1 fabf a774 eb41
00000030: 312c 04bf 120d 0640 b624 abbd 1c73 9fbf
00000040: e47f eb41 0b0a 3abf c21d 933f 2a8d 3fbf
00000050: ffb1 08c0 b749 ec41 018c 14bf 9ee9 2140
00000060: e1f8 ecbe 9d5d de40 e94c d140 819f 0c41
00000070: f35e de40 eca8 cb40 0e82 ba40 1ea9 c740
00000080: aa34 dc40 dc91 6d40 1451 d940 d271 16c0
00000090: 553b f641 1ad1 83be 9272 bfbe 8bd6 8fbe
000000a0: d7ab a5bf 035a ea41 0cfc 44bf c1ff a83f
000000b0: f913 023f 6446 e4bf 4efd eb41 b129 10bf
000000c0: c4e2 0740 2d59 343c 0879 a0bf 3927 eb41
000000d0: 7649 44bf 1b68 933f 9b7e 0dbf 3a7c 03c0
000000e0: 0b51 eb41 126a 39bf 1bb2 1e40 cdc3 48bf
000000f0: 7ad1 e140 236d cf40 7b04 0d41 4a93 dc40
00000100: ac7c c240 da2d b840 87fa c540 6afd db40
00000110: 8408 6240 1bed dc40 1355 12c0 b31f f741
00000120: d978 42be 499c 24bf 901d 333d b277 a2bf
00000130: 7e90 ec41 7500 ecbe 8a86 a73f 945f 513f
00000140: b374 e7bf d0bf ed41 23b1 49be 7048 0440
00000150: 0442 423e 7252 9fbf 3653 ee41 6fe7 0bbf
00000160: 2687 de3f 733e 8fbe b22c 08c0 1c34 ef41
00000170: 091f b7be 4e3f 1e40 552a b2be 9afc eb40
00000180: 7323 e240 3c42 0c41 fb4c e040 754e d340
00000190: a9cf be40 a728 d340 2e5b e440 51af 6c40
000001a0: fc95 e140 462f 0bc0 4108 f441 3115 1ec1
000001b0: 2ded edbf 92eb 4fc1 a4cf 9ebf 4a19 ea41
000001c0: 0f1e 26c1 877c aa3f af2d 40c1 186b c9bf
000001d0: 070b e941 ca12 26c1 061e b53f 43cc 4ac1
000001e0: c3c8 92bf 50dc ea41 1311 29c1 bde6 663f
000001f0: 553d 46c1 0d92 00c0 a520 ea41 cf31 27c1
00000200: 89ab 0f40 c8c3 4bc1 dddd 0841 1d35 fe40
00000210: 3151 3f41 1a26 2541 3d9b 0b41 edcd 1d41
00000220: 7d71 0641 84da 2041 db8c d840 0a2a 1141
00000230: b44f 163f a173 a1c1 61b4 2a41 a694 0b40
00000240: d23c 0041 d883 9a3e 85c2 95c1 7886 3441
00000250: baec e23f 7d7e e940 2b0a 813e dadd 96c1
00000260: 9904 2e41 10ef 5840 3ee5 0e41 87cd 813f
00000270: 5475 98c1 0f61 3341 a997 dc3f 944b 1241
00000280: e285 383f 9b4c 97c1 2bab 3441 f1dc 8bbe
00000290: fea8 0341 fd29 cd40 9cd2 c340 17da b540
000002a0: 564b c940 1989 2141 55b1 bc40 be5a cf40
000002b0: 3898 f640 3e05 fb40 f2ca 0341 4078 1bc0
000002c0: 9874 f441 0cc7 3abf 6207 fabe 2311 17bf
000002d0: f8a6 c2bf 0b2e e841 dc84 8ebf 0d38 a13f
000002e0: 425f 453e 0a7c d0bf 7dca e941 1d59 5dbf
000002f0: ad58 0f40 c286 34bd d2ac a1bf e756 e941
00000300: 940a 92bf 81e9 613f 4dde 66bf ceae f1bf
00000310: bbee e941 f4dc 7cbf a6b0 2340 7dce 29bf
00000320: 8c33 da40 900c c740 d3f6 0741 3882 d240
00000330: 3ae7 c140 0a10 b340 bf8f c140 7e34 d440
00000340: 9012 5440 c51a d440 ea60 bf3c ae76 953d
00000350: 5cac 09be 533b 38bb b412 e3bd 69f9 523d
00000360: 0903 a03c 4b51 863d ada6 05be 0b9e acbd
00000370: b2c9 12be e122 ca3d 3627 e4bd 42e8 14bc
00000380: e430 e9bd c7bd 033e 126f d63d e497 55bc
00000390: 68b8 a1bd acf6 e03d 376c 273e c22c 09be
000003a0: e2f8 a93c 0e59 d5bd 4c6a 3a3d 30a9 caba
000003b0: 2aa2 babd 8eeb f6bd d488 653d aba9 13be
000003c0: afb4 84bd 9d33 19be e0a2 04be 8b46 8b3d
000003d0: 842e d93d a493 1bc0 168c f441 5d55 27bf
000003e0: e057 18bf bc32 bcbe 10d6 b1bf 53d7 e841
000003f0: b0ef 92bf acec a43f 9f76 493e 1522 ccbf
-2.3879066 30.741161 -0.4102426 -0.53593177 -0.31385854 -1.5329428 29.125338 -0.5050081
1.3798333 0.47170377 -1.9595056 29.43196 -0.5162993 2.0945477 -0.083566114 -1.2457004
29.437447 -0.72671574 1.1493456 -0.74824774 -2.135864 29.535994 -0.5802613 2.5298839
-0.4628363 6.9489274 6.5406384 8.788941 6.9490905 6.3643703 5.828376 6.239394
6.8814287 3.7120275 6.791147 -2.350697 30.77897 -0.2574547 -0.37392098 -0.2809337
-1.2943066 29.293951 -0.76947093 1.320305 0.50811726 -1.7833982 29.498684 -0.56313616
2.1232157 0.011007589 -1.2536936 29.394152 -0.7667459 1.1516145 -0.5527131 -2.0544572
29.414572 -0.72427475 2.4796207 -0.7842377 7.056821 6.4820724 8.813594 6.8929796
6.0777187 5.755597 6.186832 6.8746843 3.5317698 6.9039435 -2.2864425 30.890478
-0.18991412 -0.6430097 0.043729365 -1.2692778 29.570553 -0.460941 1.3087933 0.81786466
-1.8082489 29.718658 -0.19696479 2.0669212 0.18970495 -1.2447035 29.79063 -0.54650015
1.7384994 -0.27977332 -2.127728 29.900444 -0.35765865 2.4726138 -0.34797922 7.374585
7.0668273 8.7661705 7.009397 6.6033273 5.962849 6.5987124 7.1361303 3.6982005
7.0495586 -2.1747603 30.50403 -9.880174 -1.8588005 -12.995012 -1.2407117 29.262348
-10.382339 1.3319253 -12.011153 -1.5735807 29.130384 -10.379587 1.4149787 -12.674869
-1.1467518 29.357574 -10.5666685 0.9019583 -12.389974 -2.0089142 29.26594 -10.44966
2.2448447 -12.735298 8.554166 7.9439836 11.957322 10.321802 8.7254 9.862775
8.402707 10.053349 6.7671943 9.072763 0.5871537 -20.18146 10.669038 2.1809478
8.014849 0.30178714 -18.71998 11.282829 1.7728493 7.2966905 0.2520307 -18.858326
10.876122 3.3895912 8.930967 1.0140847 -19.05729 11.211196 1.7233783 9.143452
0.7207929 -18.912405 11.291789 -0.27317002 8.228758 6.4113755 6.119459 5.6828723
6.2904463 10.095971 5.896647 6.479827 7.7060814 7.84439 8.237047 -2.4292145
30.55693 -0.7295997 -0.48833758 -0.59010524 -1.5207205 29.022482 -1.1134295 1.259523
0.19274619 -1.6287854 29.223871 -0.864641 2.2397873 -0.044073828 -1.2630866 29.167433
-1.1409478 0.88246924 -0.90182954 -1.8881471 29.241568 -0.9877465 2.5576568 -0.663307
6.8187923 6.2202835 8.49776 6.578396 6.059476 5.595708 6.048797 6.6314077
3.313633 6.628268 0.023361642 0.07298027 -0.13444656 -0.0028111532 -0.11087552 0.051507387
0.019532697 0.06558474 -0.13051863 -0.08428582 -0.14334753 0.09869934 -0.111402914 -0.009088578
-0.11386278 0.12865363 0.10470404 -0.013036702 -0.07896501 0.10984549 0.16349874 -0.1339598
0.02074856 -0.104173765 0.04551153 -0.0015461799 -0.091129616 -0.12056647 0.056038693 -0.14420192
-0.06479775 -0.14961095 -0.12952757 0.068005644 0.10604575 -2.4308863 30.568401 -0.6536463
-0.59509087 -0.36757457 -1.3893452 29.105139 -1.1479397 1.2884727 0.19674157 -1.5947901

net.0.bias f4 [128]
00000000: 0593 4440 28a2 3d40 29ef 4c40 9cb2 9bc0
00000010: c76f 1f41 c3de 2c40 5ffc 41be c486 2540
00000020: a4d2 2140 ca7d 4940 ab68 1c40 2fe5 2940
00000030: 0e1f 1c41 8f04 2141 989a 2a40 518a 2440
00000040: 9ae2 2340 8205 1e41 2d2c 2b40 b52a 1f41
00000050: c334 6a3c 78f6 3d40 a1b9 19be 3eae c23f
00000060: d82c 3f40 e7ed aec0 886c 2041 2f56 1f40
00000070: b3ab 2440 dac8 4a40 222c 4240 565f 1d40
00000080: 4338 2040 ec66 2241 6db1 1f41 23cd 3f40
00000090: 5438 2a40 67bf 1d41 5047 2040 46ed 1f40
000000a0: 05b5 5140 aee3 1d41 911f 2040 06a4 1f40
000000b0: 2d5d aebd e0ec b4bc 3646 e53f 34c3 66bd
000000c0: bd7e 3340 4e69 0fbd 1f37 2240 064d 1cbe
000000d0: 8fbe 1c41 fe4c 1b40 46c7 2240 e7b3 1e40
000000e0: 4592 1840 ec62 1f41 a50f 43be a39f 4440
000000f0: 05c5 1740 222b 2041 9fdd 5240 1aa3 68bd
00000100: 4a59 4e40 4a3b 4d40 a179 2540 79a2 1940
00000110: a676 1d41 80aa 1b41 f37b 1e40 a9e2 3240
00000120: dd0e 4740 d3ca 1f40 f83d 2041 2656 2640
00000130: fbcd 1b41 b97b 2140 5fa9 2140 3c32 203d
00000140: bb18 2140 10a3 2740 27f2 1f40 fb5d 34be
00000150: 71fe 1c41 65c2 e73f 310f 2a40 2469 94c0
00000160: 050b 9ac0 ea38 2540 94e6 1a40 48f0 1a40
00000170: 04da 2140 e74a 5440 b946 4f40 7e0a 4240
00000180: 0825 18bd b793 1b40 1e4d 1f41 a27d 2740
00000190: 3587 2041 5136 3140 b68d 2240 2384 2940
000001a0: 4553 2341 cff3 1b40 174b 1540 0a15 1a40
000001b0: 9891 2040 4c77 2e40 2a9c 2340 977e 1c41
000001c0: 1aa5 2540 ec7f 93c0 7b20 2041 a8fe 1c41
000001d0: 41c8 1b41 bd76 5240 1588 4f40 22a8 d13f
000001e0: 63d0 2240 dfac 5440 1aef 1e41 d4db 2041
000001f0: 9708 3340 ec57 2541 830d 2c40 0f70 4a40
3.0714734 2.9630222 3.2020972 -4.865553 9.964789 2.7010963 -0.18943928 2.5863504
2.5284815 3.1483026 2.4438884 2.6546133 9.757582 10.063613 2.6656857 2.5709422
2.5607057 9.876345 2.6745713 9.9479265 0.014294806 2.9681683 -0.15012218 1.5209424
2.987112 -5.466541 10.026497 2.4896352 2.5729797 3.168509 3.0339437 2.4589438
2.503434 10.150127 9.980817 2.9968956 2.659688 9.859229 2.5043526 2.498857
3.2766736 9.868086 2.5019267 2.4943862 -0.085138656 -0.022085607 1.7912052 -0.056338504
2.8046105 -0.035012536 2.5346143 -0.15263757 9.796523 2.4265742 2.5434127 2.4797304
2.3839276 9.961651 -0.19048937 3.0722435 2.3714 10.01053 3.2947767 -0.05679617
3.2241998 3.2067437 2.5855486 2.4005415 9.841467 9.729126 2.4763153 2.7950842
3.1102822 2.4967544 10.015129 2.599008 9.737788 2.5231764 2.5259626 0.039110407
2.5171344 2.6193275 2.4991548 -0.17613976 9.8121195 1.81062 2.6571772 -4.6378345
-4.813845 2.5815988 2.4203234 2.4209156 2.5289316 3.3170717 3.2386916 3.0318904
-0.03714469 2.4308908 9.956327 2.617043 10.03301 2.7689402 2.5398993 2.64869
10.207829 2.436756 2.3327081 2.4075341 2.5088863 2.7260313 2.5564065 9.780906
2.588202 -4.6093655 10.00793 9.812172 9.73639 3.2884972 3.2426808 1.6379435
2.543969 3.3230512 9.933374 10.053669 2.7973993 10.333965 2.6883247 3.1630895

net.2.weight f4 [128, 128]
00000000: e1ff a240 16b9 a040 af48 a340 36a2 49c1
00000010: d10a 2340 857d 3a40 1d31 be3b 3b9c 3a40
00000020: 2bc4 2040 8769 a340 ebff 1540 e09b 5140
00000030: c69d 3240 0a4b 2b40 5af9 1240 ad14 1940
00000040: e2ee 3240 1c49 3640 5663 4f40 8a50 1d40
00000050: 6533 9abd 18f3 a340 3bad 673d 5177 0f41
00000060: bd3a a340 6d36 52c1 c54b 1940 a5f4 2640
00000070: a329 f73f deeb 9e40 ea9e 9e40 e453 0040
00000080: e203 eb3f 7349 2840 33e0 1d40 c0c4 a440
00000090: 1e61 5d40 d579 2940 e09a 4540 a5b1 0240
000000a0: abcf a140 db25 2840 c18e 0340 60ce 4540
000000b0: 0d22 b53c 2adc 483d 58d4 1841 fa95 c03c
000000c0: 96bd 9240 e506 3b3d 6b11 3a40 8e8e 4f3d
000000d0: c83f 2a40 38c2 3b40 2040 1d40 eb28 e73f
000000e0: 7178 1840 f440 1b40 b890 383d a9fd 9f40
000000f0: f804 5140 ab0b 2840 1ae9 a040 c10f 423d
00000100: 051b 9d40 d8e3 a640 c9b0 5640 64ca 8f3f
00000110: ac24 2040 8c5d 3140 a8f0 8140 adc4 9140
00000120: 303d a340 46e1 ba3f 7196 2540 1aa6 8c40
00000130: 56cb 3240 adc1 3640 b5f8 3b40 b96f b2bd
00000140: 20a0 3340 b3b8 d23f c3c4 3740 e50a 543d
00000150: e158 2d40 7462 1741 f0cf 9640 9b98 51c1
00000160: 7cf9 4bc1 e8ce c33f 2213 0240 0fe3 4f40
00000170: d33f 2840 f965 a440 320b a240 8d9d a240
00000180: be73 9fbd 9d5a 1040 236a 1e40 687d 6640
00000190: e6ff 2340 539c 8f40 ba67 cf3f f0a1 2140
000001a0: 710d 1840 8d30 6840 0480 b23f 189a 0340
000001b0: 63e8 4b40 5447 6e40 4790 3a40 8d5d 2840
000001c0: 502b f73f e057 4ac1 a5b1 1e40 4528 2f40
000001d0: 6299 2840 55ca a240 3a1f 9f40 8d12 1841
000001e0: 8925 2440 f454 a040 59a3 2640 6098 2640
000001f0: 23d3 a140 ac2a 2240 8d01 9340 8419 a440
00000200: 4434 a040 6e67 a040 d35e a340 c147 4cc1
00000210: d3c6 3a40 9434 2640 a7e9 d63c 6712 2b40
00000220: 1cb2 1b40 fd25 a740 5a11 0c40 0104 5140
00000230: 2f2d 4640 dd8c 3c40 1ccf 0840 f176 1440
00000240: 3571 2a40 d996 4640 5fb5 3e40 a0ca 3b40
00000250: e1a8 adbd b4a0 a640 4169 66bb 2e03 1041
00000260: d539 a540 5d7f 53c1 b6eb 2f40 ac7b 2140
00000270: f026 f23f 77ce a340 24bc a340 f72d 0340
00000280: f8c0 fa3f 53fb 4240 dd99 3740 72f5 a340
00000290: f4fc 4d40 5c01 3b40 0f61 4040 f508 f43f
000002a0: 3924 a340 12ff 3940 9dc7 0240 cf1f 3c40
000002b0: 9977 1e3b 91e9 e73c 2ad7 1641 e109 213d
000002c0: 35dd 9040 ba9a 11bd effa 3340 d449 143c
000002d0: ab22 3e40 0fa6 3140 67f4 0b40 1338 f43f
000002e0: 6867 1440 c057 2f40 f892 95bd d4e7 a540
000002f0: edc5 4240 0b55 3f40 9fe3 a040 003b 28bd
00000300: 32c6 a040 b97c a840 99c5 4540 3e44 943f
00000310: 318c 3140 aaff 4640 4e1b 8740 1b26 8c40
00000320: 455b a540 0745 983f b2a3 4340 f4e9 8940
00000330: 8f1c 4440 0b82 2740 b48f 2840 3306 c83c
00000340: 71cd 2e40 7bcc dc3f 6695 2f40 a3bb df3c
00000350: 8cf2 4040 7fb9 1441 a513 9740 3ed3 51c1
00000360: 0cb2 4dc1 d4bb c43f aa4d 0740 6aa2 3e40
00000370: 2cd4 2140 0682 a540 8fb6 a240 b93c a540
00000380: e9c0 023d b6e9 1040 702e 3140 fcff 5440
00000390: a567 3a40 c957 8d40 c106 c63f 7cb8 1c40
000003a0: 5aa3 2f40 c729 5c40 476b a93f 0f99 f43f
000003b0: 7043 4e40 652f 7140 b16b 2e40 2120 4040
000003c0: e6dd 0140 014d 4bc1 590e 3640 31ba 4440
000003d0: cf4a 3940 287b aa40 c1bb a440 d88f 1541
000003e0: cb71 1a40 f4e8 a440 c47e 4240 4c8d 4340
000003f0: fa44 a040 5e57 3440 cb21 9740 b9da a640
5.093735 5.0225935 5.1026225 -12.602102 2.5475352 2.913911 0.0058041946 2.9157856
2.5119731 5.1066318 2.343745 3.2751389 2.7908797 2.676455 2.2964692 2.391887
2.7958302 2.8482122 3.240438 2.4580407 -0.07529334 5.1234245 0.05656169 8.96663
5.10092 -13.138288 2.3952496 2.608682 1.9309582 4.9662924 4.9568987 2.0051203
1.836056 2.629483 2.466809 5.1490173 3.4590526 2.648061 3.0875778 2.0420926
5.0566 2.6273105 2.055588 3.0907211 0.022110963 0.04903809 9.551842 0.023509014
4.585643 0.045660872 2.907313 0.05067306 2.660143 2.9337292 2.4570389 1.8059362
2.3823512 2.4258394 0.04505989 4.9997144 3.2659283 2.6257122 5.028455 0.047378305
4.9095483 5.215313 3.35454 1.123364 2.5022383 2.7713346 4.060627 4.5552583
5.101219 1.4599998 2.5873072 4.395276 2.7936606 2.855571 2.9370549 -0.08712716
2.8066483 1.6462616 2.8713844 0.051768202 2.7085497 9.461536 4.712883 -13.099757
-12.748409 1.5297518 2.0324178 3.2482336 2.6288955 5.137448 5.0638666 5.0817323
-0.07785748 2.2555306 2.475228 3.6014042 2.5624938 4.4878325 1.620353 2.5255089
2.3758204 3.6279633 1.3945317 2.0562801 3.1860588 3.7231035 2.915056 2.63071
1.9310093 -12.646454 2.4795926 2.7368329 2.6343617 5.0871987 4.972562 9.504529
2.564791 5.0103703 2.60372 2.6030502 5.0570235 2.5338545 4.5939393 5.1281147
5.00638 5.0126257 5.105325 -12.767518 2.9183853 2.596959 0.026234461 2.6729982
2.432746 5.2233872 2.188559 3.2658694 3.0965078 2.9460976 2.137641 2.3197596
2.6631596 3.102957 2.97982 2.9342422 -0.08479477 5.207117 -0.003515795 9.000776
5.1633096 -13.218595 2.7487617 2.5231733 1.8918133 5.118953 5.1167164 2.0496805
1.9590139 3.0465896 2.868766 5.1237116 3.218564 2.921958 3.005924 1.9065233
5.0981717 2.9061933 2.0434334 2.9394414 0.0024180172 0.028309615 9.42753 0.039316062
4.527003 -0.03554795 2.8121908 0.009050805 2.970866 2.7757604 2.1867921 1.9079612
2.3188114 2.7397308 -0.07303423 5.1845493 3.0433304 2.9895656 5.027786 -0.04107189
5.024194 5.265225 3.0901854 1.1583326 2.7741816 3.1093545 4.222083 4.3796515
5.1673913 1.1896065 3.0568662 4.3098087 3.064243 2.6173122 2.633771 0.024417019
2.7312891 1.7249902 2.7434936 0.027311152 3.014804 9.295287 4.721148 -13.114073
-12.855968 1.536982 2.1141152 2.978663 2.528575 5.172122 5.084785 5.1636624
0.031922255 2.2642646 2.7684593 3.328124 2.912576 4.416966 1.5470811 2.44876
2.7443452 3.44005 1.3235863 1.910921 3.222866 3.7685177 2.725323 3.001961
2.0291686 -12.7063 2.8446257 3.0738642 2.895191 5.3275337 5.147919 9.347618
2.4131954 5.1534367 3.0389872 3.055499 5.00842 2.8178325 4.722875 5.2141995

net.2.bias f4 [128]
00000000: 30f2 27bf 11bc 5ebe 743c 0cc1 d179 bebe
00000010: f709 3b3d 22f0 1040 869f 97bc ec2d 7540
00000020: 72cf 7340 0d81 b2bd 7ed9 1a41 82cb 93bf
00000030: 997d b1bd 1e0e 16bf 143e 7340 eaf5 a23c
00000040: bb6b 7440 18b5 0cbf 6804 febe c94f b8be
00000050: 2312 d4bc aa80 7b40 c58d e83c 8a61 d0c0
00000060: 2345 00c1 0b3d 0ac1 6a54 aabd 09aa 6c40
00000070: c402 7240 8335 873f ade7 7840 620e a7bd
00000080: b443 08bd 5866 25bd 031e 7440 0203 56bf
00000090: 56a2 803d 3e90 1540 785a 7040 0692 1e41
000000a0: 0a46 0640 6d47 a1bb 7ce4 63bd 5f04 acbc
000000b0: 6c9c 7e40 b456 7a40 053a 8b3d aa7a dfbf
000000c0: 19e7 cec0 d76f f63c 6020 a3be 18c9 30bf
000000d0: 13a8 073d 7f59 05bf 408d 7840 b4a4 75bc
000000e0: 1756 583e f301 7740 1558 03bf b77f 0cc1
000000f0: dd27 933c 569b abc0 6600 6abe b64c 94be
00000100: 23b1 f3c0 3637 f9bc f6cd 6d40 a0ad 7440
00000110: 05fd 0f40 1f9c 0c40 349a a6bd ce98 6d40
00000120: daae 803c ade9 8dbd 290e 7b40 8e6d 05c1
00000130: 66f2 7040 f3e8 6840 89a4 51c0 510e 873f
00000140: ff41 febe f81a 05bd 4237 6940 8baf 02bf
00000150: a567 943d c8d8 09bd ecb7 c03c dbbf 0e40
00000160: d7f5 7640 b27c 24bd 15ec e9c0 b170 97c0
00000170: 2ff5 8838 8fdf 7c3c 06ba 61bd 1333 7940
00000180: 76e8 e2c0 affc 693c 7af6 7440 f77d c3bd
00000190: 6f54 a6bd 569e 0bc1 938c 43c0 8b13 0f41
000001a0: c357 edbc c764 c8c0 961e 043d 8d6f f5c0
000001b0: cf08 de3f 33a6 1f3c e775 1340 64f2 7040
000001c0: 67d0 dfbe ba06 6ebd cc65 d9be 17f3 193f
000001d0: bc7b 09c1 de6c aac0 6e70 743c 9f11 25bf
000001e0: 5ce3 b3c0 7e11 cfc0 38b2 07c1 8283 9cbd
000001f0: a931 7440 a78d c6bd 1b04 dcbe 1f4e 1440
-0.65603924 -0.21751429 -8.764759 -0.37202314 0.0456638 2.2646565 -0.018508684 3.8309278
3.8095365 -0.08716021 9.678099 -1.1546481 -0.08666534 -0.5861529 3.800664 0.019892652
3.8190753 -0.5496383 -0.49612737 -0.3599837 -0.025887555 3.929728 0.028387913 -6.5119066
-8.016879 -8.639903 -0.08316882 3.6978781 3.7814188 1.0563205 3.8891404 -0.0815704
-0.03326769 -0.040380806 3.8143318 -0.8359834 0.06280963 2.3369288 3.7555218 9.91065
2.0980248 -0.0049218447 -0.05563782 -0.020998178 3.9782972 3.911542 0.06798176 -1.7459309
-6.46571 0.030082626 -0.31860638 -0.69056845 0.033119272 -0.52089685 3.8836212 -0.014992882
0.2112659 3.859494 -0.5130628 -8.78118 0.017963344 -5.362712 -0.22851714 -0.28964776
-7.615373 -0.030421834 3.7156959 3.8230972 2.249818 2.1970289 -0.08134881 3.7124515
0.015708376 -0.06929336 3.9227393 -8.339247 3.7647948 3.639218 -3.2756674 1.0551244
-0.49659726 -0.032496423 3.6439977 -0.5104911 0.07246331 -0.033654004 0.0235252 2.23046
3.8587549 -0.04015798 -7.3100686 -4.7325063 6.530654e-05 0.01543416 -0.055109046 3.8937423
-7.0908766 0.014281436 3.8275437 -0.0954551 -0.08121573 -8.726156 -3.055455 8.942271
-0.028972512 -6.262302 0.03225573 -7.669867 1.7346438 0.009744215 2.3040712 3.7647943
-0.43713686 -0.058111884 -0.42460477 0.6013655 -8.592709 -5.3257895 0.014919383 -0.6448001
-5.621504 -6.4708853 -8.48101 -0.076422706 3.815531 -0.09694987 -0.42971882 2.3172681

net.4.weight f4 [20, 128]
00000000: 7e1c b9bf da7f 9fbf cf2f fe40 dd98 a3bf
00000010: d801 8dbc ec78 9e40 1585 7a3d c379 8240
00000020: cf4d 9540 78f0 0cbd 936a d43f 8e2b c0bf
00000030: 3753 f03c 7123 b6bf 8d6f 9040 2a2a 6bbc
00000040: 75f8 8840 d259 90bf c656 9ebf ba32 9abf
00000050: 3fc8 40bd 41c8 8540 e25a 8abd 22a5 f040
00000060: 5ba3 fa40 2fec f840 238e 1e3c 7a23 8c40
00000070: 9972 9640 9ad7 9d40 1ed8 8d40 8f66 fb3b
00000080: 7d00 3d3a bab0 493d a438 8940 146e bbbf
00000090: a066 8dbd 5d07 9c40 09ab 8f40 6286 e33f
000000a0: 8c49 9940 3c69 16bc 23eb 1b3d 0c61 42bb
000000b0: 1012 9240 4082 8b40 b323 93bd d309 aa40
000000c0: 2996 f440 98b7 ad3d ffe1 9dbf b940 a7bf
000000d0: 23db 90bf a192 a9bf 1dc4 8940 813b 973d
000000e0: 1bbf 24be ce5f 9340 311d 8dbf a8d3 fc40
000000f0: 9c29 653d 6452 e440 00d2 9abf 0a54 8cbf
00000100: 6e82 f640 83be 03bd 9be8 8b40 dc54 8940
00000110: 29ee 9c40 f95b 9d40 2d74 2f3d d38f 8240
00000120: 4692 2fbd 6f95 95bf a626 8c40 323c fb40
00000130: a370 9040 aa58 7040 7ae5 c840 e3f6 9940
00000140: e0bd b0bf 2dee 82bb fa94 8f40 bdd9 a2bf
00000150: 0505 8cbb f96f a43d 9c32 a93d b70f 9740
00000160: 83b3 8f40 8538 1e3d 1c72 f740 0857 df40
00000170: 60e0 ac3d 1826 9940 5c9a 5f3d 0ee4 8e40
00000180: fbc3 f240 bf5d 49bd f043 8c40 e224 97bc
00000190: 2cea 8c3d f781 fa40 c391 c440 ad19 743f
000001a0: be7a 4bbc 685a f140 d6be 893c 8178 f740
000001b0: a0df 9a40 9241 d93c 7b1f 9b40 84e2 8640
000001c0: e0a7 a7bf b9a5 97bd 5ded acbf 62b5 1ebf
000001d0: 4678 fa40 dd17 e640 2796 1d3d d6d4 a4bf
000001e0: a59f ed40 cd4a ef40 75d1 fe40 f96a 11bd
000001f0: fab3 8640 1c00 a33d e723 aebf c044 9d40
00000200: 0fda 44bf 4091 19bf e239 ea40 ae99 58bf
00000210: 4bf0 86bd facc 9240 976b b4bc 3698 8140
00000220: 02d2 8a40 f975 6d3d bdec ea3e c2d1 86bf
00000230: e735 bcbc 69e1 44bf a978 8740 9045 f33b
00000240: 7faa 8340 0f46 19bf 745a 2bbf 076b 2dbf
00000250: e0a7 9b3d aeec 8240 bc3f 1f3d 3243 ec40
00000260: a1b8 e840 2f62 e740 2eb5 a93d 4549 8440
00000270: e11d 8c40 6aca 9640 5a7d 8840 d18e aa3d
00000280: 27cb 343d 1483 0dbd 19f4 8540 dd99 60bf
00000290: d6a4 54bd 5a52 9140 8a23 8740 49d7 313f
000002a0: 9ac9 9240 a333 213c f463 253d 729d 0cbd
000002b0: c513 8a40 d342 8640 0d55 8abd c9bc c340
000002c0: e624 ee40 02ff e23b 84b6 24bf 53b4 34bf
000002d0: 6ec4 36bf 5c16 58bf 8a65 8940 9995 96bd
000002e0: 774c fa3e 825e 8c40 1733 20bf d722 ea40
000002f0: 3e56 2d3d 91fe eb40 821d 22bf 835b 1cbf
00000300: e7e3 ea40 0b64 ae3d 9e08 8740 da76 8440
00000310: 81c1 9040 aa46 9140 eaed dfbb 6bb9 7940
00000320: d7b9 a6bc 55dc 19bf 9381 8840 9089 e740
00000330: 68bb 8840 0074 6e40 cb6a df40 e125 9740
00000340: 1fac 5dbf 2047 6dbc 3a7b 8940 aa72 4fbf
00000350: 4842 2fbd 4ac0 70bd e7f1 5a3d aa47 8e40
00000360: aa03 8a40 0321 3ebd 2164 ed40 7ee6 ea40
00000370: b310 213d 579a a140 e47d 2c3d cc03 8740
00000380: 9f9e eb40 7ee6 893d 3033 8540 5e5e a8bd
00000390: 4daf 77bd 7b74 e840 b8e0 dc40 6947 533f
000003a0: 95ac 9ebd 62d9 ef40 e1a3 873d 3f4e ea40
000003b0: acc0 9140 ed31 513d 2c3d 9140 350e 8340
000003c0: efc5 24bf a58b 503d 704e 49bf 2eaf 00bf
000003d0: ba1b e840 2ba2 ed40 b320 a53d 2405 3abf
000003e0: f3a1 eb40 fc8d ef40 00bb e640 8d2e d8bc
000003f0: 583b 8240 f61c 99bd 40d6 3bbf 1ff0 8f40
-1.446182 -1.2460892 7.943336 -1.2781025 -0.017212793 4.952261 0.061162073 4.0773635
4.665748 -0.034409016 1.6595024 -1.5013292 0.029336555 -1.4229566 4.513617 -0.014353314
4.280329 -1.1277411 -1.2370231 -1.204673 -0.04706597 4.180695 -0.06755616 7.520158
7.832441 7.778831 0.009677443 4.3793306 4.701489 4.9325686 4.4326315 0.007672138
0.00072098506 0.049240805 4.288164 -1.4642968 -0.0690434 4.875899 4.4896283 1.7775385
4.790228 -0.009180363 0.03806604 -0.0029659895 4.564705 4.3596497 -0.071845435 5.3136992
7.64333 0.08482283 -1.2334594 -1.3066627 -1.1316875 -1.3247873 4.3051896 0.07384396
-0.16088526 4.605445 -1.1024534 7.900837 0.055947885 7.1350574 -1.2095337 -1.0963147
7.7034216 -0.032164108 4.372144 4.291609 4.9040723 4.917477 0.042835403 4.0800567
-0.042864107 -1.1686229 4.379718 7.851098 4.5137496 3.7554116 6.2780123 4.8113875
-1.3807945 -0.003995678 4.4869356 -1.2722698 -0.0042730593 0.080291696 0.08261606 4.7206683
4.490663 0.03862812 7.7326794 6.979374 0.08441234 4.7859 0.054590568 4.4653387
7.5864234 -0.04916167 4.383293 -0.018450204 0.06880602 7.828365 6.142793 0.9535168
-0.012419401 7.542286 0.01681463 7.73346 4.839798 0.026520524 4.847593 4.215151
-1.3098106 -0.07404656 -1.3509938 -0.6199552 7.827182 7.190413 0.038473275 -1.2877452
7.425738 7.477881 7.9630685 -0.035502408 4.20947 0.07959005 -1.3604707 4.9146423
-0.7689523 -0.5998726 7.319566 -0.84609497 -0.06588801 4.5875216 -0.02202396 4.0498304
4.3381357 0.057973836 0.45883742 -1.0532763 -0.022974921 -0.7690645 4.233479 0.007424064
4.1145625 -0.59872526 -0.66934896 -0.67741436 0.07600379 4.0913916 0.03887914 7.3832026
7.2725377 7.2307353 0.082865104 4.133944 4.3786473 4.7122087 4.2653017 0.08328021
0.044139054 -0.034548834 4.186047 -0.87734777 -0.051915012 4.5413027 4.2230883 0.69469124
4.5871096 0.009838971 0.040378526 -0.03432984 4.3149133 4.1956573 -0.067545034 6.116795
7.442004 0.006927372 -0.64340997 -0.7058765 -0.7139348 -0.8440912 4.293645 -0.07352752
0.48886463 4.3865366 -0.62577957 7.316753 0.042318575 7.374825 -0.63326275 -0.61077136
7.34032 0.085151754 4.219802 4.1395082 4.523621 4.539876 -0.0068337815 3.901942
-0.020352287 -0.60101825 4.265817 7.2355423 4.2728767 3.72583 6.9817863 4.723374
-0.8659076 -0.01448229 4.2962923 -0.8103434 -0.04278782 -0.05877713 0.053453352 4.446248
4.3129473 -0.0464182 7.418473 7.3406363 0.039322566 5.0500903 0.042112246 4.2192135
7.363113 0.06733416 4.1624985 -0.08221124 -0.060469914 7.264219 6.9024315 0.8253084
-0.07747761 7.495286 0.06623054 7.3220515 4.5547695 0.051073004 4.5387173 4.0954843
-0.6436452 0.050914425 -0.7863531 -0.50267303 7.2533846 7.426046 0.080628775 -0.72664094
7.363519 7.486082 7.210327 -0.026389385 4.069744 -0.07476227 -0.73373795 4.4980617

net.4.bias f4 [20]
00000000: 07da f73f c239 fb3f 8f15 be3f 7259 cf3f
00000010: 5644 883f 5086 923f f0b5 c43f d166 c53f
00000020: 1f44 0abe df21 f53f 3508 bf3e 1458 f33e
00000030: e046 5e3f 82d8 d33e 8b19 863f 16ce efbe
00000040: 1899 d93e 3b55 c1bc 3153 493f 7a3b 163d
1.9363412 1.9627001 1.4850329 1.6199172 1.0645854 1.1447239 1.5368023 1.5422002
-0.13502549 1.9150962 0.3731095 0.47528136 0.86826897 0.4137612 1.0476545 -0.4683692
0.42499614 -0.023600211 0.78642565 0.036677815
