realtime_model_ep276.pth (torch, 97610 bytes, 6 tensors)

net.0.weight f4 [128, 35]
-2.3964431 30.769081 -0.41351658 -0.52746665 -0.32154086 -1.53848 29.135687 -0.5148249
1.3982598 0.47663528 -1.9649569 29.44417 -0.52503425 2.1064072 -0.08702723 -1.2509817
29.449724 -0.73587924 1.1567986 -0.74019444 -2.1408381 29.547115 -0.59030783 2.5357401
-0.46853536 6.942899 6.53517 8.782781 6.9426937 6.3580375 5.823706 6.233611
6.8743205 3.7073305 6.78592 -2.3592088 30.806854 -0.26074427 -0.36548066 -0.2885892
-1.2998081 29.304264 -0.77931654 1.3387346 0.5130708 -1.7888144 29.510853 -0.57189727
2.1350687 0.0075731846 -1.258942 29.406376 -0.775936 1.1590607 -0.54464173 -2.0594
29.425661 -0.734349 2.4854727 -0.7899068 7.05082 6.476628 8.807458 6.8866005
6.07141 5.750955 6.1810675 6.867601 3.527096 6.8987403 -2.2950928 30.918507
-0.19288401 -0.6344038 0.035981238 -1.2749704 29.581022 -0.47038925 1.3272387 0.82274264
-1.8138534 29.730968 -0.20534398 2.0788462 0.1861742 -1.2501414 29.803041 -0.55530375
1.746034 -0.27173898 -2.1328638 29.91169 -0.367337 2.4784803 -0.35376483 7.368474
7.0612707 8.759919 7.0029063 6.5968943 5.9580956 6.592831 7.1289387 3.6934204
7.044241 -2.1831324 30.53014 -9.8655405 -1.8492614 -12.994254 -1.2461091 29.27063
-10.376296 1.3511384 -12.001448 -1.5788991 29.140503 -10.372479 1.4300097 -12.674875
-1.1519002 29.367708 -10.559621 0.90982985 -12.3788805 -2.0137763 29.275038 -10.443908
2.2498748 -12.7354765 8.550424 7.9407873 11.953923 10.318038 8.721637 9.860082
8.398985 10.048831 6.763866 9.069894 0.59517634 -20.204853 10.667877 2.1722353
8.01826 0.30669522 -18.72559 11.290457 1.7540636 7.2906346 0.25683847 -18.866077
10.882456 3.3769777 8.9332075 1.0186911 -19.064802 11.217887 1.7169586 9.135501
0.7250998 -18.918993 11.299722 -0.27826208 8.232476 6.4163446 6.1238627 5.6876693
6.2954817 10.101181 5.900536 6.484777 7.7120757 7.848672 8.241339 -2.4374774
30.584372 -0.7325024 -0.4800837 -0.59728825 -1.5258982 29.032234 -1.1230966 1.2780093
0.19805852 -1.6338753 29.235504 -0.873189 2.2516527 -0.0471414 -1.2680001 29.179176
-1.149927 0.88993835 -0.8934382 -1.8927484 29.25212 -0.9976347 2.5635238 -0.6684781
6.8130608 6.215127 8.491921 6.572309 6.0534563 5.5913525 6.0433145 6.6246095
3.3092299 6.62335 0.023361642 0.07298027 -0.13444656 -0.0028111532 -0.11087552 0.051507387
0.019532697 0.06558474 -0.13051863 -0.08428582 -0.14334753 0.09869934 -0.111402914 -0.009088578
-0.11386278 0.12865363 0.10470404 -0.013036702 -0.07896501 0.10984549 0.16349874 -0.1339598
0.02074856 -0.104173765 0.04551153 -0.0015461799 -0.091129616 -0.12056647 0.056038693 -0.14420192
-0.06479775 -0.14961095 -0.12952757 0.068005644 0.10604575 -2.4391532 30.595848 -0.6565742
-0.5868371 -0.37476745 -1.3945262 29.1149 -1.1576279 1.3069562 0.20204228 -1.599883
00000000: 535f 19c0 1427 f641 72b8 d3be 0e08 07bf
00000010: 01a1 a4be eaec c4bf e315 e941 91cb 03bf
00000020: 2dfa b23f 8a09 f43e b583 fbbf a98d eb41
00000030: a568 06bf 60cf 0640 553b b2bd 2b20 a0bf
00000040: 0999 eb41 9562 3cbf fa11 943f 627d 3dbf
00000050: 7e03 09c0 7e60 ec41 6a1e 17bf 9149 2240
00000060: dee3 efbe 3b2c de40 1d20 d140 4586 0c41
00000070: 8c2a de40 0b75 cb40 cd5b ba40 be79 c740
00000080: 6ffa db40 e744 6d40 4226 d940 47fd 16c0
00000090: 7074 f641 4680 85be 4820 bbbe f7c1 93be
000000a0: 1d60 a6bf 226f ea41 4a81 47bf a85b ab3f
000000b0: 9c58 033f dff7 e4bf 3a16 ec41 dc67 12bf
000000c0: f7a4 0840 7a28 f83b 0325 a1bf 4240 eb41
000000d0: bea3 46bf 1a5c 943f a46d 0bbf 36cd 03c0
000000e0: c167 eb41 4cfe 3bbf fc11 1f40 5537 4abf
000000f0: 51a0 e140 8940 cf40 59eb 0c41 085f dc40
00000100: fe48 c240 d307 b840 4ecb c540 63c3 db40
00000110: f1bb 6140 7bc2 dc40 cde2 12c0 1a59 f741
00000120: 6383 45be 4a68 22bf 1061 133d 3b32 a3bf
00000130: efa5 ec41 dcd6 f0be f5e2 a93f 439f 523f
00000140: 592c e8bf 06d9 ed41 b145 52be d10b 0540
00000150: 73a4 3e3e a204 a0bf a16c ee41 6328 0ebf
00000160: 0b7e df3f 5f21 8bbe d780 08c0 244b ef41
00000170: 9813 bcbe 6c9f 1e40 aa20 b5be 8aca eb40
00000180: eef5 e140 a128 0c41 cf17 e040 c219 d340
00000190: b8a8 be40 79f8 d240 4420 e440 0061 6c40
000001a0: 6c6a e140 71b8 0bc0 ba3d f441 41d9 1dc1
000001b0: 99b4 ecbf 77e8 4fc1 8180 9fbf 402a ea41
000001c0: 4f05 26c1 1af2 ac3f ee05 40c1 5e19 cabf
000001d0: c01f e941 adf5 25c1 8f0a b73f 4acc 4ac1
000001e0: 7771 93bf 11f1 ea41 35f4 28c1 9cea 683f
000001f0: e50f 46c1 b6e1 00c0 4733 ea41 3f1a 27c1
00000200: f3fd 0f40 83c4 4bc1 89ce 0841 ee1a fe40
00000210: 4543 3f41 af16 2541 d38b 0b41 e5c2 1d41
00000220: 3e62 0641 03c8 2041 9771 d840 491e 1141
00000230: 7a5d 183f 8aa3 a1c1 a0af 2a41 e705 0b40
00000240: cb4a 0041 2807 9d3e 02ce 95c1 b6a5 3441
00000250: 2885 e03f e14c e940 5580 833e baed 96c1
00000260: 8a1e 2e41 6720 5840 6bee 0e41 7864 823f
00000270: b784 98c1 777c 3341 4dc5 db3f 032b 1241
00000280: 24a0 393f 195a 97c1 a9cb 3441 5e78 8ebe
00000290: 39b8 0341 b252 cd40 aff6 c340 6301 b640
000002a0: 9674 c940 709e 2141 31d1 bc40 4b83 cf40
000002b0: 53c9 f640 5228 fb40 86dc 0341 a1ff 1bc0
000002c0: cbac f441 4785 3bbf 88cd f5be e2e7 18bf
000002d0: a250 c3bf 0442 e841 a1c1 8fbf cf95 a33f
000002e0: dacf 4a3e d322 d1bf 50e2 e941 5089 5fbf
000002f0: 141b 1040 5717 41bd d44d a2bf f46e e941
00000300: cf30 93bf 00d3 633f 5eb8 64bf 9445 f2bf
00000310: 5704 ea41 fd64 7fbf c610 2440 6121 2bbf
00000320: 9804 da40 52e2 c640 e9de 0741 5b50 d240
00000330: eab5 c140 5cec b240 d562 c140 cdfc d340
00000340: 6cca 5340 7cf2 d340 ea60 bf3c ae76 953d
00000350: 5cac 09be 533b 38bb b412 e3bd 69f9 523d
00000360: 0903 a03c 4b51 863d ada6 05be 0b9e acbd
00000370: b2c9 12be e122 ca3d 3627 e4bd 42e8 14bc
00000380: e430 e9bd c7bd 033e 126f d63d e497 55bc
00000390: 68b8 a1bd acf6 e03d 376c 273e c22c 09be
000003a0: e2f8 a93c 0e59 d5bd 4c6a 3a3d 30a9 caba
000003b0: 2aa2 babd 8eeb f6bd d488 653d aba9 13be
000003c0: afb4 84bd 9d33 19be e0a2 04be 8b46 8b3d
000003d0: 842e d93d 161b 1cc0 4cc4 f441 3f15 28bf
000003e0: f53a 16bf 85e1 bfbe d67f b2bf 51eb e841
000003f0: 272d 94bf 574a a73f 2ce4 4e3e f7c8 ccbf

net.0.bias f4 [128]
3.0666542 2.958228 3.1971745 -4.8683476 9.969032 2.6966314 -0.18943928 2.5818784
2.524022 3.1434016 2.4394782 2.6500795 9.761819 10.067851 2.6612737 2.566507
2.556229 9.880573 2.670054 9.952184 0.014294806 2.9632912 -0.15012218 1.5242094
2.9822526 -5.4705224 10.030774 2.4851887 2.5686047 3.163598 3.028992 2.4545436
2.499057 10.154374 9.985061 2.9919817 2.6551402 9.863476 2.499843 2.494475
3.271746 9.872321 2.497528 2.4898865 -0.085138656 -0.022085607 1.794656 -0.056338504
2.7998974 -0.035012536 2.5301275 -0.15263757 9.800772 2.422104 2.5389907 2.4753554
2.379514 9.965912 -0.19048937 3.0672934 2.3668778 10.014776 3.2898376 -0.05679617
3.219264 3.2018154 2.5810113 2.3962371 9.845718 9.733364 2.4716697 2.790397
3.1053882 2.4924304 10.019371 2.5943408 9.74202 2.5187087 2.5214844 0.039110407
2.5126731 2.6149619 2.4946747 -0.17613976 9.816349 1.8140849 2.6524446 -4.64062
-4.8166356 2.5772443 2.4159205 2.4164052 2.5244808 3.3121362 3.2337897 3.0269656
-0.03714469 2.4264631 9.960599 2.61248 10.037256 2.7642379 2.535543 2.6442494
10.2121105 2.4321866 2.3283832 2.4031334 2.504347 2.7214367 2.5519218 9.785147
2.5838208 -4.612164 10.012188 9.816408 9.740629 3.28354 3.2377505 1.6414028
2.539533 3.3181224 9.937614 10.057914 2.7925627 10.338211 2.6836033 3.1582162
00000000: 1044 4440 9c53 3d40 829e 4c40 81c9 9bc0
00000010: 2881 1f41 9c95 2c40 5ffc 41be 7f3d 2540
00000020: 9489 2140 7e2d 4940 6920 1c40 e79a 2940
00000030: 6930 1c41 eb15 2141 4f52 2a40 a741 2440
00000040: 4299 2340 d416 1e41 2ae2 2a40 253c 1f41
00000050: c334 6a3c 90a6 3d40 a1b9 19be 4b19 c33f
00000060: 3add 3e40 850e afc0 0d7e 2041 550d 1f40
00000070: 0564 2440 6478 4a40 01db 4140 3e17 1d40
00000080: 8df0 1f40 5178 2241 cfc2 1f41 a17c 3f40
00000090: d1ed 2940 ccd0 1d41 6dfd 1f40 7aa5 1f40
000000a0: 4964 5140 07f5 1d41 80d7 1f40 4d5a 1f40
000000b0: 2d5d aebd e0ec b4bc 4ab7 e53f 34c3 66bd
000000c0: 8531 3340 4e69 0fbd 9ced 2140 064d 1cbe
000000d0: f6cf 1c41 c003 1b40 d37e 2240 396c 1e40
000000e0: f549 1840 6074 1f41 a50f 43be 894e 4440
000000f0: ed7a 1740 863c 2041 b38c 5240 1aa3 68bd
00000100: 6c08 4e40 8bea 4c40 4a2f 2540 f35b 1940
00000110: 1088 1d41 dcbb 1b41 d62f 1e40 dd95 3240
00000120: aebe 4640 fb83 1f40 584f 2041 ae09 2640
00000130: 50df 1b41 8632 2140 0060 2140 3c32 203d
00000140: a3cf 2040 895b 2740 c0a8 1f40 fb5d 34be
00000150: c40f 1d41 ef33 e83f a7c1 2940 f67f 94c0
00000160: e121 9ac0 92f1 2440 719e 1a40 62a6 1a40
00000170: 1891 2140 0afa 5340 69f6 4e40 ceb9 4140
00000180: 0825 18bd 2c4b 1b40 9d5e 1f41 df32 2740
00000190: 9a98 2041 46e9 3040 5646 2240 623b 2940
000001a0: ce64 2341 f2a8 1b40 3b04 1540 f0cc 1940
000001b0: 3947 2040 052c 2e40 b052 2340 f68f 1c41
000001c0: 525d 2540 d996 93c0 ec31 2041 0210 1d41
000001d0: 9ed9 1b41 8525 5240 4e37 4f40 7d19 d23f
000001e0: b587 2240 1e5c 5440 7800 1f41 37ed 2041
000001f0: 59b9 3240 5069 2541 28c0 2b40 3720 4a40

net.2.weight f4 [128, 128]
5.0938435 5.022751 5.1026716 -12.597614 2.545267 2.9142091 0.0058041946 2.9160564
2.512243 5.1067133 2.3440454 3.2754662 2.7885475 2.6741714 2.296759 2.3921936
2.7961097 2.8461149 3.2407353 2.4558716 -0.07529334 5.1235666 0.05656169 8.968161
5.1010456 -13.133414 2.3927448 2.6090128 1.9312897 4.966345 4.9568467 2.0054233
1.8363497 2.6272178 2.4644988 5.1490464 3.4593413 2.6457834 3.0878413 2.042451
5.056609 2.625078 2.055884 3.091065 0.022110963 0.04903809 9.55436 0.023509014
4.5858355 0.045660872 2.9076278 0.05067306 2.6579835 2.9340518 2.457393 1.8062549
2.3826172 2.4235837 0.04505989 4.9997163 3.2662446 2.6235495 5.0284324 0.047378305
4.909548 5.215339 3.3548598 1.1236163 2.5001683 2.769342 4.0608664 4.55545
5.101276 1.4603263 2.5852334 4.395481 2.7914827 2.8558936 2.9373622 -0.08712716
2.8069978 1.6465479 2.8716588 0.051768202 2.7065325 9.464039 4.713061 -13.095272
-12.74393 1.530063 2.0327365 3.248538 2.6291468 5.137467 5.0638995 5.0817404
-0.07785748 2.2558112 2.4727747 3.601708 2.5600858 4.48805 1.6206342 2.5258179
2.3733218 3.6282659 1.3948749 2.0565832 3.1862957 3.723364 2.915373 2.6286364
1.9312971 -12.641986 2.4771616 2.7348607 2.632102 5.0871897 4.972587 9.507049
2.565047 5.010357 2.601615 2.6009939 5.0571065 2.5312612 4.594127 5.1282153
5.0065436 5.012839 5.1054177 -12.762387 2.9156451 2.5973308 0.026234461 2.6733449
2.4330914 5.223498 2.1889343 3.2662683 3.093698 2.9433455 2.1380076 2.3201463
2.663513 3.1003919 2.9801984 2.9316142 -0.08479477 5.20731 -0.003515795 9.001946
5.1634855 -13.213 2.7457716 2.523579 1.8922234 5.119045 5.116689 2.050058
1.9593902 3.0438588 2.8659847 5.123774 3.2189262 2.9192114 3.0062587 1.906955
5.0982175 2.9034905 2.0438075 2.93986 0.0024180172 0.028309615 9.429841 0.039316062
4.527252 -0.03554795 2.8125827 0.009050805 2.9682484 2.776158 2.1872222 1.9083567
2.319153 2.7370167 -0.07303423 5.184578 3.0437176 2.986943 5.027794 -0.04107189
5.0242257 5.2652826 3.0905805 1.1586592 2.7716627 3.1069121 4.222385 4.379906
5.167487 1.1899996 3.0543435 4.3100705 3.0615969 2.6177104 2.6341543 0.024417019
2.7317102 1.7253569 2.7438397 0.027311152 3.0123346 9.297589 4.721385 -13.108943
-12.850843 1.5373733 2.1145127 2.9790428 2.528892 5.172174 5.084856 5.1637106
0.031922255 2.264618 2.7655263 3.3284967 2.9096868 4.41724 1.5474397 2.4491448
2.7413614 3.44042 1.3240083 1.911294 3.2231705 3.7688453 2.7257192 2.9994314
2.0295384 -12.701186 2.841715 3.071445 2.8924606 5.327558 5.1479807 9.349931
2.4135253 5.1534586 3.0364325 3.0529883 5.0085535 2.8147485 4.7231216 5.2143397
00000000: c400 a340 60ba a040 1649 a340 d48f 49c1
00000010: a8e5 2240 6782 3a40 1d31 be3b aba0 3a40
00000020: 97c8 2040 326a a340 d704 1640 3da1 5140
00000030: 9077 3240 a025 2b40 19fe 1240 b319 1940
00000040: 76f3 3240 bf26 3640 3568 4f40 002d 1d40
00000050: 6533 9abd 42f4 a340 3bad 673d 967d 0f41
00000060: c43b a340 7722 52c1 bb22 1940 11fa 2640
00000070: 8034 f73f 4cec 9e40 7d9e 9e40 db58 0040
00000080: 820d eb3f 5624 2840 59ba 1d40 fdc4 a440
00000090: d965 5d40 8454 2940 319f 4540 84b7 0240
000000a0: becf a140 4701 2840 9a93 0340 02d4 4540
000000b0: 0d22 b53c 2adc 483d a9de 1841 fa95 c03c
000000c0: 2abf 9240 e506 3b3d 9316 3a40 8e8e 4f3d
000000d0: 671c 2a40 81c7 3b40 ed45 1d40 5c33 e73f
000000e0: cd7c 1840 ff1b 1b40 b890 383d adfd 9f40
000000f0: 270a 5140 3ce8 2740 ebe8 a040 c10f 423d
00000100: 041b 9d40 0fe4 a640 06b6 5640 a9d2 8f3f
00000110: c202 2040 e63c 3140 9ef2 8140 3fc6 9140
00000120: a73d a340 f9eb ba3f 7774 2540 c8a7 8c40
00000130: a7a7 3240 f6c6 3640 befd 3b40 b96f b2bd
00000140: daa5 3340 15c2 d23f 42c9 3740 e50a 543d
00000150: d437 2d40 b46c 1741 65d1 9640 3c86 51c1
00000160: 23e7 4bc1 1bd9 c33f 5b18 0240 0ce8 4f40
00000170: f143 2840 2166 a440 770b a240 9e9d a240
00000180: be73 9fbd 365f 1040 f141 1e40 6282 6640
00000190: 72d8 2340 1b9e 8f40 f170 cf3f 00a7 2140
000001a0: 81e4 1740 8235 6840 438b b23f 0f9f 0340
000001b0: 45ec 4b40 994b 6e40 7995 3a40 943b 2840
000001c0: be34 f73f 9345 4ac1 d189 1e40 f507 2f40
000001d0: 5c74 2840 42ca a240 6f1f 9f40 df1c 1841
000001e0: bb29 2440 d854 a040 dc80 2640 af76 2640
000001f0: d1d3 a140 2f00 2240 1703 9340 571a a440
00000200: 9b35 a040 2d69 a040 955f a340 bd32 4cc1
00000210: ee99 3a40 ab3a 2640 a7e9 d63c 1518 2b40
00000220: c5b7 1b40 e526 a740 8017 0c40 8a0a 5140
00000230: 26ff 4540 c65f 3c40 1ed5 0840 477d 1440
00000240: ff76 2a40 d26c 4640 92bb 3e40 919f 3b40
00000250: e1a8 adbd 49a2 a640 4169 66bb f907 1041
00000260: 463b a540 7368 53c1 b9ba 2f40 5182 2140
00000270: 6034 f23f 37cf a340 ebbb a340 2634 0340
00000280: 4ccd fa3f 95ce 4240 4b6c 3740 f5f5 a340
00000290: e302 4e40 5cd4 3a40 8b66 4040 1a17 f43f
000002a0: 9924 a340 cad2 3940 becd 0240 ab26 3c40
000002b0: 9977 1e3b 91e9 e73c a1e0 1641 e109 213d
000002c0: 40df 9040 ba9a 11bd 5b01 3440 d449 143c
000002d0: c8f7 3d40 93ac 3140 73fb 0b40 0845 f43f
000002e0: 016d 1440 482b 2f40 f892 95bd 10e8 a540
000002f0: 45cc 4240 132a 3f40 b0e3 a040 003b 28bd
00000300: 75c6 a040 327d a840 12cc 4540 f24e 943f
00000310: ec62 3140 a6d7 4640 c71d 8740 3128 8c40
00000320: 0e5c a540 e851 983f 5d7a 4340 19ec 8940
00000330: 34f1 4340 9188 2740 fc95 2840 3306 c83c
00000340: 57d4 2e40 7fd8 dc3f 129b 2f40 a3bb df3c
00000350: 17ca 4040 edc2 1441 9615 9740 3bbe 51c1
00000360: 0e9d 4dc1 a6c8 c43f 2d54 0740 a3a8 3e40
00000370: 5ed9 2140 7382 a540 24b7 a240 1e3d a540
00000380: e9c0 023d 80ef 1040 62fe 3040 1706 5540
00000390: 4f38 3a40 085a 8d40 8112 c63f cabe 1c40
000003a0: 7772 2f40 d72f 5c40 1b79 a93f 48a5 f43f
000003b0: 6d48 4e40 c334 7140 2f72 2e40 aff6 3f40
000003c0: f5e3 0140 0f38 4bc1 a9de 3540 8e92 4440
000003d0: 131e 3940 5b7b aa40 42bc a440 5199 1541
000003e0: 3377 1a40 22e9 a440 e954 4240 2964 4340
000003f0: 1246 a040 d724 3440 d023 9740 dfdb a640

net.2.bias f4 [128]
-0.65739495 -0.21884127 -8.7697 -0.37347025 0.0456638 2.256612 -0.018508684 3.8281941
3.8064902 -0.08716021 9.674015 -1.1559933 -0.08666534 -0.5875957 3.7977197 0.019892652
3.8161998 -0.55131716 -0.49749175 -0.3613786 -0.025887555 3.9270856 0.028387913 -6.5152664
-8.020803 -8.644576 -0.08316882 3.6949637 3.7783883 1.0471551 3.8863258 -0.0815704
-0.03326769 -0.040380806 3.811499 -0.8373717 0.06280963 2.3290057 3.7526655 9.906705
2.089959 -0.0049218447 -0.05563782 -0.020998178 3.9753313 3.9087405 0.06798176 -1.7505873
-6.4690204 0.030082626 -0.32009023 -0.6919481 0.03162363 -0.52238554 3.88084 -0.014992882
0.23240109 3.8565907 -0.5146182 -8.78592 0.017963344 -5.3654304 -0.23020011 -0.2910533
-7.618826 -0.030421834 3.7129498 3.8202739 2.2416961 2.1890695 -0.08134881 3.7096314
0.015708376 -0.07067652 3.9199407 -8.344058 3.761917 3.6368163 -3.2768855 1.0459174
-0.4979469 -0.032496423 3.6410944 -0.5117849 0.07246331 -0.033654004 0.0235252 2.2224543
3.8559859 -0.04015798 -7.313501 -4.7341495 6.530654e-05 0.0068706213 -0.055109046 3.890761
-7.094231 0.014281436 3.8247352 -0.0954551 -0.08121573 -8.730875 -3.05689 8.938313
-0.028972512 -6.2655587 0.03225573 -7.673458 1.7258734 0.009744215 2.29606 3.7619822
-0.43850908 -0.058111884 -0.4258605 0.6120612 -8.597229 -5.328786 0.014919383 -0.6462121
-5.6247196 -6.4742656 -8.485716 -0.076422706 3.8128285 -0.09694987 -0.43118665 2.3093078
00000000: 094b 28bf ed17 60be b150 0cc1 7e37 bfbe
00000010: f709 3b3d 556c 1040 869f 97bc 2201 7540
00000020: 899d 7340 0d81 b2bd c4c8 1a41 97f7 93bf
00000030: 997d b1bd ac6c 16bf d70d 7340 eaf5 a23c
00000040: 9e3c 7440 1f23 0dbf 3db7 febe 9e06 b9be
00000050: 2312 d4bc 5f55 7b40 c58d e83c 107d d0c0
00000060: 3655 00c1 2f50 0ac1 6a54 aabd 497a 6c40
00000070: 1dd1 7140 2e09 863f 90b9 7840 620e a7bd
00000080: b443 08bd 5866 25bd 9aef 7340 fe5d 56bf
00000090: 56a2 803d 6e0e 1540 ac2b 7040 dd81 1e41
000000a0: e3c1 0540 6d47 a1bb 7ce4 63bd 5f04 acbc
000000b0: d46b 7e40 ce28 7a40 053a 8b3d 3f13 e0bf
000000c0: 3702 cfc0 d76f f63c dee2 a3be 8323 31bf
000000d0: c887 013d 0fbb 05bf af5f 7840 b4a4 75bc
000000e0: 8dfa 6d3e 62d2 7640 05be 03bf 2193 0cc1
000000f0: dd27 933c 9bb1 abc0 94b9 6bbe f004 95be
00000100: 6ccd f3c0 3637 f9bc f8a0 6d40 5e7f 7440
00000110: f377 0f40 b719 0c40 349a a6bd 9a6a 6d40
00000120: daae 803c dabe 90bd 4fe0 7a40 4381 05c1
00000130: 40c3 7040 99c1 6840 7eb8 51c0 9fe0 853f
00000140: e5f2 febe f81a 05bd b107 6940 5604 03bf
00000150: a567 943d c8d8 09bd ecb7 c03c b13c 0e40
00000160: 79c8 7640 b27c 24bd 3308 eac0 277e 97c0
00000170: 2ff5 8838 f322 e13b 06ba 61bd 3a02 7940
00000180: f103 e3c0 affc 693c 76c8 7440 f77d c3bd
00000190: 6f54 a6bd aab1 0bc1 16a4 43c0 5403 0f41
000001a0: c357 edbc 757f c8c0 961e 043d f88c f5c0
000001b0: 6be9 dc3f 33a6 1f3c a6f2 1240 51c4 7040
000001c0: 4384 e0be ba06 6ebd 630a dabe 0bb0 1c3f
000001d0: 408e 09c1 6a85 aac0 6e70 743c 286e 25bf
000001e0: b4fd b3c0 2f2d cfc0 7ec5 07c1 8283 9cbd
000001f0: 6205 7440 a78d c6bd 7fc4 dcbe b3cb 1340

net.4.weight f4 [20, 128]
-1.4571474 -1.2574134 7.9556727 -1.2892691 -0.017212793 4.955038 0.061162073 4.0770526
4.665477 -0.034409016 1.6347953 -1.5121057 0.029336555 -1.4339408 4.5132756 -0.014353314
4.279943 -1.1390338 -1.2482362 -1.2158048 -0.04706597 4.180356 -0.06755616 7.5321565
7.8446016 7.791147 0.009677443 4.3789787 4.70124 4.9374475 4.43232 0.007672138
0.00072098506 0.049240805 4.28779 -1.475071 -0.0690434 4.878665 4.4893107 1.7528867
4.7932434 -0.009180363 0.03806604 -0.0029659895 4.564425 4.3592577 -0.071845435 5.32278
7.655323 0.08482283 -1.2447563 -1.3176833 -1.1430871 -1.335883 4.304829 0.07384396
-0.18952373 4.605147 -1.1137717 7.913147 0.055947885 7.146903 -1.2209301 -1.1076564
7.7154636 -0.032164108 4.3718276 4.2912145 4.907015 4.920272 0.042835403 4.079693
-0.042864107 -1.1800025 4.3794017 7.8634357 4.513447 3.7548926 6.288706 4.8163986
-1.3917633 -0.003995678 4.4866247 -1.2832537 -0.0042730593 0.080291696 0.08261606 4.7233906
4.490348 0.03862812 7.7447248 6.9910097 0.08441234 4.792031 0.054590568 4.4650393
7.5984344 -0.04916167 4.382916 -0.018450204 0.06880602 7.840677 6.153375 0.92876697
-0.012419401 7.5542626 0.01681463 7.745545 4.843697 0.026520524 4.8503656 4.214767
-1.3209864 -0.07404656 -1.3620527 -0.63796556 7.839474 7.202324 0.038473275 -1.2988386
7.4376984 7.4898663 7.9753737 -0.035502408 4.20908 0.07959005 -1.3715897 4.9174004
-0.77328056 -0.6033895 7.3320174 -0.84981614 -0.06588801 4.5838614 -0.02202396 4.0420117
4.3303385 0.057973836 0.4900117 -1.0580148 -0.022974921 -0.7732871 4.2256684 0.007424064
4.106727 -0.60251254 -0.67316383 -0.6812631 0.07600379 4.083557 0.03887914 7.3952713
7.284801 7.2431655 0.082865104 4.1261215 4.3708453 4.713517 4.2574716 0.08328021
0.044139054 -0.034548834 4.178213 -0.88192254 -0.051915012 4.53762 4.215265 0.72600245
4.583993 0.009838971 0.040378526 -0.03432984 4.3070993 4.1878066 -0.067545034 6.125705
7.454061 0.006927372 -0.64705896 -0.7100955 -0.7171499 -0.84807175 4.2857976 -0.07352752
0.5249662 4.3787313 -0.62951136 7.3291793 0.042318575 7.3867025 -0.6368172 -0.6142085
7.352445 0.085151754 4.2119803 4.131678 4.5203443 4.5362425 -0.0068337815 3.8941236
-0.020352287 -0.6043218 4.2579846 7.2479954 4.265042 3.718109 6.9923368 4.725009
-0.8700222 -0.01448229 4.2884774 -0.81447834 -0.04278782 -0.05877713 0.053453352 4.44245
4.3051257 -0.0464182 7.430601 7.352241 0.039322566 5.0542474 0.042112246 4.2113905
7.375209 0.06733416 4.154674 -0.08221124 -0.060469914 7.276646 6.9128823 0.8563132
-0.07747761 7.5073304 0.06623054 7.334222 4.553798 0.051073004 4.535053 4.0876446
-0.6474872 0.050914425 -0.7902747 -0.49222553 7.2657933 7.438006 0.080628775 -0.73069
7.375534 7.4981284 7.2227488 -0.026389385 4.0619073 -0.07476227 -0.7376691 4.494363
00000000: ce83 babf ecf2 a0bf df94 fe40 c506 a5bf
00000010: d801 8dbc ac8f 9e40 1585 7a3d 3777 8240
00000020: 964b 9540 78f0 0cbd f940 d13f ae8c c1bf
00000030: 3753 f03c 5f8b b7bf c16c 9040 2a2a 6bbc
00000040: 4bf5 8840 dccb 91bf 34c6 9fbf 7e9f 9bbf
00000050: 3fc8 40bd 7ac5 8540 e25a 8abd 6d07 f140
00000060: fa06 fb40 1451 f940 238e 1e3c 9820 8c40
00000070: 8f70 9640 92ff 9d40 91d5 8d40 8f66 fb3b
00000080: 7d00 3d3a bab0 493d 9335 8940 20cf bcbf
00000090: a066 8dbd 061e 9c40 6fa8 8f40 975e e03f
000000a0: 4062 9940 3c69 16bc 23eb 1b3d 0c61 42bb
000000b0: c50f 9240 0a7f 8b40 b323 93bd 3754 aa40
000000c0: 68f8 f440 98b7 ad3d 2d54 9fbf d9a9 a8bf
000000d0: ae50 92bf 37fe aabf 29c1 8940 813b 973d
000000e0: 8212 42be 5d5d 9340 1290 8ebf 8038 fd40
000000f0: 9c29 653d 6eb3 e440 7047 9cbf afc7 8dbf
00000100: 14e5 f640 83be 03bd 03e6 8b40 a151 8940
00000110: 4406 9d40 de72 9d40 2d74 2f3d d88c 8240
00000120: 4692 2fbd 520a 97bf 0f24 8c40 44a1 fb40
00000130: 286e 9040 2950 7040 143d c940 f01f 9a40
00000140: 4d25 b2bf 2dee 82bb 6e92 8f40 a841 a4bf
00000150: 0505 8cbb f96f a43d 9c32 a93d 0426 9740
00000160: eeb0 8f40 8538 1e3d c9d4 f740 5ab6 df40
00000170: 60e0 ac3d 5158 9940 5c9a 5f3d 9ae1 8e40
00000180: 6026 f340 bf5d 49bd d940 8c40 e224 97bc
00000190: 2cea 8c3d d3e6 fa40 73e8 c440 acc3 6d3f
000001a0: be7a 4bbc 85bc f140 d6be 893c 81db f740
000001b0: 91ff 9a40 9241 d93c 3236 9b40 5fdf 8640
000001c0: 1516 a9bf b9a5 97bd be57 aebf b651 23bf
000001d0: f9dc fa40 7079 e640 2796 1d3d 5840 a6bf
000001e0: a001 ee40 fcac ef40 4336 ff40 f96a 11bd
000001f0: c9b0 8640 1c00 a33d 4090 afbf 585b 9d40
00000200: b7f5 45bf bc77 1abf e39f ea40 8d8d 59bf
00000210: 4bf0 86bd feae 9240 976b b4bc 2958 8140
00000220: 2292 8a40 f975 6d3d d0e2 fa3e 076d 87bf
00000230: e735 bcbc 25f6 45bf ad38 8740 9045 f33b
00000240: 4f6a 8340 433e 1abf 7754 2cbf 4267 2ebf
00000250: e0a7 9b3d 80ac 8240 bc3f 1f3d 10a6 ec40
00000260: 171d e940 03c8 e740 2eb5 a93d 3009 8440
00000270: f7dd 8b40 22d5 9640 353d 8840 d18e aa3d
00000280: 27cb 343d 1483 0dbd ecb3 8540 adc5 61bf
00000290: d6a4 54bd 2f34 9140 73e3 8640 4cdb 393f
000002a0: 12b0 9240 a333 213c f463 253d 729d 0cbd
000002b0: c2d3 8940 8302 8640 0d55 8abd c605 c440
000002c0: ab87 ee40 02ff e23b a8a5 25bf d2c8 35bf
000002d0: 2397 37bf 3b1b 59bf 4125 8940 9995 96bd
000002e0: 2f64 063f 911e 8c40 a827 21bf a388 ea40
000002f0: 3e56 2d3d de5f ec40 7406 23bf c53c 1dbf
00000300: 3b47 eb40 0b64 ae3d 8bc8 8640 b536 8440
00000310: a9a6 9040 e628 9140 eaed dfbb 5239 7940
00000320: d7b9 a6bc d5b4 1abf 6941 8840 94ef e740
00000330: 397b 8840 7ff5 6d40 39c1 df40 4633 9740
00000340: c6b9 5ebf 2047 6dbc 353b 8940 a781 50bf
00000350: 4842 2fbd 4ac0 70bd e7f1 5a3d 8d28 8e40
00000360: 97c3 8940 0321 3ebd 7cc7 ed40 8f45 eb40
00000370: b310 213d 65bc a140 e47d 2c3d b6c3 8640
00000380: b601 ec40 7ee6 893d 17f3 8440 5e5e a8bd
00000390: 4daf 77bd 49da e840 5536 dd40 5837 5b3f
000003a0: 95ac 9ebd 0d3c f040 e1a3 873d f2b1 ea40
000003b0: b7b8 9140 ed31 513d 271f 9140 fccd 8240
000003c0: b9c1 25bf a58b 503d 714f 4abf fc04 fcbe
000003d0: 6181 e840 2504 ee40 b320 a53d 800e 3bbf
000003e0: 6004 ec40 abf0 ef40 c220 e740 8d2e d8bc
000003f0: 25fb 8140 f61c 99bd e2d7 3cbf d2d1 8f40

net.4.bias f4 [20]
1.9256692 1.986338 1.4777284 1.6128232 1.0623357 1.1421156 1.528879 1.533476
-0.13872209 1.9206346 0.3718341 0.4796195 0.8711533 0.41988108 1.046701 -0.47314855
0.42829564 -0.019548163 0.78858536 0.029050475
00000000: 547c f63f 5340 fe3f 3426 bd3f fe70 ce3f
00000010: 9efa 873f d830 923f 4fb2 c33f f148 c43f
00000020: 2a0d 0ebe 5bd7 f53f 0a61 be3e b090 f53e
00000030: e703 5f3f a7fa d63e 4cfa 853f 8740 f2be
00000040: 9149 db3e 7823 a0bc bbe0 493f 43fb ed3c
