realtime_model_ep255.pth (torch, 97610 bytes, 6 tensors)

net.0.weight f4 [128, 35]
000000 a7 0f 17 c0 6b 65 f5 41 13 1c d6 be 57 47 11 bf
       -2.3603303 30.67452 -0.41818294 -0.5674948
000010 8a 45 8f be 87 cf c1 bf 54 dd e8 41 f1 a4 fb be
       -0.27982742 -1.5141457 29.10807 -0.49149278
000020 e8 4e a9 3f 8a 27 ef 3e 5b 6a f8 bf c7 41 eb 41
       1.3227205 0.46709853 -1.9407457 29.407118
000030 3f d1 01 bf f1 9f 04 40 25 bf 93 bd 9f 27 9d bf
       -0.5070991 2.072262 -0.07214192 -1.2277716
000040 14 54 eb 41 2f 72 37 bf 03 53 91 3f ee 2b 44 bf
       29.416054 -0.71658605 1.1353458 -0.7662953
000050 52 94 07 c0 c7 20 ec 41 8b 52 11 bf 15 7f 20 40
       -2.1184278 29.516005 -0.56766576 2.5077565
000060 e0 83 e4 be 25 01 df 40 bb df d1 40 c0 ed 0c 41
       -0.44631863 6.9688897 6.558561 8.808044
000070 f4 04 df 40 0b 44 cc 40 8a 04 bb 40 f4 48 c8 40
       6.9693546 6.383306 5.844304 6.2589054
000080 1c dd dc 40 e1 73 6e 40 d1 df d9 40 67 ae 14 c0
       6.901991 3.7258227 6.8085713 -2.3231447
000090 0e b3 f5 41 59 dc 87 be 2c 9c cf be cb de 7c be
       30.71243 -0.265353 -0.40548837 -0.24694364
0000a0 2a 45 a3 bf e8 36 ea 41 9c 80 41 bf 3e b0 a1 3f
       -1.2755482 29.27681 -0.7558687 1.263191
0000b0 04 e6 00 3f 09 e1 e1 bf a2 ca eb 41 9a c9 0d bf
       0.50350976 -1.76468 29.473942 -0.55385745
0000c0 0f 76 06 40 01 9d b7 3c 07 2f 9e bf a2 fb ea 41
       2.1009557 0.022413732 -1.2358102 29.372868
0000d0 65 ac 41 bf 4e 9d 91 3f 8d 1a 12 bf 41 5f 02 c0
       -0.7565368 1.137613 -0.57071763 -2.0370638
0000e0 5d 28 eb 41 2f 2b 36 bf 9d 47 1d 40 ab 8b 44 bf
       29.394709 -0.7115964 2.457496 -0.76775616
0000f0 e0 74 e2 40 e1 ff cf 40 a8 52 0d 41 22 39 dd 40
       7.076767 6.499985 8.83268 6.913224
000100 c0 17 c3 40 2a b0 b8 40 49 9a c6 40 cb a5 dc 40
       6.096649 5.7715044 6.2063336 6.8952384
000110 56 ea 62 40 ac 7b dd 40 93 8f 10 c0 90 96 f6 41
       3.5455527 6.9213467 -2.258763 30.823517
000120 e6 07 4b be 2b b3 2c bf 09 bd 9f 3d 29 0a a0 bf
       -0.19827232 -0.6746089 0.077997275 -1.2503101
000130 66 6c ec 41 13 6d e5 be 19 37 a0 3f 41 35 50 3f
       29.552929 -0.4480978 1.2516814 0.8133126
000140 27 08 e5 bf 3b 8c ed 41 41 e8 40 be 76 d8 02 40
       -1.7893113 29.693472 -0.18838598 2.0444617
000150 62 f8 4d 3e fd 00 9d bf 90 26 ee 41 37 79 09 bf
       0.20114282 -1.2265927 29.76883 -0.53700584
000160 44 bc dc 3f 1d a1 98 be f2 0b 07 c0 4c 0a ef 41
       1.7244954 -0.2981042 -2.110104 29.880028
000170 32 01 b1 be db d2 1c 40 78 a6 a9 be a9 a0 ec 40
       -0.34571224 2.4503696 -0.33134818 7.394612
000180 c0 b6 e2 40 d8 90 0c 41 91 f3 e0 40 23 ea d3 40
       7.0848083 8.785362 7.029732 6.622331
000190 9f 52 bf 40 e4 c8 d3 40 25 04 e5 40 6f 91 6d 40
       5.9788356 6.618273 7.156756 3.7120016
0001a0 09 25 e2 40 15 71 09 c0 3d 89 f3 41 32 3c 1f c1
       7.067021 -2.147527 30.44201 -9.952196
0001b0 37 5a f2 bf 93 dc 4f c1 a4 71 9c bf 66 01 ea 41
       -1.8933781 -12.991351 -1.222218 29.250683
0001c0 a1 de 26 c1 cd b2 a2 3f 01 97 40 c1 e3 0c c7 bf
       -10.429353 1.2710816 -12.036866 -1.5550808
0001d0 2a e3 e8 41 f5 e4 26 c1 6b 34 b1 3f 16 cd 4a c1
       29.11092 -10.430898 1.3844122 -12.67507
0001e0 46 86 90 bf 3f bc ea 41 24 e1 29 c1 3a 4c 60 3f
       -1.1290977 29.341917 -10.617466 0.8761631
0001f0 4a b5 46 c1 23 f0 fe bf be 02 ea 41 70 f7 27 c1
       -12.41926 -1.9917034 29.251339 -10.49791
000200 65 59 0e 40 9f bf 4b c1 d5 12 09 41 4e 88 fe 40
       2.2242062 -12.7342825 8.567098 7.9541388
000210 a0 7c 3f 41 be 58 25 41 21 c9 0b 41 fc f2 1d 41
       11.967926 10.334166 8.736604 9.871822
000220 33 a7 06 41 d9 0d 21 41 64 de d8 40 00 54 11 41
       8.41582 10.065881 6.7771473 9.083008
000230 a0 68 0f 3f 50 07 a1 c1 50 40 2b 41 ff c0 0d 40
       0.5601902 -20.12857 10.703201 2.2149045
000240 f6 e0 ff 40 c4 3b 91 3e 73 bb 95 c1 03 9b 34 41
       7.996211 0.2836591 -18.716528 11.287845
000250 f6 76 ea 3f c4 e0 e9 40 87 ad 6f 3e d1 c6 96 c1
       1.8317554 7.308687 0.23406039 -18.847078
000260 8f 2e 2e 41 86 86 5a 40 59 c1 0e 41 08 3b 7f 3f
       10.886367 3.4144607 8.922204 0.9969945
000270 44 67 98 c1 8b 87 33 41 9a f4 de 3f 7b 92 12 41
       -19.050423 11.220592 1.7418396 9.160762
000280 19 41 34 3f aa 3f 97 c1 fe c4 34 41 c6 45 82 be
       0.7041183 -18.906086 11.298094 -0.25443858
000290 c3 76 03 41 07 9a cc 40 89 55 c3 40 97 56 b5 40
       8.216495 6.393802 6.1041913 5.66682
0002a0 e0 bb c8 40 fd 44 21 41 70 3d bc 40 88 c8 ce 40
       6.272934 10.079343 5.8824997 6.461979
0002b0 55 04 f6 40 86 91 fa 40 46 8b 03 41 2f b9 19 c0
       7.688029 7.830264 8.221502 -2.4019277
0002c0 b3 ee f3 41 58 06 3d bf 3f 22 05 bf 12 97 0e bf
       30.491552 -0.73837805 -0.5200538 -0.55699265
0002d0 c0 4d c0 bf f2 0d e8 41 c3 cf 8c bf 09 e5 99 3f
       -1.5023727 29.00681 -1.1000904 1.2023021
0002e0 e4 3d 40 3e ea 23 ce bf bd 9a e9 41 cd 11 5b bf
       0.1877361 -1.610471 29.200556 -0.85574037
0002f0 c9 ec 0d 40 20 6f 07 bd 88 70 9f bf 5b 2e e9 41
       2.2175772 -0.03306496 -1.2456217 29.147635
000300 f4 c7 90 bf e8 40 5e 3f 41 76 6b bf 7c 82 ef bf
       -1.1311021 0.8681779 -0.91977316 -1.8711696
000310 fc c8 e9 41 8d b2 79 bf aa 45 22 40 df c4 25 bf
       29.223137 -0.9753807 2.535502 -0.64753526
000320 fb d4 da 40 58 9d c7 40 17 44 08 41 c7 25 d3 40
       6.8384986 6.237957 8.5166235 6.5983615
000330 0f 80 c2 40 90 90 b3 40 8c 2d c2 40 02 db d4 40
       6.078132 5.611397 6.06806 6.6517344
000340 c0 f1 54 40 8c a7 d4 40 ea 60 bf 3c ae 76 95 3d
       3.3272552 6.6454525 0.023361642 0.07298027
000350 5c ac 09 be 53 3b 38 bb b4 12 e3 bd 69 f9 52 3d
       -0.13444656 -0.0028111532 -0.11087552 0.051507387
000360 09 03 a0 3c 4b 51 86 3d ad a6 05 be 0b 9e ac bd
       0.019532697 0.06558474 -0.13051863 -0.08428582
000370 b2 c9 12 be e1 22 ca 3d 36 27 e4 bd 42 e8 14 bc
       -0.14334753 0.09869934 -0.111402914 -0.009088578
000380 e4 30 e9 bd c7 bd 03 3e 12 6f d6 3d e4 97 55 bc
       -0.11386278 0.12865363 0.10470404 -0.013036702
000390 68 b8 a1 bd ac f6 e0 3d 37 6c 27 3e c2 2c 09 be
       -0.07896501 0.10984549 0.16349874 -0.1339598
0003a0 e2 f8 a9 3c 0e 59 d5 bd 4c 6a 3a 3d 30 a9 ca ba
       0.02074856 -0.104173765 0.04551153 -0.0015461799
0003b0 2a a2 ba bd 8e eb f6 bd d4 88 65 3d ab a9 13 be
       -0.091129616 -0.12056647 0.056038693 -0.14420192
0003c0 af b4 84 bd 9d 33 19 be e0 a2 04 be 8b 46 8b 3d
       -0.06479775 -0.14961095 -0.12952757 0.068005644
0003d0 84 2e d9 3d 91 d4 19 c0 2d 06 f4 41 b4 90 29 bf
       0.10604575 -2.403599 30.503016 -0.66236424
0003e0 20 76 20 bf f7 3b ab be b7 7c af bf 2b b7 e8 41
       -0.62680244 -0.33444187 -1.3709935 29.089437
0003f0 e8 38 91 bf e4 99 9d 3f 59 5a 44 3e da c9 c9 bf
       -1.1345491 1.2312589 0.1917509 -1.5764725

net.0.bias f4 [128]
000000 a8 96 45 40 81 a5 3e 40 d6 f3 4d 40 f3 69 9b c0
       3.0873203 2.9788516 3.2180076 -4.8566833
000010 1e 34 1f 41 0e dd 2d 40 5f fc 41 be 35 85 26 40
       9.950224 2.716617 -0.18943928 2.6018803
000020 6a d0 22 40 89 82 4a 40 88 65 1d 40 a5 e4 2a 40
       2.5439706 3.1642172 2.459322 2.6702054
000030 20 e3 1b 41 f4 c8 20 41 88 97 2b 40 ca 87 25 40
       9.74295 10.049061 2.6811237 2.586413
000040 00 e1 24 40 e1 c9 1d 41 69 2b 2c 40 ce ee 1e 41
       2.576233 9.861787 2.6901495 9.933302
000050 c3 34 6a 3c 0c fb 3e 40 a1 b9 19 be 91 01 c1 3f
       0.014294806 2.9840727 -0.15012218 1.5078603
000060 7c 31 40 40 78 8d ae c0 8c 30 20 41 12 54 20 40
       3.0030203 -5.454769 10.011852 2.5051312
000070 d1 a7 25 40 a1 cd 4b 40 3d 31 43 40 f0 5b 1e 40
       2.5883677 3.1844256 3.0498803 2.4743614
000080 84 34 21 40 0a 2b 22 41 fc 75 1f 41 dc d1 40 40
       2.5188303 10.135508 9.966305 3.0128088
000090 d7 37 2b 40 b4 83 1d 41 56 46 21 40 9b e9 20 40
       2.6752832 9.844654 2.519918 2.5142581
0000a0 db b9 52 40 02 a8 1d 41 3b 1c 21 40 f9 a2 20 40
       3.2925937 9.853518 2.517348 2.509947
0000b0 2d 5d ae bd e0 ec b4 bc b9 8a e3 3f 34 c3 66 bd
       -0.085138656 -0.022085607 1.777671 -0.056338504
0000c0 23 81 34 40 4e 69 0f bd b1 35 23 40 06 4d 1c be
       2.8203819 -0.035012536 2.550152 -0.15263757
0000d0 e4 82 1c 41 6a 4b 1c 40 70 c4 23 40 fe af 1f 40
       9.781956 2.442103 2.5588646 2.4951167
0000e0 49 8f 19 40 4a 27 1f 41 a5 0f 43 be a7 a4 45 40
       2.3993704 9.947092 -0.19048937 3.0881746
0000f0 58 c4 18 40 77 ef 1f 41 90 e2 53 40 1a a3 68 bd
       2.3869839 9.995963 3.3107033 -0.05679617
000100 47 5e 4f 40 a4 40 4e 40 5f 79 26 40 08 9d 1a 40
       3.2401292 3.2226954 2.601158 2.4158344
000110 fb 3a 1d 41 ca 6e 1b 41 c6 7c 1f 40 4c e4 33 40
       9.8269 9.714548 2.4919906 2.8108091
000120 9c 13 48 40 5a c5 20 40 05 02 20 41 79 57 27 40
       3.1261969 2.5120454 10.000493 2.614714
000130 11 92 1b 41 de 79 22 40 d5 a7 22 40 3c 32 20 3d
       9.723161 2.5386882 2.5414937 0.039110407
000140 e2 16 22 40 fa 9e 28 40 93 f0 20 40 fb 5d 34 be
       2.5326467 2.6347032 2.5146835 -0.17613976
000150 c6 c2 1c 41 27 06 e6 3f e6 11 2b 40 96 20 94 c0
       9.797552 1.7970628 2.6729674 -4.628978
000160 6c c2 99 c0 ac 34 26 40 71 e3 1b 40 58 ef 1b 40
       -4.804983 2.5969648 2.435757 2.4364834
000170 12 d8 22 40 e9 4f 55 40 26 4b 50 40 4a 0f 43 40
       2.544438 3.3330023 3.2545867 3.0478082
000180 08 25 18 bd 0f 91 1c 40 2a 11 1f 41 d4 7d 28 40
       -0.03714469 2.4463537 9.94169 2.63268
000190 40 4b 20 41 cf 38 32 40 56 89 23 40 be 81 2a 40
       10.018372 2.7847173 2.5552573 2.6641688
0001a0 32 17 23 41 3d f4 1c 40 1f 46 16 40 0b 11 1b 40
       10.193163 2.4524071 2.3480299 2.4229152
0001b0 20 91 21 40 d3 77 2f 40 b8 9a 24 40 aa 42 1c 41
       2.5244827 2.7416885 2.5719433 9.766275
0001c0 3f a1 26 40 53 37 93 c0 96 e4 1f 41 f2 c2 1c 41
       2.6035917 -4.6005034 9.993307 9.797594
0001d0 af 8c 1b 41 60 7c 53 40 10 8d 50 40 7d ec cf 3f
       9.721847 3.3044662 3.2586098 1.6244045
0001e0 24 ce 23 40 d9 b1 55 40 5c b3 1e 41 2f a0 20 41
       2.5594568 3.33898 9.918789 10.039107
0001f0 05 0d 34 40 1b 1c 25 41 e9 0f 2d 40 8c 74 4b 40
       2.8132946 10.319362 2.704096 3.1789885

net.2.weight f4 [128, 128]
000000 53 ae a2 40 d9 66 a0 40 2c f8 a2 40 0d f1 49 c1
       5.08378 5.0125546 5.0927944 -12.62135
000010 6a d4 22 40 2c d4 39 40 1d 31 be 3b cc f3 39 40
       2.5442147 2.903575 0.0058041946 2.9055052
000020 d8 1b 20 40 ac 18 a3 40 65 56 15 40 41 f1 50 40
       2.5016994 5.0967617 2.333398 3.264725
000030 93 69 32 40 1e 15 2b 40 12 50 12 40 0d 6b 18 40
       2.7876937 2.673164 2.286137 2.3815339
000040 18 46 32 40 30 0d 36 40 28 ba 4e 40 1e 17 1d 40
       2.7855282 2.844555 3.230112 2.454536
000050 65 33 9a bd 0e a1 a3 40 3b ad 67 3d 47 49 0f 41
       -0.07529334 5.11341 0.05656169 8.95539
000060 e8 e8 a2 40 5c 8c 52 c1 4c 1d 19 40 0d 4a 26 40
       5.090931 -13.159267 2.3924131 2.5982697
000070 6f d4 f5 3f 69 9b 9e 40 3e 50 9e 40 94 54 ff 3f
       1.9205455 4.956471 4.947295 1.9947686
000080 e7 b0 e9 3f 1d 13 28 40 2b ab 1d 40 d3 74 a4 40
       1.8257111 2.6261666 2.4635723 5.139261
000090 f8 b7 5c 40 95 43 29 40 61 f2 44 40 2a 06 02 40
       3.4487286 2.6447499 3.0772936 2.0316262
0000a0 15 80 a1 40 4b ee 27 40 7f e5 02 40 23 23 45 40
       5.046885 2.6239192 2.0452573 3.0802696
0000b0 0d 22 b5 3c 2a dc 48 3d 6e 9d 18 41 fa 95 c0 3c
       0.022110963 0.04903809 9.538435 0.023509014
0000c0 9c 6a 92 40 e5 06 3b 3d 80 67 39 40 8e 8e 4f 3d
       4.575514 0.045660872 2.8969421 0.05067306
0000d0 f7 05 2a 40 d9 17 3b 40 9b 94 1c 40 ad d4 e5 3f
       2.656614 2.9233305 2.4465702 1.7955528
0000e0 ec cf 17 40 59 0a 1b 40 b8 90 38 3d 2e ae 9f 40
       2.3720655 2.4225066 0.04505989 4.990012
0000f0 9c 5a 50 40 f2 d1 27 40 e3 99 a0 40 c1 0f 42 3d
       3.2555304 2.622189 5.018785 0.047378305
000100 95 cb 9c 40 f1 93 a6 40 5e 06 56 40 8e 7a 8e 3f
       4.8998513 5.2055593 3.3441386 1.1131151
000110 76 e7 1f 40 33 1e 31 40 b2 9c 81 40 9c 71 91 40
       2.4985023 2.7674682 4.050378 4.5451183
000120 ca ec a2 40 20 8c b9 3f d1 59 25 40 0d 53 8c 40
       5.091405 1.4495888 2.583607 4.385138
000130 29 92 32 40 4e 17 36 40 e8 4e 3b 40 b9 6f b2 bd
       2.790171 2.8451724 2.926691 -0.08712716
000140 0c f5 32 40 22 66 d1 3f f4 1b 37 40 e5 0a 54 3d
       2.7962065 1.6359293 2.8610811 0.051768202
000150 4e 1a 2d 40 c4 2b 17 41 57 7d 96 40 64 e7 51 c1
       2.7047305 9.448185 4.7028003 -13.118992
000160 63 48 4c c1 20 7b c2 3f 32 69 01 40 23 39 4f 40
       -12.767673 1.5193825 2.0220456 3.2378623
000170 3a 98 27 40 27 16 a4 40 2e bb a1 40 04 4e a2 40
       2.6186662 5.127704 5.054099 5.0720234
000180 be 73 9f bd a8 b1 0f 40 02 3a 1e 40 eb d3 65 40
       -0.07785748 2.2452183 2.4722905 3.5910594
000190 55 ce 23 40 05 49 8f 40 b4 15 ce 3f 37 f8 20 40
       2.5594685 4.4776635 1.6100373 2.5151498
0001a0 be de 17 40 01 87 67 40 98 29 b1 3f 05 f0 02 40
       2.37297 3.617615 1.3840818 2.0458996
0001b0 17 41 4b 40 bd 9e 6d 40 88 e6 39 40 de 20 28 40
       3.1758478 3.7128136 2.9046955 2.627006
0001c0 e5 d8 f5 3f 75 a6 4a c1 08 81 1e 40 69 e8 2e 40
       1.9206816 -12.665639 2.4766254 2.7329352
0001d0 6c 62 28 40 2e 7b a2 40 5e cf 9e 40 a8 db 17 41
       2.6310072 5.0775366 4.9628134 9.491127
0001e0 52 7d 23 40 b1 05 a0 40 f3 67 26 40 f0 5a 26 40
       2.554524 5.0006948 2.6000946 2.5993004
0001f0 0c 82 a1 40 62 ff 21 40 ae ae 92 40 4a c8 a3 40
       5.047125 2.5312123 4.583823 5.1181993
000200 d6 dd 9f 40 4b 10 a0 40 72 09 a3 40 a6 9d 4c c1
       4.9958296 5.001989 5.094903 -12.788488
000210 f2 97 3a 40 8e 80 25 40 a7 e9 d6 3c 3d 5f 2a 40
       2.915524 2.5859714 0.026234461 2.662063
000220 f0 fe 1a 40 6e d0 a6 40 f9 5c 0b 40 c0 4e 50 40
       2.4218102 5.212943 2.1775496 3.2548065
000230 cb 00 46 40 6e 5e 3c 40 07 1b 08 40 67 c2 13 40
       3.0937984 2.9432635 2.1266496 2.3087404
000240 c4 bd 29 40 55 62 46 40 6d 01 3e 40 39 98 3b 40
       2.6522074 3.0997517 2.968837 2.931166
000250 e1 a8 ad bd d3 49 a6 40 41 69 66 bb 9d d6 0f 41
       -0.08479477 5.1965117 -0.003515795 8.989896
000260 42 e3 a4 40 b8 dc 53 c1 0a c5 2f 40 6a c6 20 40
       5.1527414 -13.241386 2.7464013 2.5121102
000270 f2 bb f0 3f 25 79 a3 40 d3 68 a3 40 7c 79 02 40
       1.8807356 5.108538 5.106546 2.0386648
000280 07 58 f9 3f 45 cc 42 40 4b 6c 37 40 b3 a0 a3 40
       1.9479989 3.0437176 2.8659847 5.1133666
000290 f2 48 4d 40 9d d2 3a 40 ce ad 3f 40 7e 9c f2 3f
       3.2075772 2.9191048 2.9949832 1.8954008
0002a0 ed cf a2 40 d9 ce 39 40 9e 13 02 40 fa 69 3b 40
       5.0878816 2.90325 2.0324473 2.9283433
0002b0 99 77 1e 3b 91 e9 e7 3c 3e a1 16 41 e1 09 21 3d
       0.0024180172 0.028309615 9.414366 0.039316062
0002c0 03 85 90 40 ba 9a 11 bd 2a 46 33 40 d4 49 14 3c
       4.516237 -0.03554795 2.8011575 0.009050805
0002d0 f3 ef 3d 40 e8 f0 30 40 40 3e 0b 40 4b ce f2 3f
       2.9677703 2.7647038 2.1756744 1.8969206
0002e0 07 b4 13 40 3e 28 2f 40 f8 92 95 bd 89 93 a5 40
       2.307863 2.7368312 -0.07303423 5.1742597
0002f0 e5 10 42 40 73 22 3f 40 b3 8f a0 40 00 3b 28 bd
       3.0322812 2.9864776 5.0175414 -0.04107189
000300 02 72 a0 40 07 28 a8 40 b0 10 45 40 c8 de 92 3f
       5.013917 5.254886 3.0791435 1.1474237
000310 f9 55 31 40 4f c7 46 40 31 c2 86 40 e4 cd 8b 40
       2.7708724 3.1059148 4.211205 4.368883
000320 03 06 a5 40 d0 da 96 3f fa 6d 43 40 a7 91 89 40
       5.156984 1.1785526 3.0535874 4.29903
000330 c8 ea 43 40 0a cd 26 40 40 db 27 40 33 06 c8 3c
       3.061205 2.6062646 2.622757 0.024417019
000340 c9 17 2e 40 fd 63 db 3f f8 e1 2e 40 a3 bb df 3c
       2.7202017 1.7139889 2.732542 0.027311152
000350 0c bb 40 40 b9 83 14 41 bb bb 96 40 16 29 52 c1
       3.0114164 9.282159 4.7104163 -13.135031
000360 fd 07 4e c1 68 52 c3 3f fb 98 06 40 c3 ed 3d 40
       -12.87695 1.5259523 2.1030872 2.9676368
000370 bb 21 21 40 62 2d a5 40 b7 61 a2 40 5c e8 a4 40
       2.5176837 5.16179 5.074428 5.153364
000380 e9 c0 02 3d f2 35 10 40 10 06 31 40 eb 4b 54 40
       0.031922255 2.2532926 2.765995 3.3171337
000390 b4 3d 3a 40 35 ff 8c 40 58 9f c4 3f e8 03 1c 40
       2.910016 4.406153 1.5361128 2.4377384
0003a0 81 7c 2f 40 8e 75 5b 40 44 ff a7 3f 37 30 f3 3f
       2.741974 3.42905 1.3124776 1.8999089
0003b0 68 91 4d 40 41 7c 70 40 1b b7 2d 40 73 ea 3f 40
       3.212 3.7575839 2.7143009 2.9986846
0003c0 c1 29 01 40 bb a2 4b c1 51 e5 35 40 50 81 44 40
       2.0181735 -12.727229 2.8421214 3.0703926
0003d0 61 1b 39 40 3e 27 aa 40 17 67 a4 40 e7 59 15 41
       2.892296 5.3172903 5.137584 9.334449
0003e0 c1 be 19 40 d3 94 a4 40 53 4a 42 40 c1 56 43 40
       2.4022677 5.143167 3.0357864 3.05217
0003f0 10 ef 9f 40 e7 33 34 40 a0 c9 96 40 d9 84 a6 40
       4.9979324 2.8156679 4.7121124 5.2037168

net.2.bias f4 [128]
000000 42 5a 29 bf f4 ee 64 be 1e 00 0c c1 35 4e c1 be
       -0.6615335 -0.22356778 -8.750029 -0.3775498
000010 f7 09 3b 3d e6 9b 12 40 86 9f 97 bc 11 03 76 40
       0.0456638 2.2907653 -0.018508684 3.8439372
000020 ec ab 74 40 0d 81 b2 bd 28 22 1a 41 32 6a 94 bf
       3.8229933 -0.08716021 9.633339 -1.1594908
000030 99 7d b1 bd 9c 70 17 bf 93 1d 74 40 ea f5 a2 3c
       -0.08666534 -0.59156203 3.814305 0.019892652
000040 1d 47 75 40 3b 08 0e bf 1a 7a 00 bf 5e 5a bb be
       3.8324654 -0.5548131 -0.5018631 -0.36592382
000050 23 12 d4 bc e8 58 7c 40 c5 8d e8 3c e5 13 d0 c0
       -0.025887555 3.9429264 0.028387913 -6.5024285
000060 60 13 00 c1 90 02 0a c1 6a 54 aa bd 34 86 6d 40
       -8.00473 -8.625626 -0.08316882 3.711316
000070 43 e2 72 40 33 fb 8a 3f f4 c5 79 40 62 0e a7 bd
       3.79506 1.085791 3.902707 -0.0815704
000080 b4 43 08 bd 58 66 25 bd 27 f6 74 40 20 65 57 bf
       -0.03326769 -0.040380806 3.827524 -0.8413868
000090 56 a2 80 3d 31 3a 17 40 f9 34 71 40 ec 3a 1e 41
       0.06280963 2.3629267 3.7688582 9.889385
0000a0 d7 f8 07 40 6d 47 a1 bb 7c e4 63 bd 5f 04 ac bc
       2.124563 -0.0049218447 -0.05563782 -0.020998178
0000b0 2a 7c 7f 40 cd 32 7b 40 05 3a 8b 3d 44 77 dd bf
       3.9919534 3.9249756 0.06798176 -1.7302022
0000c0 2d 9b ce c0 d7 6f f6 3c 2c 03 a6 be 32 36 32 bf
       -6.4564424 0.030082626 -0.32424295 -0.69613945
0000d0 dd 18 e2 3c 55 b1 06 bf c8 66 79 40 b4 a4 75 bc
       0.027599746 -0.5261434 3.8968983 -0.014992882
0000e0 ac 16 ea 3d 5d de 77 40 22 d4 04 bf 3a 45 0c c1
       0.114301056 3.872947 -0.5188619 -8.766901
0000f0 dd 27 93 3c dc 5f ab c0 40 75 6f be 38 20 97 be
       0.017963344 -5.3554516 -0.23384571 -0.29516768
000100 75 5c f3 c0 36 37 f9 bc 92 a9 6e 40 c3 8b 75 40
       -7.6050363 -0.030421834 3.7290998 3.8366554
000110 9b ac 11 40 3f 49 0e 40 34 9a a6 bd 43 72 6e 40
       2.27616 2.2232206 -0.08134881 3.725724
000120 da ae 80 3c db 5b 9a bd cb eb 7b 40 a3 31 05 c1
       0.015708376 -0.07537051 3.9362667 -8.324618
000130 b8 d0 71 40 ae ac 69 40 28 76 51 c0 79 de 8a 3f
       3.7783642 3.6511645 -3.2728367 1.0849143
000140 cb 80 00 bf f8 1a 05 bd fe 16 6a 40 19 28 04 bf
       -0.5019652 -0.032496423 3.6576533 -0.51623684
000150 a5 67 94 3d c8 d8 09 bd ec b7 c0 3c 1e 69 10 40
       0.07246331 -0.033654004 0.0235252 2.2564158
000160 a8 d0 77 40 b2 7c 24 bd 94 97 e9 c0 ca 4f 97 c0
       3.8721104 -0.04015798 -7.299753 -4.72849
000170 2f f5 88 38 f1 1d 33 3d 06 ba 61 bd b5 11 7a 40
       6.530654e-05 0.043729726 -0.055109046 3.9073308
000180 41 97 e2 c0 af fc 69 3c d7 d2 75 40 f7 7d c3 bd
       -7.0809636 0.014281436 3.8409936 -0.0954551
000190 6f 54 a6 bd 97 63 0b c1 7b 55 43 c0 1f 8f 0e 41
       -0.08121573 -8.711814 -3.0520923 8.909942
0001a0 c3 57 ed bc 44 1b c8 c0 96 1e 04 3d b6 14 f5 c0
       -0.028972512 -6.2533283 0.03225573 -7.658778
0001b0 91 93 e1 3f 33 a6 1f 3c a6 22 15 40 1d d2 71 40
       1.7623159 0.009744215 2.3302398 3.7784493
0001c0 a3 cf e2 be ba 06 6e bd ad 7b dc be 05 f7 15 3f
       -0.4429904 -0.058111884 -0.43063107 0.58580047
0001d0 76 42 09 c1 27 2a aa c0 6e 70 74 3c 04 85 26 bf
       -8.578726 -5.3176455 0.014919383 -0.65046716
0001e0 14 9c b3 c0 e5 c5 ce c0 ff 77 07 c1 82 83 9c bd
       -5.6128025 -6.461657 -8.466796 -0.076422706
0001f0 e9 08 75 40 a7 8d c6 bd 78 e5 de be d5 f7 15 40
       3.8286688 -0.09694987 -0.43534446 2.3432515

net.4.weight f4 [20, 128]
000000 22 88 b7 bf 63 cf 9d bf 68 ea fc 40 c7 f4 a1 bf
       -1.433842 -1.2328914 7.903614 -1.2652825
000010 d8 01 8d bc c1 e9 9d 40 15 85 7a 3d db 1e 82 40
       -0.017212793 4.9347844 0.061162073 4.0662665
000020 45 f2 94 40 78 f0 0c bd 08 1f db 3f 4e a6 be bf
       4.654574 -0.034409016 1.7118845 -1.4894502
000030 37 53 f0 3c ad 8d b4 bf 40 15 90 40 2a 2a 6b bc
       0.029336555 -1.4105736 4.502594 -0.014353314
000040 d2 9e 88 40 c3 ab 8e bf f5 ae 9c bf 5a 91 98 bf
       4.2693872 -1.1146168 -1.2240893 -1.1919358
000050 3f c8 40 bd e8 6d 85 40 e2 5a 8a bd 92 68 ef 40
       -0.04706597 4.1696663 -0.06755616 7.481515
000060 4f 62 f9 40 3f a7 f7 40 23 8e 1e 3c 57 c9 8b 40
       7.7932506 7.739166 0.009677443 4.3683276
000070 c2 16 96 40 49 24 9d 40 42 7d 8d 40 8f 66 fb 3b
       4.690278 4.9106793 4.4215403 0.007672138
000080 7d 00 3d 3a ba b0 49 3d e0 de 88 40 d3 e8 b9 bf
       0.00072098506 0.049240805 4.2772064 -1.4524177
000090 a0 66 8d bd 5d 78 9b 40 52 50 8f 40 3a 33 ea 3f
       -0.0690434 4.858443 4.4785547 1.8296883
0000a0 77 b6 98 40 3c 69 16 bc 23 eb 1b 3d 0c 61 42 bb
       4.7722735 -0.009180363 0.03806604 -0.0029659895
0000b0 a7 b6 91 40 b2 28 8b 40 b3 23 93 bd b8 0c a9 40
       4.5535464 4.3487177 -0.071845435 5.2828026
0000c0 c1 59 f3 40 98 b7 ad 3d a3 33 9c bf 2c a8 a5 bf
       7.6047063 0.08482283 -1.2203258 -1.2941947
0000d0 9c 24 8f bf 50 f4 a7 bf 25 6a 89 40 81 3b 97 3d
       -1.1183047 -1.3121433 4.294207 0.07384396
0000e0 83 24 da bd b2 04 93 40 35 6d 8b bf d4 8e fb 40
       -0.10651495 4.594323 -1.0892702 7.861185
0000f0 9c 29 65 3d 9e 19 e3 40 d4 1b 99 bf f8 a1 8a bf
       0.055947885 7.096877 -1.1961617 -1.0830679
000100 a0 44 f5 40 83 be 03 bd dd 8d 8b 40 64 fb 88 40
       7.664627 -0.032164108 4.3610673 4.2806873
000110 3b 5c 9c 40 91 cc 9c 40 2d 74 2f 3d e6 35 82 40
       4.8862586 4.8999715 0.042835403 4.0690794
000120 46 92 2f bd 79 e0 93 bf ec cb 8b 40 bc f6 f9 40
       -0.042864107 -1.1552879 4.368643 7.811369
000130 96 15 90 40 d3 a9 6f 40 b5 c9 c7 40 2d 41 99 40
       4.502635 3.7447402 6.2433724 4.789206
000140 37 29 af bf 2d ee 82 bb 28 3a 8f 40 ef 43 a1 bf
       -1.3684453 -0.003995678 4.475849 -1.2598857
000150 05 05 8c bb f9 6f a4 3d 9c 32 a9 3d 9e 81 96 40
       -0.0042730593 0.080291696 0.08261606 4.7033224
000160 c1 58 8f 40 85 38 1e 3d 44 34 f6 40 31 24 de 40
       4.479584 0.03862812 7.69388 6.941918
000170 60 e0 ac 3d a7 5c 98 40 5c 9a 5f 3d f6 88 8e 40
       0.08441234 4.76131 0.054590568 4.454219
000180 f3 86 f1 40 bf 5d 49 bd 39 ea 8b 40 e2 24 97 bc
       7.5477233 -0.04916167 4.3723416 -0.018450204
000190 2c ea 8c 3d 1a 3d f9 40 eb 77 c3 40 02 c6 80 3f
       0.06880602 7.7887087 6.1083884 1.0060427
0001a0 be 7a 4b bc 55 1e f0 40 d6 be 89 3c a7 39 f6 40
       -0.012419401 7.5037026 0.01681463 7.6945376
0001b0 41 3d 9a 40 92 41 d9 3c 5b 90 9a 40 da 88 86 40
       4.8199773 0.026520524 4.8301215 4.2042055
0001c0 01 03 a6 bf b9 a5 97 bd e7 51 ab bf 38 08 17 bf
       -1.2969667 -0.07404656 -1.338437 -0.58996916
0001d0 f5 33 f9 40 7e dd e4 40 27 96 1d 3d c0 36 a3 bf
       7.7875924 7.1520376 0.038473275 -1.2751083
0001e0 17 64 ec 40 a1 0e ee 40 ad 8c fd 40 f9 6a 11 bd
       7.387218 7.4392858 7.9234223 -0.035502408
0001f0 5e 5a 86 40 1c 00 a3 3d b3 83 ac bf dc b5 9c 40
       4.198531 0.07959005 -1.3477691 4.8971996
000200 08 c2 47 bf c0 03 1d bf e3 13 e9 40 ca e8 5b bf
       -0.78030443 -0.6133385 7.2836776 -0.8590208
000210 4b f0 86 bd 34 b1 92 40 97 6b b4 bc b8 b9 81 40
       -0.06588801 4.5841312 -0.02202396 4.0539207
000220 47 f3 8a 40 f9 75 6d 3d a6 e6 be 3e 34 22 88 bf
       4.342197 0.057973836 0.37285346 -1.0635438
000230 e7 35 bc bc 31 db 47 bf f0 99 87 40 90 45 f3 3b
       -0.022974921 -0.78068835 4.237541 0.007424064
000240 0f cc 83 40 35 8c 1c bf 99 9a 2e bf a8 a4 30 bf
       4.1186595 -0.6115144 -0.6820465 -0.69001245
000250 e0 a7 9b 3d 5c 0e 83 40 bc 3f 1f 3d d8 23 eb 40
       0.07600379 4.095503 0.03887914 7.3481255
000260 d6 95 e7 40 9b 3c e6 40 2e b5 a9 3d ca 6a 84 40
       7.2370405 7.194898 0.082865104 4.138036
000270 80 3f 8c 40 80 59 96 40 15 9f 88 40 d1 8e aa 3d
       4.3827515 4.6984253 4.269419 0.08328021
000280 27 cb 34 3d 14 83 0d bd 9e 15 86 40 00 56 63 bf
       0.044139054 -0.034548834 4.190139 -0.888031
000290 d6 a4 54 bd e4 36 91 40 15 45 87 40 9d cc 1b 3f
       -0.051915012 4.5379505 4.227183 0.6085909
0002a0 51 a4 92 40 a3 33 21 3c f4 63 25 3d 72 9d 0c bd
       4.582558 0.009838971 0.040378526 -0.03432984
0002b0 60 35 8a 40 9a 64 86 40 0d 55 8a bd 36 d2 c2 40
       4.3190155 4.1997805 -0.067545034 6.0881605
0002c0 b7 05 ed 40 02 ff e2 3b 09 13 28 bf 04 af 37 bf
       7.4069476 0.006927372 -0.65654045 -0.7175143
0002d0 f5 68 3a bf a0 39 5b bf 63 87 89 40 99 95 96 bd
       -0.728164 -0.85634804 4.2977767 -0.07352752
0002e0 24 0f bf 3e c6 7f 8c 40 5d 82 23 bf 5d fd e8 40
       0.3731624 4.3905973 -0.63870794 7.280928
0002f0 3e 56 2d 3d 34 e2 ea 40 e8 8a 25 bf 4e db 1f bf
       0.042318575 7.3401127 -0.6466508 -0.6244401
000300 a1 c3 e9 40 0b 64 ae 3d 20 2a 87 40 46 98 84 40
       7.3051305 0.085151754 4.223892 4.143588
000310 34 9f 90 40 61 2a 91 40 ea ed df bb c9 fb 79 40
       4.519434 4.536423 -0.0068337815 3.9059927
000320 d7 b9 a6 bc 24 72 1d bf 52 a3 88 40 87 63 e6 40
       -0.020352287 -0.6150229 4.2699366 7.1996493
000330 4a dd 88 40 d8 af 6e 40 43 65 de 40 b5 af 96 40
       4.277013 3.7294827 6.949861 4.7089486
000340 77 b7 60 bf 20 47 6d bc ad 9c 89 40 cf 7a 52 bf
       -0.87779945 -0.01448229 4.3003755 -0.8221864
000350 48 42 2f bd 4a c0 70 bd e7 f1 5a 3d 3f 2e 8e 40
       -0.04278782 -0.05877713 0.053453352 4.4431453
000360 34 25 8a 40 03 21 3e bd ca 43 ec 40 86 ce e9 40
       4.3170414 -0.0464182 7.383275 7.3064604
000370 b3 10 21 3d a3 f9 a0 40 e4 7d 2c 3d 6a 25 87 40
       0.039322566 5.030473 0.042112246 4.223317
000380 f1 7e ea 40 7e e6 89 3d 8a 54 85 40 5e 5e a8 bd
       7.327996 0.06733416 4.1665697 -0.08221124
000390 4d af 77 bd fe 4e e7 40 fb dc db 40 05 61 3d 3f
       -0.060469914 7.2283926 6.870725 0.73976165
0003a0 95 ac 9e bd 83 ba ee 40 e1 a3 87 3d 1a 2d e9 40
       -0.07747761 7.4602675 0.06623054 7.2867556
0003b0 ee 76 91 40 ed 31 51 3d 78 21 91 40 da 2f 83 40
       4.545768 0.051073004 4.5353355 4.0995913
0003c0 50 01 28 bf a5 8b 50 3d a8 7a 4c bf 4f 1c 0c bf
       -0.65627 0.050914425 -0.7987466 -0.54730695
0003d0 8b f6 e6 40 95 84 ec 40 b3 20 a5 3d 39 1d 3d bf
       7.2175956 7.3911843 0.080628775 -0.73872715
0003e0 85 83 ea 40 05 6f ee 40 94 95 e5 40 8d 2e d8 bc
       7.3285546 7.451052 7.174509 -0.026389385
0003f0 e9 5c 82 40 f6 1c 99 bd 06 02 3f bf f7 d4 8f 40
       4.0738416 -0.07476227 -0.7461246 4.4947467

net.4.bias f4 [20]
000000 43 6d f9 3f de 2b f2 3f d0 71 c0 3f 14 74 d2 3f
       1.9486469 1.8919637 1.5034733 1.6441674
000010 6b 05 88 3f 70 b5 93 3f ca c1 c6 3f 06 89 c7 3f
       1.0626653 1.1539745 1.552789 1.5588691
000020 a3 ac 03 be a4 2e f2 3f 3c 7c bb 3e d7 51 f4 3e
       -0.12858824 1.8920484 0.3661822 0.4771869
000030 c1 b4 5a 3f c5 7d ce 3e 79 12 85 3f 8e ff e8 be
       0.8543206 0.4033033 1.0396262 -0.45507473
000040 8e 1b e1 3e 82 84 a4 bc db 72 47 3f 2f 8d 3a 3d
       0.43966335 -0.020082716 0.7790963 0.0455448
