realtime_model_ep258.pth (torch, 97610 bytes, 6 tensors)

net.0.weight f4 [128, 35]
-2.3669765 30.684813 -0.41560516 -0.56018364 -0.28872645 -1.5188152 29.107674 -0.49387455
1.332881 0.4665847 -1.9454689 29.408606 -0.5085537 2.076535 -0.07483728 -1.2323475
29.416729 -0.7181403 1.137566 -0.7638007 -2.1228342 29.515944 -0.5697029 2.5125246
-0.4511875 6.9632444 6.553625 8.803151 6.964286 6.3783402 5.839603 6.2537737
6.8968353 3.7215033 6.803646 -2.3298204 30.722708 -0.26278397 -0.3981772 -0.2558645
-1.2802488 29.27639 -0.7582698 1.2733505 0.5029675 -1.7694347 29.475409 -0.5553305
2.1052175 0.019684304 -1.2404165 29.373516 -0.7581095 1.1398358 -0.56826735 -2.0414994
29.394629 -0.7136524 2.462265 -0.7726544 7.071087 6.4950147 8.827751 6.9081225
6.0916457 5.766768 6.201166 6.8900404 3.541196 6.916387 -2.2652624 30.833868
-0.19561778 -0.6672847 0.06917563 -1.2548337 29.5526 -0.45034832 1.2618418 0.81291664
-1.7938925 29.695036 -0.18972205 2.0487905 0.1986151 -1.231024 29.769562 -0.5384376
1.7267076 -0.29539266 -2.1143668 29.88007 -0.34762582 2.4551477 -0.33607614 7.389124
7.08004 8.780634 7.0248213 6.617534 5.9743056 6.613311 7.151773 3.707864
7.0622663 -2.1541617 30.451345 -9.934892 -1.8857505 -12.993334 -1.2268884 29.24909
-10.417856 1.2820085 -12.032529 -1.5598146 29.111301 -10.418382 1.3897207 -12.675453
-1.1336796 29.341433 -10.605104 0.88102436 -12.414518 -1.99613 29.25017 -10.485958
2.2297168 -12.735468 8.563062 7.950757 11.964441 10.330487 8.733104 9.868469
8.411908 10.062254 6.773657 9.079546 0.56739086 -20.136263 10.693671 2.2072875
8.002003 0.28891394 -18.713505 11.285139 1.8211048 7.307803 0.23936269 -18.84611
10.882507 3.4100149 8.924966 1.002135 -19.048468 11.21685 1.7384385 9.158931
0.7090989 -18.903442 11.294964 -0.25873676 8.220737 6.399478 6.1092377 5.6719246
6.278234 10.08455 5.887494 6.4674516 7.69337 7.8352113 8.22668 -2.4088905
30.501585 -0.73562014 -0.51272184 -0.5660207 -1.5073545 29.00606 -1.1024464 1.2124693
0.18701127 -1.6155088 29.201733 -0.85714173 2.2217858 -0.036060926 -1.2505099 29.14801
-1.1326072 0.87047046 -0.91766226 -1.8758941 29.222757 -0.977379 2.5402966 -0.6526267
6.832507 6.2326736 8.511362 6.592949 6.0728145 5.6063356 6.062571 6.6462293
3.3225646 6.6401734 0.023361642 0.07298027 -0.13444656 -0.0028111532 -0.11087552 0.051507387
0.019532697 0.06558474 -0.13051863 -0.08428582 -0.14334753 0.09869934 -0.111402914 -0.009088578
-0.11386278 0.12865363 0.10470404 -0.013036702 -0.07896501 0.10984549 0.16349874 -0.1339598
0.02074856 -0.104173765 0.04551153 -0.0015461799 -0.091129616 -0.12056647 0.056038693 -0.14420192
-0.06479775 -0.14961095 -0.12952757 0.068005644 0.10604575 -2.41056 30.513048 -0.65961725
-0.6194719 -0.34347227 -1.3759745 29.088694 -1.1369137 1.2414246 0.19102296 -1.5815089
00000000: 8b7c 17c0 7f7a f541 33ca d4be 3268 0fbf
00000010: f4d3 93be 8968 c2bf 84dc e841 20dd fcbe
00000020: d89b aa3f 31e4 ee3e 2005 f9bf d344 eb41
00000030: 9330 02bf f3e5 0440 4a44 99bd 90bd 9dbf
00000040: 7655 eb41 0bd8 37bf c39b 913f 7188 43bf
00000050: 84dc 07c0 a720 ec41 0dd8 11bf 34cd 2040
00000060: 0c02 e7be e6d2 de40 4cb7 d140 b5d9 0c41
00000070: 6edb de40 5d1b cc40 07de ba40 ea1e c840
00000080: e0b2 dc40 1c2d 6e40 78b7 d940 c71b 15c0
00000090: 1bc8 f541 9f8b 86be e2dd cbbe ac00 83be
000000a0: 31df a3bf 0c36 ea41 f81d 42bf 26fd a23f
000000b0: 7ac2 003f d67c e2bf a3cd eb41 242a 0ebf
000000c0: e2bb 0640 fa40 a13c f8c5 9ebf f6fc ea41
000000d0: 7713 42bf 24e6 913f f879 11bf eda7 02c0
000000e0: 3328 eb41 ecb1 36bf c095 1d40 aecc 45bf
000000f0: 5846 e240 29d7 cf40 783e 0d41 570f dd40
00000100: c3ee c240 5d89 b840 f46f c640 367b dc40
00000110: f5a2 6240 0b53 dd40 0ffa 10c0 c3ab f641
00000120: 0750 48be 2cd3 2abf f4ab 8d3d 649e a0bf
00000130: ba6b ec41 0e94 e6be 0884 a13f 4e1b 503f
00000140: 459e e5bf 6f8f ed41 7f46 42be 621f 0340
00000150: c261 4b3e 3292 9dbf 1028 ee41 0cd7 09bf
00000160: c104 dd3f b53d 97be c951 07c0 620a ef41
00000170: 03fc b1be 2421 1d40 2c12 acbe b473 ec40
00000180: b08f e240 7a7d 0c41 56cb e040 d7c2 d340
00000190: 832d bf40 3ea0 d340 53db e440 a54d 6d40
000001a0: 16fe e140 c9dd 09c0 5b9c f341 51f5 1ec1
000001b0: 4660 f1bf b2e4 4fc1 ae0a 9dbf 23fe e941
000001c0: 8aaf 26c1 db18 a43f 3d85 40c1 01a8 c7bf
000001d0: f2e3 e841 b1b1 26c1 5ee2 b13f a8ce 4ac1
000001e0: 6a1c 91bf 41bb ea41 82ae 29c1 d08a 613f
000001f0: dea1 46c1 3081 ffbf 5900 ea41 7cc6 27c1
00000200: aeb3 0e40 7ac4 4bc1 4d02 0941 9a6c fe40
00000210: 5a6e 3f41 ad49 2541 cbba 0b41 40e5 1d41
00000220: 2d97 0641 fefe 2041 ccc1 d840 d245 1141
00000230: 8740 113f 1117 a1c1 4719 2b41 3344 0d40
00000240: 3408 0041 87ec 933e 42b5 95c1 ee8f 3441
00000250: f619 e93f 86d9 e940 7e1b 753e d5c4 96c1
00000260: c01e 2e41 af3d 5a40 a9cc 0e41 f645 803f
00000270: 4363 98c1 3878 3341 2785 de3f fb8a 1241
00000280: 8187 353f 403a 97c1 2cb8 3441 2579 84be
00000290: 2488 0341 86c8 cc40 e07e c340 6880 b540
000002a0: 4be7 c840 515a 2141 5a66 bc40 5df5 ce40
000002b0: 1630 f640 0dba fa40 7ba0 0341 432b 1ac0
000002c0: 3f03 f441 9a51 3cbf bd41 03bf bce6 10bf
000002d0: fef0 c0bf 690c e841 f71c 8dbf 3232 9b3f
000002e0: e27f 3f3e fec8 cebf 269d e941 a46d 5bbf
000002f0: bd31 0e40 9fb4 13bd b510 a0bf 202f e941
00000300: 46f9 90bf 27d7 5e3f eaeb 6abf 4c1d f0bf
00000310: 35c8 e941 8335 7abf 3894 2240 8b12 27bf
00000320: e6a3 da40 1072 c740 8a2e 0841 70f9 d240
00000330: 7f54 c240 1a67 b340 9500 c240 e9ad d440
00000340: e6a4 5440 4d7c d440 ea60 bf3c ae76 953d
00000350: 5cac 09be 533b 38bb b412 e3bd 69f9 523d
00000360: 0903 a03c 4b51 863d ada6 05be 0b9e acbd
00000370: b2c9 12be e122 ca3d 3627 e4bd 42e8 14bc
00000380: e430 e9bd c7bd 033e 126f d63d e497 55bc
00000390: 68b8 a1bd acf6 e03d 376c 273e c22c 09be
000003a0: e2f8 a93c 0e59 d5bd 4c6a 3a3d 30a9 caba
000003b0: 2aa2 babd 8eeb f6bd d488 653d aba9 13be
000003c0: afb4 84bd 9d33 19be e0a2 04be 8b46 8b3d
000003d0: 842e d93d 9d46 1ac0 b91a f441 addc 28bf
000003e0: b695 1ebf 99db afbe ef1f b0bf a5b5 e841
000003f0: 6386 91bf 00e7 9e3f 869b 433e e26e cabf

net.0.bias f4 [128]
3.0827587 2.9742534 3.2136111 -4.859764 9.9551 2.711711 -0.18943928 2.596974
2.5391061 3.1597643 2.4544187 2.6653373 9.747838 10.053939 2.6762202 2.5815098
2.5713327 9.866647 2.6852596 9.938186 0.014294806 2.97958 -0.15012218 1.5120444
2.9984887 -5.458457 10.016754 2.5002232 2.5834532 3.1799977 3.0455527 2.469464
2.513921 10.140398 9.971176 3.0083988 2.6704752 9.849539 2.5150526 2.5093367
3.2881947 9.858385 2.5124457 2.5050468 -0.085138656 -0.022085607 1.7817239 -0.056338504
2.8156748 -0.035012536 2.5452564 -0.15263757 9.786829 2.4371922 2.5539558 2.4902031
2.3944566 9.95198 -0.19048937 3.083839 2.382101 10.000834 3.3063471 -0.05679617
3.235761 3.21825 2.5962565 2.4109154 9.831773 9.719418 2.4872735 2.8061194
3.121737 2.5071812 10.005381 2.61 9.728046 2.5337868 2.5365894 0.039110407
2.527745 2.6297996 2.5097911 -0.17613976 9.802415 1.8011106 2.6682818 -4.63204
-4.808069 2.5920382 2.4308414 2.431588 2.5395267 3.3286364 3.2501655 3.0434084
-0.03714469 2.4414477 9.94659 2.6277785 10.023258 2.779978 2.5503447 2.6592708
10.198076 2.4475052 2.3431003 2.418076 2.51964 2.7368815 2.567039 9.771158
2.598686 -4.6035676 9.998208 9.802455 9.726723 3.3001082 3.2542262 1.6284451
2.5545456 3.33458 9.923672 10.043979 2.8087387 10.324268 2.6994183 3.174508
00000000: eb4b 4540 2b5a 3e40 ceab 4d40 3083 9bc0
00000010: 1748 1f41 ac8c 2d40 5ffc 41be d234 2640
00000020: b780 2240 9439 4a40 3215 1d40 e394 2a40
00000030: 25f7 1b41 efdc 2041 3147 2b40 7537 2540
00000040: b790 2440 c9dd 1d41 4bdb 2b40 cf02 1f41
00000050: c334 6a3c 70b1 3e40 a1b9 19be ac8a c13f
00000060: 3de7 3f40 aeab aec0 a044 2041 a803 2040
00000070: 4c57 2540 1585 4b40 56ea 4240 b30b 1e40
00000080: 15e4 2040 123f 2241 f089 1f41 9b89 4040
00000090: 11e9 2a40 b697 1d41 9ff6 2040 f998 2040
000000a0: c871 5240 f2bb 1d41 e9cb 2040 b052 2040
000000b0: 2d5d aebd e0ec b4bc 870f e43f 34c3 66bd
000000c0: 0434 3440 4e69 0fbd 7be5 2240 064d 1cbe
000000d0: da96 1c41 f5fa 1b40 0374 2340 7d5f 1f40
000000e0: c73e 1940 4f3b 1f41 a50f 43be 9e5d 4540
000000f0: 5874 1840 6b03 2041 319b 5340 1aa3 68bd
00000100: b516 4f40 cff7 4d40 1129 2640 704c 1a40
00000110: f14e 1d41 bc82 1b41 7d2f 1f40 7697 3340
00000120: 8aca 4740 a875 2040 0a16 2041 3d0a 2740
00000130: 14a6 1b41 9029 2240 7b57 2240 3c32 203d
00000140: 93c6 2140 a34e 2840 6ba0 2040 fb5d 34be
00000150: b1d6 1c41 cb8a e63f 21c5 2a40 ac39 94c0
00000160: b4db 99c0 f4e3 2540 e892 1b40 239f 1b40
00000170: 9b87 2240 6108 5540 b602 5040 34c7 4240
00000180: 0825 18bd ae40 1c40 3c25 1f41 862d 2840
00000190: 445f 2041 29eb 3140 d938 2340 7e31 2a40
000001a0: 522b 2341 eda3 1c40 5bf5 1540 c2c1 1a40
000001b0: c841 2140 1129 2f40 5e4a 2440 aa56 1c41
000001c0: df50 2640 6d50 93c0 a9f8 1f41 dbd6 1c41
000001d0: a8a0 1b41 f934 5340 3e45 5040 e470 d03f
000001e0: ad7d 2340 c269 5540 5cc7 1e41 23b4 2041
000001f0: 60c2 3340 3430 2541 45c3 2c40 242b 4b40

net.2.weight f4 [128, 128]
5.0885024 5.017291 5.097456 -12.614677 2.5462441 2.9083939 0.0058041946 2.910316
2.5065088 5.101443 2.3382187 3.2695494 2.7896926 2.675187 2.2909615 2.386357
2.790344 2.8466468 3.2349215 2.4566033 -0.07529334 5.118114 0.05656169 8.959034
5.095652 -13.152114 2.3943474 2.6030989 1.9253848 4.9611335 4.9519143 1.9995906
1.8305435 2.6281934 2.465586 5.143918 3.453542 2.6467786 3.0821095 2.0364609
5.0515323 2.6259642 2.0500722 3.0851033 0.022110963 0.04903809 9.542507 0.023509014
4.5802836 0.045660872 2.9017656 0.05067306 2.658686 2.9281569 2.4514062 1.8003827
2.3768854 2.424539 0.04505989 4.99464 3.260358 2.6242592 5.0234165 0.047378305
4.9044833 5.2102194 3.348961 1.117933 2.5006156 2.7696075 4.0551577 4.549894
5.0960846 1.4544132 2.5857096 4.3899117 2.7922337 2.8499954 2.9315095 -0.08712716
2.8010287 1.640763 2.8658953 0.051768202 2.7068574 9.452244 4.7075562 -13.112324
-12.760998 1.5242136 2.0268633 3.2426903 2.6234758 5.1323485 5.058763 5.076667
-0.07785748 2.250039 2.4742448 3.5958738 2.5614383 4.482438 1.6148589 2.5199745
2.3749065 3.6224349 1.3889214 2.0507152 3.1806507 3.7176235 2.9095123 2.6291094
1.9255077 -12.65898 2.4785833 2.7350774 2.633043 5.0821567 4.9674535 9.4952
2.5593424 5.0053425 2.6021814 2.6014159 5.051832 2.5331078 4.5885854 5.122895
5.000564 5.0067363 5.099582 -12.781583 2.9173884 2.590818 0.026234461 2.6669023
2.4266477 5.2176366 2.1823983 3.2596571 3.09563 2.9451213 2.131504 2.3135948
2.6570485 3.101681 2.973675 2.9330695 -0.08479477 5.2012305 -0.003515795 8.993407
5.1574674 -13.2339735 2.7481654 2.516969 1.8856018 5.1132154 5.1111703 2.0435143
1.9528594 3.0455823 2.8678331 5.118034 3.2124212 2.920968 2.9998257 1.9002632
5.0925384 2.9051301 2.0372875 2.9332018 0.0024180172 0.028309615 9.418344 0.039316062
4.5210257 -0.03554795 2.8060129 0.009050805 2.969681 2.7695606 2.180534 1.9017756
2.3127115 2.7387033 -0.07303423 5.178898 3.0371375 2.988385 5.0221806 -0.04107189
5.0185556 5.259556 3.0839915 1.1522686 2.7728286 3.1078925 4.216006 4.3736796
5.1616764 1.1833988 3.0555344 4.3038244 3.063101 2.6111133 2.627604 0.024417019
2.7250466 1.7188514 2.7373836 0.027311152 3.0133827 9.286132 4.7151947 -13.128134
-12.870041 1.5308079 2.1079347 2.9724944 2.5225167 5.166445 5.0791016 5.158016
0.031922255 2.2581425 2.7677786 3.3219752 2.9118183 4.410948 1.5409596 2.4425921
2.7437425 3.433899 1.317343 1.904745 3.2168288 3.7624176 2.7191472 3.0006294
2.023027 -12.720334 2.8439116 3.0723765 2.8941677 5.321918 5.1422396 9.338427
2.4071095 5.147824 3.0377142 3.0541284 5.002655 2.8173902 4.7168965 5.208422
00000000: 03d5 a240 a68d a040 5c1e a340 b8d5 49c1
00000010: aaf5 2240 2023 3a40 1d31 be3b 9e42 3a40
00000020: a46a 2040 053f a340 60a5 1540 4c40 5140
00000030: 538a 3240 4436 2b40 1d9f 1240 13ba 1840
00000040: ff94 3240 762f 3640 f408 4f40 fd38 1d40
00000050: 6533 9abd 97c7 a340 3bad 673d 3458 0f41
00000060: 950f a340 0f6f 52c1 fd3c 1940 2c99 2640
00000070: 0273 f63f 9bc1 9e40 1576 9e40 96f2 ff3f
00000080: 404f ea3f 5234 2840 29cc 1d40 fa9a a440
00000090: d506 5d40 d264 2940 4841 4540 6055 0240
000000a0: 27a6 a140 cc0f 2840 6234 0340 5572 4540
000000b0: 0d22 b53c 2adc 483d 1cae 1841 fa95 c03c
000000c0: af91 9240 e506 3b3d 87b6 3940 8e8e 4f3d
000000d0: e927 2a40 ec66 3b40 d7e3 1c40 f172 e63f
000000e0: e41e 1840 a62b 1b40 b890 383d 17d4 9f40
000000f0: b5a9 5040 ddf3 2740 d4bf a040 c10f 423d
00000100: 87f1 9c40 1eba a640 6155 5640 6e18 8f3f
00000110: 160a 2040 4041 3140 dac3 8140 bb98 9140
00000120: 2013 a340 362a ba3f 447c 2540 287a 8c40
00000130: f5b3 3240 5366 3640 da9d 3b40 b96f b2bd
00000140: 0e44 3340 8604 d23f d46a 3740 e50a 543d
00000150: 273d 2d40 643c 1741 4da4 9640 14cc 51c1
00000160: 0c2d 4cc1 6e19 c33f 21b8 0140 3d88 4f40
00000170: 07e7 2740 333c a440 63e1 a140 0e74 a240
00000180: be73 9fbd a400 1040 075a 1e40 cc22 6640
00000190: 9bee 2340 2270 8f40 b2b3 ce3f 4347 2140
000001a0: 78fe 1740 f9d5 6740 2dc8 b13f eb3e 0340
000001b0: c88f 4b40 8bed 6d40 7335 3a40 5443 2840
000001c0: 0977 f63f 2f8b 4ac1 1ca1 1e40 820b 2f40
000001d0: c783 2840 07a1 a240 61f5 9e40 57ec 1741
000001e0: 44cc 2340 c42b a040 248a 2640 997d 2640
000001f0: 9ca8 a140 701e 2240 b1d5 9240 c1ee a340
00000200: 9f04 a040 2f37 a040 c72f a340 5d81 4cc1
00000210: 7eb6 3a40 f6cf 2540 a7e9 d63c 87ae 2a40
00000220: 324e 1b40 e1f6 a640 6aac 0b40 399e 5040
00000230: cd1e 4640 de7c 3c40 906a 0840 f011 1440
00000240: 150d 2a40 f181 4640 b150 3e40 69b7 3b40
00000250: e1a8 adbd 7b70 a640 4169 66bb ffe4 0f41
00000260: f909 a540 5bbe 53c1 f1e1 2f40 0516 2140
00000270: 665b f13f 769f a340 b58e a340 f0c8 0240
00000280: 4cf7 f93f d2ea 4240 948a 3740 efc6 a340
00000290: 4f98 4d40 24f1 3a40 25fd 3f40 d33b f33f
000002a0: 13f6 a240 a7ed 3940 eb62 0240 94b9 3b40
000002b0: 9977 1e3b 91e9 e73c 89b1 1641 e109 213d
000002c0: 3eac 9040 ba9a 11bd b795 3340 d449 143c
000002d0: 410f 3e40 7b40 3140 de8d 0b40 626d f33f
000002e0: 7703 1440 ea46 2f40 f892 95bd 88b9 a540
000002f0: 7660 4240 b341 3f40 b4b5 a040 003b 28bd
00000300: 0298 a040 484e a840 1e60 4540 8a7d 933f
00000310: 0676 3140 b6e7 4640 85e9 8640 2ff5 8b40
00000320: 742c a540 9d79 973f e08d 4340 eeb8 8940
00000330: d909 4440 7b1c 2740 aa2a 2840 3306 c83c
00000340: 2a67 2e40 5303 dc3f 4b31 2f40 a3bb df3c
00000350: 43db 4040 ff93 1441 e0e2 9640 d60c 52c1
00000360: b0eb 4dc1 83f1 c33f 67e8 0640 593d 3e40
00000370: ea70 2140 8453 a540 0088 a240 780e a540
00000380: e9c0 023d 6885 1040 4923 3140 3e9b 5440
00000390: 3b5b 3a40 7c26 8d40 2a3e c53f 6e53 1c40
000003a0: 7a99 2f40 00c5 5b40 b29e a83f afce f33f
000003b0: 86e0 4d40 73cb 7040 8206 2e40 500a 4040
000003c0: 4679 0140 7d86 4bc1 a602 3640 d1a1 4440
000003d0: 0b3a 3940 274d aa40 3a8d a440 326a 1541
000003e0: 150e 1a40 f9ba a440 e969 4240 d776 4340
000003f0: c015 a040 1f50 3440 d1f0 9640 65ab a640

net.2.bias f4 [128]
-0.6584955 -0.22050868 -8.754162 -0.37457427 0.0456638 2.284165 -0.018508684 3.8397017
3.818696 -0.08716021 9.65557 -1.1565418 -0.08666534 -0.58856046 3.8100004 0.019892652
3.8281841 -0.5518426 -0.49885157 -0.36284566 -0.025887555 3.9386601 0.028387913 -6.5053344
-8.008223 -8.629599 -0.08316882 3.707039 3.7907574 1.0786566 3.8984008 -0.0815704
-0.03326769 -0.040380806 3.823266 -0.83835405 0.06280963 2.356351 3.764599 9.929987
2.1179304 -0.0049218447 -0.05563782 -0.020998178 3.9876485 3.9207036 0.06798176 -1.7339532
-6.4593387 0.030082626 -0.32123363 -0.6930956 0.030556133 -0.52319455 3.892631 -0.014992882
0.13531907 3.86865 -0.51582915 -8.770898 0.017963344 -5.357923 -0.23089299 -0.29219568
-7.6081376 -0.030421834 3.7248309 3.8323414 2.2695336 2.2166183 -0.08134881 3.721429
0.015708376 -0.07232709 3.931968 -8.328749 3.7740824 3.6471086 -3.2742178 1.0777599
-0.49895993 -0.032496423 3.6533523 -0.51319176 0.07246331 -0.033654004 0.0235252 2.2498682
3.8678405 -0.04015798 -7.302841 -4.730322 6.530654e-05 0.036831606 -0.055109046 3.903038
-7.0839853 0.014281436 3.836687 -0.0954551 -0.08121573 -8.715803 -3.0537612 8.958863
-0.028972512 -6.2561326 0.03225573 -7.6620336 1.755546 0.009744215 2.3236547 3.7741282
-0.43987238 -0.058111884 -0.42758837 0.58837396 -8.5826025 -5.3202944 0.014919383 -0.64743626
-5.615544 -6.4645047 -8.4707365 -0.076422706 3.8244174 -0.09694987 -0.43229717 2.336675
00000000: 2993 28bf 07cd 61be 0c11 0cc1 33c8 bfbe
00000010: f709 3b3d c22f 1240 869f 97bc acbd 7540
00000020: 8465 7440 0d81 b2bd 377d 1a41 9009 94bf
00000030: 997d b1bd e6ab 16bf 0cd7 7340 eaf5 a23c
00000040: f800 7540 8e45 0dbf 7969 ffbe e8c6 b9be
00000050: 2312 d4bc 0213 7c40 c58d e83c b32b d0c0
00000060: ae21 00c1 d612 0ac1 6a54 aabd 2140 6d40
00000070: c59b 7240 6b11 8a3f 667f 7940 620e a7bd
00000080: b443 08bd 5866 25bd 64b0 7440 5f9e 56bf
00000090: 56a2 803d 74ce 1640 31ef 7040 3ae1 1e41
000000a0: 2c8c 0740 6d47 a1bb 7ce4 63bd 5f04 acbc
000000b0: a235 7f40 cfec 7a40 053a 8b3d 2ef2 ddbf
000000c0: e7b2 cec0 d76f f63c bc78 a4be b76e 31bf
000000d0: db50 fa3c 14f0 05bf de20 7940 b4a4 75bc
000000e0: 1591 0a3e f697 7740 610d 04bf 9955 0cc1
000000f0: dd27 933c 1b74 abc0 366f 6cbe ac9a 95be
00000100: dd75 f3c0 3637 f9bc a163 6e40 1545 7540
00000110: 0a40 1140 13dd 0d40 349a a6bd e52b 6e40
00000120: daae 803c 3a20 94bd 5da5 7b40 8e42 05c1
00000130: 918a 7140 3a6a 6940 c98c 51c0 09f4 893f
00000140: ad77 ffbe f81a 05bd 86d0 6940 8960 03bf
00000150: a567 943d c8d8 09bd ecb7 c03c d7fd 0f40
00000160: b38a 7740 b27c 24bd e0b0 e9c0 cc5e 97c0
00000170: 2ff5 8838 bddc 163d 06ba 61bd 60cb 7940
00000180: 02b0 e2c0 affc 693c 488c 7540 f77d c3bd
00000190: 6f54 a6bd ee73 0bc1 d370 43c0 8157 0f41
000001a0: c357 edbc 3d32 c8c0 961e 043d 612f f5c0
000001b0: bbb5 e03f 33a6 1f3c c2b6 1440 518b 7140
000001c0: f436 e1be ba06 6ebd ddec dabe ad9f 163f
000001d0: 5752 09c1 da3f aac0 6e70 743c 62be 25bf
000001e0: 89b2 b3c0 39dd cec0 2388 07c1 8283 9cbd
000001f0: 41c3 7440 a78d c6bd 0e56 ddbe 158c 1540

net.4.weight f4 [20, 128]
-1.4364338 -1.2356613 7.911591 -1.2679756 -0.017212793 4.9381413 0.061162073 4.0683327
4.656654 -0.034409016 1.7019691 -1.4919481 0.029336555 -1.4131751 4.504649 -0.014353314
4.2714295 -1.1173697 -1.2268051 -1.1946124 -0.04706597 4.171722 -0.06755616 7.4891734
7.8010693 7.747118 0.009677443 4.37038 4.692366 4.9149113 4.423608 0.007672138
0.00072098506 0.049240805 4.2792525 -1.454918 -0.0690434 4.861797 4.480618 1.8197979
4.7757254 -0.009180363 0.03806604 -0.0029659895 4.555622 4.350758 -0.071845435 5.288782
7.612359 0.08482283 -1.2230816 -1.2968124 -1.1211119 -1.3147982 4.296255 0.07384396
-0.113297 4.5963926 -1.0920348 7.869136 0.055947885 7.104414 -1.198965 -1.0858487
7.6723313 -0.032164108 4.36313 4.2827263 4.889685 4.9033337 0.042835403 4.071127
-0.042864107 -1.158086 4.3707056 7.8193483 4.5047054 3.7467203 6.2500706 4.793497
-1.3710417 -0.003995678 4.477913 -1.262488 -0.0042730593 0.080291696 0.08261606 4.706655
4.4816484 0.03862812 7.7015853 6.9492683 0.08441234 4.766068 0.054590568 4.45629
7.555397 -0.04916167 4.3743854 -0.018450204 0.06880602 7.7966595 6.115044 0.99607104
-0.012419401 7.511342 0.01681463 7.7022796 4.823801 0.026520524 4.8334794 4.206248
-1.2996638 -0.07404656 -1.341077 -0.5962375 7.795526 7.1596246 0.038473275 -1.2777623
7.3948426 7.4469266 7.9313707 -0.035502408 4.200573 0.07959005 -1.3504368 4.900552
-0.77529335 -0.60795736 7.2930803 -0.8537299 -0.06588801 4.5878506 -0.02202396 4.056353
4.3446302 0.057973836 0.39229852 -1.0587224 -0.022974921 -0.7756287 4.2399807 0.007424064
4.1210914 -0.60625696 -0.6768006 -0.68478084 0.07600379 4.0979357 0.03887914 7.3574443
7.246396 7.204291 0.082865104 4.1404715 4.385175 4.7039595 4.2718463 0.08328021
0.044139054 -0.034548834 4.192572 -0.88313377 -0.051915012 4.5416636 4.229616 0.6280303
4.586478 0.009838971 0.040378526 -0.03432984 4.321442 4.202209 -0.067545034 6.0964346
7.4162636 0.006927372 -0.6512191 -0.7124537 -0.7226441 -0.8511773 4.3002048 -0.07352752
0.4012808 4.3930345 -0.633426 7.2903185 0.042318575 7.349396 -0.64128757 -0.61902106
7.314459 0.085151754 4.2263265 4.1460223 4.523297 4.540151 -0.0068337815 3.9084294
-0.020352287 -0.6095441 4.2723646 7.209052 4.279435 3.7319968 6.958755 4.7145905
-0.87268955 -0.01448229 4.30281 -0.81708604 -0.04278782 -0.05877713 0.053453352 4.446812
4.319474 -0.0464182 7.392604 7.3156776 0.039322566 5.037051 0.042112246 4.2257447
7.337319 0.06733416 4.169006 -0.08221124 -0.060469914 7.237783 6.8795805 0.7591091
-0.07747761 7.469579 0.06623054 7.296096 4.5504684 0.051073004 4.539054 4.102021
-0.65103614 0.050914425 -0.7935474 -0.53648484 7.2269816 7.4004846 0.080628775 -0.7335882
7.337864 7.4603643 7.183898 -0.026389385 4.076273 -0.07476227 -0.7409304 4.4984536
00000000: 10dd b7bf 262a 9ebf c12b fd40 064d a2bf
00000010: d801 8dbc 4105 9e40 1585 7a3d c82f 8240
00000020: 4f03 9540 78f0 0cbd 20da d93f 28f8 bebf
00000030: 3753 f03c ece2 b4bf 1626 9040 2a2a 6bbc
00000040: 8daf 8840 f805 8fbf f307 9dbf 0fe9 98bf
00000050: 3fc8 40bd bf7e 8540 e25a 8abd 4fa7 ef40
00000060: 5ca2 f940 64e8 f740 238e 1e3c 27da 8b40
00000070: dd27 9640 f446 9d40 328e 8d40 8f66 fb3b
00000080: 7d00 3d3a bab0 493d a3ef 8840 c13a babf
00000090: a066 8dbd d793 9b40 3961 8f40 23ef e83f
000000a0: bed2 9840 3c69 16bc 23eb 1b3d 0c61 42bb
000000b0: a8c7 9140 6939 8b40 b323 93bd b43d a940
000000c0: 7298 f340 98b7 ad3d f08d 9cbf f3fd a5bf
000000d0: 9880 8fbf 4f4b a8bf ec7a 8940 813b 973d
000000e0: 4208 e8bd a615 9340 ccc7 8bbf f6cf fb40
000000f0: 9c29 653d 5c57 e340 af77 99bf 17fd 8abf
00000100: bd83 f540 83be 03bd c39e 8b40 180c 8940
00000110: 4d78 9c40 1ce8 9c40 2d74 2f3d ac46 8240
00000120: 4692 2fbd 293c 94bf d2dc 8b40 1a38 fa40
00000130: 8c26 9040 44ca 6f40 9400 c840 5464 9940
00000140: 4b7e afbf 2dee 82bb 104b 8f40 3599 a1bf
00000150: 0505 8cbb f96f a43d 9c32 a93d eb9c 9640
00000160: aa69 8f40 8538 1e3d 6373 f640 6860 de40
00000170: 60e0 ac3d a183 9840 5c9a 5f3d ed99 8e40
00000180: d0c5 f140 bf5d 49bd f7fa 8b40 e224 97bc
00000190: 2cea 8c3d 3c7e f940 71ae c340 83fe 7e3f
000001a0: be7a 4bbc ea5c f040 d6be 893c 1379 f640
000001b0: 945c 9a40 9241 d93c ddab 9a40 9599 8640
000001c0: 625b a6bf b9a5 97bd 69a8 abbf 05a3 18bf
000001d0: f374 f940 a51b e540 2796 1d3d b78d a3bf
000001e0: 8da2 ec40 394d ee40 cacd fd40 f96a 11bd
000001f0: 186b 8640 1c00 a33d 1ddb acbf 52d1 9c40
00000200: a079 46bf 18a3 1bbf ea60 e940 0b8e 5abf
00000210: 4bf0 86bd accf 9240 976b b4bc a5cd 8140
00000220: 3607 8b40 f975 6d3d 5adb c83e 3784 87bf
00000230: e735 bcbc 9a8f 46bf ecad 8740 9045 f33b
00000240: fbdf 8340 a833 1bbf ce42 2dbf cc4d 2fbf
00000250: e0a7 9b3d 4a22 8340 bc3f 1f3d 2f70 eb40
00000260: 7ae2 e740 8d89 e640 2eb5 a93d be7e 8440
00000270: 5b53 8c40 d686 9640 f7b2 8840 d18e aa3d
00000280: 27cb 343d 1483 0dbd 8d29 8640 0e15 62bf
00000290: d6a4 54bd 4f55 9140 0459 8740 98c6 203f
000002a0: 6ec4 9240 a333 213c f463 253d 729d 0cbd
000002b0: 4149 8a40 7f78 8640 0d55 8abd fe15 c340
000002c0: 0852 ed40 02ff e23b 4cb6 26bf 5e63 36bf
000002d0: 34ff 38bf c1e6 59bf 479b 8940 9995 96bd
000002e0: ad74 cd3e bd93 8c40 3528 22bf 4a4a e940
000002f0: 3e56 2d3d 412e eb40 6c2b 24bf 2a78 1ebf
00000300: 0c10 ea40 0b64 ae3d 113e 8740 37ac 8440
00000310: d9be 9040 eb48 9140 eaed dfbb b523 7a40
00000320: d7b9 a6bc 150b 1cbf 36b7 8840 8eb0 e640
00000330: 22f1 8840 09d9 6e40 1fae de40 eddd 9640
00000340: 9568 5fbf 2047 6dbc 9fb0 8940 8d2c 51bf
00000350: 4842 2fbd 4ac0 70bd e7f1 5a3d 494c 8e40
00000360: 2239 8a40 0321 3ebd 3690 ec40 081a ea40
00000370: b310 213d 862f a140 e47d 2c3d 4d39 8740
00000380: 51cb ea40 7ee6 893d 7f68 8540 5e5e a8bd
00000390: 4daf 77bd eb9b e740 8625 dc40 f954 423f
000003a0: 95ac 9ebd cb06 ef40 e1a3 873d 9e79 e940
000003b0: 709d 9140 ed31 513d ee3f 9140 c243 8340
000003c0: 4eaa 26bf a58b 503d ec25 4bbf 1257 09bf
000003d0: 6f43 e740 c5d0 ec40 b320 a53d 70cc 3bbf
000003e0: c8cf ea40 4ebb ee40 7ee2 e540 8d2e d8bc
000003f0: d470 8240 f61c 99bd 9dad 3dbf 55f3 8f40

net.4.bias f4 [20]
1.9459064 1.9084969 1.4978343 1.6369572 1.0625681 1.1485118 1.5498915 1.5571152
-0.12918349 1.8983041 0.3681649 0.47582033 0.8549271 0.403367 1.0435618 -0.45789665
0.43648 -0.01949979 0.7774195 0.045460783
00000000: 7613 f93f a049 f43f 09b9 bf3f d087 d13f
00000010: 3b02 883f 6f02 933f d862 c63f 8d4f c73f
00000020: ad48 04be a1fb f23f 1c80 bc3e b99e f33e
00000030: 81dc 5a3f 1f86 ce3e 6f93 853f 6e71 eabe
00000040: 4e7a df3e 06be 9fbc f704 473f 1635 3a3d
