realtime_model_ep143.pth (torch, 97610 bytes, 6 tensors)

net.0.weight f4 [128, 35]
00000000: 1a91 0dc0 3f06 f141 2a3d a2bd 0497 51bf
00000010: 50f6 6f3d e8d7 b7bf 5184 e741 999b 08bd
00000020: 04c5 633f 9ccd 313f 0727 efbf 9795 e941
00000030: 6f2c 87bd e96e ea3f 757a 133d e1ab 94bf
00000040: cccb e941 7ebc 8bbe d07e 953f 4ce2 71bf
00000050: d0ca 03c0 83c1 ea41 2047 d1bd ddda 1740
00000060: 3e63 0dbe 259c e240 db98 d440 de6a 0e41
00000070: aa00 e240 9d13 cf40 de34 bd40 98cf cb40
00000080: 4e4a e040 87ff 7240 476f dc40 af2f 0bc0
00000090: 8c55 f141 bc86 953d c221 28bf 6608 ba3d
000000a0: ea4c 99bf fddf e841 b991 98be 347e 543f
000000b0: 61e6 3a3f 619c d8bf 9320 ea41 2f94 e7bd
000000c0: 231d ee3f 5c78 053e 6cb2 95bf 8675 e941
000000d0: 8857 a0be c8bb 953f a9dd 3fbf 712a fdbf
000000e0: 4bcb e941 754c 7cbe 5ba2 1440 1cb5 ebbe
000000f0: d910 e640 1dba d240 4fd0 0e41 0336 e040
00000100: 8de8 c540 bbe1 ba40 e921 ca40 3714 e040
00000110: 7179 6740 620c e040 5813 07c0 a232 f241
00000120: 678d 0e3e c8ee 6cbf e4be d63e d515 96bf
00000130: a40d eb41 04fb f43b d1cd 513f 169b 853f
00000140: 73c9 dbbf b0da eb41 3939 803e c9c5 e63f
00000150: 1682 9e3e 8089 94bf 8d98 ec41 7d1b c4bd
00000160: 0522 e13f d597 f4be 0d45 03c0 c3a5 ed41
00000170: 8c3d f03d 1823 1440 d6ce afbc 3739 f040
00000180: 436c e540 d50c 0e41 abeb e340 0bb5 d640
00000190: 007d c140 984b d740 476d e840 350e 7240
000001a0: 6daf e440 cdfd ffbf e67c ef41 9de6 26c1
000001b0: e1d8 0bc0 3ac0 4fc1 d280 92bf d00e e941
000001c0: eaf7 2ac1 a31c 463f f59f 42c1 c4bd bdbf
000001d0: 7b9a e741 0f75 2bc1 3117 8d3f 41e3 4bc1
000001e0: 99ff 87bf b39b e941 e66b 2ec1 06ee 363f
000001f0: e136 4cc1 b43d f7bf 7006 e941 1102 2cc1
00000200: 45a4 0440 a3d9 4bc1 57c1 0941 2c20 ff40
00000210: d3dd 3f41 72b8 2541 573b 0c41 5f29 1e41
00000220: 3465 0741 81b9 2141 36ac d940 57a2 1141
00000230: 26ad d23e 9f82 9dc1 8c7e 2c41 0f12 2040
00000240: 373f fb40 47f9 503e 1f42 95c1 a25c 3241
00000250: 5caf 1340 6f2a e940 52cb 233e 68f1 95c1
00000260: 4d66 2c41 be17 6b40 126b 0e41 b3dc 6d3f
00000270: afbd 97c1 9fb0 3141 f1e5 ea3f c57f 1641
00000280: 407c 243f 69b6 96c1 5a62 3241 157d 00be
00000290: a671 0141 7aef c940 da69 c140 ca3a b340
000002a0: 7c98 c640 3f25 2041 7383 ba40 e807 cc40
000002b0: b24f f340 c695 f840 7d8f 0241 6c38 10c0
000002c0: 0fa5 ef41 28b4 d1be f1d4 45bf f6e3 69be
000002d0: 5550 b6bf 25d0 e641 4ab4 25bf bf54 443f
000002e0: 0df0 ce3e f9d6 c4bf 6209 e841 295f d7be
000002f0: 40f7 fc3f 410d 913d cdea 96bf f0c1 e741
00000300: a37d 31bf b729 653f d70b 8dbf a4e0 e7bf
00000310: 7084 e841 c2e5 03bf a892 1940 0b2d b3be
00000320: e271 de40 6f5b ca40 86c2 0941 ea23 d640
00000330: 5356 c540 87c9 b540 f3b7 c540 7a4c d840
00000340: 0696 5940 be3d d740 ea60 bf3c ae76 953d
00000350: 5cac 09be 533b 38bb b412 e3bd 69f9 523d
00000360: 0903 a03c 4b51 863d ada6 05be 0b9e acbd
00000370: b2c9 12be e122 ca3d 3627 e4bd 42e8 14bc
00000380: e430 e9bd c7bd 033e 126f d63d e497 55bc
00000390: 68b8 a1bd acf6 e03d 376c 273e c22c 09be
000003a0: e2f8 a93c 0e59 d5bd 4c6a 3a3d 30a9 caba
000003b0: 2aa2 babd 8eeb f6bd d488 653d aba9 13be
000003c0: afb4 84bd 9d33 19be e0a2 04be 8b46 8b3d
000003d0: 842e d93d cb53 10c0 41bc ef41 2ba9 aabe
000003e0: fd27 61bf 5543 bcbb 5f7f a5bf 0679 e741
000003f0: c579 2ebf 50c1 4b3f 760a d13e d37c c0bf
-2.2119813 30.12805 -0.07921822 -0.81871057 0.05858451 -1.4362764 28.939608 -0.033351514
0.88972497 0.6945436 -1.8683785 29.198042 -0.06600272 1.8315097 0.036005456 -1.1614953
29.22451 -0.27292246 1.1679325 -0.94485927 -2.0592537 29.344488 -0.10218644 2.3727334
-0.13807389 7.0815606 6.643659 8.901091 7.062581 6.471144 5.9127035 6.369091
7.0090704 3.7968462 6.8885837 -2.1747854 30.16677 0.07301089 -0.6567651 0.09083633
-1.1976597 29.10937 -0.29798678 0.8300507 0.7300778 -1.6922723 29.265905 -0.11307561
1.8602642 0.13034195 -1.1695075 29.182384 -0.3131678 1.1697931 -0.749476 -1.9778577
29.224264 -0.24638541 2.3224094 -0.46036613 7.1895566 6.585219 8.925857 7.006593
6.1846375 5.840055 6.3166394 7.0024676 3.6167872 7.0015116 -2.1105556 30.274723
0.13921128 -0.9255185 0.41942513 -1.1725413 29.38166 0.0074762125 0.81954676 1.0437953
-1.7170852 29.481781 0.25043657 1.8029109 0.30958623 -1.1604462 29.574488 -0.095755555
1.7588507 -0.4777209 -2.0510895 29.705938 0.11730489 2.314642 -0.021460932 7.506984
7.1694655 8.878133 7.122518 6.7096 6.046509 6.7279778 7.2633395 3.7821171
7.1464143 -1.9999329 29.935986 -10.431302 -2.1851122 -12.98443 -1.1445563 29.132233
-10.685526 0.77387446 -12.164052 -1.4823537 28.95043 -10.716079 1.1022702 -12.742982
-1.0624877 29.201025 -10.901342 0.71456945 -12.763398 -1.9315705 29.128143 -10.7505045
2.0725262 -12.740634 8.609702 7.972677 11.991656 10.357531 8.764487 9.8851
8.462208 10.107789 6.802272 9.102134 0.41147727 -19.68878 10.780895 2.5011022
7.8514667 0.20407592 -18.657286 11.147615 2.307578 7.28643 0.1599553 -18.742874
10.774976 3.673324 8.90114 0.92914885 -18.967619 11.10562 1.8351423 9.406194
0.6425209 -18.839067 11.149012 -0.12547715 8.090246 6.310483 6.0441713 5.6009264
6.206114 10.009093 5.828546 6.375965 7.6034784 7.768283 8.160031 -2.2534437
29.955595 -0.4095776 -0.7727805 -0.22840866 -1.4243265 28.851633 -0.64728224 0.7669181
0.4041752 -1.5378104 29.004581 -0.4206479 1.9762955 0.07082606 -1.1790406 28.969696
-0.6933233 0.89516777 -1.1019238 -1.811543 29.064667 -0.5152246 2.3995762 -0.34995303
6.9514017 6.3236613 8.609991 6.691884 6.1667876 5.6808505 6.1787047 6.7593355
3.3997817 6.726287 0.023361642 0.07298027 -0.13444656 -0.0028111532 -0.11087552 0.051507387
0.019532697 0.06558474 -0.13051863 -0.08428582 -0.14334753 0.09869934 -0.111402914 -0.009088578
-0.11386278 0.12865363 0.10470404 -0.013036702 -0.07896501 0.10984549 0.16349874 -0.1339598
0.02074856 -0.104173765 0.04551153 -0.0015461799 -0.091129616 -0.12056647 0.056038693 -0.14420192
-0.06479775 -0.14961095 -0.12952757 0.068005644 0.10604575 -2.2551143 29.96692 -0.3333219
-0.8795164 -0.0057453313 -1.2929496 28.934093 -0.68154556 0.79591846 0.40828294 -1.5038093

net.0.bias f4 [128]
00000000: 01ae 4c40 1dbc 4540 f407 5540 8c01 9bc0
00000010: 5121 1e41 a3df 3440 5ffc 41be 4388 2d40
00000020: cacd 2940 e197 5140 495e 2440 74eb 3140
00000030: 36ce 1a41 44b6 1f41 958f 3240 3583 2c40
00000040: 6de2 2b40 67b4 1c41 dc32 3340 9cdb 1d41
00000050: c334 6a3c c40f 4640 a1b9 19be e34c b63f
00000060: bb48 4740 f375 adc0 7d1f 1f41 4d53 2740
00000070: a19e 2c40 4be1 5240 704a 4a40 f251 2540
00000080: 502b 2840 8e18 2141 d164 1e41 71e7 4740
00000090: 4c3e 3240 8e70 1c41 984a 2840 46e0 2740
000000a0: 0ad1 5940 5f94 1c41 0314 2840 15a6 2740
000000b0: 2d5d aebd e0ec b4bc 7c73 d73f 34c3 66bd
000000c0: 2395 3b40 4e69 0fbd c136 2a40 064d 1cbe
000000d0: 2b6f 1b41 c14e 2340 3abf 2a40 94a5 2640
000000e0: 5e8a 2040 7315 1e41 a50f 43be 67bb 4c40
000000f0: e1ca 1f40 0bdc 1e41 b2f8 5a40 1aa3 68bd
00000100: 2f74 5640 9a5c 5540 e281 2d40 0c89 2140
00000110: 7827 1c41 4c5a 1a41 bf80 2640 c2f6 3a40
00000120: c429 4f40 f6a8 2740 f1ed 1e41 a969 2e40
00000130: b67c 1a41 8e79 2940 baaa 2940 3c32 203d
00000140: ca18 2940 0291 2f40 fef2 2740 32c2 32be
00000150: 29ae 1b41 f0e8 d93f dc26 3240 f7ba 93c0
00000160: 6c56 99c0 2726 2d40 a5dd 2240 0ef5 2240
00000170: feda 2940 2568 5c40 9d5e 5740 c927 4a40
00000180: 0825 18bd 8e8d 2340 f5fe 1d41 208b 2f40
00000190: 2638 1f41 7c4e 3940 4e79 2a40 0d7e 3140
000001a0: 2e05 2241 0203 2440 c634 1d40 b1fb 2140
000001b0: 1b98 2840 3983 3640 b39d 2b40 872e 1b41
000001c0: 9995 2d40 cdd2 92c0 eed2 1e41 a7ad 1b41
000001d0: 2179 1a41 1a9c 5a40 eca3 5740 0cd7 c33f
000001e0: 2cce 2a40 accb 5c40 509f 1d41 148d 1f41
000001f0: 1b25 3b40 0a0c 2441 5c25 3440 a58b 5240
3.1981204 3.0896065 3.3286104 -4.843939 9.883134 2.8261497 -0.18943928 2.7114418
2.6531854 3.274895 2.5682547 2.779996 9.675344 9.981998 2.7900136 2.6955082
2.685695 9.794044 2.7999792 9.866116 0.014294806 3.0947123 -0.15012218 1.4242214
3.113814 -5.420648 9.945188 2.6144593 2.697182 3.2950008 3.1607933 2.5831265
2.6276436 10.068495 9.899613 3.123501 2.7850523 9.777479 2.6295528 2.6230636
3.4033837 9.786223 2.6262214 2.6195118 -0.085138656 -0.022085607 1.6832118 -0.056338504
2.9309776 -0.035012536 2.659592 -0.15263757 9.714641 2.5516818 2.6679215 2.603856
2.5084453 9.880237 -0.19048937 3.1989381 2.4967577 9.928721 3.4214292 -0.05679617
3.3508413 3.333777 2.7110524 2.5239897 9.759636 9.647045 2.601608 2.921311
3.2369242 2.6196876 9.933091 2.725199 9.655447 2.648044 2.6510453 0.039110407
2.642138 2.7432256 2.624206 -0.17456892 9.73002 1.7024212 2.7836218 -4.616573
-4.7917995 2.7054536 2.544778 2.546207 2.6539912 3.4438565 3.3651497 3.1586783
-0.03714469 2.5555148 9.874745 2.7428665 9.951208 2.8954153 2.6636539 2.7733185
10.126265 2.5626836 2.456346 2.530987 2.6342838 2.8517592 2.6815002 9.698859
2.7122557 -4.5882325 9.9264965 9.729896 9.6545725 3.4157777 3.36938 1.5300002
2.6688337 3.4499311 9.851395 9.971943 2.9241397 10.252939 2.8147802 3.2897732

net.2.weight f4 [128, 128]
00000000: fa0d a140 cec6 9e40 4659 a140 7491 4bc1
00000010: 67d8 2040 c284 3640 1d31 be3b 0dac 3640
00000020: 0fd3 1c40 e578 a140 d205 1240 ad97 4d40
00000030: f576 3040 b51b 2940 2301 0f40 b21b 1540
00000040: d3f6 2e40 9bff 3340 546c 4b40 1813 1b40
00000050: 6533 9abd 50fe a140 3bad 673d c660 0e41
00000060: 7c47 a140 be53 54c1 f239 1740 c6f1 2240
00000070: 8527 ef3f eefe 9c40 e8b6 9c40 abb2 f83f
00000080: 0510 e33f c917 2640 c0b3 1b40 75d9 a240
00000090: 1565 5940 7147 2740 44a2 4140 5352 fd3f
000000a0: c8e4 9f40 65ee 2540 6e2c ff3f ffc5 4140
000000b0: 0d22 b53c 2adc 483d bf93 1741 fa95 c03c
000000c0: 80c6 9040 e506 3b3d b314 3640 8e8e 4f3d
000000d0: 6500 2840 00c3 3740 e538 1940 ec2f df3f
000000e0: 5a83 1440 060f 1940 b890 383d 0312 9e40
000000f0: 5201 4d40 81cd 2540 c5fe 9e40 c10f 423d
00000100: d630 9b40 85f8 a440 f1ac 5240 10e6 873f
00000110: 43d4 1d40 0006 2f40 48e7 7f40 edcc 8f40
00000120: 2f4f a140 e0d4 b23f e04a 2340 89af 8a40
00000130: 8d8c 3040 1cc2 3240 eafb 3740 b96f b2bd
00000140: fb9d 2f40 aac9 ca3f b9ca 3340 989c 543d
00000150: c505 2b40 9b23 1641 27dd 9440 f887 53c1
00000160: c6e8 4dc1 7ada bb3f a031 fc3f 21e8 4b40
00000170: fa4d 2440 0d79 a240 5d20 a040 03b5 a040
00000180: be73 9fbd 6561 0c40 5353 1c40 9d82 6240
00000190: c3e3 2140 52a5 8d40 8e7b c73f c0a8 1d40
000001a0: ccf8 1540 c832 6440 db78 aa3f d634 ff3f
000001b0: eff9 4740 4f4c 6a40 c198 3640 910f 2640
000001c0: 2b3d ef3f 6a45 4cc1 3b98 1c40 a5d0 2c40
000001d0: 3664 2640 fce1 a040 9933 9d40 92d1 1641
000001e0: b631 2040 f76a 9e40 545f 2440 bf44 2440
000001f0: 17e4 9f40 7825 2040 f00a 9140 9c29 a240
00000200: dc30 9e40 4162 9e40 7762 a140 f871 4ec1
00000210: 96cc 3940 e909 2240 a7e9 d63c 87ef 2640
00000220: 5a8e 1740 fc26 a540 a8e4 0740 eccf 4c40
00000230: 7642 4540 1c96 3b40 e2a2 0440 424a 1040
00000240: 3b47 2640 507f 4540 f58c 3a40 56bf 3a40
00000250: e1a8 adbd 8e9c a440 4169 66bb 0415 0f41
00000260: e035 a340 01db 55c1 891c 2f40 5247 1d40
00000270: 68bd e93f f5d3 a140 5eca a140 1102 fe3f
00000280: 0b65 f23f d700 4240 a0a6 3640 6afc a140
00000290: fdcf 4940 6a07 3a40 c436 3c40 3594 eb3f
000002a0: 162d a140 6bfe 3840 283b fd3f 03e6 3740
000002b0: 9977 1e3b 91e9 e73c 7eb1 1541 e109 213d
000002c0: 27d1 8e40 ba9a 11bd 82cb 2f40 d449 143c
000002d0: 1015 3d40 2375 2d40 54bb 0740 55d9 eb3f
000002e0: 753f 1040 015b 2e40 f892 95bd 9ff1 a340
000002f0: bd91 3e40 3349 3e40 41ee 9e40 003b 28bd
00000300: ccd0 9e40 e983 a640 6d92 4140 e6f9 8b3f
00000310: e868 3040 54d2 4540 4f09 8540 cd18 8a40
00000320: 295e a340 38da 8f3f 4a85 4240 75dd 8740
00000330: 3513 4340 2151 2340 c361 2440 3306 c83c
00000340: 769b 2a40 4573 d43f 846a 2b40 5ae3 e03c
00000350: e9ca 3f40 7895 1341 dd0b 9540 9cfd 53c1
00000360: 61dc 4fc1 5660 bc3f 5d21 0340 d974 3a40
00000370: 21b1 1d40 eb88 a340 59bd a040 3247 a340
00000380: e9c0 023d e6bd 0c40 f257 3040 83d4 5040
00000390: b989 3940 2d4b 8b40 6cb5 bd3f 028c 1840
000003a0: a3d1 2e40 62fb 5740 eafd a03f d73c ec3f
000003b0: c423 4a40 8e05 6d40 ab41 2a40 6a00 3f40
000003c0: d765 fb3f 9175 4dc1 e133 3540 d08b 4340
000003d0: 664d 3840 5788 a840 c7c3 a240 d669 1441
000003e0: 434b 1640 11f2 a240 3b69 4140 c466 4240
000003f0: 0045 9e40 cd98 3340 5a16 9540 4bdb a440
5.032956 4.961768 5.0421476 -12.723011 2.5132082 2.851853 0.0058041946 2.8542511
2.450382 5.0460076 2.2816052 3.2123826 2.7572606 2.642316 2.2344444 2.3298154
2.733815 2.812476 3.1784868 2.4230404 -0.07529334 5.062294 0.05656169 8.898626
5.039976 -13.270445 2.3629117 2.5460067 1.8683935 4.9061193 4.8973274 1.9429525
1.7739264 2.5952017 2.432846 5.089045 3.3967946 2.6137354 3.025529 1.9790748
4.9966774 2.5926754 1.9935434 3.0277097 0.022110963 0.04903809 9.473571 0.023509014
4.524231 0.045660872 2.8450134 0.05067306 2.625024 2.8712769 2.3940976 1.74365
2.320517 2.391542 0.04505989 4.9396987 3.2032056 2.590668 4.9686 0.047378305
4.8497114 5.155337 3.2918055 1.0617085 2.4660804 2.7347412 3.9984913 4.4937654
5.040916 1.3971214 2.551445 4.3339276 2.7585785 2.7930975 2.8747506 -0.08712716
2.7440174 1.5842793 2.8092482 0.051907152 2.6722271 9.383693 4.651996 -13.2206955
-12.869329 1.4676049 1.9702644 3.186043 2.5672593 5.0772767 5.0039506 5.022096
-0.07785748 2.1934445 2.4425857 3.539222 2.5295265 4.4264307 1.5584581 2.4634247
2.3433104 3.5655994 1.3318132 1.9937999 3.1246297 3.6609075 2.8530734 2.5947
1.8690542 -12.766947 2.4467914 2.7002347 2.5998664 5.027586 4.9125485 9.426165
2.503034 4.950557 2.5683184 2.566696 4.996593 2.502287 4.532585 5.0675793
4.9434643 4.949494 5.0432696 -12.902824 2.903112 2.5318549 0.026234461 2.6083696
2.3680634 5.161009 2.123331 3.2001905 3.0821815 2.931037 2.0724416 2.2545323
2.5980976 3.0858955 2.9148533 2.9179282 -0.08479477 5.1441107 -0.003515795 8.942631
5.1003265 -13.365968 2.7361166 2.457478 1.8260927 5.0571237 5.055953 1.9844381
1.8937086 3.0313013 2.85392 5.0620623 3.1533196 2.9067025 2.9408426 1.8404604
5.0367537 2.8905284 1.9783678 2.8734138 0.0024180172 0.028309615 9.355833 0.039316062
4.4630313 -0.03554795 2.7467961 0.009050805 2.9544106 2.7102745 2.1208086 1.84257
2.253873 2.7243044 -0.07303423 5.123245 2.9776452 2.9732177 4.9665837 -0.04107189
4.962988 5.2036023 3.0245621 1.0935638 2.756403 3.0909624 4.1573863 4.3155274
5.105244 1.123847 3.0393853 4.2457833 3.0480473 2.5518267 2.568467 0.024417019
2.6657386 1.6597677 2.6783762 0.02745216 2.9967597 9.223991 4.657698 -13.249416
-12.991303 1.4716899 2.0489113 2.9133818 2.463936 5.1104636 5.0231137 5.102441
0.031922255 2.1990905 2.7553678 3.2629707 2.899031 4.3529267 1.482099 2.3835454
2.7315452 3.3747182 1.2577488 1.8456067 3.158433 3.703464 2.660258 2.9844003
1.9640454 -12.841203 2.8312914 3.0554085 2.879724 5.266643 5.0863986 9.275839
2.3483436 5.092049 3.0220478 3.0375223 4.945923 2.8062012 4.6589785 5.151769

net.2.bias f4 [128]
00000000: 1ccd 33bf 150f 83be 2250 0bc1 330c d5be
00000010: f709 3b3d 944c 1f40 869f 97bc 9a03 8040
00000020: a2f0 7e40 0d81 b2bd 5321 0e41 ab72 9abf
00000030: 997d b1bd f7f8 21bf c268 7e40 eaf5 a23c
00000040: c358 7f40 18ed 14bf 51a0 09bf b2e9 cebe
00000050: 2312 d4bc dd29 8340 c58d e83c 31bd cfc0
00000060: a742 ffc0 a058 09c1 6a54 aabd 24a8 7740
00000070: be33 7d40 180e a43f ddfe 8140 620e a7bd
00000080: b443 08bd 5866 25bd 8404 7f40 ea47 63bf
00000090: 56a2 803d 02d0 2340 e44f 7b40 a308 1241
000000a0: dca2 1440 6d47 a1bb 7ce4 63bd 5f04 acbc
000000b0: 63e3 8440 8eaa 8240 053a 8b3d f6e5 d3bf
000000c0: 854d cec0 d76f f63c 1136 b6be 1c84 3cbf
000000d0: 035a aabb b8b8 10bf 41c0 8140 b4a4 75bc
000000e0: b1c5 02bd f50f 8140 45c5 0cbf 349f 0bc1
000000f0: dd27 933c e69d abc0 0055 85be 8f96 a6be
00000100: c7c8 f2c0 3637 f9bc 00c7 7840 0ca6 7f40
00000110: 7061 1e40 a904 1b40 349a a6bd d07a 7840
00000120: daae 803c f4e4 debd 731b 8340 4480 04c1
00000130: ff08 7c40 7a5a 7340 e807 53c0 dff9 a33f
00000140: 807f 0bbf f81a 05bd 036c 7440 b2dc 0ebf
00000150: a567 943d c8d8 09bd ecb7 c03c f9f7 1c40
00000160: 8600 8140 b27c 24bd b8ff e8c0 6f0d 98c0
00000170: 2ff5 8838 ed33 633e 06ba 61bd 722b 8240
00000180: 5727 e2c0 affc 693c 77e9 7f40 f77d c3bd
00000190: eb38 a6bd 26bb 0ac1 5c9d 44c0 2ca3 0241
000001a0: c357 edbc 6be8 c7c0 961e 043d 255f f4c0
000001b0: 5cd7 fa3f 33a6 1f3c 20c4 2140 0ef6 7b40
000001c0: c082 f5be ba06 6ebd 7e36 f1be 4cbe 4f3e
000001d0: 419f 08c1 9e36 aac0 6e70 743c fe22 30bf
000001e0: bb85 b3c0 927f cec0 9cce 06c1 8283 9cbd
000001f0: 8af7 7e40 a78d c6bd 6995 f2be d98d 2240
-0.7023485 -0.25597444 -8.707064 -0.4161087 0.0456638 2.489049 -0.018508684 4.0004396
3.983437 -0.08716021 8.883136 -1.2066244 -0.08666534 -0.63270515 3.975144 0.019892652
3.9897926 -0.58174276 -0.5376025 -0.4041267 -0.025887555 4.0988603 0.028387913 -6.4918447
-7.9768863 -8.584137 -0.08316882 3.8696375 3.956283 1.2816801 4.0623612 -0.0815704
-0.03326769 -0.040380806 3.9846506 -0.8878161 0.06280963 2.5595708 3.9267511 9.127109
2.3224401 -0.0049218447 -0.05563782 -0.020998178 4.152757 4.0833197 0.06798176 -1.6554554
-6.446963 0.030082626 -0.35588124 -0.7363908 -0.0051987185 -0.5653186 4.0547185 -0.014992882
-0.031926814 4.033198 -0.5498851 -8.726368 0.017963344 -5.3630247 -0.26041412 -0.32536742
-7.587009 -0.030421834 3.887146 3.9945097 2.474697 2.4221594 -0.08134881 3.8824959
0.015708376 -0.10883513 4.0971007 -8.281315 3.938049 3.8023973 -3.2973576 1.281063
-0.54491425 -0.032496423 3.8190925 -0.55805504 0.07246331 -0.033654004 0.0235252 2.452635
4.031314 -0.04015798 -7.2812157 -4.75164 6.530654e-05 0.22187777 -0.055109046 4.0678034
-7.067302 0.014281436 3.9986246 -0.0954551 -0.08116325 -8.670691 -3.0721045 8.164837
-0.028972512 -6.2471213 0.03225573 -7.6366143 1.9596972 0.009744215 2.5275955 3.936893
-0.47951317 -0.058111884 -0.47111887 0.20287436 -8.53888 -5.319167 0.014919383 -0.68803394
-5.6100745 -6.4530725 -8.425442 -0.076422706 3.9838586 -0.09694987 -0.47379616 2.5399077

net.4.weight f4 [20, 128]
00000000: 5016 a2bf 773a 87bf 6b67 f440 8fd9 8bbf
00000010: d801 8dbc 42d7 9a40 1585 7a3d 64be 8040
00000020: 5c8d 9340 78f0 0cbd 533c 0940 20d0 a9bf
00000030: 3753 f03c 7a07 9fbf 84ba 8e40 2a2a 6bbc
00000040: 7049 8740 2767 70bf aa78 86bf f192 82bf
00000050: 3fc8 40bd c311 8440 e25a 8abd 5628 e740
00000060: c101 f140 8928 ef40 238e 1e3c 806f 8a40
00000070: 93ae 9440 14f0 9840 301d 8c40 8f66 fb3b
00000080: 7d00 3d3a bab0 493d 7288 8740 5d07 a5bf
00000090: a066 8dbd d766 9840 17f1 8d40 f9ca 1040
000000a0: 2083 9540 3c69 16bc 23eb 1b3d 0c61 42bb
000000b0: 7652 9040 36d4 8940 b323 93bd e395 a240
000000c0: f01a eb40 98b7 ad3d 18bb 85bf c30b 90bf
000000d0: a89e 70bf d018 92bf 2111 8840 813b 973d
000000e0: f753 acbc 17a3 9140 8ad2 69bf 4b11 f340
000000f0: 9c29 653d 6bf2 da40 ea57 82bf 99f8 67bf
00000100: 8cfc ec40 83be 03bd ca2e 8a40 3fa7 8740
00000110: 5a33 9940 98b8 9940 2d74 2f3d e3dd 8040
00000120: 4692 2fbd 4f3d 7abf d36c 8a40 5273 f140
00000130: 16b4 8e40 6f2a 6d40 d165 c040 c8f9 9440
00000140: a8a8 99bf 2dee 82bb 1cdb 8d40 2fba 8bbf
00000150: 0505 8cbb f96f a43d 9c32 a93d e576 9340
00000160: 1ff9 8d40 8538 1e3d a0eb ed40 9823 d640
00000170: 60e0 ac3d 8976 9340 5c9a 5f3d 8227 8d40
00000180: a943 e940 bf5d 49bd 6f94 8a40 e224 97bc
00000190: 2cea 8c3d 72bf f040 c322 bc40 372e b83f
000001a0: be7a 4bbc 5fe1 e740 d6be 893c 4ee9 ed40
000001b0: dd8e 9640 9241 d93c cb7d 9740 3333 8540
000001c0: 7ae4 8fbf b9a5 97bd dc8c 95bf 8dee 6ebe
000001d0: e9b9 f040 06ac dc40 2796 1d3d 645e 8dbf
000001e0: d82a e440 45d1 e540 890f f540 f96a 11bd
000001f0: fe04 8540 1c00 a33d 6594 96bf 6da5 9940
00000200: 37cd 20bf bdd9 e9be 08af de40 ef7d 34bf
00000210: 4bf0 86bd fd7e 8e40 976b b4bc cc36 8040
00000220: e36a 8940 f975 6d3d 4f75 b43e dff2 69bf
00000230: e735 bcbc c2e1 20bf cf1d 8640 9045 f33b
00000240: 5156 8240 4095 e8be 5bd8 06bf 4543 09bf
00000250: e0a7 9b3d 2591 8140 bc3f 1f3d 13dc e040
00000260: 633f dd40 62d9 db40 2eb5 a93d e7ef 8240
00000270: 81b3 8a40 ad23 9040 421d 8740 d18e aa3d
00000280: 27cb 343d 1483 0dbd 959e 8440 1025 3dbf
00000290: d6a4 54bd 3306 8d40 06c4 8540 defd 163f
000002a0: df34 8e40 a333 213c f463 253d 729d 0cbd
000002b0: 7eae 8840 57f0 8440 0d55 8abd bbc0 b940
000002c0: 9abe e240 02ff e23b a40b 00bf d18c 10bf
000002d0: cd46 12bf 80f2 33bf 0f0e 8840 9995 96bd
000002e0: 3595 f63c 3ffb 8a40 bd88 f6be 6b9a de40
000002f0: 3e56 2d3d 15a6 e040 291e fabe ef87 efbe
00000300: 6d78 df40 0b64 ae3d 03a9 8540 0c24 8340
00000310: 5542 8c40 53f5 8c40 eaed dfbb f608 7740
00000320: d7b9 a6bc cea8 eabe c122 8740 99fe db40
00000330: d259 8740 aae9 6b40 749b d440 a85a 9040
00000340: bff0 39bf 2047 6dbc a61b 8840 7c9b 2bbf
00000350: 4842 2fbd 4ac0 70bd e7f1 5a3d 220a 8a40
00000360: 8fa3 8840 0321 3ebd 77f8 e140 c1a6 df40
00000370: b310 213d 0ab6 9940 e47d 2c3d a9a1 8540
00000380: e535 e040 7ee6 893d f1dd 8340 5e5e a8bd
00000390: 05b0 77bd 0aec dc40 421c d240 1b17 383f
000003a0: 95ac 9ebd 3d74 e440 e1a3 873d f9dd de40
000003b0: 3625 8c40 ed31 513d 15ef 8c40 e5b9 8140
000003c0: d860 00bf a58b 503d 2374 25bf 10b3 99be
000003d0: 3295 dc40 5043 e240 b320 a53d 05bf 15bf
000003e0: c93e e040 8028 e440 f632 db40 8d2e d8bc
000003f0: 24e7 8040 f61c 99bd eba1 17bf 81a6 8b40
-1.2663059 -1.0564717 7.6376243 -1.0925769 -0.017212793 4.8387766 0.061162073 4.023241
4.611006 -0.034409016 2.144307 -1.326664 0.029336555 -1.2424157 4.460268 -0.014353314
4.2277145 -0.939074 -1.0505574 -1.0201093 -0.04706597 4.127168 -0.06755616 7.223674
7.531464 7.473698 0.009677443 4.326111 4.6463103 4.7793064 4.378563 0.007672138
0.00072098506 0.049240805 4.235406 -1.2892872 -0.0690434 4.7625537 4.43568 2.2623885
4.6722565 -0.009180363 0.03806604 -0.0029659895 4.510066 4.3071547 -0.071845435 5.0807967
7.3470383 0.08482283 -1.0447721 -1.1253589 -0.9399209 -1.1413822 4.252091 0.07384396
-0.021036131 4.5511584 -0.9133688 7.595861 0.055947885 6.842092 -1.0183079 -0.90613705
7.4058285 -0.032164108 4.3182116 4.239166 4.7875185 4.8037834 0.042835403 4.027086
-0.042864107 -0.977498 4.325784 7.545327 4.459483 3.705715 6.0124288 4.655491
-1.2004595 -0.003995678 4.4329967 -1.0916194 -0.0042730593 0.080291696 0.08261606 4.6082635
4.4366603 0.03862812 7.435013 6.691845 0.08441234 4.6082196 0.054590568 4.4110727
7.2895093 -0.04916167 4.3306193 -0.018450204 0.06880602 7.52337 5.8792434 1.4389104
-0.012419401 7.246261 0.01681463 7.4347296 4.7049394 0.026520524 4.7341056 4.1625
-1.12416 -0.07404656 -1.1683612 -0.23333187 7.522694 6.895999 0.038473275 -1.1044431
7.13023 7.1817956 7.6581464 -0.035502408 4.1568594 0.07959005 -1.1764036 4.8014436
-0.62813133 -0.45673934 6.958866 -0.7050466 -0.06588801 4.4530015 -0.02202396 4.006689
4.2942977 0.057973836 0.3524575 -0.91386217 -0.022974921 -0.6284448 4.1911387 0.007424064
4.0730367 -0.4542637 -0.5267388 -0.5361827 0.07600379 4.048968 0.03887914 7.0268645
6.9139876 6.870286 0.082865104 4.091785 4.334412 4.504355 4.2223215 0.08328021
0.044139054 -0.034548834 4.144358 -0.7388468 -0.051915012 4.4070067 4.1801786 0.5898112
4.443954 0.009838971 0.040378526 -0.03432984 4.2713003 4.1543384 -0.067545034 5.8047767
7.085767 0.006927372 -0.5001776 -0.5646487 -0.57139283 -0.702919 4.251716 -0.07352752
0.030100444 4.3431697 -0.48151198 6.95635 0.042318575 7.0202737 -0.48851135 -0.46783397
6.9834504 0.085151754 4.1768813 4.0981503 4.383097 4.404947 -0.0068337815 3.859922
-0.020352287 -0.45831913 4.2229924 6.874829 4.2297144 3.6861367 6.643976 4.5110664
-0.72632974 -0.01448229 4.253375 -0.67034125 -0.04278782 -0.05877713 0.053453352 4.313737
4.2699656 -0.0464182 7.06158 6.9891057 0.039322566 4.8034716 0.042112246 4.175984
7.006579 0.06733416 4.1208425 -0.08221124 -0.0604706 6.9038134 6.5659494 0.71910256
-0.07747761 7.1391892 0.06623054 6.9645963 4.3795424 0.051073004 4.404185 4.053942
-0.5014777 0.050914425 -0.64630336 -0.30019426 6.8932123 7.070717 0.080628775 -0.584946
7.007664 7.129944 6.849971 -0.026389385 4.0282154 -0.07476227 -0.5923144 4.364075

net.4.bias f4 [20]
00000000: f1b3 0940 3bd4 f03f 23a2 e33f e479 f13f
00000010: 05d9 a53f 228c ab3f 5173 d03f 689c da3f
00000020: c565 e7bc 1f99 ff3f 792c 9e3e a43b fe3e
00000030: ef7e 4b3f c3fd c53e ceaf 823f b048 c0be
00000040: 1c94 ea3e f6bf 1b3b fbce 413f 3c5a 863d
2.1516078 1.8814768 1.7783855 1.8865323 1.2956854 1.340214 1.6285192 1.7078981
-0.02824677 1.9968604 0.30893305 0.49654877 0.7949056 0.38670167 1.0209901 -0.37555456
0.45816123 0.002376554 0.7570645 0.065601796
