realtime_model_ep405.pth (torch, 97610 bytes, 6 tensors)

net.0.weight f4 [128, 35]
-2.5654073 31.301025 -0.44463155 -0.34852558 -0.340614 -1.6362286 29.26222 -0.699126
1.8841224 0.59896326 -2.060329 29.600603 -0.6851527 2.2974086 -0.14646928 -1.3402597
29.587595 -0.9091275 1.3473947 -0.5895356 -2.2266085 29.675032 -0.7721211 2.680207
-0.5256581 6.813446 6.421398 8.642963 6.822316 6.2319407 5.727181 6.1027756
6.7387896 3.6167676 6.673254 -2.528277 31.33794 -0.29256618 -0.18730746 -0.3077445
-1.3974097 29.42984 -0.9646253 1.8245397 0.63537294 -1.8840688 29.666351 -0.7330023
2.3260021 -0.051961154 -1.3480928 29.543297 -0.95017356 1.3495904 -0.3941268 -2.145015
29.552727 -0.91716 2.629842 -0.84697974 6.9211907 6.362651 8.667397 6.7660055
5.945136 5.6542683 6.0500855 6.731842 3.4363875 6.785894 -2.4635863 31.453005
-0.21511556 -0.4514775 0.01841253 -1.3734287 29.710472 -0.6443407 1.8139491 0.94623554
-1.909858 29.890177 -0.3551931 2.270516 0.12823838 -1.3401332 29.943682 -0.7182559
1.9377373 -0.118950725 -2.2193623 30.042362 -0.53883356 2.6239178 -0.4099613 7.2401743
6.948654 8.621091 6.883529 6.4717636 5.862568 6.4630446 6.9946933 3.6041172
6.9327545 -2.3523078 31.02975 -9.516683 -1.6511974 -12.823733 -1.344032 29.358904
-10.236529 1.8499846 -11.826567 -1.6747243 29.259434 -10.210634 1.7125474 -12.672653
-1.2415655 29.466524 -10.403834 1.118299 -12.183018 -2.1003108 29.36597 -10.300524
2.3868208 -12.741771 8.469503 7.8719015 11.88362 10.251943 8.651433 9.803003
8.315372 9.9647045 6.6995807 9.009822 0.7661353 -20.628613 10.702961 1.9947543
7.974113 0.40298715 -18.751192 11.532509 1.270287 7.20007 0.35072103 -18.923225
11.099246 3.149828 9.004117 1.1059166 -19.098072 11.446581 1.5360945 9.026375
0.8089653 -18.944838 11.539861 -0.39477453 8.312503 6.54299 6.2380223 5.810467
6.410535 10.222113 6.003122 6.6143317 7.8468823 7.95562 8.352782 -2.6075525
31.1068 -0.7609402 -0.30807015 -0.6128322 -1.6220902 29.147257 -1.3095505 1.7642715
0.32252446 -1.7279408 29.380798 -1.0349714 2.4437485 -0.10565825 -1.3557823 29.30533
-1.3249266 1.081469 -0.74188185 -1.9769746 29.369022 -1.1813709 2.707781 -0.72196347
6.6826453 6.100216 8.351106 6.4511924 5.9267054 5.494025 5.911767 6.4878235
3.217779 6.5097246 0.023361642 0.07298027 -0.13444656 -0.0028111532 -0.11087552 0.051507387
0.019532697 0.06558474 -0.13051863 -0.08428582 -0.14334753 0.09869934 -0.111402914 -0.009088578
-0.11386278 0.12865363 0.10470404 -0.013036702 -0.07896501 0.10984549 0.16349874 -0.1339598
0.02074856 -0.104173765 0.04551153 -0.0015461799 -0.091129616 -0.12056647 0.056038693 -0.14420192
-0.06479775 -0.14961095 -0.12952757 0.068005644 0.10604575 -2.6092284 31.118366 -0.6855572
-0.4147955 -0.39048952 -1.4907334 29.230038 -1.3445704 1.7931584 0.3262797 -1.6939644
00000000: a22f 24c0 8068 fa41 bfa6 e3be f271 b2be
00000010: f564 aebe f06f d1bf 0719 ea41 ecf9 32bf
00000020: ec2a f13f a855 193f 6edc 03c0 09ce ec41
00000030: 2b66 2fbf be08 1340 0bfc 15be a18d abbf
00000040: 65b3 ec41 94bc 68bf 6e77 ac3f ceeb 16bf
00000050: c180 0ec0 7766 ed41 baa9 45bf 8388 2b40
00000060: 8791 06bf c007 da40 187c cd40 9449 0a41
00000070: 6a50 da40 0f6c c740 1145 b740 f049 c340
00000080: 2aa4 d740 1f79 6740 4c8b d540 4acf 21c0
00000090: 1ab4 fa41 3ccb 95be 87cd 3fbe b090 9dbe
000000a0: 52de b2bf 5070 eb41 aff1 76bf 848a e93f
000000b0: cda7 223f 2b29 f1bf b054 ed41 0aa6 3bbf
000000c0: 38dd 1440 38d5 54bd 4e8e acbf ac58 ec41
000000d0: 933e 73bf 61bf ac3f fdca c9be ed47 09c0
000000e0: fc6b ec41 ffca 6abf 554f 2840 aad3 58bf
000000f0: 657a dd40 d69a cb40 a8ad 0a41 1e83 d840
00000100: 8e3e be40 c4ef b440 4d9a c140 406b d740
00000110: c6ed 5b40 0b26 d940 66ab 1dc0 c19f fb41
00000120: 4147 5cbe 0f28 e7be e0d5 963c 83cc afbf
00000130: 0caf ed41 83f3 24bf 7c2f e83f 7e3c 723f
00000140: 3a76 f4bf 151f ef41 dfdb b5be 2250 1140
00000150: ec50 033e 7c89 abbf a98c ef41 9edf 37bf
00000160: c707 f83f 709c f3bd 080a 0ec0 c256 f041
00000170: fff0 09bf 45ee 2740 73e6 d1be 82af e740
00000180: 605b de40 fdef 0941 df45 dc40 b018 cf40
00000190: 289a bb40 43d1 ce40 87d4 df40 dba9 6640
000001a0: 20d9 dd40 368c 16c0 ee3c f841 5544 18c1
000001b0: 705a d3bf 032e 4dc1 3e09 acbf 09df ea41
000001c0: d3c8 23c1 4ccc ec3f 9e39 3dc1 5e5d d6bf
000001d0: 5213 ea41 c25e 23c1 c134 db3f 30c3 4ac1
000001e0: 9eeb 9ebf 71bb eb41 1b76 26c1 6c24 8f3f
000001f0: a4ed 42c1 7e6b 06c0 82ed ea41 f2ce 24c1
00000200: acc1 1840 4bde 4bc1 1683 0741 9ee6 fb40
00000210: 4f23 3e41 f507 2441 456c 0a41 1ad9 1c41
00000220: c40b 0541 6e6f 1f41 f762 d640 3b28 1041
00000230: 7121 443f 6607 a5c1 543f 2b41 1c54 ff3f
00000240: ef2b ff40 5554 ce3e 7102 96c1 2885 3841
00000250: c498 a23f f966 e640 b591 b33e c462 97c1
00000260: 8396 3141 c896 4940 dd10 1041 ad8e 8d3f
00000270: dac8 98c1 3225 3741 bf9e c43f 086c 1041
00000280: 5a18 4f3f 078f 97c1 45a3 3841 e31f cabe
00000290: 0300 0541 2d60 d140 e19d c740 58ef b940
000002a0: 1a23 cd40 c68d 2341 9319 c040 9ba8 d340
000002b0: a919 fb40 7094 fe40 ffa4 0541 24e2 26c0
000002c0: bada f841 facc 42bf 5fbb 9dbe 92e2 1cbf
000002d0: a7a0 cfbf 952d e941 5a9f a7bf a6d3 e13f
000002e0: ed21 a53e 2a2d ddbf e00b eb41 f179 84bf
000002f0: 6066 1c40 5a63 d8bd 468a adbf 5171 ea41
00000300: 3297 a9bf 946d 8a3f f8eb 3dbf 810d fdbf
00000310: c2f3 ea41 2937 97bf 494c 2d40 99d2 38bf
00000320: 3bd8 d540 f834 c340 219e 0541 2b70 ce40
00000330: 92a7 bd40 0ecf af40 322d bd40 409c cf40
00000340: 17f0 4d40 aa4f d040 ea60 bf3c ae76 953d
00000350: 5cac 09be 533b 38bb b412 e3bd 69f9 523d
00000360: 0903 a03c 4b51 863d ada6 05be 0b9e acbd
00000370: b2c9 12be e122 ca3d 3627 e4bd 42e8 14bc
00000380: e430 e9bd c7bd 033e 126f d63d e497 55bc
00000390: 68b8 a1bd acf6 e03d 376c 273e c22c 09be
000003a0: e2f8 a93c 0e59 d5bd 4c6a 3a3d 30a9 caba
000003b0: 2aa2 babd 8eeb f6bd d488 653d aba9 13be
000003c0: afb4 84bd 9d33 19be e0a2 04be 8b46 8b3d
000003d0: 842e d93d 99fd 26c0 6af2 f841 ad80 2fbf
000003e0: 1360 d4be 3eee c7be 5ad0 bebf 1ed7 e941
000003f0: e21a acbf 3786 e53f 220e a73e d3d3 d8bf

net.0.bias f4 [128]
2.9739227 2.8653898 3.105461 -4.923326 10.075222 2.604051 -0.18943928 2.4892263
2.4322731 3.0511386 2.3477616 2.5570736 9.867439 10.173868 2.5695276 2.474405
2.4635572 9.985792 2.5770006 10.05858 0.014294806 2.870823 -0.15012218 1.5913438
2.889715 -5.5539746 10.138044 2.3928623 2.4773104 3.071578 2.9377584 2.3630755
2.4078422 10.260451 10.090813 2.9001567 2.5630252 9.969656 2.4073706 2.4029682
3.1799326 9.97781 2.4060338 2.3968456 -0.085138656 -0.022085607 1.8593065 -0.056338504
2.7066867 -0.035012536 2.437426 -0.15263757 9.905968 2.3293612 2.4470346 2.38404
2.287674 10.072826 -0.19048937 2.9760053 2.2738159 10.120267 3.1984515 -0.05679617
3.1277776 3.109456 2.4874642 2.305997 9.951466 9.839057 2.3793128 2.698024
3.0132039 2.4025154 10.125408 2.501806 9.84769 2.4260883 2.4287398 0.039110407
2.42021 2.5238972 2.402134 -0.17613976 9.922001 1.8788612 2.5592093 -4.69526
-4.871818 2.4860206 2.3241765 2.3232808 2.4320571 3.2207055 3.1420207 2.9352272
-0.03714469 2.3345037 10.067403 2.5186691 10.143614 2.6707451 2.4444246 2.5521536
10.319193 2.338224 2.237508 2.31248 2.4117448 2.62859 2.4591258 9.891149
2.4924777 -4.6669626 10.119237 9.921587 9.846577 3.1919765 3.1460955 1.7060254
2.4473863 3.2262955 10.043614 10.163899 2.6998677 10.44541 2.590783 3.0660071
00000000: c054 3e40 8c62 3740 dfbf 4640 e38b 9dc0
00000010: 1c34 2141 c6a8 2640 5ffc 41be 7c4f 1f40
00000020: 5daa 1b40 db45 4340 ba41 1640 18a7 2340
00000030: 08e1 1d41 2ac8 2241 2473 2440 a75c 1e40
00000040: ecaa 1d40 cec5 1f41 94ed 2440 f2ef 2041
00000050: c334 6a3c 90bb 3740 a1b9 19be 27b1 cb3f
00000060: 17f1 3840 29ba b1c0 6e35 2241 a824 1940
00000070: 418c 1e40 bc94 4440 3c04 3c40 a13c 1740
00000080: 161a 1a40 cf2a 2441 f873 2141 2b9c 3940
00000090: 9b08 2440 b683 1f41 5c12 1a40 3bca 1940
000000a0: 0484 4b40 1ca5 1f41 75fc 1940 eb65 1940
000000b0: 2d5d aebd e0ec b4bc c1fd ed3f 34c3 66bd
000000c0: 5b3a 2d40 4e69 0fbd cafe 1b40 064d 1cbe
000000d0: d87e 1e41 4114 1540 379c 1c40 1d94 1840
000000e0: 4069 1240 4c2a 2141 a50f 43be df76 3e40
000000f0: 3386 1140 9dec 2141 6eb3 4c40 1aa3 68bd
00000100: 822d 4840 5401 4740 9d32 1f40 7495 1340
00000110: 3439 1f41 c76c 1d41 a946 1840 6dac 2c40
00000120: 55d8 4040 d0c2 1940 ac01 2241 971d 2040
00000130: 2390 1d41 0845 1b40 7970 1b40 3c32 203d
00000140: b8e4 1a40 8887 2140 90bc 1940 fb5d 34be
00000150: 84c0 1e41 867e f03f 16ca 2340 923f 96c0
00000160: efe5 9bc0 f61a 1f40 4fbf 1440 a2b0 1440
00000170: d3a6 1b40 0a20 4e40 de16 4940 c3da 3b40
00000180: 0825 18bd 8268 1540 1514 2141 e031 2140
00000190: 3e4c 2241 7ded 2a40 7471 1c40 7c56 2340
000001a0: 6a1b 2541 76a5 1540 5533 0f40 acff 1340
000001b0: 075a 1a40 d23a 2840 5162 1d40 2542 1e41
000001c0: c184 1f40 c257 95c0 65e8 2141 d2be 1e41
000001d0: 948b 1d41 5849 4c40 a159 4940 0a5f da3f
000001e0: faa1 1c40 a07b 4e40 a5b2 2041 559f 2241
000001f0: a2ca 2c40 6620 2741 64cf 2540 7639 4440

net.2.weight f4 [128, 128]
5.1291113 5.058817 5.1359034 -12.476466 2.5041687 2.9540887 0.0058041946 2.955329
2.5512 5.140496 2.3837962 3.3157823 2.7463374 2.6327908 2.3362565 2.4320824
2.83569 2.8086052 3.2804592 2.4167628 -0.07529334 5.1589518 0.05656169 9.011929
5.136181 -12.999719 2.3466425 2.6494167 1.971664 4.9997354 4.987677 2.0451665
1.8761775 2.5862076 2.4224625 5.1819615 3.4987023 2.6045535 3.126858 2.0833442
5.0889583 2.5847542 2.0955348 3.1317194 0.022110963 0.04903809 9.618237 0.023509014
4.623345 0.045660872 2.9477406 0.05067306 2.619141 2.9740827 2.4980683 1.8462737
2.421968 2.3824356 0.04505989 5.03161 3.3062122 2.5845072 5.060028 0.047378305
4.9416404 5.2482486 3.3950753 1.1625702 2.463183 2.73377 4.0991254 4.59274
5.134888 1.5004119 2.548025 4.432991 2.7523744 2.8959453 2.9772887 -0.08712716
2.8473382 1.686161 2.9110081 0.051768202 2.670481 9.527838 4.750171 -12.974145
-12.622635 1.5702059 2.072787 3.2885394 2.6680694 5.169963 5.0969043 5.114128
-0.07785748 2.2952824 2.427862 3.6416852 2.5161695 4.526009 1.660242 2.5658069
2.3274057 3.6679919 1.4353645 2.0961514 3.2248347 3.7623336 2.9555237 2.5913982
1.9711449 -12.52122 2.4326744 2.6998234 2.5913143 5.118921 5.0051894 9.571063
2.6042206 5.0423093 2.5638433 2.5641007 5.0918694 2.4834075 4.631391 5.162681
5.0406218 5.0478296 5.1373477 -12.630446 2.8676043 2.6363363 0.026234461 2.7117426
2.471226 5.256097 2.227853 3.305694 3.044401 2.895044 2.1767375 2.359267
2.7022462 3.055999 3.0191126 2.8857546 -0.08479477 5.2415795 -0.003515795 9.038816
5.1974673 -13.067452 2.6925952 2.5631158 1.9318633 5.1511703 5.1460524 2.0889778
1.9984455 2.9959834 2.8170424 5.1553807 3.2574801 2.8710537 3.0443995 1.9470258
5.129192 2.8562026 2.0826445 2.9796393 0.0024180172 0.028309615 9.488606 0.039316062
4.5637445 -0.03554795 2.851877 0.009050805 2.9226322 2.8153303 2.2270947 1.9475653
2.3576658 2.6891656 -0.07303423 5.21505 3.0827665 2.941111 5.0579643 -0.04107189
5.054977 5.2968717 3.1298525 1.1967626 2.7280185 3.064721 4.2595396 4.4162354
5.1998863 1.2291198 3.010491 4.346644 3.0155232 2.6569 2.6732063 0.024417019
2.7711308 1.764222 2.782287 0.027311152 2.969607 9.356236 4.7575006 -12.977044
-12.718737 1.57674 2.1537533 3.0181525 2.5669024 5.2033224 5.1165996 5.194791
0.031922255 2.3032672 2.7135355 3.3675542 2.8587208 4.4542074 1.586191 2.4883146
2.6883404 3.4791894 1.3637079 1.9498606 3.2608511 3.8068898 2.7650816 2.9554844
2.0686092 -12.569659 2.7902198 3.0297816 2.8447323 5.3579335 5.1792917 9.408786
2.4518418 5.184079 2.991984 3.009429 5.042133 2.7597585 4.7593904 5.2477264
00000000: ae21 a440 d4e1 a140 5259 a440 9b9f 47c1
00000010: 4d44 2040 ca0f 3d40 1d31 be3b 1c24 3d40
00000020: dc46 2340 f17e a440 1e90 1840 c735 5440
00000030: fec3 2f40 a57f 2840 3a85 1540 3da7 1b40
00000040: f27b 3540 30c0 3340 0bf3 5140 3eac 1a40
00000050: 6533 9abd 2216 a540 3bad 673d dc30 1041
00000060: 985b a440 d9fe 4fc1 642f 1640 0b90 2940
00000070: 7c5f fc3f d5fd 9f40 0d9b 9f40 02e4 0240
00000080: 9626 f03f 6d84 2540 a009 1b40 a1d2 a540
00000090: bdea 5f40 01b1 2640 711e 4840 8355 0540
000000a0: bfd8 a240 9d6c 2540 3e1d 0640 176e 4840
000000b0: 0d22 b53c 2adc 483d 4ce4 1941 fa95 c03c
000000c0: 71f2 9340 e506 3b3d c8a7 3c40 8e8e 4f3d
000000d0: 02a0 2740 5f57 3e40 5ae0 1f40 b252 ec3f
000000e0: 8601 1b40 d379 1840 b890 383d f302 a140
000000f0: fb98 5340 9168 2540 c0eb a140 c10f 423d
00000100: eb21 9e40 a7f1 a740 ea48 5940 1acf 943f
00000110: caa4 1d40 16f6 2e40 092c 8340 baf7 9240
00000120: 0151 a440 7f0d c03f d712 2340 10db 8d40
00000130: e726 3040 2b57 3940 e68b 3e40 b96f b2bd
00000140: ca3a 3640 20d4 d73f f54d 3a40 e50a 543d
00000150: 29e9 2a40 0672 1841 6701 9840 1996 4fc1
00000160: 50f6 49c1 82fc c83f 8ba8 0440 6e77 5240
00000170: a6c1 2a40 5670 a540 d719 a340 f0a6 a340
00000180: be73 9fbd e8e5 1240 1762 1b40 5f11 6940
00000190: ec08 2140 11d5 9040 cf82 d43f 2e36 2440
000001a0: 37f4 1440 61c0 6a40 06ba b73f 5827 0640
000001b0: b163 4e40 13ca 7040 4d27 3d40 78d9 2540
000001c0: 7a4e fc3f eb56 48c1 f0b0 1b40 e8c9 2c40
000001d0: 18d8 2540 33ce a340 832a a040 1323 1941
000001e0: 8dab 2640 995a a140 0216 2440 3a1a 2440
000001f0: 98f0 a240 26f0 1e40 5b34 9440 af34 a540
00000200: c64c a140 d287 a140 2765 a440 4f16 4ac1
00000210: d486 3740 bcb9 2840 a7e9 d63c 318d 2d40
00000220: 9128 1e40 f231 a840 2595 0e40 7e90 5340
00000230: 77d7 4240 6748 3940 ab4f 0b40 3bfe 1640
00000240: 9af1 2c40 7d95 4340 2439 4140 34b0 3840
00000250: e1a8 adbd 05bb a740 4169 66bb fe9e 1041
00000260: a751 a640 4914 51c1 7b53 2c40 170a 2440
00000270: 4c47 f73f 63d6 a440 76ac a440 d0b1 0540
00000280: 10cd ff3f 31be 3f40 6c4a 3440 e1f8 a440
00000290: 8e7a 5040 58bf 3740 71d7 4240 2438 f93f
000002a0: 5722 a440 06cc 3640 0c4a 0540 69b2 3e40
000002b0: 9977 1e3b 91e9 e73c 55d1 1741 e109 213d
000002c0: 320a 9240 ba9a 11bd 2785 3640 d449 143c
000002d0: 680c 3b40 5f2e 3440 b888 0e40 d249 f93f
000002e0: ffe3 1640 4a1b 2c40 f892 95bd b1e1 a640
000002f0: 0c4c 4540 2a3b 3c40 d8da a140 003b 28bd
00000300: 5fc2 a140 f97f a940 814f 4840 842f 993f
00000310: db97 2e40 6424 4440 264e 8840 cd51 8d40
00000320: 7865 a640 cc53 9d3f e2ab 4040 b517 8b40
00000330: 55fe 4040 a60a 2a40 d015 2b40 3306 c83c
00000340: 355a 3140 07d2 e13f fd10 3240 a3bb df3c
00000350: 0b0e 3e40 25b3 1541 723d 9840 f9a1 4fc1
00000360: f27f 4bc1 9ed2 c93f 18d7 0940 6929 4140
00000370: 2148 2440 9e81 a640 2fbb a340 ba3b a640
00000380: e9c0 023d bb68 1340 91aa 2d40 0286 5740
00000390: 48f5 3640 de88 8e40 4f08 cb3f 8c40 1f40
000003a0: c50d 2c40 0aab 5e40 fb8d ae3f 0895 f93f
000003b0: c9b1 5040 15a4 7340 19f7 3040 a826 3d40
000003c0: 1864 0440 531d 49c1 f692 3240 f1e7 4140
000003d0: 1810 3640 3174 ab40 c2bc a540 638a 1641
000003e0: faea 1c40 fae3 a540 aa7c 3f40 7c9a 4040
000003f0: 2759 a140 e29f 3040 ed4c 9840 60ed a740

net.2.bias f4 [128]
-0.67608005 -0.23574597 -8.886073 -0.39312512 0.0456638 2.1028514 -0.018508684 3.7942274
3.7686474 -0.08716021 9.748784 -1.1771269 -0.08666534 -0.6064258 3.7615163 0.019892652
3.7812493 -0.57111335 -0.515194 -0.3784435 -0.025887555 3.8929095 0.028387913 -6.5853744
-8.114048 -8.7574625 -0.08316882 3.6595666 3.7394767 0.87125427 3.8494356 -0.0815704
-0.03326769 -0.040380806 3.7771347 -0.8557515 0.06280963 2.1772125 3.7164993 9.984697
1.9332412 -0.0049218447 -0.05563782 -0.020998178 3.9371574 3.8735163 0.06798176 -1.8413639
-6.537276 0.030082626 -0.33731157 -0.70969284 0.013106852 -0.54172456 3.846281 -0.014992882
0.52786094 3.8198044 -0.5329329 -8.899293 0.017963344 -5.412554 -0.24933559 -0.30891758
-7.697036 -0.030421834 3.6779366 3.7856312 2.085814 2.035666 -0.08134881 3.6757627
0.015708376 -0.08689563 3.883893 -8.459803 3.7250526 3.6067982 -3.2765734 0.8682869
-0.5164992 -0.032496423 3.6042857 -0.53047246 0.07246331 -0.033654004 0.0235252 2.0709727
3.8198152 -0.04015798 -7.3918505 -4.752496 6.530654e-05 -0.17420037 -0.055109046 3.8536224
-7.167148 0.014281436 3.7901337 -0.0954551 -0.08121573 -8.844499 -3.0606067 8.967996
-0.028972512 -6.330487 0.03225573 -7.757052 1.5521613 0.009744215 2.142883 3.7268286
-0.45451757 -0.058111884 -0.4428995 0.69727135 -8.708364 -5.3841944 0.014919383 -0.66491765
-5.685575 -6.5417128 -8.59882 -0.076422706 3.7790093 -0.09694987 -0.44855076 2.156907
00000000: 9513 2dbf 6467 71be 5b2d 0ec1 b247 c9be
00000010: f709 3b3d 1e95 0640 869f 97bc 9fd4 7240
00000020: 8531 7140 0d81 b2bd 05fb 1b41 18ac 96bf
00000030: 997d b1bd b93e 1bbf afbc 7040 eaf5 a23c
00000040: fdff 7140 7c34 12bf c1e3 03bf 59c3 c1be
00000050: 2312 d4bc 6e25 7940 c58d e83c 63bb d2c0
00000060: 24d3 01c1 911e 0cc1 6a54 aabd 5736 6a40
00000070: 9653 6f40 850a 5f3f 275d 7640 620e a7bd
00000080: b443 08bd 5866 25bd 93bc 7140 8812 5bbf
00000090: 56a2 803d 7357 0b40 20db 6d40 52c1 1f41
000000a0: 7374 f73f 6d47 a1bb 7ce4 63bd 5f04 acbc
000000b0: 63fa 7b40 b1e7 7740 053a 8b3d d0b1 ebbf
000000c0: 5d31 d1c0 d76f f63c 1ab4 acbe 6eae 35bf
000000d0: 1fbe 563c 76ae 0abf 7829 7640 b4a4 75bc
000000e0: e521 073f ad77 7440 4a6e 08bf 8163 0ec1
000000f0: dd27 933c a433 adc0 d451 7fbe 722a 9ebe
00000100: 1e4e f6c0 3637 f9bc 5063 6b40 c847 7240
00000110: fa7d 0540 5a48 0240 349a a6bd b23f 6b40
00000120: daae 803c 56f6 b1bd b491 7840 5a5b 07c1
00000130: 4367 6e40 c8d5 6640 61b3 51c0 0d48 5e3f
00000140: 4b39 04bf f81a 05bd 9eac 6640 0bcd 07bf
00000150: a567 943d c8d8 09bd ecb7 c03c d18a 0440
00000160: da77 7440 b27c 24bd 0a8a ecc0 7214 98c0
00000170: 2ff5 8838 9561 32be 06ba 61bd c0a1 7640
00000180: 4759 e5c0 affc 693c 8d91 7240 f77d c3bd
00000190: 6f54 a6bd 1183 0dc1 fbe0 43c0 e97c 0f41
000001a0: c357 edbc 5993 cac0 961e 043d c539 f8c0
000001b0: 39ad c63f 33a6 1f3c ff24 0940 5c84 6e40
000001c0: 87b6 e8be ba06 6ebd b9c3 e2be 6080 323f
000001d0: 7555 0bc1 524b acc0 6e70 743c 0b38 2abf
000001e0: 3bf0 b5c0 b655 d1c0 c494 09c1 8283 9cbd
000001f0: 4adb 7140 a78d c6bd 72a8 e5be c40a 0a40

net.4.weight f4 [20, 128]
-1.58046 -1.3862532 8.197295 -1.4156022 -0.017212793 5.045574 0.061162073 4.1189113
4.7079973 -0.034409016 1.2964718 -1.6324558 0.029336555 -1.5574952 4.5547023 -0.014353314
4.320659 -1.2674187 -1.3753915 -1.3416219 -0.04706597 4.221749 -0.06755616 7.7680078
8.083518 8.032413 0.009677443 4.4201903 4.744055 5.061655 4.4741945 0.007672138
0.00072098506 0.049240805 4.328646 -1.5952977 -0.0690434 4.9689946 4.5310845 1.4158671
4.887454 -0.009180363 0.03806604 -0.0029659895 4.6067834 4.3998885 -0.071845435 5.510836
7.8910403 0.08482283 -1.3732332 -1.4418253 -1.2730687 -1.4611281 4.3458934 0.07384396
-0.4788406 4.64728 -1.2426025 8.15438 0.055947885 7.3799453 -1.350942 -1.2367504
7.95211 -0.032164108 4.413606 4.331775 5.0001383 5.010965 0.042835403 4.120723
-0.042864107 -1.3097048 4.421168 8.105082 4.5554667 3.793811 6.500155 4.9426312
-1.5150381 -0.003995678 4.5285006 -1.4067624 -0.0042730593 0.080291696 0.08261606 4.812846
4.5321655 0.03862812 7.981399 7.219567 0.08441234 4.93562 0.054590568 4.5071135
7.834577 -0.04916167 4.423714 -0.018450204 0.06880602 8.081934 6.363419 0.5880859
-0.012419401 7.789732 0.01681463 7.9829836 4.9523487 0.026520524 4.940815 4.2555017
-1.4475582 -0.07404656 -1.4866573 -0.8743096 8.0803795 7.436584 0.038473275 -1.4240522
7.672762 7.7254586 8.216547 -0.035502408 4.249745 0.07959005 -1.4972289 5.007597
-0.82601947 -0.64440423 7.621853 -0.8932899 -0.06588801 4.6279583 -0.02202396 3.988482
4.2774673 0.057973836 1.0591822 -1.1165838 -0.022974921 -0.82432324 4.1720977 0.007424064
4.052453 -0.64817446 -0.7185914 -0.72673935 0.07600379 4.029597 0.03887914 7.6818485
7.573104 7.5328364 0.082865104 4.0722003 4.3178916 4.851463 4.2037244 0.08328021
0.044139054 -0.034548834 4.1240606 -0.9376521 -0.051915012 4.581131 4.1616235 1.2984946
4.638814 0.009838971 0.040378526 -0.03432984 4.253846 4.133311 -0.067545034 6.375848
7.7405596 0.006927372 -0.69014484 -0.7612967 -0.75336105 -0.89560026 4.2315097 -0.07352752
0.90704215 4.3255806 -0.6742332 7.6187997 0.042318575 7.671675 -0.678994 -0.65396214
7.639472 0.085151754 4.1583543 4.0774274 4.5719433 4.580809 -0.0068337815 3.8403165
-0.020352287 -0.64191616 4.2041674 7.537843 4.2112947 3.6653934 7.262361 4.868417
-0.9190428 -0.01448229 4.234988 -0.86399066 -0.04278782 -0.05877713 0.053453352 4.4836493
4.2515216 -0.0464182 7.717653 7.634636 0.039322566 5.2401323 0.042112246 4.157863
7.6619616 0.06733416 4.100627 -0.08221124 -0.060469914 7.566285 7.1817875 1.4267956
-0.07747761 7.79368 0.06623054 7.621724 4.6495347 0.051073004 4.5790086 4.0333405
-0.69314957 0.050914425 -0.8365043 -0.33134425 7.555258 7.7236986 0.080628775 -0.7794315
7.6616526 7.7845407 7.512338 -0.026389385 4.0076 -0.07476227 -0.7844794 4.537569
00000000: 834c cabf bf70 b1bf 1f28 0341 7432 b5bf
00000010: d801 8dbc 5875 a140 1585 7a3d 1fce 8340
00000020: eaa7 9640 78f0 0cbd caf2 a53f 50f4 d0bf
00000030: 3753 f03c 015c c7bf 1fc0 9140 2a2a 6bbc
00000040: d742 8a40 c73a a2bf d40c b0bf 44ba abbf
00000050: 3fc8 40bd 9118 8740 e25a 8abd 8593 f840
00000060: 1756 0141 c384 0041 238e 1e3c 3372 8d40
00000070: 4ccf 9740 14f9 a140 9a2c 8f40 8f66 fb3b
00000080: 7d00 3d3a bab0 493d 4584 8a40 b732 ccbf
00000090: a066 8dbd 0102 9f40 a5fe 9040 223b b53f
000000a0: 0666 9c40 3c69 16bc 23eb 1b3d 0c61 42bb
000000b0: c56a 9340 e3cb 8c40 b323 93bd c558 b040
000000c0: 6783 fc40 98b7 ad3d 1bc6 afbf bb8d b8bf
000000d0: eaf3 a2bf 3f06 bbbf 8f11 8b40 813b 973d
000000e0: 982a f5be 85b6 9440 990d 9fbf 5778 0241
000000f0: 9c29 653d 8328 ec40 abeb acbf d64d 9ebf
00000100: af77 fe40 83be 03bd 433c 8d40 e79d 8a40
00000110: 2201 a040 d359 a040 2d74 2f3d f6dc 8340
00000120: 4692 2fbd 68a4 a7bf 357a 8d40 6aae 0141
00000130: 62c6 9140 cdcd 7240 4501 d040 092a 9e40
00000140: c5ec c1bf 2dee 82bb 7ae9 9040 ca10 b4bf
00000150: 0505 8cbb f96f a43d 9c32 a93d d602 9a40
00000160: 8007 9140 8538 1e3d 9f67 ff40 b106 e740
00000170: 60e0 ac3d 99f0 9d40 5c9a 5f3d 463a 9040
00000180: dbb4 fa40 bf5d 49bd 118f 8d40 e224 97bc
00000190: 2cea 8c3d 9a4f 0141 21a1 cb40 cc8c 163f
000001a0: be7a 4bbc 7c45 f940 d6be 893c 9a74 ff40
000001b0: a479 9e40 9241 d93c 281b 9e40 122d 8840
000001c0: 9649 b9bf b9a5 97bd c94a bebf c1d2 5fbf
000001d0: 3c49 0141 7ff8 ed40 2796 1d3d 5847 b6bf
000001e0: 4487 f540 f536 f740 fa76 0341 f96a 11bd
000001f0: e9fd 8740 1c00 a33d 32a5 bfbf 3c3e a040
00000200: 0376 53bf adf7 24bf 38e6 f340 a6ae 64bf
00000210: 4bf0 86bd 3c18 9440 976b b4bc 4a43 7f40
00000220: 03e1 8840 f975 6d3d 4893 873f 38ec 8ebf
00000230: e735 bcbc d906 53bf d381 8540 9045 f33b
00000240: b2ad 8140 c3ee 25bf 9bf5 37bf 970b 3abf
00000250: e0a7 9b3d 75f2 8040 bc3f 1f3d b4d1 f540
00000260: de56 f240 ff0c f140 2eb5 a93d 774f 8240
00000270: 2b2c 8a40 2f3f 9b40 e984 8640 d18e aa3d
00000280: 27cb 343d 1483 0dbd 4ef8 8340 f809 70bf
00000290: d6a4 54bd a098 9240 052c 8540 1235 a63f
000002a0: 2a71 9440 a333 213c f463 253d 729d 0cbd
000002b0: 821f 8840 1544 8440 0d55 8abd f206 cc40
000002c0: aab2 f740 02ff e23b 55ad 30bf 57e4 42bf
000002d0: 45dc 40bf 0f46 65bf 8768 8740 9995 96bd
000002e0: ea33 683f 286b 8a40 8c9a 2cbf 35cd f340
000002f0: 3e56 2d3d 5d7e f540 8dd2 2dbf 106a 27bf
00000300: 8e76 f440 0b64 ae3d 3d11 8540 497a 8240
00000310: 5c4d 9240 fd95 9240 eaed dfbb bfc7 7540
00000320: d7b9 a6bc 9e54 24bf 8a88 8640 0336 f140
00000330: edc2 8640 ce95 6a40 4365 e840 12ca 9b40
00000340: 6446 6bbf 2047 6dbc 0685 8740 7e2e 5dbf
00000350: 4842 2fbd 4ac0 70bd e7f1 5a3d 0e7a 8f40
00000360: 770c 8840 0321 3ebd 03f7 f640 f04e f440
00000370: b310 213d 2aaf a740 e47d 2c3d 370d 8540
00000380: ca2e f540 7ee6 893d 5638 8340 5e5e a8bd
00000390: 4daf 77bd 021f f240 34d1 e540 3da1 b63f
000003a0: 95ac 9ebd d465 f940 e1a3 873d 2ae5 f340
000003b0: fdc8 9440 ed31 513d 3d87 9240 2011 8140
000003c0: 4072 31bf a58b 503d 2525 56bf f4a5 a9be
000003d0: acc4 f140 8a28 f740 b320 a53d d388 47bf
000003e0: 422c f540 f51a f940 1365 f040 8d2e d8bc
000003f0: 423e 8040 f61c 99bd a4d3 48bf c433 9140

net.4.bias f4 [20]
1.820359 2.419522 1.3364241 1.4959365 1.1258295 1.0860003 1.4025903 1.3784815
-0.15921114 2.1356363 0.41397044 0.4949744 0.89730567 0.4619924 1.0555611 -0.45637503
0.41619056 -0.04259319 0.8103678 0.011847716
00000000: 8601 e93f 73d9 1a40 f20f ab3f d97a bf3f
00000010: 2e1b 903f 0f02 8b3f 1488 b33f 1572 b03f
00000020: 3f08 23be 44ae 0840 eff3 d33e 496d fd3e
00000030: d3b5 653f 458a ec3e a01c 873f fda9 e9be
00000040: ee16 d53e 3276 2ebd 4474 4f3f ec1c 423c
