realtime_model_ep190.pth (torch, 97610 bytes, 6 tensors)

net.0.weight f4 [128, 35]
0	0xc0112d36	-2.2683845
1	0x41f31d7c	30.389397
2	0xbe8a390c	-0.26996648
3	0xbf36b500	-0.71369934
4	0xbda3a271	-0.079899676
5	0xbfbb29f2	-1.4622176
6	0x41e862fe	29.048336
7	0xbe8934c1	-0.2679806
8	0x3f8a20a1	1.0791208
9	0x3f0c078c	0.54699016
10	0xbff217b9	-1.891349
11	0x41ea8f42	29.31995
12	0xbe969d08	-0.2941668
13	0x3ff851e7	1.9399995
14	0xbc50e80c	-0.012750637
15	0xbf9724dc	-1.1808124
16	0x41eab136	29.336529
17	0xbf00e7eb	-0.5035388
18	0x3f90e276	1.131911
19	0xbf5a501e	-0.852785
20	0xc004d9aa	-2.0757852
21	0x41eb9741	29.448854
22	0xbeae8d2d	-0.34092084
23	0x401bc29c	2.433753
24	0xbe9c9e7e	-0.3058967
25	0x40e16a75	7.0442452
26	0x40d3b824	6.616228
27	0x410df396	8.871969
28	0x40e10a3c	7.0324993
29	0x40ce3c0e	6.444831
30	0x40bc9ad5	5.8939004
31	0x40ca859a	6.328809
32	0x40df2216	6.972911
33	0x407196e5	3.7748349
34	0x40dbb561	6.865891
35	0xc00ecbec	-2.2311964
36	0x41f36c1b	30.427786
37	0xbdf0e0dc	-0.117616385
38	0xbf0d3d0e	-0.5517129
39	0xbd420fe1	-0.047378425
40	0xbf9c9f3c	-1.2236094
41	0x41e9bdb8	29.217636
42	0xbf0858bb	-0.5326039
43	0x3f827fda	1.0195267
44	0x3f153606	0.5828556
45	0xbfdb8db3	-1.7152618
46	0x41eb1945	29.387339
47	0xbeaeb330	-0.34121084
48	0x3ffc00a3	1.9687694
49	0x3da75464	0.08170393
50	0xbf982bc8	-1.1888361
51	0x41ea59fa	29.293934
52	0xbf0b33f7	-0.5437617
53	0x3f912530	1.1339474
54	0xbf284613	-0.65731925
55	0xbfff4850	-1.9943943
56	0x41eaa02a	29.328205
57	0xbef8601b	-0.48510823
58	0x40188a04	2.3834238
59	0xbf20bc51	-0.6278735
60	0x40e4df06	7.1522245
61	0x40d1d943	6.557771
62	0x410e58e9	8.896707
63	0x40df3f5e	6.9764853
64	0x40c510b2	6.158288
65	0x40ba476b	5.821218
66	0x40c8d7bf	6.276336
67	0x40deebae	6.9662695
68	0x40660fc3	3.594712
69	0x40df5243	6.9787917
70	0xc00aaf0b	-2.1669338
71	0x41f44bbb	30.536978
72	0xbd539213	-0.05165298
73	0xbf521c77	-0.82074684
74	0x3e8f10a2	0.27942377
75	0xbf996749	-1.1984645
76	0x41ebee7e	29.491451
77	0xbe68492f	-0.22684167
78	0x3f8114b0	1.0084438
79	0x3f64fe4c	0.89450526
80	0xbfdeb8f4	-1.7400193
81	0x41ecd692	29.60477
82	0x3cb82765	0.022479722
83	0x3ff4acbc	1.9115214
84	0x3e8551aa	0.26038867
85	0xbf970189	-1.1797343
86	0x41ed804b	29.687643
87	0xbea6f7f9	-0.32611063
88	0x3fdc5ed1	1.7216436
89	0xbec56c61	-0.3855925
90	0xc004530d	-2.067569
91	0x41ee7dc1	29.811403
92	0xbdf81915	-0.12114159
93	0x40180e82	2.3758855
94	0xbe431b42	-0.19053367
95	0x40ef072d	7.469626
96	0x40e48bb5	7.142054
97	0x410d9562	8.84897
98	0x40e2f57b	7.092466
99	0x40d5de38	6.6833763
100	0x40c0e43e	6.0278616
101	0x40d601da	6.687726
102	0x40e74570	7.2272263
103	0x4070a8b6	3.7602973
104	0x40e3f69d	7.123854
105	0xc003992d	-2.056224
106	0x41f170e6	30.180126
107	0xc123f9a1	-10.248445
108	0xc003f3af	-2.0617483
109	0xc14fac9f	-12.979644
110	0xbf95d786	-1.1706398
111	0x41e9c04a	29.218891
112	0xc1299647	-10.599189
113	0x3f7f4d3c	0.99727225
114	0xc14235c4	-12.138126
115	0xbfc0bd0a	-1.505769
116	0x41e86844	29.05091
117	0xc129deb3	-10.61687
118	0x3f9d23f5	1.2276598
119	0xc14b3c78	-12.702263
120	0xbf8a8735	-1.0822512
121	0x41ea5337	29.290632
122	0xc12ce2d7	-10.805381
123	0x3f4bb815	0.7957776
124	0xc149700c	-12.589855
125	0xbff97203	-1.9487919
126	0x41e9b053	29.211096
127	0xc12aae5b	-10.667567
128	0x40093406	2.1438003
129	0xc14bce61	-12.737885
130	0x4109a3eb	8.602519
131	0x40ff297d	7.9738145
132	0x413fdc32	11.991259
133	0x4125bc76	10.358511
134	0x410c33ef	8.762679
135	0x411e3f2f	9.890426
136	0x4107349e	8.450346
137	0x41219876	10.099722
138	0x40d9a5ea	6.801503
139	0x4111ab96	9.104391
140	0x3eefabec	0.46810853
141	0xc19f4383	-19.907965
142	0x412c3e12	10.765154
143	0x4018544d	2.3801453
144	0x40fccc8b	7.8999686
145	0x3e6c7bcf	0.23094104
146	0xc195c7ca	-18.722553
147	0x41338aed	11.221417
148	0x40060236	2.093885
149	0x40ea6f7f	7.3261104
150	0x3e3c5a68	0.18393862
151	0xc1969613	-18.823278
152	0x412d652e	10.837202
153	0x40637246	3.5538497
154	0x410e6311	8.899186
155	0x3f730b86	0.9493946
156	0xc1984c37	-19.037214
157	0x4132bf35	11.171681
158	0x3fe5680d	1.7922379
159	0x41145cb6	9.2726345
160	0x3f290fc2	0.6603967
161	0xc1973809	-18.90236
162	0x4133a9b3	11.22893
163	0xbe407e52	-0.18798187
164	0x4102696a	8.150736
165	0x40caa635	6.332789
166	0x40c1ddd1	6.058327
167	0x40b3bb86	5.616641
168	0x40c71856	6.2217207
169	0x41206ceb	10.026591
170	0x40bad4d3	5.8384795
171	0x40cce1dd	6.402571
172	0x40f413b5	7.6274056
173	0x40f90d75	7.7828927
174	0x4102c58c	8.173229
175	0xc013d52c	-2.309886
176	0x41f1b38c	30.21267
177	0xbf185fc0	-0.595211
178	0xbf2abe65	-0.6669677
179	0xbeb96aed	-0.3621439
180	0xbfb9a451	-1.450327
181	0x41e7a323	28.954657
182	0xbf60f861	-0.87878996
183	0x3f7523d4	0.95757794
184	0x3e865639	0.26237658
185	0xbfc7cba7	-1.5609025
186	0x41e8f78c	29.120872
187	0xbf253d4c	-0.64546657
188	0x400576c2	2.0853734
189	0x3ccadfd6	0.024764936
190	0xbf99681f	-1.19849
191	0x41e89b7d	29.075922
192	0xbf6bb13d	-0.9206732
193	0x3f5cc84f	0.86243147
194	0xbf80ee1d	-1.0072666
195	0xbfea0462	-1.8282588
196	0x41e94eb6	29.163433
197	0xbf403e11	-0.75094706
198	0x401d8103	2.4609993
199	0xbf030748	-0.51182985
200	0x40dd41bd	6.9142747
201	0x40c97b48	6.296299
202	0x41094bd7	8.581016
203	0x40d52f09	6.6619916
204	0x40c47d98	6.1403313
205	0x40b52e89	5.6619306
206	0x40c46f24	6.138567
207	0x40d724f2	6.72326
208	0x40582835	3.377454
209	0x40d6835a	6.703534
210	0x3cbf60ea	0.023361642
211	0x3d9576ae	0.07298027
212	0xbe09ac5c	-0.13444656
213	0xbb383b53	-0.0028111532
214	0xbde312b4	-0.11087552
215	0x3d52f969	0.051507387
216	0x3ca00309	0.019532697
217	0x3d86514b	0.06558474
218	0xbe05a6ad	-0.13051863
219	0xbdac9e0b	-0.08428582
220	0xbe12c9b2	-0.14334753
221	0x3dca22e1	0.09869934
222	0xbde42736	-0.111402914
223	0xbc14e842	-0.009088578
224	0xbde930e4	-0.11386278
225	0x3e03bdc7	0.12865363
226	0x3dd66f12	0.10470404
227	0xbc5597e4	-0.013036702
228	0xbda1b868	-0.07896501
229	0x3de0f6ac	0.10984549
230	0x3e276c37	0.16349874
231	0xbe092cc2	-0.1339598
232	0x3ca9f8e2	0.02074856
233	0xbdd5590e	-0.104173765
234	0x3d3a6a4c	0.04551153
235	0xbacaa930	-0.0015461799
236	0xbdbaa22a	-0.091129616
237	0xbdf6eb8e	-0.12056647
238	0x3d6588d4	0.056038693
239	0xbe13a9ab	-0.14420192
240	0xbd84b4af	-0.06479775
241	0xbe19339d	-0.14961095
242	0xbe04a2e0	-0.12952757
243	0x3d8b468b	0.068005644
244	0x3dd92e84	0.10604575
245	0xc013f088	-2.3115559
246	0x41f1cadd	30.224054
247	0xbf04dd2d	-0.5189999
248	0xbf4611b1	-0.77370745
249	0xbe0edab2	-0.13950613
250	0xbfa8d357	-1.3189496
251	0x41e84c24	29.037178
252	0xbf69bfec	-0.91308475
253	0x3f7c9037	0.98657554
254	0x3e886ceb	0.26645598
255	0xbfc37180	-1.5269012

net.0.bias f4 [128]
0	0x4049e617	3.1546686
1	0x4042f4a0	3.0461807
2	0x40523d75	3.285001
3	0xc09ade89	-4.839665
4	0x411e68fb	9.90063
5	0x403229ad	2.7837937
6	0xbe41fc5f	-0.18943928
7	0x402ad236	2.6690803
8	0x4027195f	2.6109235
9	0x404ece77	3.2313516
10	0x4021ad06	2.5261855
11	0x402f32ae	2.7374682
12	0x411b16e9	9.693093
13	0x411ffddd	9.999478
14	0x402fded6	2.7479758
15	0x4029d0e7	2.6533754
16	0x40292d18	2.6433773
17	0x411cfdcf	9.811965
18	0x40307a3c	2.7574606
19	0x411e2328	9.883583
20	0x3c6a34c3	0.014294806
21	0x404347b9	3.0512526
22	0xbe19b9a1	-0.15012218
23	0x3fba2c64	1.4544797
24	0x4044803a	3.0703263
25	0xc0ad8f6b	-5.423757
26	0x411f65b3	9.962329
27	0x40249f19	2.5722106
28	0x4029ee55	2.6551716
29	0x40501800	3.2514648
30	0x40477b58	3.1169033
31	0x4022a1fa	2.5411363
32	0x40257ade	2.5856242
33	0x41215fcb	10.085887
34	0x411eab88	9.916878
35	0x40451c99	3.0798705
36	0x402f8388	2.742403
37	0x411cb857	9.795005
38	0x402592aa	2.5870767
39	0x4025306c	2.5810804
40	0x40570515	3.3596852
41	0x411cdca9	9.803872
42	0x40256328	2.584177
43	0x4024f01a	2.5771546
44	0xbdae5d2d	-0.085138656
45	0xbcb4ece0	-0.022085607
46	0x3fdc201b	1.7197298
47	0xbd66c334	-0.056338504
48	0x4038d13d	2.887771
49	0xbd0f694e	-0.035012536
50	0x40278171	2.6172755
51	0xbe1c4d06	-0.15263757
52	0x411bb763	9.732272
53	0x40209897	2.5093133
54	0x40280d1d	2.6258004
55	0x4023f5ff	2.5618894
56	0x401dd812	2.466313
57	0x411e5ca7	9.89762
58	0xbe430fa5	-0.19048937
59	0x4049edca	3.1551385
60	0x401d12a2	2.4542623
61	0x411f2425	9.946324
62	0x40582bec	3.3776808
63	0xbd68a31a	-0.05679617
64	0x4053a7dd	3.3071206
65	0x40528f71	3.290005
66	0x402ac965	2.6685421
67	0x401eddf6	2.4822974
68	0x411c6f8f	9.777236
69	0x411aa315	9.664815
70	0x4023c587	2.558931
71	0x40383270	2.8780785
72	0x404c6000	3.1933594
73	0x40250139	2.5781996
74	0x411f3621	9.950715
75	0x402ba678	2.6820354
76	0x411ac5b4	9.673267
77	0x4026c52e	2.605785
78	0x4026f4ad	2.6086838
79	0x3d20323c	0.039110407
80	0x40266316	2.5997977
81	0x402ce306	2.7013564
82	0x40253cb6	2.5818305
83	0xbe345dfb	-0.17613976
84	0x411bf70b	9.747813
85	0x3fde98e3	1.7390407
86	0x402f61f6	2.740354
87	0xc09396e0	-4.6121674
88	0xc09934bd	-4.787688
89	0x402a78ec	2.6636305
90	0x40202c05	2.5026867
91	0x40203d8f	2.5037572
92	0x402724e7	2.6116273
93	0x40599a7c	3.400054
94	0x405494f9	3.3215926
95	0x40475b20	3.1149368
96	0xbd182508	-0.03714469
97	0x4020da8b	2.5133388
98	0x411e45d6	9.89205
99	0x402cd019	2.7002013
100	0x411f7fb6	9.968679
101	0x40368a8e	2.8522067
102	0x4027cc97	2.6218622
103	0x402ecb1e	2.7311473
104	0x41224bd8	10.143517
105	0x40214793	2.5199935
106	0x401a88ce	2.4146
107	0x401f501a	2.489264
108	0x4025de3c	2.591689
109	0x4033c66a	2.8089852
110	0x4028e7ab	2.63914
111	0x411b76c9	9.7165
112	0x402ae693	2.6703231
113	0xc092ae32	-4.583764
114	0x411f198c	9.943737
115	0x411bf6ed	9.747785
116	0x411ac146	9.672186
117	0x4057ca2e	3.371715
118	0x4054d7b1	3.3256648
119	0x3fc8835d	1.5665089
120	0x4028196b	2.6265514
121	0x4059fe6a	3.4061532
122	0x411de7c3	9.869082
123	0x411fd506	9.989508
124	0x40385cb1	2.8806574
125	0x412451c6	10.269964
126	0x40315f91	2.771458
127	0x404fc1b1	3.246197

net.2.weight f4 [128, 128]
0	0x40a14754	5.039957
1	0x409eff45	4.968661
2	0x40a194fc	5.0494366
3	0xc14b228f	-12.695937
4	0x4021b067	2.5263917
5	0x4036f5b5	2.8587468
6	0x3bbe311d	0.0058041946
7	0x4037193b	2.860915
8	0x401d414c	2.4571104
9	0x40a1b3e5	5.05321
10	0x401277d6	2.2885642
11	0x404e0e7f	3.2196348
12	0x40314b76	2.7702308
13	0x4029f297	2.6554315
14	0x400f7190	2.2413063
15	0x40158ca7	2.3367097
16	0x402f6858	2.7407436
17	0x4034dc5a	2.8259492
18	0x404bde1d	3.1854317
19	0x401bed66	2.4363647
20	0xbd9a3365	-0.07529334
21	0x40a23a5a	5.069623
22	0x3d67ad3b	0.05656169
23	0x410eb0e3	8.918185
24	0x40a181fd	5.0471177
25	0xc153daaa	-13.240885
26	0x40180b94	2.3757067
27	0x4023677d	2.5531914
28	0x3ff00f8f	1.8754748
29	0x409d393b	4.913236
30	0x409cf126	4.904437
31	0x3ff99767	1.9499329
32	0x3fe3f0b7	1.7807835
33	0x4026efd1	2.6083872
34	0x401c8a46	2.4459395
35	0x40a312e8	5.096058
36	0x4059d93a	3.4038835
37	0x40281f75	2.62692
38	0x40421389	3.0324423
39	0x3ffe4334	1.9864259
40	0x40a01f12	5.003793
41	0x4026c763	2.6059196
42	0x4000089d	2.0005257
43	0x40423e4f	3.035053
44	0x3cb5220d	0.022110963
45	0x3d48dc2a	0.04903809
46	0x4117ef2c	9.495892
47	0x3cc095fa	0.023509014
48	0x4090ff6d	4.53118
49	0x3d3b06e5	0.045660872
50	0x4036875a	2.8520112
51	0x3d4f8e8e	0.05067306
52	0x4028dacb	2.638354
53	0x4038369c	2.878333
54	0x4019b0d9	2.401419
55	0x3fe01488	1.7506266
56	0x4014f27c	2.3273
57	0x4019e6f8	2.4047222
58	0x3d3890b8	0.04505989
59	0x409e4de5	4.9470086
60	0x404d773a	3.210402
61	0x4026a729	2.6039526
62	0x409f39e6	4.9758177
63	0x3d420fc1	0.047378305
64	0x409b6bd8	4.8569145
65	0x40a531d7	5.162334
66	0x4053243a	3.299086
67	0x3f88c0e7	1.0683869
68	0x401eb319	2.4796813
69	0x402fe5eb	2.748408
70	0x40802f5a	4.00578
71	0x409005b2	4.500695
72	0x40a188d5	5.047953
73	0x3fb3c5a0	1.4044685
74	0x4024285f	2.564964
75	0x408ae7b0	4.340782
76	0x40316795	2.7719471
77	0x403336b9	2.800215
78	0x40386f92	2.8818097
79	0xbdb26fb9	-0.08712716
80	0x40301466	2.751245
81	0x3fcba6c2	1.5910265
82	0x40343d19	2.816229
83	0x3d540ae5	0.051768202
84	0x402be47e	2.685821
85	0x41167e38	9.405815
86	0x4095145c	4.6587353
87	0xc15318cf	-13.193557
88	0xc14d7a06	-12.842291
89	0x3fbcbc2d	1.4744927
90	0x3ffd15eb	1.9772314
91	0x404c590d	3.1929352
92	0x4024bc7a	2.5740037
93	0x40a2b4ca	5.084569
94	0x40a05936	5.01089
95	0x40a0ee3d	5.029082
96	0xbd9f73be	-0.07785748
97	0x400cd289	2.20035
98	0x401d2511	2.4553874
99	0x4062f51b	3.54621
100	0x4022b655	2.5423787
101	0x408ddd9d	4.4333024
102	0x3fc85a24	1.5652509
103	0x401e1956	2.4702964
104	0x4016cb76	2.3561683
105	0x4064a637	3.572645
106	0x3fab636c	1.3389716
107	0x40000fea	2.0009713
108	0x40486727	3.131296
109	0x406ac005	3.66797
110	0x4037099e	2.859962
111	0x4026ee5e	2.6082988
112	0x3ff01bcb	1.8758482
113	0xc14bd6fc	-12.739986
114	0x401d6b06	2.4596572
115	0x402dafc6	2.7138534
116	0x40273ccf	2.6130865
117	0x40a11c46	5.0347013
118	0x409d6eb1	4.919762
119	0x41172d33	9.448535
120	0x4020a018	2.5097713
121	0x409ea4b9	4.9576077
122	0x40253a67	2.5816896
123	0x40252537	2.5803964
124	0x40a01c97	5.00349
125	0x4020f4ae	2.514934
126	0x409143fb	4.5395484
127	0x40a26383	5.0746474
128	0x409e6bd2	4.9506617
129	0x409e9d16	4.9566755
130	0x40a19d6a	5.0504656
131	0xc14dec7a	-12.870234
132	0x4039f67b	2.905669
133	0x402285c0	2.5394135
134	0x3cd6e9a7	0.026234461
135	0x402767f1	2.615719
136	0x401807ed	2.3754838
137	0x40a561ef	5.168205
138	0x4008620f	2.130985
139	0x404d50a2	3.2080464
140	0x404566f7	3.0844095
141	0x403bbe83	2.933503
142	0x40051f39	2.0800307
143	0x4010c6e5	2.2621396
144	0x4026c3ad	2.605693
145	0x4045b1b3	3.088971
146	0x403b0960	2.9224472
147	0x403aee6d	2.9208024
148	0xbdada8e1	-0.08479477
149	0x40a4d929	5.151509
150	0xbb666941	-0.003515795
151	0x410f5011	8.957047
152	0x40a37191	5.107613
153	0xc15549f6	-13.330557
154	0x402f39f0	2.7379112
155	0x401dc7e3	2.465325
156	0x3feabcd3	1.8338875
157	0x40a20dbe	5.0641775
158	0x40a20251	5.062783
159	0x3ffefd38	1.9921026
160	0x3ff35da0	1.9012947
161	0x40422ad7	3.0338647
162	0x4036ce51	2.8563426
163	0x40a23587	5.069034
164	0x404a4e32	3.1610227
165	0x403a3108	2.9092426
166	0x403cb2d3	2.9484146
167	0x3fec9b36	1.8484867
168	0x40a1664b	5.043737
169	0x403929ea	2.8931832
170	0x3ffe3585	1.9860083
171	0x4038691c	2.8814154
172	0x3b1e7799	0.0024180172
173	0x3ce7e991	0.028309615
174	0x4115ff3f	9.374816
175	0x3d2109e1	0.039316062
176	0x408f0d80	4.470398
177	0xbd119aba	-0.03554795
178	0x40304979	2.7544844
179	0x3c1449d4	0.009050805
180	0x403d44a4	2.9573145
181	0x402df3a2	2.7179952
182	0x40083e58	2.1288052
183	0x3fecd4d9	1.8502456
184	0x4010b9fa	2.261351
185	0x402e85e6	2.7269225
186	0xbd9592f8	-0.07303423
187	0x40a42b92	5.1303186
188	0x403f11f9	2.985472
189	0x403e77d7	2.9760644
190	0x409f279f	4.9735866
191	0xbd283b00	-0.04107189
192	0x409f0a20	4.969986
193	0x40a6bcda	5.210553
194	0x40421383	3.032441
195	0x3f8cebbd	1.1009442
196	0x40309f83	2.7597358
197	0x40460bcd	3.0944703
198	0x4085488a	4.165105
199	0x408a5552	4.322915
200	0x40a39825	5.1123223
201	0x3f90dedd	1.1318012
202	0x4042ba5f	3.0426252
203	0x4088196d	4.2531037
204	0x404341bf	3.0508878
205	0x4023d091	2.559605
206	0x4024dff5	2.5761693
207	0x3cc80633	0.024417019
208	0x402b1c65	2.673608
209	0x3fd568e4	1.6672635
210	0x402be755	2.6859944
211	0x3cdfbba3	0.027311152
212	0x4040028b	3.0001552
213	0x4113e27c	9.242794
214	0x40954667	4.664844
215	0xc15377c6	-13.216742
216	0xc14f56fa	-12.9587345
217	0x3fbd599f	1.4792975
218	0x40039ea4	2.0565577
219	0x403af127	2.9209688
220	0x401e2a1d	2.4713204
221	0x40a3c34d	5.1175904
222	0x40a0f631	5.0300527
223	0x40a37fad	5.1093354
224	0x3d02c0e9	0.031922255
225	0x400d3a33	2.2066772
226	0x403076dd	2.7572548
227	0x4051518a	3.2706017
228	0x4039aaab	2.9010417
229	0x408b873c	4.360258
230	0x3fbeaac8	1.4895868
231	0x4019082c	2.3911238
232	0x402ef01c	2.733405
233	0x4058793a	3.382399
234	0x3fa1ffc4	1.2656178
235	0x3fed3b1e	1.8533666
236	0x404a9b60	3.1657333
237	0x406d826c	3.7110853
238	0x402abdc8	2.6678333
239	0x403f3648	2.987688
240	0x3ffc5c3d	1.9715649
241	0xc14cf08a	-12.808725
242	0x40355460	2.8332748
243	0x4043c52a	3.058909
244	0x403877ee	2.88232
245	0x40a8c08b	5.273504
246	0x40a2fda2	5.093461
247	0x4114b7bc	9.294857
248	0x4016c4c8	2.3557606
249	0x40a32b0a	5.099004
250	0x40419b32	3.0250974
251	0x40429f24	3.0409632
252	0x409e7ede	4.9529867
253	0x4033b1ae	2.8077197
254	0x409552b2	4.6663446
255	0x40a515d6	5.1589155

net.2.bias f4 [128]
0	0xbf305f36	-0.6889528
1	0xbe7e5b76	-0.24839577
2	0xc10b64f0	-8.712143
3	0xbecee8be	-0.40411943
4	0x3d3b09f7	0.0456638
5	0x401a2590	2.4085426
6	0xbc979f86	-0.018508684
7	0x407b59d0	3.9273567
8	0x407a274f	3.9086492
9	0xbdb2810d	-0.08716021
10	0x4112e2a6	9.180334
11	0xbf98275b	-1.188701
12	0xbdb17d99	-0.08666534
13	0xbf1e8b31	-0.6193114
14	0x407993f1	3.8996546
15	0x3ca2f5ea	0.019892652
16	0x407aa032	3.9160275
17	0xbf1390b0	-0.5764265
18	0xbf071bf0	-0.52777004
19	0xbec93f7a	-0.3930624
20	0xbcd41223	-0.025887555
21	0x4080d581	4.0260625
22	0x3ce88dc5	0.028387913
23	0xc0cf82b6	-6.484706
24	0xc0ff3e5a	-7.9763613
25	0xc1096b6d	-8.588727
26	0xbdaa546a	-0.08316882
27	0x4072ea0c	3.795535
28	0x40786a1e	3.8814769
29	0x3f9a2fb6	1.204581
30	0x407f3a18	3.9879208
31	0xbda70e62	-0.0815704
32	0xbd0843b4	-0.03326769
33	0xbd256658	-0.040380806
34	0x407a4977	3.910734
35	0xbf5f0a25	-0.87124854
36	0x3d80a256	0.06280963
37	0x401eb66f	2.4798849
38	0x4076995f	3.853111
39	0x4116e2b8	9.430351
40	0x400f81c8	2.2422962
41	0xbba1476d	-0.0049218447
42	0xbd63e47c	-0.05563782
43	0xbcac045f	-0.020998178
44	0x40827f39	4.07803
45	0x4080480e	4.0087957
46	0x3d8b3a05	0.06798176
47	0xbfd70a21	-1.6799966
48	0xc0ce0fb4	-6.439417
49	0x3cf66fd7	0.030082626
50	0xbeb26baf	-0.3484778
51	0xbf394389	-0.72368675
52	0x3b407c58	0.002937099
53	0xbf0d8024	-0.5527365
54	0x407ec43e	3.9807277
55	0xbc75a4b4	-0.014992882
56	0xbd02c5b1	-0.031926814
57	0x407d53db	3.9582431
58	0xbf0aef9e	-0.54271877
59	0xc10bb04e	-8.730543
60	0x3c9327dd	0.017963344
61	0xc0ab2726	-5.348529
62	0xbe82cb52	-0.25545746
63	0xbea3319f	-0.31873795
64	0xc0f2a940	-7.5831604
65	0xbcf93736	-0.030421834
66	0x40740b4d	3.8131897
67	0x407ae30c	3.9201078
68	0x40193aef	2.394222
69	0x4015d703	2.3412483
70	0xbda69a34	-0.08134881
71	0x4073c5b4	3.8089418
72	0x3c80aeda	0.015708376
73	0xbdce9fce	-0.10089074
74	0x4080b206	4.0217314
75	0xc1049633	-8.28667
76	0x40774435	3.863538
77	0x406ea7eb	3.728999
78	0xc05204c0	-3.28154
79	0x3f9a13b6	1.2037265
80	0xbf07cd93	-0.53048056
81	0xbd051af8	-0.032496423
82	0x406f9516	3.7434745
83	0xbf0b5e04	-0.5444033
84	0x3d9467a5	0.07246331
85	0xbd09d8c8	-0.033654004
86	0x3cc0b7ec	0.0235252
87	0x4017def2	2.3729825
88	0x407d3cd5	3.956838
89	0xbd247cb2	-0.04015798
90	0xc0e8e2ac	-7.27767
91	0xc0976fb3	-4.732385
92	0x3888f52f	6.530654e-05
93	0x3e1d0e9f	0.15337609
94	0xbd61ba06	-0.055109046
95	0x407f8f0d	3.9931061
96	0xc0e1f832	-7.0615473
97	0x3c69fcaf	0.014281436
98	0x407b28c1	3.9243624
99	0xbdc37df7	-0.0954551
100	0xbda63af5	-0.08116714
101	0xc10acd12	-8.675066
102	0xc043c6f1	-3.0590174
103	0x41074b8a	8.455942
104	0xbced57c3	-0.028972512
105	0xc0c79d43	-6.237947
106	0x3d041e96	0.03225573
107	0xc0f44d71	-7.6344533
108	0x3ff0c1b7	1.8809117
109	0x3c1fa633	0.009744215
110	0x401ca4fc	2.4475698
111	0x4077315b	3.8623874
112	0xbef05706	-0.46941394
113	0xbd6e06ba	-0.058111884
114	0xbeeac273	-0.45851478
115	0x3ecdac4d	0.40170518
116	0xc108af8e	-8.54286
117	0xc0a9d357	-5.3070483
118	0x3c74706e	0.014919383
119	0xbf2d3c96	-0.6767057
120	0xc0b32dbd	-5.5993333
121	0xc0ce3e67	-6.4451175
122	0xc106e1b5	-8.430104
123	0xbd9c8382	-0.076422706
124	0x407a4e2f	3.911022
125	0xbdc68da7	-0.09694987
126	0xbeec9bb9	-0.46212557
127	0x401d73e8	2.4601994

net.4.weight f4 [20, 128]
0	0xbfac5fa4	-1.3466687
1	0xbf920949	-1.1409084
2	0x40f82e87	7.7556796
3	0xbf967137	-1.17533
4	0xbc8d01d8	-0.017212793
5	0x409c0d64	4.8766346
6	0x3d7a8515	0.061162073
7	0x408131b9	4.0373197
8	0x40940282	4.625306
9	0xbd0cf078	-0.034409016
10	0x3ffb685b	1.9641222
11	0xbfb3d192	-1.4048331
12	0x3cf05337	0.029336555
13	0xbfa95aaf	-1.32308
14	0x408f2b03	4.4740005
15	0xbc6b2a2a	-0.014353314
16	0x4087b7d8	4.241192
17	0xbf82f56a	-1.0231144
18	0xbf911bb1	-1.1336576
19	0xbf8d1d71	-1.102461
20	0xbd40c83f	-0.04706597
21	0x40848327	4.14101
22	0xbd8a5ae2	-0.06755616
23	0x40eace0a	7.3376513
24	0x40f4b759	7.6473813
25	0x40f2ed6c	7.591482
26	0x3c1e8e23	0.009677443
27	0x408adfc9	4.3398175
28	0x40952549	4.6608014
29	0x409aa9bd	4.83322
30	0x408c9044	4.3926105
31	0x3bfb668f	0.007672138
32	0x3a3d007d	0.00072098506
33	0x3d49b0ba	0.049240805
34	0x4087f740	4.248932
35	0xbfaf0f89	-1.3676616
36	0xbd8d66a0	-0.0690434
37	0x40999ca9	4.8003736
38	0x408e63ca	4.4496813
39	0x4005408f	2.0820653
40	0x4096c828	4.711933
41	0xbc16693c	-0.009180363
42	0x3d1beb23	0.03806604
43	0xbb42610c	-0.0029659895
44	0x4090c759	4.5243344
45	0x408a4232	4.3205805
46	0xbd9323b3	-0.071845435
47	0x40a55df0	5.167717
48	0x40eebff9	7.460934
49	0x3dadb798	0.08482283
50	0xbf907c47	-1.1287926
51	0xbf9a68a1	-1.206318
52	0xbf833ba6	-1.0252578
53	0xbf9c92c5	-1.223229
54	0x40888119	4.265759
55	0x3d973b81	0.07384396
56	0xbcac53f7	-0.021036131
57	0x409216c3	4.5652785
58	0xbf7f5e3d	-0.9975317
59	0x40f6d595	7.713572
60	0x3d65299c	0.055947885
61	0x40de8c39	6.954617
62	0xbf8d3b54	-1.103373
63	0xbf7da65c	-0.9908197
64	0x40f0a5e0	7.5202484
65	0xbd03be83	-0.032164108
66	0x408aa15f	4.3321986
67	0x40881510	4.252571
68	0x409a73a0	4.8266144
69	0x409aef64	4.8417225
70	0x3d2f742d	0.042835403
71	0x40814d5f	4.0406947
72	0xbd2f9246	-0.042864107
73	0xbf8801df	-1.0625571
74	0x408adf72	4.339776
75	0x40f53aa2	7.6634073
76	0x408f27d2	4.473611
77	0x406df231	3.7179072
78	0x40c39f24	6.1131763
79	0x4096bc67	4.7104983
80	0xbfa3f9cb	-1.2810606
81	0xbb82ee2d	-0.003995678
82	0x408e4d8f	4.4469676
83	0xbf960f4a	-1.1723416
84	0xbb8c0505	-0.0042730593
85	0x3da46ff9	0.080291696
86	0x3da9329c	0.08261606
87	0x4094a9a2	4.645707
88	0x408e6c03	4.450685
89	0x3d1e3885	0.03862812
90	0x40f19540	7.549469
91	0x40d9aaa0	6.8020782
92	0x3dace060	0.08441234
93	0x40958322	4.6722574
94	0x3d5f9a5c	0.054590568
95	0x408d9b29	4.4251904
96	0x40eceac9	7.4036603
97	0xbd495dbf	-0.04916167
98	0x408b02f6	4.3441114
99	0xbc9724e2	-0.018450204
100	0x3d8cea2c	0.06880602
101	0x40f483d1	7.641091
102	0x40bf54f5	5.9791207
103	0x3fa12124	1.2588239
104	0xbc4b7abe	-0.012419401
105	0x40eb8573	7.36004
106	0x3c89bed6	0.01681463
107	0x40f196d3	7.549661
108	0x40980bee	4.7514563
109	0x3cd94192	0.026520524
110	0x4098b412	4.7719812
111	0x4085a1b8	4.175991
112	0xbf9a7d63	-1.2069515
113	0xbd97a5b9	-0.07404656
114	0xbf9ffd74	-1.2499223
115	0xbecdfd6b	-0.40232405
116	0x40f47c5e	7.6401815
117	0x40e04ad4	7.0091343
118	0x3d1d9627	0.038473275
119	0xbf97d6fe	-1.1862485
120	0x40e7cd42	7.243806
121	0x40e9757a	7.2955904
122	0x40f8d39d	7.7758317
123	0xbd116af9	-0.035502408
124	0x40857373	4.170343
125	0x3da3001c	0.07959005
126	0xbfa11789	-1.2585307
127	0x409adac5	4.8392053
128	0xbf3964d4	-0.72419477
129	0xbf0efd5e	-0.5585536
130	0x40e37cdf	7.108993
131	0xbf4df066	-0.80444944
132	0xbd86f04b	-0.06588801
133	0x4090ee24	4.52907
134	0xbcb46b97	-0.02202396
135	0x408172c1	4.045258
136	0x408aa959	4.3331723
137	0x3d6d75f9	0.057973836
138	0x3e366822	0.17813161
139	0xbf80e02a	-1.006841
140	0xbcbc35e7	-0.022974921
141	0xbf3995d0	-0.7249422
142	0x4087553c	4.2291546
143	0x3bf34590	0.007424064
144	0x40838abe	4.1106863
145	0xbf0e393f	-0.555561
146	0xbf206c1b	-0.62664956
147	0xbf229221	-0.63504225
148	0x3d9ba7e0	0.07600379
149	0x4082ca26	4.0871763
150	0x3d1f3fbc	0.03887914
151	0x40e59e8b	7.1756034
152	0x40e2075f	7.0634
153	0x40e0a68d	7.020331
154	0x3da9b52e	0.082865104
155	0x40842725	4.1297784
156	0x408bf46f	4.373588
157	0x40934ef9	4.60339
158	0x408858cb	4.260839
159	0x3daa8ed1	0.08328021
160	0x3d34cb27	0.044139054
161	0xbd0d8314	-0.034548834
162	0x4085d39d	4.1820817
163	0xbf5505e1	-0.83212095
164	0xbd54a4d6	-0.051915012
165	0x408f74fb	4.48303
166	0x4086feec	4.2186184
167	0x3ed45cd4	0.41477072
168	0x4090baf4	4.5228214
169	0x3c2133a3	0.009838971
170	0x3d2563f4	0.040378526
171	0xbd0c9d72	-0.03432984
172	0x4089ec8e	4.3101263
173	0x4086242d	4.191916
174	0xbd8a550d	-0.067545034
175	0x40be00a2	5.9375772
176	0x40e780e2	7.234483
177	0x3be2ff02	0.006927372
178	0xbf19f3be	-0.60137546
179	0xbf295b44	-0.66154885
180	0xbf2ca61b	-0.67440957
181	0xbf4d115b	-0.8010461
182	0x408944e9	4.289662
183	0xbd969599	-0.07352752
184	0x3cf69535	0.030100444
185	0x408c3778	4.381771
186	0xbf153ae1	-0.5829297
187	0x40e36774	7.1063786
188	0x3d2d563e	0.042318575
189	0x40e5645c	7.168501
190	0xbf1758d2	-0.59119904
191	0xbf11e955	-0.5699666
192	0x40e43c1d	7.132338
193	0x3dae640b	0.085151754
194	0x4086e3f8	4.215328
195	0x4084576c	4.1356716
196	0x408ec138	4.4610863
197	0x408f6594	4.4811497
198	0xbbdfedea	-0.0068337815
199	0x4079756d	3.897792
200	0xbca6b9d7	-0.020352287
201	0xbf0f9b35	-0.560962
202	0x40885da0	4.261429
203	0x40e0cc75	7.024958
204	0x4088966f	4.2683635
205	0x406e32ae	3.7218432
206	0x40d92c75	6.786677
207	0x40939163	4.6114974
208	0xbf529d8a	-0.82271636
209	0xbc6d4720	-0.01448229
210	0x40895628	4.291767
211	0xbf445358	-0.7668967
212	0xbd2f4248	-0.04278782
213	0xbd70c04a	-0.05877713
214	0x3d5af1e7	0.053453352
215	0x408c746f	4.389213
216	0x4089debc	4.3084393
217	0xbd3e2103	-0.0464182
218	0x40e6bc2f	7.2104716
219	0x40e45cd9	7.136334
220	0x3d2110b3	0.039322566
221	0x409d4297	4.9143786
222	0x3d2c7de4	0.042112246
223	0x4086de0e	4.2146063
224	0x40e4f8d1	7.155373
225	0x3d89e67e	0.06733416
226	0x4085127b	4.158506
227	0xbda85e5e	-0.08221124
228	0xbd77b005	-0.0604706
229	0x40e1b913	7.053842
230	0x40d6a9a0	6.708206
231	0x3f0bb125	0.54567176
232	0xbd9eac95	-0.07747761
233	0x40e93640	7.2878723
234	0x3d87a3e1	0.06623054
235	0x40e3a30d	7.1136537
236	0x408efe01	4.4685063
237	0x3d5131ed	0.051073004
238	0x408f5e6c	4.480276
239	0x4082ee7a	4.091611
240	0xbf19d8da	-0.60096514
241	0x3d508ba5	0.050914425
242	0xbf3e77c5	-0.74401504
243	0xbf04955d	-0.5179041
244	0x40e1618c	7.0431576
245	0x40e70391	7.2191854
246	0x3da520b3	0.080628775
247	0xbf2edc40	-0.68304825
248	0x40e50049	7.156285
249	0x40e8ea9a	7.278638
250	0x40dfffd4	6.999979
251	0xbcd82e8d	-0.026389385
252	0x40821ba6	4.065875
253	0xbd991cf6	-0.07476227
254	0xbf30dbc3	-0.6908533
255	0x408e146a	4.439992

net.4.bias f4 [20]
0	0x40033bde	2.050529
1	0x3fe2262d	1.76679
2	0x3fd3ae50	1.6537571
3	0x3fe21b6b	1.7664617
4	0x3f934bb9	1.1507484
5	0x3fa31edf	1.2743796
6	0x3fca37c3	1.5798267
7	0x3fd34a56	1.650706
8	0xbd8ec915	-0.06971947
9	0x3ff32746	1.899636
10	0x3eab2a2d	0.33430615
11	0x3efa47db	0.48882946
12	0x3f4fb907	0.81141704
13	0x3ec2d7df	0.38055322
14	0x3f850de4	1.0394864
15	0xbed5d6bb	-0.4176539
16	0x3eebfcba	0.46091253
17	0x3b5aef01	0.0033406618
18	0x3f4528a3	0.7701513
19	0x3d7c453f	0.061589476
