realtime_model_ep289.pth (torch, 97610 bytes, 6 tensors)

net.0.weight f4 [128, 35]
00000000: b244 1ac0 f79b f641 368d debe 94f7 00bf
00000010: 1094 abbe 00d1 c5bf 373b e941 61d4 0cbf
00000020: 45e0 b83f 3710 f83e b958 fcbf 2cb7 eb41
00000030: 7cd4 0ebf 1f38 0840 ff3a bdbd 06e3 a0bf
00000040: ecc0 eb41 c938 45bf 73c7 953f f9af 38bf
00000050: 9a5e 09c0 3d85 ec41 4713 20bf 8739 2340
00000060: d84c f6be 1acd dd40 b2d2 d040 4058 0c41
00000070: aed2 dd40 0f25 cb40 581a ba40 7319 c740
00000080: 1e8f db40 bcd6 6c40 cbde d840 f8e1 17c0
00000090: 25e9 f641 655a 90be ec0a afbe 62b0 9abe
000000a0: 3a42 a7bf 4894 ea41 928e 50bf d041 b13f
000000b0: f75d 053f cdca e5bf 7c3f ec41 c3d7 1abf
000000c0: 770d 0a40 d00b 133b dfe5 a1bf f067 eb41
000000d0: 297e 4fbf 9611 963f 7d9e 06bf 3d27 04c0
000000e0: 538c eb41 77f7 44bf e001 2040 aa68 4dbf
000000f0: 7a41 e140 5cf3 ce40 72bd 0c41 6f07 dc40
00000100: 4bf9 c140 b7c6 b740 516b c540 5158 db40
00000110: 694e 6140 457b dc40 75cb 13c0 7bce f741
00000120: 3486 5abe 263d 1cbf 92b0 b63c 0c20 a4bf
00000130: d9cb ec41 fd42 01bf 40ca af3f 0a9d 543f
00000140: 320b e9bf 1503 ee41 ce35 73be 0876 0640
00000150: 5e08 393e b6d1 a0bf 1095 ee41 b9cd 16bf
00000160: 3535 e13f 9c86 81be 15e1 08c0 7770 ef41
00000170: 9a9c cdbe d090 1f40 e99a bbbe 436a eb40
00000180: 3da7 e140 f3f9 0b41 a3be df40 50c8 d240
00000190: f065 be40 0097 d240 aeb3 e340 90f0 6b40
000001a0: ac21 e140 659d 0cc0 ccaa f441 1063 1dc1
000001b0: 9713 e9bf a3c0 4fc1 4e65 a0bf 7a46 ea41
000001c0: b1e3 25c1 ab4d b33f 26ac 3fc1 33f0 cabf
000001d0: 5540 e941 7cc9 25c1 f807 bb3f 52bd 4ac1
000001e0: 0b36 94bf 890f eb41 02cd 28c1 cb02 6e3f
000001f0: 169e 45c1 663e 01c0 374f ea41 93f7 26c1
00000200: caed 1040 bfba 4bc1 95b8 0841 06fb fd40
00000210: 2f33 3f41 dc04 2541 eb7b 0b41 cab8 1d41
00000220: 8a48 0641 90aa 2041 8853 d840 6412 1141
00000230: b9bc 1b3f 9e00 a2c1 c2d2 2a41 a057 0940
00000240: f751 0041 ff0c a03e 4fdc 95c1 c918 3541
00000250: 0152 da3f 11e7 e840 d03d 863e 8800 97c1
00000260: c485 2e41 1a74 5640 a2f9 0e41 a2ff 823f
00000270: 9d94 98c1 a5eb 3341 67ad d93f 01db 1141
00000280: 63c2 3a3f 4c68 97c1 853d 3541 1516 95be
00000290: fbd3 0341 8a9b cd40 3131 c440 7241 b640
000002a0: b6b5 c940 f9bc 2141 8d02 bd40 62d1 cf40
000002b0: f422 f740 635d fb40 18f8 0341 abdd 1cc0
000002c0: 7b1f f541 76c9 40bf dd0a eabe 8c27 1cbf
000002d0: 731f c4bf c964 e841 0842 94bf ae80 a93f
000002e0: 2e8d 533e 33e2 d1bf 5909 ea41 48e8 67bf
000002f0: 0285 1140 8169 54bd 73fa a2bf 5d94 e941
00000300: 8196 97bf 934b 673f 89c4 5fbf 34e5 f2bf
00000310: 9f26 ea41 c527 84bf c001 2540 6318 2ebf
00000320: 45a9 d940 a698 c640 e8b2 0741 72fc d140
00000330: ed69 c140 03af b240 7706 c140 0795 d340
00000340: 8163 5340 faae d340 ea60 bf3c ae76 953d
00000350: 5cac 09be 533b 38bb b412 e3bd 69f9 523d
00000360: 0903 a03c 4b51 863d ada6 05be 0b9e acbd
00000370: b2c9 12be e122 ca3d 3627 e4bd 42e8 14bc
00000380: e430 e9bd c7bd 033e 126f d63d e497 55bc
00000390: 68b8 a1bd acf6 e03d 376c 273e c22c 09be
000003a0: e2f8 a93c 0e59 d5bd 4c6a 3a3d 30a9 caba
000003b0: 2aa2 babd 8eeb f6bd d488 653d aba9 13be
000003c0: afb4 84bd 9d33 19be e0a2 04be 8b46 8b3d
000003d0: 842e d93d 32f9 1cc0 0337 f541 db5d 2dbf
000003e0: 8a59 10bf fa63 c6be da4e b3bf 200e e941
000003f0: 75af 98bf fc34 ad3f 0d9a 573e 7f88 cdbf
-2.4104428 30.826155 -0.4346711 -0.50377774 -0.335114 -1.5454407 29.153913 -0.55011564
1.4443442 0.4844987 -1.9714576 29.46444 -0.55792975 2.1284254 -0.09239768 -1.2569282
29.4692 -0.7703977 1.1701492 -0.7214351 -2.146399 29.565058 -0.62529415 2.5503862
-0.48105502 6.931287 6.5257196 8.771545 6.9319677 6.3482738 5.815716 6.2218566
6.8612204 3.7006063 6.7771964 -2.373167 30.86384 -0.28193966 -0.3418802 -0.30212694
-1.3067086 29.322403 -0.81467545 1.3848209 0.52096504 -1.7952515 29.530998 -0.60485476
2.1570718 0.002243746 -1.2648276 29.42575 -0.8105188 1.1724117 -0.52585584 -2.064895
29.443518 -0.769401 2.5001144 -0.8023783 7.0392427 6.467207 8.796251 6.8759074
6.0616813 5.743007 6.16935 6.854531 3.5204108 6.8900476 -2.309293 30.97582
-0.21340257 -0.61030805 0.022300992 -1.282228 29.599535 -0.5049284 1.3733597 0.8305212
-1.8206542 29.751505 -0.23750994 2.100954 0.18069598 -1.2563999 29.822784 -0.5890766
1.7594362 -0.2529801 -2.138738 29.929914 -0.4015854 2.4932137 -0.36641625 7.3567214
7.051665 8.748523 6.992021 6.586952 5.9499435 6.5809326 7.1156836 3.6865578
7.0353603 -2.1971066 30.583397 -9.836685 -1.8209103 -12.98453 -1.2530916 29.284412
-10.368089 1.4008077 -11.979528 -1.5854553 29.156412 -10.3616905 1.4611807 -12.671221
-1.1578993 29.382586 -10.550051 0.9297301 -12.351095 -2.0194335 29.28868 -10.435443
2.2645135 -12.733092 8.545064 7.9368925 11.949996 10.313686 8.717753 9.8576145
8.39271 10.041641 6.7601967 9.06699 0.6083484 -20.250301 10.676455 2.1459732
8.020011 0.31259915 -18.732573 11.318551 1.7056276 7.2782063 0.26219034 -18.87526
10.907658 3.3508363 8.9359455 1.0234263 -19.072565 11.24503 1.7006043 9.115968
0.7295286 -18.925926 11.327519 -0.2911841 8.239253 6.4252367 6.131005 5.695489
6.3034315 10.108636 5.9065614 6.4943094 7.7230167 7.8551497 8.24807 -2.4510295
30.640371 -0.75307405 -0.45711413 -0.60997844 -1.5322098 29.049212 -1.1582651 1.3242395
0.20659325 -1.6397156 29.254564 -0.9058881 2.2737432 -0.05185843 -1.2732681 29.197443
-1.1842805 0.9034969 -0.87409264 -1.8976197 29.268858 -1.0324637 2.5782318 -0.6800596
6.801913 6.206134 8.481178 6.562066 6.0441804 5.5838637 6.032039 6.611942
3.3029482 6.6151094 0.023361642 0.07298027 -0.13444656 -0.0028111532 -0.11087552 0.051507387
0.019532697 0.06558474 -0.13051863 -0.08428582 -0.14334753 0.09869934 -0.111402914 -0.009088578
-0.11386278 0.12865363 0.10470404 -0.013036702 -0.07896501 0.10984549 0.16349874 -0.1339598
0.02074856 -0.104173765 0.04551153 -0.0015461799 -0.091129616 -0.12056647 0.056038693 -0.14420192
-0.06479775 -0.14961095 -0.12952757 0.068005644 0.10604575 -2.4527097 30.651861 -0.6772134
-0.56386626 -0.3874815 -1.4008439 29.131897 -1.1928545 1.3531795 0.2105486 -1.605728

net.0.bias f4 [128]
00000000: 80bb 4340 accb 3c40 1a13 4c40 05df 9bc0
00000010: bb9c 1f41 8716 2c40 5ffc 41be 3dbe 2440
00000020: b20a 2140 cda2 4840 f7a2 1b40 0c1a 2940
00000030: 104c 1c41 7831 2141 b8d4 2940 64c3 2340
00000040: f119 2340 6932 1e41 ae61 2a40 c957 1f41
00000050: c334 6a3c 5b1c 3d40 a1b9 19be 92ce c33f
00000060: ad53 3e40 e236 afc0 b099 2041 c48e 1e40
00000070: 74e7 2340 5fed 4940 b24e 4140 f799 1c40
00000080: e973 1f40 e393 2241 2ade 1f41 6cf1 3e40
00000090: 806c 2940 6aec 1d41 507d 1f40 dd28 1f40
000000a0: c2d8 5040 9910 1e41 385a 1f40 60da 1e40
000000b0: 2d5d aebd e0ec b4bc 5f7e e63f 34c3 66bd
000000c0: b5ab 3240 4e69 0fbd 1a6e 2140 064d 1cbe
000000d0: 99eb 1c41 9784 1a40 fb00 2240 adef 1d40
000000e0: 79cc 1740 f28f 1f41 a50f 43be 5fc2 4340
000000f0: 84fa 1640 1d58 2041 d500 5240 1aa3 68bd
00000100: 9c7c 4d40 145f 4c40 66ae 2440 51e1 1840
00000110: bfa3 1d41 7bd7 1b41 0aac 1d40 be10 3240
00000120: 1b34 4640 b608 1f40 f46a 2041 1b85 2540
00000130: e5fa 1b41 7bb3 2040 95e0 2040 3c32 203d
00000140: ae50 2040 45df 2640 4729 1f40 fb5d 34be
00000150: 622b 1d41 e6fb e83f 493b 2940 f494 94c0
00000160: 1737 9ac0 9875 2440 1321 1a40 3026 1a40
00000170: 5312 2140 326e 5340 996b 4e40 562e 4140
00000180: 0825 18bd 24cd 1a40 477a 1f41 5eb1 2640
00000190: 41b4 2041 a963 3040 63ca 2140 12bd 2840
000001a0: 7b80 2341 2d27 1b40 0c89 1440 c54f 1940
000001b0: 2cc6 1f40 7da9 2d40 1fd3 2240 95ab 1c41
000001c0: bbe0 2440 5cac 93c0 8d4d 2041 a42b 1d41
000001d0: 38f5 1b41 f698 5140 a9ab 4e40 15e1 d23f
000001e0: 5f09 2240 7bd0 5340 0b1c 1f41 ce08 2141
000001f0: 8530 3240 c984 2541 163a 2b40 1b96 4940
3.058319 2.9499311 3.1886659 -4.870974 9.975764 2.688875 -0.18943928 2.5741112
2.5162778 3.1349366 2.4318216 2.6422148 9.76857 10.074577 2.6536083 2.5588007
2.5484583 9.887307 2.662212 9.958932 0.014294806 2.9548557 -0.15012218 1.5297415
2.9738572 -5.4754496 10.037521 2.4774637 2.5610018 3.155113 3.0204282 2.4468973
2.4914496 10.161105 9.991739 2.9834852 2.6472473 9.870218 2.4920235 2.486869
3.2632298 9.879052 2.4898815 2.4820786 -0.085138656 -0.022085607 1.8007315 -0.056338504
2.7917302 -0.035012536 2.522345 -0.15263757 9.807519 2.4143426 2.5313098 2.4677536
2.371855 9.972643 -0.19048937 3.0587385 2.3590403 10.021512 3.2813008 -0.05679617
3.2107306 3.193303 2.5731444 2.3887522 9.852477 9.740108 2.4636254 2.7822719
3.0969303 2.4849067 10.026112 2.586249 9.748754 2.5109546 2.5137074 0.039110407
2.5049243 2.6073773 2.4868944 -0.17613976 9.8230915 1.8201873 2.6442435 -4.6431828
-4.819225 2.5696774 2.4082687 2.4085808 2.5167434 3.3036008 3.2253172 3.0184531
-0.03714469 2.4187708 9.967353 2.6045756 10.044007 2.7560828 2.5279777 2.63654
10.218867 2.424266 2.3208647 2.3954937 2.4964705 2.7134697 2.5441358 9.79189
2.5762165 -4.61479 10.018933 9.823154 9.747368 3.274961 3.2292273 1.647494
2.531822 3.3095996 9.944346 10.06465 2.7842114 10.344918 2.6754203 3.1497867

net.2.weight f4 [128, 128]
00000000: 7417 a340 65d1 a040 795e a340 db67 49c1
00000010: dab6 2240 32b5 3a40 1d31 be3b 91d2 3a40
00000020: 2cfa 2040 e77f a340 5a37 1640 ccd4 5140
00000030: 8647 3240 7df6 2a40 3730 1340 5b4c 1940
00000040: b525 3340 8bfc 3540 8d9a 4f40 5200 1d40
00000050: 6533 9abd ea0a a440 3bad 673d 0b8e 0f41
00000060: 5852 a340 47f6 51c1 76ed 1840 932d 2740
00000070: 2e9b f73f a701 9f40 90b2 9e40 4b8b 0040
00000080: e372 eb3f 81f5 2740 3b8a 1d40 1eda a440
00000090: fd97 5d40 9325 2940 f0d0 4540 9eeb 0240
000000a0: 98e4 a140 95d3 2740 e2c5 0340 e907 4640
000000b0: 0d22 b53c 2adc 483d c7f4 1841 fa95 c03c
000000c0: 1ad7 9240 e506 3b3d a849 3a40 8e8e 4f3d
000000d0: 2cf0 2940 9ffa 3b40 be79 1d40 5099 e73f
000000e0: e9ae 1840 c4ec 1a40 b890 383d 5512 a040
000000f0: 593d 5140 c6bb 2740 62fd a040 c10f 423d
00000100: ae2f 9d40 46f9 a640 6ee9 5640 2a36 903f
00000110: ddd8 1f40 c114 3140 370b 8240 10de 9140
00000120: 4453 a340 d452 bb3f 334a 2540 b8bf 8c40
00000130: 647b 3240 1dfa 3640 9430 3c40 b96f b2bd
00000140: 61d9 3340 b826 d33f 8efb 3740 e50a 543d
00000150: 2c0f 2d40 c382 1741 19e9 9640 335e 51c1
00000160: 25bf 4bc1 083f c43f 314b 0240 fe1a 5040
00000170: 8375 2840 0f7b a440 9820 a240 69b2 a240
00000180: be73 9fbd 6691 1040 460e 1e40 58b5 6640
00000190: 10a6 2340 53b6 8f40 d3d5 cf3f dad9 2140
000001a0: 8faf 1740 7168 6840 74f2 b23f d6d1 0340
000001b0: 511d 4c40 747d 6e40 66c8 3a40 7811 2840
000001c0: ff99 f73f bc1d 4ac1 8556 1e40 6fe0 2e40
000001d0: 0146 2840 cbde a240 6a34 9f40 0a33 1841
000001e0: dd5b 2440 8b69 a040 cd55 2640 ef4c 2640
000001f0: 13ea a140 c3c8 2140 f01a 9340 4530 a440
00000200: 0749 a040 1f7d a040 9c71 a340 0207 4cc1
00000210: dc54 3a40 d667 2640 a7e9 d63c 6244 2b40
00000220: cbe3 1b40 6239 a740 8344 0c40 6338 5140
00000230: afb8 4540 4f1a 3c40 e201 0940 88aa 1440
00000240: aea3 2a40 c12c 4640 58e8 3e40 2d5d 3b40
00000250: e1a8 adbd c7b5 a640 4169 66bb 0614 1041
00000260: ab4e a540 fd37 53c1 e96e 2f40 4bb0 2140
00000270: 5f90 f23f 60e1 a340 43cc a340 1661 0340
00000280: ba27 fb3f ad89 4240 f825 3740 c007 a440
00000290: 602f 4e40 1e8f 3a40 c892 4040 8174 f43f
000002a0: 0336 a340 ec8e 3940 77fa 0240 f754 3c40
000002b0: 9977 1e3b 91e9 e73c 50f3 1641 e109 213d
000002c0: 23f4 9040 ba9a 11bd e22e 3440 d449 143c
000002d0: bdb5 3d40 28da 3140 e029 0c40 2ca0 f43f
000002e0: 7d99 1440 3de6 2e40 f892 95bd 4bf9 a540
000002f0: c2f9 4240 d0e7 3e40 96f4 a040 003b 28bd
00000300: a5d7 a040 148f a840 bbf9 4540 82a7 943f
00000310: 9023 3140 219a 4640 4633 8740 183d 8c40
00000320: 796e a540 2bad 983f bc3a 4340 1b01 8a40
00000330: e8ae 4340 0fb6 2740 32c3 2840 3306 c83c
00000340: 4902 2f40 9432 dd3f b1c7 2f40 a3bb df3c
00000350: f48b 4040 8ed5 1441 402a 9740 6d92 51c1
00000360: 5771 4dc1 ce23 c53f 8181 0740 fcd5 3e40
00000370: 4105 2240 f593 a540 ecc8 a240 874e a540
00000380: e9c0 023d 421c 1140 25b4 3040 6233 5540
00000390: 78ef 3940 436f 8d40 386c c63f 19ec 1c40
000003a0: eb26 2f40 0b5d 5c40 7ed5 a93f 43ff f43f
000003b0: dd73 4e40 fb60 7140 aa9f 2e40 1eb7 3f40
000003c0: 0b11 0240 6f0c 4bc1 ef94 3540 c155 4440
000003d0: 73d9 3840 658c aa40 dccd a440 05ac 1541
000003e0: a5a3 1a40 62fa a440 6814 4240 f524 4340
000003f0: 2f59 a040 9fd6 3340 9138 9740 b5ee a640
5.096613 5.025561 5.1052823 -12.587855 2.5424104 2.9173093 0.0058041946 2.919102
2.5152693 5.109363 2.3471284 3.278613 2.7856154 2.6712945 2.2998178 2.3952854
2.7991765 2.843539 3.243808 2.4531446 -0.07529334 5.1263323 0.05656169 8.972178
5.1038017 -13.122626 2.3894935 2.6121566 1.9344232 4.9689517 4.959297 2.0085018
1.8394436 2.6243594 2.461562 5.1516256 3.4624016 2.6429183 3.0908775 2.045631
5.0591545 2.622289 2.0589528 3.0942328 0.022110963 0.04903809 9.55976 0.023509014
4.5887575 0.045660872 2.9107456 0.05067306 2.655284 2.9371717 2.4605556 1.8093662
2.3856757 2.420701 0.04505989 5.002238 3.2693694 2.6208358 5.0309305 0.047378305
4.9120703 5.217929 3.3579974 1.126653 2.4976113 2.7668917 4.063869 4.5583572
5.1039143 1.4634652 2.5826538 4.398403 2.7887812 2.8590157 2.940465 -0.08712716
2.8101428 1.6496191 2.8747287 0.051768202 2.704051 9.469424 4.7159543 -13.085498
-12.734166 1.5331736 2.0358393 3.2516475 2.6321723 5.140022 5.0664787 5.0842786
-0.07785748 2.2588744 2.4696212 3.6048183 2.5570107 4.4910064 1.6237129 2.5289216
2.3700902 3.6313746 1.3980241 2.0596824 3.1892893 3.726407 2.9184813 2.6260662
1.9343871 -12.632259 2.4740307 2.7324483 2.6292727 5.0896964 4.975148 9.512461
2.568107 5.0128837 2.5989869 2.5984457 5.0598235 2.5278785 4.5970383 5.1308923
5.0089145 5.0152736 5.1076183 -12.751711 2.9114294 2.6000876 0.026234461 2.6760488
2.4357784 5.2257547 2.1916816 3.2690666 3.0893972 2.9391057 2.14074 2.3229084
2.6662402 3.0964816 2.9829311 2.927562 -0.08479477 5.2096896 -0.003515795 9.004889
5.165853 -13.201169 2.7411444 2.526385 1.8950309 5.1212616 5.1186843 2.0528007
1.9621499 3.039653 2.8616924 5.125946 3.2216415 2.9149852 3.0089588 1.9098054
5.100343 2.8993483 2.0465372 2.9426858 0.0024180172 0.028309615 9.434402 0.039316062
4.529802 -0.03554795 2.8153615 0.009050805 2.9642174 2.7789402 2.1900558 1.911138
2.3218682 2.7328026 -0.07303423 5.1866813 3.046494 2.9828987 5.0298567 -0.04107189
5.026324 5.2674656 3.0933673 1.1613619 2.7677956 3.1031573 4.225009 4.3824577
5.1697354 1.1927847 3.0504599 4.312635 3.0575504 2.620487 2.6369138 0.024417019
2.7345145 1.728106 2.7465632 0.027311152 3.008542 9.302137 4.7239075 -13.0982485
-12.840171 1.5401552 2.1172793 2.9818106 2.5315707 5.174311 5.0870266 5.165836
0.031922255 2.2673497 2.7609951 3.3312612 2.905241 4.4198318 1.5501776 2.4519103
2.7367504 3.443179 1.3268278 1.91404 3.2258217 3.7715442 2.7284951 2.9955516
2.0322902 -12.690536 2.8372152 3.067734 2.888272 5.329638 5.1501293 9.354497
2.416238 5.1555643 3.0324955 3.0491307 5.0108867 2.8099744 4.725655 5.216639

net.2.bias f4 [128]
00000000: 3bc3 28bf 9355 62be e56e 0cc1 f15b c0be
00000010: f709 3b3d 3257 0f40 869f 97bc 6ca4 7440
00000020: b739 7340 0d81 b2bd c8b8 1a41 1e34 94bf
00000030: 997d b1bd e8ea 16bf 1eac 7240 eaf5 a23c
00000040: 85de 7340 8cc4 0dbf 0dcb ffbe 7208 babe
00000050: 2312 d4bc f3f7 7a40 c58d e83c d399 d0c0
00000060: 6c6b 00c1 e26c 0ac1 6a54 aabd a61a 6c40
00000070: 546c 7140 6597 833f d457 7840 620e a7bd
00000080: b443 08bd 5866 25bd 3a92 7340 12ca 56bf
00000090: 56a2 803d 58fc 1340 3dcb 6f40 2875 1e41
000000a0: 4da8 0440 6d47 a1bb 7ce4 63bd 5f04 acbc
000000b0: c107 7e40 bfc9 7940 053a 8b3d e228 e1bf
000000c0: 6e1d cfc0 d76f f63c 0c00 a5be 009e 31bf
000000d0: f4a4 ef3c 6b45 06bf 4a01 7840 b4a4 75bc
000000e0: 53e4 853e 3c70 7640 0852 04bf 4eb0 0cc1
000000f0: dd27 933c 1fbb abc0 f13f 6ebe 6c3d 96be
00000100: 14f0 f3c0 3637 f9bc c142 6d40 ee20 7440
00000110: 955d 0e40 2b04 0b40 349a a6bd 900d 6d40
00000120: daae 803c 8728 95bd f67e 7a40 549f 05c1
00000130: 8461 7040 c96f 6840 6f96 51c0 e069 833f
00000140: 0fee ffbe f81a 05bd c5a5 6840 4588 03bf
00000150: a567 943d c8d8 09bd ecb7 c03c c52d 0d40
00000160: dd67 7640 b27c 24bd 162b eac0 a475 97c0
00000170: 2ff5 8838 a6d7 33bc 06ba 61bd 919f 7840
00000180: 0223 e3c0 affc 693c 9a6a 7440 f77d c3bd
00000190: 6f54 a6bd a0ce 0bc1 c189 43c0 9bcc 0e41
000001a0: c357 edbc 7099 c8c0 961e 043d fab3 f5c0
000001b0: 4093 da3f 33a6 1f3c 44df 1140 c465 7040
000001c0: 1674 e1be ba06 6ebd 670f dbbe 6377 213f
000001d0: 5eaa 09c1 e596 aac0 6e70 743c e8f5 25bf
000001e0: b712 b4c0 e248 cfc0 a0e2 07c1 8283 9cbd
000001f0: 28a9 7340 a78d c6bd dfbe ddbe 41b9 1240
-0.659229 -0.22102956 -8.777074 -0.37570146 0.0456638 2.239697 -0.018508684 3.8225355
3.8003976 -0.08716021 9.670113 -1.1578405 -0.08666534 -0.5895219 3.7917552 0.019892652
3.8104565 -0.5537803 -0.49959603 -0.36334568 -0.025887555 3.9213836 0.028387913 -6.5187774
-8.026226 -8.651583 -0.08316882 3.6891265 3.7722368 1.0280577 3.8803606 -0.0815704
-0.03326769 -0.040380806 3.8058 -0.83902085 0.06280963 2.3122768 3.7467797 9.903603
2.0727723 -0.0049218447 -0.05563782 -0.020998178 3.9692233 3.9029386 0.06798176 -1.7590601
-6.4723425 0.030082626 -0.32226598 -0.69381714 0.02925346 -0.52449673 3.8750787 -0.014992882
0.2615076 3.8506002 -0.5168767 -8.793043 0.017963344 -5.366592 -0.23266579 -0.29343736
-7.6230564 -0.030421834 3.7071993 3.8145099 2.2244618 2.1721294 -0.08134881 3.7039528
0.015708376 -0.072831206 3.913999 -8.351398 3.755952 3.6318228 -3.2748067 1.0266685
-0.49986312 -0.032496423 3.6351178 -0.51379806 0.07246331 -0.033654004 0.0235252 2.2059186
3.8500893 -0.04015798 -7.3177595 -4.7331104 6.530654e-05 -0.010976708 -0.055109046 3.8847392
-7.0980234 0.014281436 3.8190064 -0.0954551 -0.08121573 -8.737946 -3.0552828 8.9249525
-0.028972512 -6.26873 0.03225573 -7.67822 1.7076187 0.009744215 2.279252 3.7562113
-0.4403388 -0.058111884 -0.4278519 0.63072795 -8.604094 -5.3309197 0.014919383 -0.6482835
-5.6272845 -6.477647 -8.492828 -0.076422706 3.8071995 -0.09694987 -0.43309686 2.292557

net.4.weight f4 [20, 128]
00000000: 02d2 bcbf 7d53 a3bf f33e ff40 495f a7bf
00000010: d801 8dbc 06ae 9e40 1585 7a3d 416c 8240
00000020: 1541 9540 78f0 0cbd 0b7f cc3f eed0 c3bf
00000030: 3753 f03c 6dda b9bf 5e61 9040 2a2a 6bbc
00000040: 4be9 8840 a02a 94bf 1921 a2bf 29f6 9dbf
00000050: 3fc8 40bd 1aba 8540 e25a 8abd aaa9 f140
00000060: 12ad fb40 8ffa f940 238e 1e3c ff14 8c40
00000070: 4f66 9640 4e3b 9e40 9bca 8d40 8f66 fb3b
00000080: 7d00 3d3a bab0 493d b229 8940 4613 bfbf
00000090: a066 8dbd 3a3c 9c40 629d 8f40 6e9f db3f
000000a0: e683 9940 3c69 16bc 23eb 1b3d 0c61 42bb
000000b0: 2405 9240 f272 8b40 b323 93bd bdc7 aa40
000000c0: 839a f540 98b7 ad3d 33b3 a1bf b5fa aabf
000000d0: 3ab5 94bf d552 adbf 72b5 8940 813b 973d
000000e0: 07cd 6abe 9152 9340 2df0 90bf e6e1 fd40
000000f0: 9c29 653d b252 e540 99ab 9ebf 3929 90bf
00000100: 3488 f740 83be 03bd e7da 8b40 7c45 8940
00000110: ec26 9d40 5991 9d40 2d74 2f3d 1b81 8240
00000120: 4692 2fbd d36d 99bf 0319 8c40 554b fc40
00000130: 4d63 9040 c434 7040 cdc7 c940 925d 9a40
00000140: ac73 b4bf 2dee 82bb 6f87 8f40 b990 a6bf
00000150: 0505 8cbb f96f a43d 9c32 a93d 7e43 9740
00000160: eda5 8f40 8538 1e3d f977 f840 1051 e040
00000170: 60e0 ac3d 1fa5 9940 5c9a 5f3d c7d6 8e40
00000180: f7c8 f340 bf5d 49bd e634 8c40 e224 97bc
00000190: 2cea 8c3d 3c90 fb40 b971 c540 553b 643f
000001a0: be7a 4bbc 545e f240 d6be 893c a27f f840
000001b0: ab2d 9b40 9241 d93c 8454 9b40 65d3 8640
000001c0: 146f abbf b9a5 97bd 89aa b0bf cec8 2abf
000001d0: f785 fb40 ca19 e740 2796 1d3d d594 a8bf
000001e0: eea2 ee40 e44e f040 94df ff40 f96a 11bd
000001f0: bba4 8640 1c00 a33d 35e6 b1bf 6d79 9d40
00000200: 4107 47bf 2036 1bbf 3cc2 eb40 cf5d 5abf
00000210: 4bf0 86bd ecd4 9240 976b b4bc 482e 8140
00000220: ea68 8a40 f975 6d3d 0598 0c3f cc0a 88bf
00000230: e735 bcbc d8fb 46bf cb0e 8740 9045 f33b
00000240: c43f 8340 4c1c 1bbf 0632 2dbf 9645 2fbf
00000250: e0a7 9b3d 4082 8240 bc3f 1f3d 19c4 ed40
00000260: 643d ea40 27ea e840 2eb5 a93d fcde 8340
00000270: a9b4 8b40 ad51 9740 3013 8840 d18e aa3d
00000280: 27cb 343d 1483 0dbd 8b89 8540 4bed 62bf
00000290: d6a4 54bd a759 9140 81b9 8640 2f18 493f
000002a0: cbdf 9240 a333 213c f463 253d 729d 0cbd
000002b0: 27aa 8940 cbd7 8540 0d55 8abd c5fa c440
000002c0: 9aa5 ef40 02ff e23b 8f72 26bf 7dcf 36bf
000002d0: 0d34 38bf fa07 5abf befa 8840 9995 96bd
000002e0: 08fc 143f 12f5 8b40 99ff 21bf b9aa eb40
000002f0: 3e56 2d3d df7b ed40 1fcc 23bf 27f2 1dbf
00000300: de65 ec40 0b64 ae3d 9f9e 8640 390c 8440
00000310: 4dd3 9040 504f 9140 eaed dfbb 1fe5 7840
00000320: d7b9 a6bc a15b 1bbf 5217 8840 f211 e940
00000330: 3851 8840 92a3 6d40 58cd e040 d7b4 9740
00000340: 86b1 5fbf 2047 6dbc 6311 8940 b37c 51bf
00000350: 4842 2fbd 4ac0 70bd e7f1 5a3d e74b 8e40
00000360: ad99 8940 0321 3ebd 28e6 ee40 ea5e ec40
00000370: b310 213d b367 a240 e47d 2c3d e499 8640
00000380: 0120 ed40 7ee6 893d d3c8 8440 5e5e a8bd
00000390: 4daf 77bd 64fc e940 3941 de40 2746 6a3f
000003a0: 95ac 9ebd c659 f140 e1a3 873d 34d1 eb40
000003b0: dc0d 9240 ed31 513d 0345 9140 6ba3 8240
000003c0: 5ca1 26bf a58b 503d 5133 4bbf 50e5 f2be
000003d0: 42a3 e940 0c21 ef40 b320 a53d 8703 3cbf
000003e0: ce21 ed40 730e f140 c742 e840 8d2e d8bc
000003f0: 99d0 8140 f61c 99bd 8dbf 3dbf f5f6 8f40
-1.4751589 -1.2759854 7.976434 -1.3075954 -0.017212793 4.958743 0.061162073 4.0757146
4.6641946 -0.034409016 1.597627 -1.5298135 0.029336555 -1.4519783 4.5118856 -0.014353314
4.278478 -1.1575508 -1.2666351 -1.2340747 -0.04706597 4.1789675 -0.06755616 7.551961
7.8648767 7.811836 0.009677443 4.377563 4.699989 4.9447393 4.430982 0.007672138
0.00072098506 0.049240805 4.2863398 -1.4927757 -0.0690434 4.882352 4.487962 1.7158029
4.797351 -0.009180363 0.03806604 -0.0029659895 4.5631275 4.3577814 -0.071845435 5.336882
7.6751113 0.08482283 -1.2632812 -1.335776 -1.1617806 -1.3540903 4.303399 0.07384396
-0.22929774 4.603829 -1.1323296 7.9338255 0.055947885 7.1663446 -1.2396117 -1.126258
7.7353764 -0.032164108 4.3704715 4.289732 4.911001 4.9239926 0.042835403 4.07826
-0.042864107 -1.1986641 4.378053 7.884196 4.5121217 3.7532206 6.3056397 4.823922
-1.40978 -0.003995678 4.4852824 -1.3012916 -0.0042730593 0.080291696 0.08261606 4.726989
4.4890046 0.03862812 7.764645 7.0098953 0.08441234 4.8014064 0.054590568 4.463718
7.618282 -0.04916167 4.3814573 -0.018450204 0.06880602 7.8613567 6.170132 0.89153033
-0.012419401 7.5740147 0.01681463 7.76558 4.8493247 0.026520524 4.854067 4.213305
-1.3393273 -0.07404656 -1.3802043 -0.66712654 7.860103 7.221898 0.038473275 -1.317042
7.457389 7.50963 7.9960423 -0.035502408 4.2076087 0.07959005 -1.3898379 4.9210725
-0.77745444 -0.60629463 7.3674603 -0.8529939 -0.06588801 4.5884914 -0.02202396 4.0368996
4.325307 0.057973836 0.54919463 -1.0628295 -0.022974921 -0.77728033 4.220556 0.007424064
4.101534 -0.6059005 -0.67654455 -0.68465555 0.07600379 4.0783997 0.03887914 7.4301877
7.319994 7.278583 0.082865104 4.12097 4.3658032 4.72872 4.252342 0.08328021
0.044139054 -0.034548834 4.17304 -0.8864333 -0.051915012 4.542194 4.2101445 0.78552526
4.5898185 0.009838971 0.040378526 -0.03432984 4.3020205 4.182592 -0.067545034 6.1556115
7.488965 0.006927372 -0.6501855 -0.7141035 -0.71954423 -0.8516842 4.280608 -0.07352752
0.5819707 4.373666 -0.63280636 7.36459 0.042318575 7.421371 -0.6398334 -0.6169762
7.387435 0.085151754 4.206863 4.126492 4.5257936 4.5409317 -0.0068337815 3.8889844
-0.020352287 -0.6068669 4.2528467 7.2834406 4.2599144 3.7131085 7.0250664 4.740825
-0.87380254 -0.01448229 4.2833724 -0.818309 -0.04278782 -0.05877713 0.053453352 4.4467654
4.3000093 -0.0464182 7.4655952 7.386586 0.039322566 5.0751586 0.042112246 4.2062855
7.4101567 0.06733416 4.1495147 -0.08221124 -0.060469914 7.3120594 6.9454618 0.91513294
-0.07747761 7.5422087 0.06623054 7.3692875 4.564192 0.051073004 4.5396743 4.0824485
-0.65089965 0.050914425 -0.7937518 -0.47440577 7.301179 7.472784 0.080628775 -0.7344288
7.4103765 7.533014 7.2581515 -0.026389385 4.0567136 -0.07476227 -0.7412041 4.498896

net.4.bias f4 [20]
00000000: 123a f43f 4d1a 0240 e4e5 b93f 8134 cc3f
00000010: 5f94 873f f8c3 8f3f dcd1 c13f fa43 c33f
00000020: 8cea 0ebe 828e f73f 0cf6 c13e cae3 f33e
00000030: d0a8 5f3f ba7b d93e 5730 863f d3d3 f0be
00000040: 9be6 da3e 50b3 93bc 3d3c 4a3f 8d6f fe3c
1.9080222 2.0328553 1.4523282 1.5953523 1.0592154 1.123168 1.5142169 1.525512
-0.1395666 1.9340365 0.3788303 0.47634727 0.8736696 0.42477208 1.0483502 -0.4703661
0.42754063 -0.018029839 0.78998166 0.031059051
