realtime_model_ep211.pth (torch, 97610 bytes, 6 tensors)

net.0.weight f4 [128, 35]
00000000: 4ff6 12c0 48e7 f341 be0d a9be dedc 29bf
00000010: e65e 16be 1111 bdbf c699 e841 59a6 b4be
00000020: 3b56 943f a11f 003f aece f3bf 7dd4 ea41
00000030: 0753 c0be 4663 fe3f b370 fcbc 93be 98bf
00000040: 90f1 ea41 04cd 15bf a2e0 903f a5fa 51bf
00000050: ee8e 05c0 2ad0 eb41 3ed3 dabe 9b36 1d40
00000060: 223b b7be 1cba e040 7b3a d340 cbaa 0d41
00000070: 717f e040 1cb9 cd40 9938 bc40 46da c940
00000080: 7c80 de40 a7cb 7040 0238 db40 c994 10c0
00000090: 9635 f441 a315 36be 3264 00bf fde9 e9bd
000000a0: 2286 9ebf 19f4 e941 0e14 1ebf 37b6 8c3f
000000b0: 6055 093f 9344 ddbf 225e eb41 d36c d8be
000000c0: aa08 0140 b162 823d 34c5 99bf e899 ea41
000000d0: 371b 20bf c724 913f 80f0 1fbf 7059 00c0
000000e0: abd8 ea41 6955 12bf 11fe 1940 ec04 2ebf
000000f0: 892e e440 6a5b d140 0f10 0e41 63b4 de40
00000100: 968d c440 08e5 b940 4e2c c840 d849 de40
00000110: f443 6540 bed4 de40 5378 0cc0 6016 f541
00000120: 5ab8 e4bd 7249 45bf 11ed 583e e44e 9bbf
00000130: 6126 ec41 125e 9fbe 9a45 8b3f 8dec 583f
00000140: 1d70 e0bf be1c ed41 7b1d 70bd 51c4 fa3f
00000150: e011 783e 949b 98bf afc1 ed41 558e d0be
00000160: ba52 dc3f faa9 b4be 8408 05c0 8eb7 ee41
00000170: f52d 54be 4684 1940 ffa1 78be fd56 ee40
00000180: 560e e440 a44c 0d41 f36a e240 cb5b d540
00000190: c582 c040 0957 d540 57a4 e640 97df 6f40
000001a0: b479 e340 d25a 05c0 7f2a f241 fa67 22c1
000001b0: 4427 00c0 c8b2 4fc1 beb3 97bf a8e3 e941
000001c0: 01b6 28c1 c710 8b3f ffd9 41c1 b86c c2bf
000001d0: 8d9a e841 c8e9 28c1 6e30 a43f 9905 4bc1
000001e0: d218 8cbf b97f ea41 6aec 2bc1 58ef 523f
000001f0: c971 48c1 b2d9 fabf 7cd6 e941 01d3 29c1
00000200: 51f5 0a40 5bc2 4bc1 e682 0941 2414 ff40
00000210: eeca 3f41 59ab 2541 0c21 0c41 2437 1e41
00000220: 2210 0741 0a79 2141 ba86 d940 7f9e 1141
00000230: 25d3 fd3e 91e5 9fc1 89de 2b41 1c9d 1440
00000240: f6b3 fd40 22bf 7b3e 47d8 95c1 f2df 3341
00000250: a37e 0040 baa3 ea40 ca17 4a3e 7ab6 96c1
00000260: 79a3 2d41 ac3d 6040 706d 0e41 4d3f 763f
00000270: 0466 98c1 dbfe 3241 91ff e23f 3ba6 1341
00000280: 95f2 2b3f 564d 97c1 fb06 3441 6d06 57be
00000290: d4bd 0241 d523 cb40 cb2f c240 6b1c b440
000002a0: 2c79 c740 a49e 2041 3b20 bb40 d564 cd40
000002b0: 3490 f440 a761 f940 b9f1 0241 959c 15c0
000002c0: 1979 f241 eb43 27bf 61d2 1dbf f2b0 dabe
000002d0: 7e88 bbbf c8d4 e741 586b 76bf 6fd3 843f
000002e0: c137 5f3e 8580 c9bf ab37 e941 5bc9 39bf
000002f0: 9c7f 0840 06c3 f43b b2ff 9abf 94d6 e841
00000300: 9124 80bf 4eff 5c3f 635c 79bf 266e ebbf
00000310: 7682 e941 531b 56bf 11f9 1e40 13db 0fbf
00000320: ee91 dc40 76fd c840 5b03 0941 4da4 d440
00000330: 66fa c340 3ccb b440 b5c3 c340 4983 d640
00000340: b359 5740 c205 d640 ea60 bf3c ae76 953d
00000350: 5cac 09be 533b 38bb b412 e3bd 69f9 523d
00000360: 0903 a03c 4b51 863d ada6 05be 0b9e acbd
00000370: b2c9 12be e122 ca3d 3627 e4bd 42e8 14bc
00000380: e430 e9bd c7bd 033e 126f d63d e497 55bc
00000390: 68b8 a1bd acf6 e03d 376c 273e c22c 09be
000003a0: e2f8 a93c 0e59 d5bd 4c6a 3a3d 30a9 caba
000003b0: 2aa2 babd 8eeb f6bd d488 653d aba9 13be
000003c0: afb4 84bd 9d33 19be e0a2 04be 8b46 8b3d
000003d0: 842e d93d f6b7 15c0 7690 f241 44c3 13bf
000003e0: da25 39bf ae69 51be 90b7 aabf da7d e841
000003f0: 6b34 7fbf 9589 883f 7c61 633e 7d26 c5bf
-2.2962835 30.48793 -0.33018297 -0.6635264 -0.14684638 -1.4770833 29.075085 -0.35283163
1.1588815 0.5004826 -1.9047449 29.353754 -0.37563345 1.9874046 -0.030815458 -1.1933159
29.36795 -0.58515954 1.1318552 -0.8202308 -2.0868487 29.476643 -0.4273929 2.4564579
-0.35787302 7.0227184 6.6008887 8.8541975 7.015557 6.4288464 5.881909 6.3078947
6.953184 3.76243 6.850587 -2.2590811 30.526165 -0.17781691 -0.50152886 -0.11421583
-1.2384684 29.244188 -0.6174935 1.0993108 0.53645897 -1.7286552 29.420963 -0.42270526
2.0161538 0.0636648 -1.2013307 29.32515 -0.62541527 1.1339349 -0.6247635 -2.0054588
29.355795 -0.57161576 2.406132 -0.6797626 7.1306806 6.542409 8.878921 6.95952
6.1422834 5.809208 6.2554083 6.946514 3.5822725 6.9634695 -2.194844 30.635925
-0.11167975 -0.77065194 0.21184184 -1.213345 29.51874 -0.31126457 1.0880616 0.8473595
-1.7534214 29.639034 -0.058621865 1.9591161 0.24225569 -1.1922479 29.719572 -0.4073359
1.7212746 -0.35285932 -2.0786448 29.839626 -0.20720656 2.3986983 -0.24280547 7.4481187
7.12675 8.831211 7.0755553 6.667455 6.015963 6.6668744 7.207561 3.7480218
7.1086063 -2.0836682 30.27075 -10.150385 -2.0023966 -12.981148 -1.1851728 29.23616
-10.544435 1.0864495 -12.115722 -1.5189428 29.075464 -10.5570755 1.282728 -12.688867
-1.0945075 29.312365 -10.745218 0.8239646 -12.52778 -1.9597685 29.229729 -10.614015
2.171223 -12.73495 8.594458 7.9712086 11.987043 10.354333 8.758068 9.888462
8.441439 10.092051 6.797696 9.101195 0.49575153 -19.987093 10.74183 2.3220892
7.928218 0.2458463 -18.730604 11.242174 2.0077293 7.332486 0.19735637 -18.8391
10.85241 3.5037642 8.901718 0.9619034 -19.049812 11.187221 1.7734243 9.228084
0.67167026 -18.912762 11.251704 -0.20998545 8.171345 6.348124 6.068334 5.628469
6.2335415 10.038731 5.8476844 6.4185586 7.642603 7.7931705 8.184014 -2.337682
30.30913 -0.6533801 -0.6164914 -0.42713124 -1.4651029 28.978897 -0.96257544 1.0377024
0.21798612 -1.5742346 29.152182 -0.7257287 2.1327887 0.0074695377 -1.2109282 29.104774
-1.0011159 0.86327064 -0.97406596 -1.839299 29.188702 -0.83635443 2.4839518 -0.56193656
6.8928137 6.28094 8.563319 6.6450562 6.124316 5.649809 6.11764 6.703526
3.3648498 6.688203 0.023361642 0.07298027 -0.13444656 -0.0028111532 -0.11087552 0.051507387
0.019532697 0.06558474 -0.13051863 -0.08428582 -0.14334753 0.09869934 -0.111402914 -0.009088578
-0.11386278 0.12865363 0.10470404 -0.013036702 -0.07896501 0.10984549 0.16349874 -0.1339598
0.02074856 -0.104173765 0.04551153 -0.0015461799 -0.091129616 -0.12056647 0.056038693 -0.14420192
-0.06479775 -0.14961095 -0.12952757 0.068005644 0.10604575 -2.339353 30.320538 -0.57719827
-0.7232338 -0.2045047 -1.3337269 29.061451 -0.9968936 1.0666987 0.22205156 -1.5402371

net.0.bias f4 [128]
00000000: bf96 4840 46a5 4140 eeed 5040 5af0 9ac0
00000010: ed99 1e41 47df 3040 5ffc 41be bf87 2940
00000020: aacf 2540 f47e 4d40 5964 2040 61e7 2d40
00000030: 3348 1b41 cd2e 2041 4b96 2e40 b587 2840
00000040: f3e2 2740 592f 1d41 ef2e 2f40 5554 1e41
00000050: c334 6a3c 94f8 4140 a1b9 19be 5b2c bc3f
00000060: d430 4340 98c1 adc0 3d96 1f41 4b55 2340
00000070: 09a6 2840 adc8 4e40 ab2a 4640 cc59 2140
00000080: 7b32 2440 9d90 2141 52dc 1e41 e2cc 4340
00000090: 2238 2e40 5ae9 1c41 e547 2440 23e8 2340
000000a0: fbb4 5540 cb0d 1d41 a71a 2440 a7a5 2340
000000b0: 2d5d aebd e0ec b4bc f863 de3f 34c3 66bd
000000c0: 6a83 3740 4e69 0fbd 5237 2640 064d 1cbe
000000d0: 84e8 1b41 214e 1f40 19c4 2640 e3ad 2240
000000e0: 058f 1c40 658d 1e41 a50f 43be 9b9d 4840
000000f0: 71c7 1b40 3455 1f41 e1db 5640 1aa3 68bd
00000100: e057 5240 903e 5140 ef7d 2940 9197 1d40
00000110: b1a0 1c41 64d4 1a41 507a 2240 bae4 3640
00000120: 5b10 4b40 2abc 2340 3967 1f41 be58 2a40
00000130: 18f7 1a41 427b 2540 4baa 2540 3c32 203d
00000140: d218 2540 899b 2b40 51f2 2340 fb5d 34be
00000150: 6128 1c41 02de e03f d013 2e40 31a8 93c0
00000160: ba47 99c0 9b31 2940 22e3 1e40 96f2 1e40
00000170: 76da 2540 0e4a 5840 b445 5340 c40a 4640
00000180: 0825 18bd 3a91 1f40 a076 1e41 be83 2b40
00000190: a0b0 1f41 633c 3540 8185 2640 cd81 2d40
000001a0: 8e7c 2241 e8fa 1f40 f041 1940 b609 1e40
000001b0: da92 2440 177a 3240 3c9d 2740 e7a7 1b41
000001c0: b19e 2940 25bf 92c0 2b4a 1f41 6b28 1c41
000001d0: 6cf2 1a41 7f78 5640 9a87 5340 1ec7 ca3f
000001e0: 68cf 2640 d3ad 5840 ea18 1e41 0606 2041
000001f0: 2e0d 3740 1482 2441 5e11 3040 0872 4e40
3.1342008 3.0257125 3.264522 -4.84184 9.91258 2.7636278 -0.18943928 2.6489103
2.5907998 3.2108736 2.5061247 2.7172472 9.705127 10.011426 2.7279232 2.633283
2.623227 9.8240595 2.7372396 9.895589 0.014294806 3.030797 -0.15012218 1.4701036
3.0498552 -5.429882 9.974179 2.5520809 2.635134 3.2309983 3.0963542 2.5211058
2.565581 10.097806 9.928789 3.05938 2.722176 9.806971 2.566888 2.5610435
3.3391712 9.815867 2.5641267 2.5569856 -0.085138656 -0.022085607 1.7374258 -0.056338504
2.8673959 -0.035012536 2.5971265 -0.15263757 9.7442665 2.4891436 2.6057189 2.5418632
2.4462292 9.90952 -0.19048937 3.1346195 2.434048 9.958302 3.3571703 -0.05679617
3.2866135 3.2694435 2.6483114 2.4623759 9.789231 9.676853 2.5387154 2.8577104
3.1728733 2.5583596 9.962701 2.6616664 9.685326 2.585648 2.5885189 0.039110407
2.57964 2.681368 2.5616648 -0.17613976 9.759858 1.7567751 2.7199593 -4.614281
-4.7900057 2.6436527 2.482613 2.4835563 2.5914588 3.37952 3.3011293 3.094407
-0.03714469 2.493239 9.903961 2.679916 9.980621 2.8318107 2.6018984 2.7110474
10.155409 2.499689 2.3946495 2.4693427 2.571463 2.7887018 2.6189718 9.728492
2.6503108 -4.585833 9.955607 9.759868 9.684185 3.3511045 3.3051515 1.5842016
2.606409 3.3856094 9.881083 10.001471 2.8601794 10.281757 2.75106 3.22571

net.2.weight f4 [128, 128]
00000000: 5d9f a140 4c57 9f40 a3ec a140 bfd3 4ac1
00000010: 6d13 2240 57a8 3740 1d31 be3b 79ca 3740
00000020: bef2 1d40 d90b a240 ad2a 1340 ccc2 4e40
00000030: d3ac 3140 4355 2a40 6c24 1040 3a3f 1640
00000040: 2d1b 3040 e741 3540 4590 4c40 8651 1c40
00000050: 6533 9abd 9492 a240 3bad 673d cfd9 0e41
00000060: 20da a140 bf83 53c1 056b 1840 7e1b 2440
00000070: 5077 f13f 7290 9d40 e847 9d40 23fd fa3f
00000080: dc56 e53f b652 2740 adec 1c40 1e6a a340
00000090: 6e8c 5a40 9282 2840 c6c6 4240 dfac ff3f
000000a0: 3276 a040 e62a 2740 1ebb 0040 4af3 4240
000000b0: 0d22 b53c 2adc 483d 2c1d 1841 fa95 c03c
000000c0: 3758 9140 e506 3b3d 7b3a 3740 8e8e 4f3d
000000d0: 383f 2940 12ea 3840 7a65 1a40 ab7a e13f
000000e0: eda4 1540 c749 1a40 b890 383d 01a5 9e40
000000f0: b52b 4e40 500b 2740 eb90 9f40 c10f 423d
00000100: bdc2 9b40 2389 a540 7dd8 5340 1a25 8a3f
00000110: bd19 1f40 414d 3040 e188 8040 c15e 9040
00000120: 78e0 a140 d42e b53f 338e 2440 6e40 8b40
00000130: e2cb 3140 43ea 3340 b722 3940 b96f b2bd
00000140: c9c7 3040 2d0c cd3f 56f0 3440 e50a 543d
00000150: 344b 2c40 00ac 1641 646c 9540 fec9 52c1
00000160: 312b 4dc1 c521 be3f 347b fe3f 360c 4d40
00000170: 706e 2540 0c0c a340 52b0 a040 e144 a140
00000180: be73 9fbd a685 0d40 d784 1d40 0ba8 6340
00000190: 9316 2340 4836 8e40 ffbe c93f fecb 1e40
000001a0: 712b 1740 bf59 6540 c1cb ac3f 7cc3 0040
000001b0: ad18 4940 6573 6b40 9fbb 3740 a654 2740
000001c0: 0481 f13f 6e88 4bc1 0acb 1d40 de16 2e40
000001d0: 41a0 2740 d572 a140 bdc5 9d40 4d5b 1741
000001e0: 6a52 2140 dffb 9e40 379f 2540 858c 2540
000001f0: 4a74 a040 d152 2140 bb9c 9140 54bb a240
00000200: eec5 9e40 60f7 9e40 5bf6 a140 cb94 4dc1
00000210: 4322 3a40 1e3f 2340 a7e9 d63c 0c20 2840
00000220: 1ac0 1840 80bb a540 aa1b 0940 480b 4e40
00000230: 8b90 4540 cfe9 3b40 f9d8 0540 6480 1140
00000240: 1b7d 2740 0ae1 4540 08c2 3b40 3b1c 3b40
00000250: e1a8 adbd 1f33 a540 4169 66bb a571 0f41
00000260: 9dcb a340 cae9 54c1 5b60 2f40 7c82 1e40
00000270: 5132 ec3f 5566 a240 e459 a240 2f38 0040
00000280: a1d1 f43f 9e56 4240 46f9 3640 218e a240
00000290: f107 4b40 d55c 3a40 8a6c 3d40 2112 ee3f
000002a0: 92be a140 6556 3940 afa7 ff3f b024 3940
000002b0: 9977 1e3b 91e9 e73c 2a28 1641 e109 213d
000002c0: eb68 8f40 ba9a 11bd 7103 3140 d449 143c
000002d0: c972 3d40 bbad 2e40 72f9 0840 6748 ee3f
000002e0: 3873 1140 ffb1 2e40 f892 95bd 9783 a440
000002f0: ebcc 3f40 9ba5 3e40 ac7f 9f40 003b 28bd
00000300: 1462 9f40 5d15 a740 f5cd 4240 865d 8e3f
00000310: c4d0 3040 2e3e 4640 a7a4 8540 0db1 8a40
00000320: 57f1 a340 4b54 923f c8ea 4240 f874 8840
00000330: 336f 4340 a58a 2440 a499 2540 3306 c83c
00000340: fdd5 2b40 e8dc d63f fea0 2c40 a3bb df3c
00000350: 3334 4040 200b 1441 fea0 9540 1820 53c1
00000360: 42ff 4ec1 0dcd be3f d457 0440 f7aa 3b40
00000370: 9ae2 1e40 cf1b a440 d54e a140 96d7 a340
00000380: e9c0 023d faf3 0d40 fe9d 3040 090b 5240
00000390: b9d2 3940 8fe2 8b40 2f1d c03f b0c1 1940
000003a0: ec16 2f40 3d33 5940 a675 a33f 3bae ee3f
000003b0: 5953 4b40 083c 6e40 9076 2b40 0367 3f40
000003c0: 4ecf fd3f 1a99 4cc1 097c 3540 78f7 4340
000003d0: 3ba4 3840 0618 a940 ee55 a340 b7e0 1441
000003e0: f97d 1740 5e83 a340 64ca 4140 f3d0 4240
000003f0: 89d8 9e40 dfd5 3340 f9ad 9540 596f a540
5.0507035 4.9794064 5.0601363 -12.676696 2.5324357 2.8696496 0.0058041946 2.871733
2.4679408 5.0639462 2.2994797 3.2306395 2.7761734 2.661454 2.252223 2.347609
2.7516587 2.8321474 3.1963055 2.4424758 -0.07529334 5.080393 0.05656169 8.928176
5.0578766 -13.219665 2.381532 2.564178 1.8864536 4.9238825 4.9150276 1.9608501
1.7917132 2.6144233 2.4519455 5.1067038 3.4148211 2.6329694 3.0433822 1.9974631
5.014428 2.6119933 2.0114207 3.0460992 0.022110963 0.04903809 9.507122 0.023509014
4.5420184 0.045660872 2.8629444 0.05067306 2.6444836 2.8892865 2.4124436 1.761556
2.3381913 2.410753 0.04505989 4.957642 3.2214177 2.6100655 4.98644 0.047378305
4.867522 5.1729903 3.3100884 1.0792572 2.485946 2.7547152 4.016709 4.5115666
5.058651 1.4154916 2.5711792 4.351615 2.778069 2.8111732 2.8927438 -0.08712716
2.762194 1.6019341 2.827169 0.051768202 2.69209 9.416992 4.6694813 -13.1743145
-12.823045 1.4854056 1.9881349 3.2038703 2.5848656 5.0952206 5.0215235 5.039658
-0.07785748 2.2112823 2.461233 3.5571315 2.5482528 4.444126 1.5761412 2.4812007
2.3620265 3.5836027 1.3499681 2.0119314 3.142131 3.6789181 2.8708265 2.6145415
1.8867497 -12.720808 2.4655175 2.7201457 2.6191561 5.0452676 4.930388 9.45979
2.5206552 4.968246 2.5878427 2.5867016 5.0141954 2.5206797 4.550382 5.085367
4.9616613 4.967697 5.0613227 -12.848826 2.9083412 2.5507274 0.026234461 2.626956
2.386725 5.179138 2.1423135 3.2194386 3.0869472 2.9361455 2.091368 2.2734613
2.6170108 3.0918603 2.9337177 2.923598 -0.08479477 5.1624904 -0.003515795 8.965245
5.118605 -13.307077 2.740256 2.4767141 1.8452855 5.0749917 5.073473 2.0034292
1.9126474 3.0365367 2.8589644 5.0798497 3.1723597 2.911916 2.9597497 1.8599283
5.054513 2.895898 1.9973048 2.8928642 0.0024180172 0.028309615 9.384806 0.039316062
4.4815574 -0.03554795 2.765835 0.009050805 2.960131 2.7293537 2.140225 1.8615845
2.2726574 2.729614 -0.07303423 5.141063 2.9968822 2.9788578 4.984335 -0.04107189
4.9807224 5.221358 3.0438206 1.1122291 2.762742 3.0975451 4.176349 4.3341126
5.1232104 1.1431974 3.04558 4.2642784 3.053662 2.5709622 2.5875025 0.024417019
2.6849358 1.6786165 2.6973262 0.027311152 3.003186 9.252716 4.6759024 -13.195335
-12.937319 1.4906327 2.0678606 2.9323099 2.4825807 5.1283946 5.040873 5.1200666
0.031922255 2.2180161 2.759643 3.2819235 2.9034865 4.371406 1.5008906 2.4024467
2.735774 3.3937523 1.2770278 1.8646921 3.1769621 3.722414 2.6791115 2.9906623
1.9828889 -12.787378 2.8356955 3.0619793 2.8850238 5.2841825 5.1042395 9.304862
2.3670638 5.109786 3.027978 3.0440032 4.9639325 2.8099287 4.677487 5.1698422

net.2.bias f4 [128]
00000000: 0c42 2ebf ba7e 77be db83 0bc1 f3e2 cabe
00000010: f709 3b3d bcb8 1740 869f 97bc 9c7f 7940
00000020: 2a3f 7840 0d81 b2bd 1d0a 1541 6af5 96bf
00000030: 997d b1bd 666a 1cbf f8ad 7740 eaf5 a23c
00000040: 86c4 7840 ef20 12bf f93e 05bf 1e3f c5be
00000050: 2312 d4bc 50d2 7f40 c58d e83c 4f91 cfc0
00000060: f465 ffc0 7289 09c1 6a54 aabd 4b0b 7140
00000070: d27c 7640 277b 953f 6555 7d40 620e a7bd
00000080: b443 08bd 5866 25bd 066f 7840 81a5 5cbf
00000090: 56a2 803d d64d 1c40 edba 7440 4515 1941
000000a0: f917 0d40 6d47 a1bb 7ce4 63bd 5f04 acbc
000000b0: 0b8a 8140 afb1 7e40 053a 8b3d c9dd d8bf
000000c0: 571c cec0 d76f f63c 0811 afbe 442c 37bf
000000d0: e855 1f3c 367c 0bbf 77e6 7c40 b4a4 75bc
000000e0: b1c5 02bd d26d 7b40 e348 09bf becd 0bc1
000000f0: dd27 933c 821b abc0 40ea 7fbe 26ff 9fbe
00000100: cec3 f2c0 3637 f9bc 412c 7240 5705 7940
00000110: 93cd 1640 ea67 1340 349a a6bd c0eb 7140
00000120: daae 803c 9f53 c0bd 217c 7f40 4bb5 04c1
00000130: 155e 7540 66d3 6c40 cabe 51c0 325c 953f
00000140: b194 05bf f81a 05bd 60ab 6d40 4231 09bf
00000150: a567 943d c8d8 09bd ecb7 c03c 6777 1540
00000160: 8a5a 7b40 b27c 24bd 98fd e8c0 054c 97c0
00000170: 2ff5 8838 0852 f63d 06ba 61bd 00a7 7d40
00000180: bb0b e2c0 affc 693c 6c4c 7940 f77d c3bd
00000190: 1f3b a6bd 1ceb 0ac1 ff8c 43c0 c772 0941
000001a0: c357 edbc 9ea5 c7c0 961e 043d ab6d f4c0
000001b0: 39f8 eb3f 33a6 1f3c f43a 1a40 0352 7540
000001c0: 4281 ecbe ba06 6ebd 5e90 e6be 127a f63e
000001d0: d1cc 08c1 8ecf a9c0 6e70 743c a444 2bbf
000001e0: 3b31 b3c0 e249 cec0 f2ff 06c1 8283 9cbd
000001f0: 6a78 7840 a78d c6bd d099 e8be d00b 1b40
-0.6806953 -0.24169436 -8.719691 -0.39626274 0.0456638 2.3706503 -0.018508684 3.8984137
3.8788552 -0.08716021 9.314969 -1.1793644 -0.08666534 -0.6109985 3.8699932 0.019892652
3.8869948 -0.570815 -0.52049214 -0.38524717 -0.025887555 3.9972115 0.028387913 -6.486488
-7.9811954 -8.596056 -0.08316882 3.7663143 3.8513684 1.1678208 3.958337 -0.0815704
-0.03326769 -0.040380806 3.8817763 -0.8619004 0.06280963 2.4422507 3.823909 9.567693
2.2045882 -0.0049218447 -0.05563782 -0.020998178 4.048101 3.979595 0.06798176 -1.6942683
-6.4409595 0.030082626 -0.3419268 -0.7155192 0.0097250715 -0.54486406 3.9515665 -0.014992882
-0.031926814 3.928578 -0.5362684 -8.73773 0.017963344 -5.347108 -0.24991703 -0.3124935
-7.586402 -0.030421834 3.783951 3.890951 2.3562973 2.3032174 -0.08134881 3.780014
0.015708376 -0.093909495 3.9919512 -8.294261 3.8338673 3.7004027 -3.2772698 1.1668761
-0.5218001 -0.032496423 3.713585 -0.53590786 0.07246331 -0.033654004 0.0235252 2.3354127
3.927401 -0.04015798 -7.2809563 -4.7280297 6.530654e-05 0.12027365 -0.055109046 3.9633179
-7.063932 0.014281436 3.8952894 -0.0954551 -0.08116745 -8.6824 -3.0554807 8.590522
-0.028972512 -6.238967 0.03225573 -7.638387 1.8435127 0.009744215 2.4098482 3.8331306
-0.46192366 -0.058111884 -0.45032018 0.48140007 -8.550004 -5.3065863 0.014919383 -0.6690161
-5.5997596 -6.446519 -8.437487 -0.076422706 3.8823495 -0.09694987 -0.4542985 2.422596

net.4.weight f4 [20, 128]
00000000: b62b b0bf cb12 96bf 44d5 f940 1f61 9abf
00000010: d801 8dbc 2cc6 9c40 1585 7a3d 0a99 8140
00000020: 976a 9440 78f0 0cbd 1a0d f03f 027d b7bf
00000030: 3753 f03c 182b adbf 3a91 8f40 2a2a 6bbc
00000040: ee1c 8840 9cf8 86bf 1e11 95bf 3207 91bf
00000050: 3fc8 40bd 9de9 8440 e25a 8abd 996b ec40
00000060: 6259 f640 9993 f440 238e 1e3c cf45 8b40
00000070: 008e 9540 7697 9b40 81f7 8c40 8f66 fb3b
00000080: 7d00 3d3a bab0 493d 985c 8840 7bbd b2bf
00000090: a066 8dbd 4155 9a40 dcca 8e40 fa23 ff3f
000000a0: 0d87 9740 3c69 16bc 23eb 1b3d 0c61 42bb
000000b0: 432f 9140 18a7 8a40 b323 93bd c4b2 a640
000000c0: 5e5d f040 98b7 ad3d 9f7f 94bf 8d3d 9ebf
000000d0: ce52 87bf 1675 a0bf f2e6 8840 813b 973d
000000e0: f753 acbc 447e 9240 cbb4 83bf 9d7b f840
000000f0: 9c29 653d 3e26 e040 aa4e 91bf 42e0 82bf
00000100: 9c44 f240 83be 03bd 6b08 8b40 ef79 8840
00000110: 9030 9b40 71a8 9b40 2d74 2f3d 0ab3 8140
00000120: 4692 2fbd f114 8cbf 7a46 8b40 6de1 f640
00000130: 548f 8f40 53b4 6e40 8f1b c540 94ad 9740
00000140: 33c9 a7bf 2dee 82bb 99b4 8e40 7de0 99bf
00000150: 0505 8cbb f96f a43d 9c32 a93d fc60 9540
00000160: 29d3 8e40 8538 1e3d 0b34 f340 463f db40
00000170: 60e0 ac3d e390 9640 5c9a 5f3d a502 8e40
00000180: d088 ee40 bf5d 49bd 2568 8b40 e224 97bc
00000190: 2cea 8c3d d829 f640 05cf c040 c3c3 953f
000001a0: be7a 4bbc 8622 ed40 d6be 893c a736 f340
000001b0: 6ce1 9840 9241 d93c e16c 9940 e306 8640
000001c0: b16d 9ebf b9a5 97bd 26db a3bf 19db f1be
000001d0: fc21 f640 44e6 e140 2796 1d3d a9b8 9bbf
000001e0: d969 e940 9c12 eb40 9679 fa40 f96a 11bd
000001f0: 83d8 8540 1c00 a33d 0bfe a4bf 2e93 9b40
00000200: 3af3 3fbf 5ea6 15bf 815c e540 9984 54bf
00000210: 4bf0 86bd 8b9f 9140 976b b4bc daa4 8140
00000220: 84dc 8a40 f975 6d3d 6735 573e 9e1f 84bf
00000230: e735 bcbc e522 40bf 5586 8740 9045 f33b
00000240: d5ba 8340 6cec 14bf 940e 27bf 5f27 29bf
00000250: e0a7 9b3d 4afb 8240 bc3f 1f3d 3677 e740
00000260: 8de3 e340 c285 e240 2eb5 a93d 0858 8440
00000270: 2c28 8c40 9161 9440 b68a 8840 d18e aa3d
00000280: 27cb 343d 1483 0dbd e903 8640 c47c 5bbf
00000290: d6a4 54bd 1e26 9040 bb30 8740 1c82 e43e
000002a0: dc77 9140 a333 213c f463 253d 729d 0cbd
000002b0: 611f 8a40 fe53 8640 0d55 8abd 1096 bf40
000002c0: 5e59 e940 02ff e23b b99c 20bf 3aee 2fbf
000002d0: 3d4b 33bf 31a5 53bf 7875 8940 9995 96bd
000002e0: 3595 f63c f669 8c40 4ced 1bbf 9546 e540
000002f0: 3e56 2d3d 6a3a e740 5e10 1ebf 8490 18bf
00000300: 8215 e640 0b64 ae3d c815 8740 4c87 8440
00000310: c37a 8f40 8417 9040 eaed dfbb b1d6 7940
00000320: d7b9 a6bc 6841 16bf 5d8f 8840 1dac e240
00000330: 90c8 8840 348d 6e40 81e7 da40 a4a9 9440
00000340: b421 59bf 2047 6dbc 0188 8940 24db 4abf
00000350: 4842 2fbd 4ac0 70bd e7f1 5a3d 1e23 8d40
00000360: a310 8a40 0321 3ebd 9c95 e840 182e e640
00000370: b310 213d a685 9e40 e47d 2c3d 4a10 8740
00000380: bdd1 e640 7ee6 893d c142 8540 5e5e a8bd
00000390: 05b0 77bd 3898 e340 c462 d840 e1f9 133f
000003a0: 95ac 9ebd 8a0e eb40 e1a3 873d 7a7d e540
000003b0: 25e6 8f40 ed31 513d e00f 9040 9e1e 8340
000003c0: 1177 20bf a58b 503d 2d01 45bf 8b11 0dbf
000003d0: 5040 e340 b6da e840 b320 a53d b574 35bf
000003e0: 38d8 e640 f0c2 ea40 e2de e140 8d2e d8bc
000003f0: bc4b 8240 f61c 99bd 5872 37bf 1ac5 8e40
-1.376334 -1.1724485 7.8072834 -1.2060889 -0.017212793 4.899191 0.061162073 4.0499315
4.6380115 -0.034409016 1.8753998 -1.4335024 0.029336555 -1.3528776 4.486478 -0.014353314
4.2535315 -1.054462 -1.1645849 -1.1330321 -0.04706597 4.1535172 -0.06755616 7.3881345
7.698411 7.6430173 0.009677443 4.3522716 4.673584 4.862239 4.405213 0.007672138
0.00072098506 0.049240805 4.261303 -1.3964075 -0.0690434 4.822907 4.462263 1.9932854
4.7352357 -0.009180363 0.03806604 -0.0029659895 4.5370193 4.332897 -0.071845435 5.209322
7.5113974 0.08482283 -1.1601447 -1.2362534 -1.0572145 -1.2535732 4.2781916 0.07384396
-0.021036131 4.5779133 -1.0289549 7.7650895 0.055947885 7.004668 -1.1352131 -1.0224688
7.570875 -0.032164108 4.3447776 4.2648845 4.849678 4.8643117 0.042835403 4.0531054
-0.042864107 -1.0943891 4.352353 7.715018 4.486246 3.729756 6.159614 4.7399387
-1.3108276 -0.003995678 4.4595456 -1.2021633 -0.0042730593 0.080291696 0.08261606 4.668089
4.4632764 0.03862812 7.600103 6.851474 0.08441234 4.7051864 0.054590568 4.437823
7.4542007 -0.04916167 4.356463 -0.018450204 0.06880602 7.692608 6.025271 1.1700367
-0.012419401 7.4104643 0.01681463 7.6004214 4.7775173 0.026520524 4.794541 4.1883407
-1.2377225 -0.07404656 -1.2801254 -0.4723747 7.6916485 7.0593586 0.038473275 -1.2165729
7.294171 7.3460217 7.827342 -0.035502408 4.1826797 0.07959005 -1.2890028 4.8617163
-0.7498051 -0.5845698 7.167542 -0.8301483 -0.06588801 4.5507255 -0.02202396 4.0513735
4.3394184 0.057973836 0.21016465 -1.0322149 -0.022974921 -0.75053245 4.235148 0.007424064
4.1165566 -0.5817325 -0.6525662 -0.660757 0.07600379 4.093175 0.03887914 7.233302
7.121527 7.078828 0.082865104 4.135746 4.379904 4.63691 4.2669325 0.08328021
0.044139054 -0.034548834 4.1879773 -0.8573725 -0.051915012 4.504653 4.2246985 0.44630516
4.5458813 0.009838971 0.040378526 -0.03432984 4.3163304 4.197753 -0.067545034 5.987068
7.292159 0.006927372 -0.6273914 -0.6872288 -0.7003668 -0.8267394 4.2955894 -0.07352752
0.030100444 4.3879347 -0.6090896 7.164866 0.042318575 7.2258806 -0.61743724 -0.59595513
7.1901255 0.085151754 4.221409 4.1415157 4.4837356 4.5028706 -0.0068337815 3.9037287
-0.020352287 -0.5869355 4.2675004 7.08351 4.2744827 3.7273684 6.8407598 4.645708
-0.8481705 -0.01448229 4.297852 -0.7924063 -0.04278782 -0.05877713 0.053453352 4.410537
4.314531 -0.0464182 7.268263 7.1931267 0.039322566 4.9538145 0.042112246 4.2207384
7.213103 0.06733416 4.1643987 -0.08221124 -0.0604706 7.1123314 6.7620564 0.5780316
-0.07747761 7.345525 0.06623054 7.171567 4.496844 0.051073004 4.501938 4.0974874
-0.6268168 0.050914425 -0.7695492 -0.55104893 7.1016006 7.276698 0.080628775 -0.70881206
7.213894 7.336296 7.0584574 -0.026389385 4.071745 -0.07476227 -0.7165885 4.4615602

net.4.bias f4 [20]
00000000: 76d3 0040 1984 e33f 00d2 cc3f f867 dc3f
00000010: 88d7 8d3f 8941 9d3f f98c c83f 2108 cf3f
00000020: 5ba3 c0bd 7096 ef3f a327 b13e cd08 f93e
00000030: 847b 523f 17fe c43e cd48 853f 0966 dfbe
00000040: 01ff e73e c759 d5ba 0c5c 463f e335 833d
2.0129066 1.7774688 1.6001587 1.7219229 1.10814 1.2285625 1.5668021 1.6174356
-0.094061576 1.8717785 0.34600553 0.48639527 0.8221972 0.38475105 1.0412842 -0.43632534
0.4531174 -0.0016277366 0.774842 0.064067625
