realtime_model_ep119.pth (torch, 97610 bytes, 6 tensors)

net.0.weight f4 [128, 35]
00000000: 5228 0bc0 08da ef41 b118 62bd d745 5fbf
00000010: 5d20 cc3d 6158 b5bf 1112 e741 13be e73c
00000020: 0d12 493f 8685 423f ecb2 ecbf 310c e941
00000030: be94 00bc c434 e33f df20 3c3d 1084 92bf
00000040: b84c e941 a186 59be 274a 943f a5b7 82bf
00000050: 45cd 02c0 4850 ea41 bad8 1ebd 400b 1640
00000060: 8355 83bd 4538 e340 3f07 d540 ac9f 0e41
00000070: f470 e240 6d6c cf40 577d bd40 2864 cc40
00000080: a9d1 e040 8dcb 7340 c9c9 dc40 fac6 08c0
00000090: ac29 f041 2e57 c63d bdd1 35bf 5f01 073e
000000a0: 5bcd 96bf 3f6e e841 d81a 72be b2c8 393f
000000b0: af94 4b3f 4328 d6bf b297 e941 a15b 61bd
000000c0: 70e3 e63f 609b 0f3e d98a 93bf f6f6 e841
000000d0: 8b6a 81be 8485 943f ba6b 53bf 632f fbbf
000000e0: 9d5a e941 9a75 3bbe fad2 1240 84eb c5be
000000f0: 22ad e640 9128 d340 3c05 0f41 7da6 e040
00000100: 9641 c640 7d2a bb40 93b6 ca40 c99b e040
00000110: 0e46 6840 1c67 e040 3faa 04c0 8605 f141
00000120: a7cd 263e 1c97 7abf 56ed eb3e 1a96 93bf
00000130: 0e9a ea41 202c 8c3d f829 373f 6306 8e3f
00000140: 1555 d9bf 0d50 eb41 c5b3 9d3e 1187 df3f
00000150: 4681 a33e a861 92bf 4a18 ec41 45f4 12bd
00000160: 47f4 df3f efee 0dbf b247 02c0 3133 ed41
00000170: a468 383e 1d4b 1240 d5c6 573d bcd4 f040
00000180: d9d9 e540 3941 0e41 0d5b e440 760c d740
00000190: 57c4 c140 38df d740 9cf3 e840 9bd7 7240
000001a0: c108 e540 8638 fbbf cc63 ee41 41db 28c1
000001b0: b6b6 0fc0 d5bd 4fc1 4106 90bf c9b5 e841
000001c0: 0005 2cc1 6ae4 263f 459d 42c1 6849 bbbf
000001d0: 4e29 e741 7ca2 2cc1 9b6c 853f 3938 4cc1
000001e0: 4bd7 85bf f635 e941 928c 2fc1 2eb6 2a3f
000001f0: 11dd 4dc1 8f3e f5bf 97ad e841 a212 2dc1
00000200: 98b4 0240 e3b9 4bc1 ece7 0941 0146 ff40
00000210: d1ef 3f41 1dc7 2541 9951 0c41 a52c 1e41
00000220: ba87 0741 a2d6 2141 85df d940 5ab1 1141
00000230: a99e bf3e cc80 9cc1 00b1 2d41 0f03 2440
00000240: 67c3 fa40 4a20 3d3e 4200 95c1 b8a0 3241
00000250: 112d 1b40 846e e840 2e3a 103e 7d94 95c1
00000260: 33c6 2c41 dee0 6e40 ee87 0e41 e290 693f
00000270: b46c 97c1 7203 3241 1cf9 ef3f 97ea 1741
00000280: b17f 203f 7671 96c1 e8a3 3241 a1c5 cebd
00000290: 45fc 0041 e87a c940 371b c140 b0ef b240
000002a0: 7a4c c640 d5fa 1f41 9051 ba40 b099 cb40
000002b0: 89e7 f240 e83a f840 0d6b 0241 15d1 0dc0
000002c0: ad7d ee41 c225 c8be c39c 53bf 1089 41be
000002d0: 34d2 b3bf 8464 e641 badb 16bf fb76 293f
000002e0: cdec ee3e 1163 c2bf 8d86 e741 e58d bbbe
000002f0: b3ba f53f a634 a33d 43c3 94bf 7949 e741
00000300: 83f7 22bf 646a 623f c9f5 96bf 0ae5 e5bf
00000310: 9619 e841 4c2f e9be 27bf 1740 29e8 8ebe
00000320: da0d df40 e2c9 ca40 71f7 0941 3f94 d640
00000330: 2bb1 c540 cd12 b640 554c c640 a5d3 d840
00000340: 6865 5a40 2699 d740 ea60 bf3c ae76 953d
00000350: 5cac 09be 533b 38bb b412 e3bd 69f9 523d
00000360: 0903 a03c 4b51 863d ada6 05be 0b9e acbd
00000370: b2c9 12be e122 ca3d 3627 e4bd 42e8 14bc
00000380: e430 e9bd c7bd 033e 126f d63d e497 55bc
00000390: 68b8 a1bd acf6 e03d 376c 273e c22c 09be
000003a0: e2f8 a93c 0e59 d5bd 4c6a 3a3d 30a9 caba
000003b0: 2aa2 babd 8eeb f6bd d488 653d aba9 13be
000003c0: afb4 84bd 9d33 19be e0a2 04be 8b46 8b3d
000003d0: 842e d93d 6eec 0dc0 d194 ee41 4a11 a1be
000003e0: c4ef 6ebf 70f1 093d 2f01 a3bf 4f0d e741
000003f0: a09d 1fbf b3e3 303f 600a f13e e408 bebf
-2.174336 29.98146 -0.05519933 -0.8721594 0.0996711 -1.4167596 28.883821 0.028288877
0.7854317 0.7598499 -1.8492103 29.130953 -0.007847963 1.7750478 0.045929786 -1.1446552
29.16246 -0.21242763 1.158513 -1.0212294 -2.0437787 29.2892 -0.038780905 2.3444366
-0.064127944 7.100619 6.6571345 8.913982 7.076288 6.4819856 5.9215503 6.387226
7.0255933 3.8092988 6.899632 -2.1371446 30.020348 0.09684597 -0.7102316 0.13184117
-1.178142 29.053831 -0.23643053 0.7257186 0.7952375 -1.6731037 29.19907 -0.055019025
1.8038158 0.14024115 -1.1526748 29.120586 -0.25276598 1.1603246 -0.8258625 -1.9623836
29.169245 -0.1830658 2.294127 -0.38656247 7.2086344 6.598702 8.938778 7.0203233
6.195506 5.8489366 6.334787 7.0190167 3.6292758 7.0125866 -2.072891 30.127697
0.16289388 -0.97886825 0.4607951 -1.1530182 29.325222 0.06844354 0.71548414 1.1095699
-1.697909 29.414087 0.30801216 1.7463094 0.31934565 -1.1436052 29.51186 -0.035877485
1.7496423 -0.5544271 -2.035626 29.649996 0.18008667 2.2858346 0.052679855 7.5259686
7.1828427 8.8909235 7.1361146 6.720271 6.0552173 6.7459984 7.2797375 3.7944095
7.1573186 -1.9626625 29.798729 -10.553529 -2.2455268 -12.983846 -1.1251909 29.088762
-10.751221 0.6519228 -12.163396 -1.4631777 28.895168 -10.789669 1.0423769 -12.763726
-1.0456327 29.151348 -10.971819 0.66684234 -12.866471 -1.9159716 29.08476 -10.817049
2.0422726 -12.7328825 8.619122 7.9772954 11.996049 10.361112 8.769921 9.8859
8.470636 10.114901 6.808535 9.105799 0.37425736 -19.56289 10.855713 2.5626867
7.836353 0.18469349 -18.625126 11.164238 2.4246256 7.2634907 0.14084694 -18.697504
10.7983885 3.7324748 8.908186 0.912367 -18.928078 11.125841 1.8747897 9.494773
0.6269484 -18.8054 11.165016 -0.100962885 8.061589 6.296253 6.034572 5.5917587
6.1968355 9.998738 5.8224564 6.3625107 7.5907636 7.7571907 8.151135 -2.2158864
29.811365 -0.39091307 -0.82661074 -0.18899941 -1.4048524 28.79908 -0.58929026 0.66197175
0.4666504 -1.5186483 28.940699 -0.36631694 1.9197601 0.07969026 -1.1622089 28.910875
-0.6365892 0.8844359 -1.1793758 -1.7960522 29.012493 -0.45543897 2.371042 -0.279115
6.970441 6.337144 8.6229105 6.7055964 6.177877 5.689795 6.196818 6.7758355
3.4124393 6.737445 0.023361642 0.07298027 -0.13444656 -0.0028111532 -0.11087552 0.051507387
0.019532697 0.06558474 -0.13051863 -0.08428582 -0.14334753 0.09869934 -0.111402914 -0.009088578
-0.11386278 0.12865363 0.10470404 -0.013036702 -0.07896501 0.10984549 0.16349874 -0.1339598
0.02074856 -0.104173765 0.04551153 -0.0015461799 -0.091129616 -0.12056647 0.056038693 -0.14420192
-0.06479775 -0.14961095 -0.12952757 0.068005644 0.10604575 -2.2175555 29.822664 -0.31458503
-0.93334603 0.03367752 -1.2734736 28.881498 -0.6234989 0.6909744 0.47078228 -1.4846463

net.0.bias f4 [128]
00000000: 69c5 4d40 7ed3 4640 881d 5640 03f4 9ac0
00000010: 84fd 1d41 bdf0 3540 5ffc 41be 7e99 2e40
00000020: 07dd 2a40 28ae 5240 496c 2540 4efe 3240
00000030: 4eaa 1a41 7692 1f41 449d 3340 4b92 2d40
00000040: 90f3 2c40 6490 1c41 dc45 3440 e2b7 1d41
00000050: c334 6a3c 4626 4740 a1b9 19be 450c b53f
00000060: d15f 4840 5349 adc0 c4fb 1e41 7563 2840
00000070: 93ab 2d40 fef6 5340 c460 4b40 f45e 2640
00000080: 0238 2940 e3f4 2041 4342 1e41 52fd 4840
00000090: c650 3340 a54c 1c41 735c 2940 5ded 2840
000000a0: 4fe7 5a40 8970 1c41 5f21 2940 cdb7 2840
000000b0: 2d5d aebd e0ec b4bc 34f6 d53f 34c3 66bd
000000c0: 12ac 3c40 4e69 0fbd bc47 2b40 064d 1cbe
000000d0: 734b 1b41 3460 2440 f8cd 2b40 4eb2 2740
000000e0: 0599 2140 bcf1 1d41 a50f 43be 5fd1 4d40
000000f0: 95dd 2040 32b8 1e41 770e 5c40 1aa3 68bd
00000100: fe89 5740 4574 5640 7095 2e40 5d92 2240
00000110: 8203 1c41 5536 1a41 6c93 2740 a50c 3c40
00000120: 1440 5040 1bb0 2840 0eca 1e41 a47f 2f40
00000130: b658 1a41 1d8a 2a40 22bc 2a40 3c32 203d
00000140: b329 2a40 ba9c 3040 6d04 2940 ed1c 33be
00000150: 3f8a 1b41 3f6a d83f 2e3e 3340 beac 93c0
00000160: 3047 99c0 c831 2e40 a6eb 2340 8d07 2440
00000170: 00ec 2a40 6e7e 5d40 4974 5840 2a3e 4b40
00000180: 0825 18bd 9e9c 2440 20db 1d41 1ea0 3040
00000190: 5414 1f41 f665 3a40 aa84 2b40 588d 3240
000001a0: 4fe1 2141 5e18 2540 5e3f 1e40 7d05 2340
000001b0: ceaa 2940 b197 3740 18af 2c40 ab0a 1b41
000001c0: 45a2 2e40 55c5 92c0 39af 1e41 a489 1b41
000001d0: f655 1a41 20b4 5b40 feb9 5840 e659 c23f
000001e0: 2ade 2b40 54e2 5d40 797b 1d41 4769 1f41
000001f0: 6e3c 3c40 8fe8 2341 5f3c 3540 42a2 5340
3.215174 3.1066585 3.3455524 -4.8422866 9.874393 2.8428185 -0.18943928 2.7281184
2.6697404 3.2918797 2.5847342 2.7967715 9.666578 9.973257 2.8064737 2.712054
2.7023659 9.785252 2.8167639 9.857393 0.014294806 3.111711 -0.15012218 1.4144369
3.1308482 -5.4152007 9.936466 2.6310704 2.713597 3.3119502 3.177781 2.5995455
2.6440434 10.059787 9.891177 3.1404614 2.801805 9.768712 2.6462677 2.6394875
3.420368 9.777474 2.6426618 2.6362183 -0.085138656 -0.022085607 1.671576 -0.056338504
2.9480023 -0.035012536 2.6762533 -0.15263757 9.70592 2.5683718 2.6844463 2.6202579
2.5249646 9.871517 -0.19048937 3.215904 2.5135243 9.91997 3.4383829 -0.05679617
3.3677974 3.3508465 2.727871 2.5401833 9.750856 9.638265 2.618373 2.9382718
3.253911 2.6357486 9.92433 2.7421656 9.646658 2.6646798 2.6677327 0.039110407
2.658795 2.7595658 2.6408951 -0.17491503 9.7212515 1.6907424 2.8006701 -4.6148367
-4.78994 2.7217884 2.5612578 2.5629609 2.6706543 3.4608417 3.3820975 3.1756692
-0.03714469 2.5720592 9.865997 2.7597728 9.942463 2.9124732 2.6799722 2.789877
10.117507 2.5796123 2.4726176 2.54721 2.65105 2.8686335 2.6981869 9.6901045
2.7286541 -4.5865884 9.917779 9.721104 9.645987 3.432869 3.386352 1.5183685
2.6854348 3.466939 9.842645 9.963202 2.9411883 10.244277 2.8318098 3.3067784

net.2.weight f4 [128, 128]
00000000: cd19 a140 ded1 9e40 1066 a140 93e2 4bc1
00000010: a87e 2140 ee91 3640 1d31 be3b 93bb 3640
00000020: 8be1 1c40 4785 a140 8f11 1240 96a2 4d40
00000030: f422 3140 0fc3 2940 520d 0f40 b827 1540
00000040: c403 2f40 ba9c 3440 0679 4b40 05b3 1b40
00000050: 6533 9abd 9c08 a240 3bad 673d bc56 0e41
00000060: 9d52 a140 35ab 54c1 7eee 1740 f7fb 2240
00000070: 8d3a ef3f 510c 9d40 17c7 9c40 7dc9 f83f
00000080: 7128 e33f 7abd 2640 f65b 1c40 89e7 a240
00000090: 5571 5940 f8ed 2740 2bb0 4140 5661 fd3f
000000a0: 11f3 9f40 cd92 2640 2144 ff3f afce 4140
000000b0: 0d22 b53c 2adc 483d 2775 1741 fa95 c03c
000000c0: b3cf 9040 e506 3b3d 7c20 3640 8e8e 4f3d
000000d0: c69f 2840 92ce 3740 8240 1940 7046 df3f
000000e0: c091 1440 57b3 1940 b890 383d 7320 9e40
000000f0: 890c 4d40 ac6d 2640 700d 9f40 c10f 423d
00000100: 783f 9b40 fd06 a540 73b7 5240 a005 883f
00000110: c86c 1e40 8b9a 2f40 aff5 7f40 2dd6 8f40
00000120: 495c a140 28e8 b23f 05e4 2340 c1b8 8a40
00000130: 312e 3140 dbcc 3240 c407 3840 b96f b2bd
00000140: c2a7 2f40 5ee4 ca3f 50d8 3340 3e72 553d
00000150: 059c 2b40 8705 1641 a4e7 9440 35d9 53c1
00000160: d939 4ec1 93f2 bb3f ef48 fc3f f7f4 4b40
00000170: ee5d 2440 7986 a240 522e a040 8bc3 a040
00000180: be73 9fbd 876e 0c40 9805 1d40 2590 6240
00000190: 9393 2240 8cae 8d40 8e97 c73f 5db5 1d40
000001a0: dbac 1640 e23f 6440 048a aa3f 854c ff3f
000001b0: 0c0b 4840 cb5a 6a40 63a5 3640 caa8 2640
000001c0: 1d57 ef3f 3e96 4cc1 d748 1d40 ca64 2d40
000001d0: c909 2740 97f1 a040 7f41 9d40 efb2 1641
000001e0: a841 2040 9179 9e40 76fb 2440 c8db 2440
000001f0: aef0 9f40 abdf 2040 5e14 9140 b435 a240
00000200: aa39 9e40 d669 9e40 546d a140 4acf 4ec1
00000210: 58c5 3a40 8e0d 2240 a7e9 d63c 5df5 2640
00000220: 4c93 1740 4b31 a540 83e6 0740 8fd1 4c40
00000230: e341 4640 1690 3c40 c7a4 0440 534c 1040
00000240: 814a 2640 246d 4640 3c90 3a40 4ab0 3b40
00000250: e1a8 adbd 9ba4 a440 4169 66bb b514 0f41
00000260: 353e a340 573f 56c1 5b26 3040 ef47 1d40
00000270: 35bc e93f 47df a140 26d9 a140 1905 fe3f
00000280: 1569 f23f dff8 4240 cca1 3740 a508 a240
00000290: f1d2 4940 8900 3b40 163b 3c40 7c8f eb3f
000002a0: 9439 a140 f7f4 3940 5f3f fd3f e0e4 3740
000002b0: 9977 1e3b 91e9 e73c 4299 1541 e109 213d
000002c0: 97d6 8e40 ba9a 11bd 5ecd 2f40 d449 143c
000002d0: 4d05 3e40 fd76 2d40 27b9 0740 e7db eb3f
000002e0: de43 1040 3151 2f40 f892 95bd c7fe a340
000002f0: 7f93 3e40 403a 3f40 48fb 9e40 003b 28bd
00000300: c8dd 9e40 8d90 a640 ee93 4140 5805 8c3f
00000310: 6651 3140 28b6 4640 620c 8540 261e 8a40
00000320: 0469 a340 feda 8f3f 636e 4340 bae2 8740
00000330: 6506 4440 3652 2340 2264 2440 3306 c83c
00000340: b49b 2a40 3e79 d43f b86e 2b40 0288 e23c
00000350: a5b0 4040 bb7d 1341 ac12 9540 1a5b 54c1
00000360: 9f39 50c1 0e64 bc3f 4823 0340 d777 3a40
00000370: aab7 1d40 ad94 a340 3fc9 a040 cd53 a340
00000380: e9c0 023d 1cc1 0c40 f45e 3140 93d8 5040
00000390: 888d 3a40 7950 8b40 9ebd bd3f 9c8e 1840
000003a0: 0edb 2f40 0bff 5740 cdfa a03f 2042 ec3f
000003b0: 5b2b 4a40 300b 6d40 a944 2a40 d4e9 3f40
000003c0: 816b fb3f 8fd2 4dc1 e238 3640 dc6e 4440
000003d0: 5a45 3940 8196 a840 d4cf a240 9c51 1441
000003e0: 5c51 1640 f4fe a240 a955 4240 d14d 4340
000003f0: 9e4e 9e40 3fa9 3440 f51b 9540 03e5 a440
5.0343995 4.9631186 5.043709 -12.742816 2.5233555 2.8526568 0.0058041946 2.8551986
2.451266 5.047519 2.2823217 3.2130485 2.7677584 2.6525304 2.235188 2.3305492
2.7346048 2.8220658 3.1792617 2.4328015 -0.07529334 5.063551 0.05656169 8.896175
5.0413346 -13.291799 2.3739314 2.5466287 1.8689743 4.9077535 4.899303 1.9436489
1.7746717 2.6053147 2.4431129 5.0907636 3.3975422 2.6238995 3.0263774 1.979533
4.998421 2.60271 1.9942666 3.02824 0.022110963 0.04903809 9.466102 0.023509014
4.525354 0.045660872 2.8457327 0.05067306 2.6347518 2.871983 2.3945622 1.7443371
2.3213959 2.401571 0.04505989 4.941461 3.20389 2.6004438 4.9703903 0.047378305
4.8514977 5.157103 3.2924469 1.0626717 2.4753895 2.7438076 3.9993703 4.4948945
5.0425153 1.3977098 2.5607922 4.335053 2.7684443 2.7937534 2.875474 -0.08712716
2.7446141 1.5850942 2.8100777 0.052110903 2.6813977 9.376349 4.6532764 -13.240529
-12.889123 1.4683403 1.9709758 3.1868265 2.568233 5.078915 5.0056543 5.02387
-0.07785748 2.194246 2.4534664 3.540048 2.5402572 4.427557 1.5593126 2.4641945
2.3543003 3.566399 1.3323369 1.9945227 3.1256742 3.6617916 2.8538444 2.604052
1.869846 -12.78668 2.4575708 2.7092767 2.6099722 5.029491 4.914245 9.418685
2.5040073 4.9523396 2.577848 2.5759144 4.99813 2.5136516 4.533736 5.0690556
4.944539 4.9504194 5.0445957 -12.925608 2.918295 2.5320773 0.026234461 2.6087258
2.3683653 5.162267 2.1234443 3.2002904 3.0977714 2.9462943 2.0725572 2.2546585
2.5982974 3.1004114 2.9150534 2.9326348 -0.08479477 5.1450934 -0.003515795 8.942555
5.1013436 -13.390464 2.752341 2.4575155 1.8260561 5.0585055 5.0577574 1.9845306
1.8938318 3.04644 2.8692503 5.0635552 3.1534998 2.9219077 2.9411063 1.8403163
5.0382786 2.9055765 1.9784964 2.8733444 0.0024180172 0.028309615 9.349916 0.039316062
4.463695 -0.03554795 2.7469096 0.009050805 2.9690735 2.7103875 2.1206758 1.8426484
2.2541423 2.7393305 -0.07303423 5.1248507 2.9777524 2.9879303 4.968174 -0.04107189
4.964573 5.2051454 3.024654 1.0939131 2.7705932 3.104868 4.1577616 4.31618
5.1065693 1.1238706 3.0536125 4.2464266 3.0628903 2.5518928 2.5686116 0.024417019
2.6657534 1.65995 2.6786327 0.027652744 3.0107815 9.218196 4.6585293 -13.272242
-13.014068 1.4718034 2.0490284 2.9135644 2.464335 5.111899 5.024566 5.1039796
0.031922255 2.1992865 2.7714205 3.2632186 2.9148884 4.3535733 1.4823492 2.3837042
2.747745 3.3749416 1.2576538 1.845768 3.1588962 3.7038078 2.6604407 2.9986467
1.9642183 -12.863906 2.8472219 3.0692663 2.894858 5.268372 5.0878696 9.269924
2.3487158 5.093622 3.0364783 3.0516245 4.947097 2.82283 4.6596627 5.1529555

net.2.bias f4 [128]
00000000: 0a1e 33bf c14b 80be ea3c 0bc1 1a3c d3be
00000010: f709 3b3d 4fef 2040 869f 97bc 23cf 8040
00000020: 234a 8040 0d81 b2bd 894c 0b41 0e58 9abf
00000030: 997d b1bd b944 21bf 9a08 8040 eaf5 a23c
00000040: 6b7a 8040 db49 13bf b474 08bf e5fd ccbe
00000050: 2312 d4bc 6cf5 8340 c58d e83c 65c2 cfc0
00000060: 2331 ffc0 6b47 09c1 6a54 aabd 1e47 7940
00000070: 0ed8 7e40 b32a a73f aed0 8240 620e a7bd
00000080: b443 08bd 5866 25bd e150 8040 5cf6 62bf
00000090: 56a2 803d eb6c 2540 64ea 7c40 262e 0f41
000000a0: 0a47 1640 6d47 a1bb 7ce4 63bd 5f04 acbc
000000b0: d8b4 8540 947b 8340 053a 8b3d 456c d2bf
000000c0: e553 cec0 d76f f63c ec7b b3be fbb3 3bbf
000000d0: 60ef 9535 b5ed 0fbf 3d8f 8240 b4a4 75bc
000000e0: b1c5 02bd 55e2 8140 c950 0bbf 3a8d 0bc1
000000f0: dd27 933c cab1 abc0 d301 82be 9299 a3be
00000100: fcc3 f2c0 3637 f9bc c468 7a40 bca3 8040
00000110: ac08 2040 67ac 1c40 349a a6bd e415 7a40
00000120: daae 803c 2a54 d4bd 62f1 8340 be6c 04c1
00000130: 3aac 7d40 4bf5 7440 ba19 53c0 162d a73f
00000140: 54e5 0abf f81a 05bd 0819 7640 fc29 0ebf
00000150: a567 943d c8d8 09bd ecb7 c03c a293 1e40
00000160: 8dd2 8140 b27c 24bd 01fb e8c0 db33 98c0
00000170: 2ff5 8838 1bac 793e 06ba 61bd 47fc 8240
00000180: 6828 e2c0 affc 693c bac5 8040 f77d c3bd
00000190: eb38 a6bd f1a8 0ac1 2195 44c0 84b5 ff40
000001a0: c357 edbc daf0 c7c0 961e 043d a754 f4c0
000001b0: 8c0f fe3f 33a6 1f3c 4664 2340 639b 7d40
000001c0: 705b f3be ba06 6ebd 1ca5 efbe ba23 e13d
000001d0: eb8e 08c1 b244 aac0 6e70 743c 4126 2fbf
000001e0: d491 b3c0 ce85 cec0 56bd 06c1 8283 9cbd
000001f0: 3a47 8040 a78d c6bd c4f9 f0be 6d2b 2440
-0.6996771 -0.25057796 -8.702372 -0.4125679 0.0456638 2.5146062 -0.018508684 4.0252852
4.00905 -0.08716021 8.706185 -1.2058122 -0.08666534 -0.6299549 4.00105 0.019892652
4.0149436 -0.5753457 -0.53303075 -0.40037456 -0.025887555 4.1237087 0.028387913 -6.49248
-7.974748 -8.579936 -0.08316882 3.8949656 3.981937 1.3059906 4.0879736 -0.0815704
-0.03326769 -0.040380806 4.009873 -0.88657165 0.06280963 2.5847728 3.951806 8.948767
2.3480859 -0.0049218447 -0.05563782 -0.020998178 4.1783257 4.108835 0.06798176 -1.6439291
-6.447741 0.030082626 -0.35055482 -0.73321503 1.1171032e-06 -0.5622209 4.079985 -0.014992882
-0.031926814 4.0588784 -0.54420143 -8.721979 0.017963344 -5.365453 -0.25392017 -0.31953102
-7.586424 -0.030421834 3.9126444 4.019987 2.5005293 2.4480226 -0.08134881 3.907586
0.015708376 -0.103676155 4.1232157 -8.276548 3.9636369 3.8274715 -3.2984452 1.3060634
-0.54256177 -0.032496423 3.8452778 -0.55532813 0.07246331 -0.033654004 0.0235252 2.4777608
4.056952 -0.04015798 -7.28064 -4.75633 6.530654e-05 0.2438206 -0.055109046 4.0932956
-7.0674324 0.014281436 4.0241365 -0.0954551 -0.08116325 -8.666245 -3.071602 7.9909077
-0.028972512 -6.248151 0.03225573 -7.6353335 1.9848495 0.009744215 2.5529952 3.962609
-0.475307 -0.058111884 -0.46805656 0.109931424 -8.534892 -5.3208857 0.014919383 -0.68417746
-5.6115513 -6.4538336 -8.421225 -0.076422706 4.0086946 -0.09694987 -0.47065556 2.5651505

net.4.weight f4 [20, 128]
00000000: 3870 9dbf 174b 82bf 028a f240 3209 87bf
00000010: d801 8dbc 7b2a 9a40 1585 7a3d c36a 8040
00000020: fb38 9340 78f0 0cbd e170 1040 a251 a5bf
00000030: 3753 f03c 3d5c 9abf 4968 8e40 2a2a 6bbc
00000040: 0ef8 8640 1395 66bf 84a1 81bf 7592 7bbf
00000050: 3fc8 40bd 09bf 8340 e25a 8abd d257 e540
00000060: 112b ef40 e94b ed40 238e 1e3c 401d 8a40
00000070: 6959 9440 b007 9840 c2c9 8b40 8f66 fb3b
00000080: 7d00 3d3a bab0 493d e336 8740 0e85 a0bf
00000090: a066 8dbd 30ba 9740 db9d 8d40 2b00 1840
000000a0: 9ccf 9440 3c69 16bc 23eb 1b3d 0c61 42bb
000000b0: 41fe 8f40 1983 8940 b323 93bd f02b a140
000000c0: b14a e940 98b7 ad3d ead2 80bf c15a 8bbf
000000d0: e7a0 66bf 8058 8dbf fbbe 8740 813b 973d
000000e0: f753 acbc 734f 9140 31fd 5fbf eb34 f140
000000f0: 9c29 653d 7b26 d940 28b9 7abf ed10 5ebf
00000100: a92a eb40 83be 03bd 86db 8940 3a56 8740
00000110: ee81 9840 820b 9940 2d74 2f3d ff8b 8040
00000120: 4692 2fbd 1f49 70bf a319 8a40 d395 ef40
00000130: 5960 8e40 fb91 6c40 71c3 be40 360d 9440
00000140: b7fe 94bf 2dee 82bb 0a88 8d40 1b0e 87bf
00000150: 0505 8cbb f96f a43d 9c32 a93d 83cb 9240
00000160: d2a5 8d40 8538 1e3d ac19 ec40 195f d440
00000170: 60e0 ac3d 3b68 9240 5c9a 5f3d dcd3 8c40
00000180: 9e72 e740 bf5d 49bd 0a43 8a40 e224 97bc
00000190: 2cea 8c3d 0be3 ee40 2a84 ba40 ea94 c63f
000001a0: be7a 4bbc 8411 e640 d6be 893c c815 ec40
000001b0: f9c1 9540 9241 d93c e8d0 9640 c9e1 8440
000001c0: e512 8bbf b9a5 97bd 9dd1 90bf ed7d 0fbe
000001d0: 2ede ee40 30de da40 2796 1d3d 809e 88bf
000001e0: 9a5b e240 6201 e440 3e33 f340 f96a 11bd
000001f0: 92b3 8440 1c00 a33d d9ce 91bf fbf8 9840
00000200: 4919 16bf 27c0 d2be 9d25 dc40 924b 29bf
00000210: 4bf0 86bd e525 8d40 976b b4bc 99c1 7e40
00000220: fc93 8840 f975 6d3d ee97 e83e b7b3 5fbf
00000230: e735 bcbc 1c1d 16bf 2d4a 8540 9045 f33b
00000240: e083 8140 0ba4 d1be 3428 f7be fd49 fcbe
00000250: e0a7 9b3d 92bc 8040 bc3f 1f3d 185b de40
00000260: 6bba da40 9250 d940 2eb5 a93d 371c 8240
00000270: 6adb 8940 ac7e 8e40 a247 8640 d18e aa3d
00000280: 27cb 343d 1483 0dbd e2cb 8340 13d8 32bf
00000290: d6a4 54bd 38ad 8b40 b0ee 8440 e025 313f
000002a0: 25d2 8c40 a333 213c f463 253d 729d 0cbd
000002b0: b6d7 8740 261e 8440 0d55 8abd 149e b740
000002c0: ba3d e040 02ff e23b f32c e9be 52b9 05bf
000002d0: 088c 06bf c6f0 28bf 813a 8740 9995 96bd
000002e0: 3595 f63c 5f25 8a40 dd90 dfbe b211 dc40
000002f0: 3e56 2d3d 5a28 de40 57c5 e2be 1454 d8be
00000300: a5f6 dc40 0b64 ae3d a4d3 8440 1752 8240
00000310: 99e2 8a40 b89b 8b40 eaed dfbb 4962 7540
00000320: d7b9 a6bc 1e50 d3be 7f4d 8640 2075 d940
00000330: a483 8640 a454 6a40 3242 d240 2eb1 8e40
00000340: e72e 2fbf 2047 6dbc a946 8740 bfd3 20bf
00000350: 4842 2fbd 4ac0 70bd e7f1 5a3d f5b2 8840
00000360: 27ce 8740 0321 3ebd a576 df40 db2f dd40
00000370: b310 213d 76e9 9740 e47d 2c3d a1cb 8440
00000380: 9eb4 dd40 7ee6 893d 7e0b 8340 5e5e a8bd
00000390: 05b0 77bd 4c63 da40 d2c5 cf40 b003 523f
000003a0: 95ac 9ebd 8ef3 e140 e1a3 873d 175b dc40
000003b0: 3aa1 8a40 ed31 513d dd95 8b40 6ae7 8040
000003c0: 8b57 eabe a58b 503d 0480 1abf 381c 33be
000003d0: 070d da40 f3c3 df40 b320 a53d 4dbe 0abf
000003e0: 7abe dd40 cba7 e140 5baa d840 8d2e d8bc
000003f0: a014 8040 f61c 99bd 9590 0cbf dc4d 8a40
-1.2299871 -1.0179166 7.5793467 -1.0549681 -0.017212793 4.8176856 0.061162073 4.0130324
4.6007056 -0.034409016 2.2568896 -1.2915537 0.029336555 -1.2059399 4.45023 -0.014353314
4.21778 -0.9007122 -1.0127416 -0.9827035 -0.04706597 4.1170697 -0.06755616 7.1669703
7.474007 7.4155164 0.009677443 4.3160706 4.6359143 4.7509384 4.3683786 0.007672138
0.00072098506 0.049240805 4.22545 -1.2540605 -0.0690434 4.741478 4.4255195 2.3750103
4.650343 -0.009180363 0.03806604 -0.0029659895 4.499787 4.297253 -0.071845435 5.0366135
7.2903676 0.08482283 -1.0064366 -1.0887071 -0.9008927 -1.1042633 4.242063 0.07384396
-0.021036131 4.5409484 -0.87495714 7.5377097 0.055947885 6.7859473 -0.97938776 -0.86744577
7.3489575 -0.032164108 4.3080473 4.2292757 4.7658606 4.782655 0.042835403 4.0170894
-0.042864107 -0.93861574 4.3156295 7.487039 4.449261 3.69641 5.9613576 4.6266127
-1.1640233 -0.003995678 4.4228563 -1.055118 -0.0042730593 0.080291696 0.08261606 4.5873427
4.4264917 0.03862812 7.378134 6.6366086 0.08441234 4.5752234 0.054590568 4.4008617
7.2327414 -0.04916167 4.3206835 -0.018450204 0.06880602 7.465215 5.8286333 1.5514195
-0.012419401 7.189638 0.01681463 7.377659 4.6799283 0.026520524 4.7130013 4.1525617
-1.0865141 -0.07404656 -1.1313969 -0.1401288 7.4646215 6.8396225 0.038473275 -1.067337
7.073682 7.125169 7.600005 -0.035502408 4.14692 0.07959005 -1.139125 4.780393
-0.5863233 -0.41162226 6.8795915 -0.66130936 -0.06588801 4.410876 -0.02202396 3.9805663
4.2680645 0.057973836 0.45428413 -0.873836 -0.022974921 -0.5863817 4.1653047 0.007424064
4.047348 -0.40945467 -0.4827286 -0.492752 0.07600379 4.023019 0.03887914 6.94862
6.835256 6.7910852 0.082865104 4.065944 4.308034 4.452963 4.1962442 0.08328021
0.044139054 -0.034548834 4.118638 -0.69860953 -0.051915012 4.364895 4.1541367 0.6919842
4.4006524 0.009838971 0.040378526 -0.03432984 4.245082 4.12868 -0.067545034 5.7380466
7.007535 0.006927372 -0.45542106 -0.522359 -0.5255742 -0.6599239 4.2258916 -0.07352752
0.030100444 4.317062 -0.4366521 6.87716 0.042318575 6.9424257 -0.44291183 -0.42251647
6.905108 0.085151754 4.150835 4.0725207 4.340161 4.3627586 -0.0068337815 3.8341238
-0.020352287 -0.41272062 4.19696 6.7955475 4.2035694 3.661416 6.5705805 4.4591284
-0.6843094 -0.01448229 4.2273755 -0.628231 -0.04278782 -0.05877713 0.053453352 4.2718453
4.243915 -0.0464182 6.983233 6.9120917 0.039322566 4.7472486 0.042112246 4.149857
6.928298 0.06733416 4.095153 -0.08221124 -0.0604706 6.824621 6.492898 0.82036877
-0.07747761 7.060981 0.06623054 6.8861194 4.332181 0.051073004 4.362044 4.028249
-0.45769915 0.050914425 -0.60351586 -0.17491233 6.8140903 6.9926696 0.080628775 -0.54196626
6.9295015 7.0517325 6.7707953 -0.026389385 4.0025177 -0.07476227 -0.54908115 4.3220043

net.4.bias f4 [20]
00000000: 12be 0c40 16fc f83f bff1 ea3f 2105 fa3f
00000010: 2e44 b13f d28d ae3f ca58 d53f f888 de3f
00000020: 1987 aaba d066 0240 de10 963e b343 fb3e
00000030: 49de 463f e4d3 bc3e 71c3 7b3f ae71 bdbe
00000040: fcfd ed3e 37db 823b bec8 403f 3559 253d
2.199101 1.945193 1.8355025 1.9532815 1.3848932 1.363703 1.6667721 1.738555
-0.0013010233 2.0375252 0.29309744 0.49075088 0.7768293 0.3688041 0.98345095 -0.37000793
0.46482837 0.0039934176 0.7530631 0.040368278
