realtime_model_ep232.pth (torch, 97610 bytes, 6 tensors)

net.0.weight f4 [128, 35]
00000000: 1561 15c0 23a0 f441 7927 c8be 4d21 20bf
00000010: 1a2b 63be 6f2d c0bf 02bd e841 ef62 e0be
00000020: 459a 9d3f 6505 ef3e 58e7 f6bf a50b eb41
00000030: 7709 eabe 23d3 0140 f08b 7cbd bdbd 9bbf
00000040: e023 eb41 fbc4 2abf 1ce9 903f c442 4ebf
00000050: 65f1 06c0 d3f5 eb41 1d84 03bf caca 1e40
00000060: a581 d3be bb9c df40 a955 d240 bb2e 0d41
00000070: 808a df40 bac3 cc40 8269 bb40 a2d4 c840
00000080: c679 dd40 db1b 6f40 6250 da40 87ff 12c0
00000090: 13ee f441 5b0f 74be c650 edbe 139d 41be
000000a0: 73a2 a1bf f916 ea41 efe8 33bf e7fa 953f
000000b0: 29c7 003f 6a5d e0bf d694 eb41 9007 01bf
000000c0: dba9 0340 b3a4 063d 7dc4 9cbf d3cb ea41
000000d0: 4609 35bf 5f30 913f 9933 1cbf f3bb 01c0
000000e0: f5fd ea41 7366 28bf 3b93 1b40 ef18 3cbf
000000f0: f310 e340 4776 d040 e493 0d41 2cbf dd40
00000100: f997 c340 9015 b940 6726 c740 e142 dd40
00000110: 5f93 6340 baec dd40 dce2 0ec0 2ed0 f541
00000120: 19cb 2fbe 998e 3bbf d1ac 0b3e 0e6b 9ebf
00000130: cd4a ec41 86a2 cabe b685 943f ea36 503f
00000140: 6b88 e3bf e454 ed41 d193 0ebe 8406 0040
00000150: af8a 583e 6f9a 9bbf 1df5 ed41 e709 fabe
00000160: 8156 dc3f 8309 adbe c86a 06c0 29de ee41
00000170: edd7 95be 9f1b 1b40 f19f 98be 8f3a ed40
00000180: 822a e340 efd0 0c41 1577 e140 8367 d440
00000190: 4eb5 bf40 8f52 d440 dd9e e540 7b33 6e40
000001a0: 5893 e240 acc4 07c0 a6d3 f241 e817 21c1
000001b0: 5496 fabf dff0 4fc1 3cd2 9abf 15f4 e941
000001c0: 0f15 28c1 e3c1 953f 3c6e 41c1 4189 c5bf
000001d0: 3abf e841 882f 28c1 a279 aa3f 870e 4bc1
000001e0: d31b 8fbf b69e ea41 9530 2bc1 b7b7 593f
000001f0: 6cbe 47c1 9da6 fdbf bfe9 e941 7332 29c1
00000200: 379c 0c40 ece6 4bc1 9f27 0941 6a8f fe40
00000210: a983 3f41 b164 2541 18d5 0b41 24f6 1d41
00000220: 22bc 0641 7b25 2141 eaed d840 1859 1141
00000230: 639b 083f a76e a0c1 d5d0 2b41 cccf 1140
00000240: 8d0f ff40 7075 8a3e 32c9 95c1 7a7e 3441
00000250: 23db f63f 21b3 ea40 9421 633e f0bc 96c1
00000260: b127 2e41 b26a 5d40 a0bb 0e41 a44d 7c3f
00000270: a265 98c1 ab83 3341 feff e03f b747 1341
00000280: 9992 313f 6141 97c1 15a9 3441 9365 6ebe
00000290: cc3d 0341 cb1f cc40 4bfb c240 b6f4 b440
000002a0: 6452 c840 bd0e 2141 02e7 bb40 ff51 ce40
000002b0: 0481 f540 343a fa40 155c 0341 5d07 18c0
000002c0: bb2d f341 747d 36bf 4e0a 14bf 0823 00bf
000002d0: 8aa5 bebf e7f2 e741 7f17 86bf fe23 8e3f
000002e0: d384 3e3e 0a9a ccbf e869 e941 1080 4ebf
000002f0: 0f23 0b40 2c2a bbbc d0ff 9dbf 8803 e941
00000300: 9a8e 8abf cb41 5d3f c98a 75bf 2f35 eebf
00000310: 1da3 e941 ff18 6cbf 3390 2040 2498 1dbf
00000320: 7073 db40 c816 c840 c586 0841 25ae d340
00000330: 3b03 c340 8ef9 b340 9ebc c240 dd7a d540
00000340: 9ea3 5540 fe1b d540 ea60 bf3c ae76 953d
00000350: 5cac 09be 533b 38bb b412 e3bd 69f9 523d
00000360: 0903 a03c 4b51 863d ada6 05be 0b9e acbd
00000370: b2c9 12be e122 ca3d 3627 e4bd 42e8 14bc
00000380: e430 e9bd c7bd 033e 126f d63d e497 55bc
00000390: 68b8 a1bd acf6 e03d 376c 273e c22c 09be
000003a0: e2f8 a93c 0e59 d5bd 4c6a 3a3d 30a9 caba
000003b0: 2aa2 babd 8eeb f6bd d488 653d aba9 13be
000003c0: afb4 84bd 9d33 19be e0a2 04be 8b46 8b3d
000003d0: 842e d93d c122 18c0 2745 f341 1e02 23bf
000003e0: ef5d 2fbf 6e4f 8ebe 9fd4 adbf 089c e841
000003f0: 2b7e 8abf 72d9 913f 6fa8 423e ff3f c8bf
-2.3340504 30.578192 -0.39092615 -0.6255081 -0.2218441 -1.5013865 29.092289 -0.4382548
1.2312704 0.46683803 -1.928935 29.380686 -0.45710346 2.0285118 -0.061656892 -1.2167279
29.392517 -0.6670682 1.1321139 -0.80570626 -2.1084836 29.495031 -0.51373464 2.4811273
-0.41309848 6.987882 6.5729566 8.823909 6.9856567 6.3988924 5.8566294 6.275956
6.921115 3.7360752 6.8223124 -2.2968462 30.616247 -0.23833983 -0.46350688 -0.18907575
-1.26277 29.261217 -0.70277303 1.1717194 0.50303894 -1.7528508 29.447674 -0.50402164
2.0572422 0.032871913 -1.2247463 29.349524 -0.70717275 1.1342887 -0.6101623 -2.0270965
29.374002 -0.65781325 2.4308612 -0.73475546 7.095819 6.514438 8.848606 6.9295864
6.1123013 5.783882 6.223438 6.914414 3.5558698 6.9351473 -2.2325964 30.72665
-0.1716732 -0.7326446 0.13640143 -1.237642 29.536524 -0.3957712 1.1603305 0.8133379
-1.7776006 29.66645 -0.13923575 2.0003977 0.21146654 -1.2156504 29.744684 -0.4883568
1.7213899 -0.3379632 -2.1002674 29.858477 -0.292663 2.4235609 -0.29809526 7.4133983
7.098939 8.801009 7.0457864 6.6376357 5.990882 6.635078 7.1756425 3.721892
7.0804863 -2.121379 30.353344 -10.0683365 -1.9577127 -12.996306 -1.2095408 29.24418
-10.505141 1.1699795 -12.089413 -1.5432512 29.093372 -10.511604 1.3318369 -12.691047
-1.1180366 29.327496 -10.699361 0.8504595 -12.48399 -1.9816471 29.239134 -10.574817
2.1970346 -12.743877 8.572173 7.9550066 11.969644 10.337083 8.739525 9.872593
8.420931 10.0716505 6.7790422 9.084251 0.533621 -20.05403 10.738484 2.278308
7.9706483 0.27042723 -18.72324 11.280878 1.9285625 7.3343663 0.22180778 -18.842255
10.88469 3.4596372 8.920807 0.9855597 -19.049625 11.2196455 1.7578123 9.2050085
0.69364315 -18.906923 11.29128 -0.23280935 8.202587 6.378881 6.0931754 5.654872
6.2600574 10.066098 5.871949 6.4475093 7.671999 7.819605 8.209981 -2.3754494
30.39733 -0.71285176 -0.57828224 -0.50053453 -1.4894269 28.993605 -1.047592 1.1104734
0.18605356 -1.5984509 29.176712 -0.8066416 2.1740148 -0.022847258 -1.2343693 29.126724
-1.0824769 0.8642852 -0.95914894 -1.860998 29.204645 -0.9222564 2.5088012 -0.61560273
6.8578415 6.252781 8.532903 6.615008 6.0941443 5.624213 6.0855246 6.671248
3.3381114 6.659667 0.023361642 0.07298027 -0.13444656 -0.0028111532 -0.11087552 0.051507387
0.019532697 0.06558474 -0.13051863 -0.08428582 -0.14334753 0.09869934 -0.111402914 -0.009088578
-0.11386278 0.12865363 0.10470404 -0.013036702 -0.07896501 0.10984549 0.16349874 -0.1339598
0.02074856 -0.104173765 0.04551153 -0.0015461799 -0.091129616 -0.12056647 0.056038693 -0.14420192
-0.06479775 -0.14961095 -0.12952757 0.068005644 0.10604575 -2.3771212 30.408766 -0.63675106
-0.68502706 -0.27794975 -1.3580512 29.076187 -1.0819753 1.1394484 0.19009565 -1.564453

net.0.bias f4 [128]
00000000: b58c 4640 8d9b 3f40 fde5 4e40 b36f 9bc0
00000010: 9106 1f41 98d6 2e40 5ffc 41be e37e 2740
00000020: 17c8 2340 4676 4b40 3b5d 1e40 28de 2b40
00000030: 14b5 1b41 6d9b 2041 2c8f 2c40 fe7f 2640
00000040: 5fda 2540 519c 1d41 6c25 2d40 ddc0 1e41
00000050: c334 6a3c a8ef 3f40 a1b9 19be f0aa bf3f
00000060: 3127 4140 ec66 aec0 9702 2041 0e4d 2140
00000070: 349f 2640 72c0 4c40 7822 4440 1753 1f40
00000080: bf2b 2240 1efd 2141 bc48 1f41 99c4 4140
00000090: a72f 2c40 1756 1d41 2f3f 2240 43e1 2140
000000a0: 8aac 5340 897a 1d41 b113 2240 c79c 2140
000000b0: 2d5d aebd e0ec b4bc 7e13 e23f 34c3 66bd
000000c0: 7379 3540 4e69 0fbd df2e 2440 064d 1cbe
000000d0: 4a55 1c41 3e45 1d40 97bc 2440 3da7 2040
000000e0: 7e87 1a40 c5f9 1e41 a50f 43be bc95 4640
000000f0: 20be 1940 f1c1 1f41 05d4 5440 1aa3 68bd
00000100: f04f 5040 f434 4f40 0b74 2740 a292 1b40
00000110: 730d 1d41 4141 1b41 d472 2040 64db 3440
00000120: 8807 4940 d4b8 2140 fdd3 1f41 2b4f 2840
00000130: 0564 1b41 0e73 2340 72a1 2340 3c32 203d
00000140: 3910 2340 8795 2940 bde9 2140 fb5d 34be
00000150: 4595 1c41 588e e43f d809 2c40 9127 94c0
00000160: e8c7 99c0 a22b 2740 a4db 1c40 54e9 1c40
00000170: a7d1 2340 ca41 5640 c23d 5140 2402 4440
00000180: 0825 18bd 6489 1d40 20e3 1e41 3979 2940
00000190: 411d 2041 ea31 3340 d57f 2440 037a 2b40
000001a0: 15e9 2241 04f0 1d40 843c 1740 5105 1c40
000001b0: e989 2240 bc70 3040 6294 2540 a614 1c41
000001c0: 4198 2740 7b3e 93c0 9cb6 1f41 5e95 1c41
000001d0: 3b5f 1b41 0b6f 5440 567f 5140 1776 ce3f
000001e0: 24c7 2440 eaa4 5640 9e85 1e41 b072 2041
000001f0: 1c03 3540 45ee 2441 8607 2e40 f268 4c40
3.102338 2.993869 3.2327874 -4.857385 9.939103 2.7318478 -0.18943928 2.6171196
2.5590875 3.1790938 2.4744403 2.6854343 9.731709 10.037946 2.6962385 2.601562
2.5914533 9.850663 2.705409 9.922086 0.014294806 2.9990025 -0.15012218 1.4974041
3.018017 -5.4500637 10.000632 2.520328 2.603467 3.199246 3.0646038 2.4894464
2.53392 10.124296 9.955257 3.0276244 2.6904085 9.833518 2.5351064 2.529374
3.307406 9.842416 2.5324519 2.525194 -0.085138656 -0.022085607 1.7662199 -0.056338504
2.8355377 -0.035012536 2.5653608 -0.15263757 9.770823 2.4573512 2.5740106 2.5102074
2.4145198 9.935979 -0.19048937 3.102889 2.4022293 9.984849 3.3254406 -0.05679617
3.254879 3.237607 2.6164577 2.4308248 9.8157835 9.703431 2.5070086 2.8258905
3.1410847 2.526906 9.989255 2.629832 9.711919 2.5538974 2.5567288 0.039110407
2.5478652 2.6497514 2.5298913 -0.17613976 9.786443 1.785594 2.6881008 -4.62983
-4.8056526 2.6120381 2.4509058 2.4517412 2.5596712 3.3477654 3.2693944 3.0626307
-0.03714469 2.4615107 9.93045 2.6480238 10.007142 2.7999215 2.5703022 2.679322
10.181905 2.4677744 2.3630686 2.4378245 2.5396674 2.7568808 2.5871816 9.755041
2.6186678 -4.601377 9.982082 9.786467 9.71075 3.3192775 3.273397 1.6129788
2.5746546 3.3538156 9.907621 10.028 2.8283148 10.308171 2.7192092 3.1939054

net.2.weight f4 [128, 128]
00000000: 8563 a240 941b a040 c2af a240 914a 4ac1
00000010: 9612 2340 7b35 3940 1d31 be3b 6156 3940
00000020: 987e 1f40 5dcf a240 bdb7 1440 7551 5040
00000030: 51aa 3240 e753 2b40 58b1 1140 38cc 1740
00000040: 0da8 3140 d644 3640 a91c 4e40 d851 1d40
00000050: 6533 9abd b056 a340 3bad 673d 7c32 0f41
00000060: 329e a240 77f2 52c1 6164 1940 05aa 2540
00000070: 0794 f43f 4553 9e40 d409 9e40 7417 fe3f
00000080: 2472 e83f 7051 2840 ccea 1d40 d22c a440
00000090: b119 5c40 a581 2940 0554 4440 7765 0140
000000a0: b938 a140 e32a 2840 b947 0240 7782 4440
000000b0: 0d22 b53c 2adc 483d 097c 1841 fa95 c03c
000000c0: 971d 9240 e506 3b3d 23c8 3840 8e8e 4f3d
000000d0: 1f40 2a40 1378 3a40 2ff4 1b40 f795 e43f
000000e0: 9a31 1740 3548 1b40 b890 383d 2d67 9f40
000000f0: 79ba 4f40 2f0c 2840 0553 a040 c10f 423d
00000100: b384 9c40 d24b a640 ec66 5540 7e3e 8d3f
00000110: 9c1d 2040 1d52 3140 054f 8140 5224 9140
00000120: b9a3 a240 9d4c b83f f890 2540 df05 8c40
00000130: fccc 3240 f077 3540 29b0 3a40 b96f b2bd
00000140: e255 3240 2427 d03f 817d 3640 e50a 543d
00000150: 3e4f 2d40 a80a 1741 2431 9640 d640 52c1
00000160: fca1 4cc1 ae3c c13f beca 0040 c499 4e40
00000170: c7fa 2640 95ce a340 0373 a140 eb06 a240
00000180: be73 9fbd 0a13 0f40 5b7f 1e40 5e35 6540
00000190: 1012 2440 b7fb 8e40 bdd8 cc3f 2359 2040
000001a0: 6b25 1840 c8e7 6640 c1e8 af3f 4551 0240
000001b0: 70a4 4a40 b900 6d40 4348 3940 cc57 2840
000001c0: 319b f43f 96ff 4ac1 d6c5 1e40 da1b 2f40
000001d0: d19f 2840 9c34 a240 0088 9e40 3cba 1741
000001e0: 1edf 2240 49be 9f40 b2a0 2640 a290 2640
000001f0: fe37 a140 3a4a 2240 ec61 9240 b17e a340
00000200: 6f8f 9f40 33c1 9f40 f3bd a240 f000 4dc1
00000210: 0cf6 3a40 0cd9 2440 a7e9 d63c c8b8 2940
00000220: bd58 1a40 c283 a640 7fb5 0a40 2ca6 4f40
00000230: 1962 4640 14bd 3c40 0e73 0740 6b1a 1340
00000240: cd16 2940 99b9 4640 f85a 3d40 48f2 3b40
00000250: e1a8 adbd 05fc a540 4169 66bb b9c4 0f41
00000260: fc94 a440 514d 54c1 232d 3040 8f1d 2040
00000270: 0569 ef3f b72d a340 d71f a340 fcd1 0140
00000280: cc06 f83f 472a 4340 dbcb 3740 6055 a340
00000290: baa1 4c40 a930 3b40 7406 3f40 5349 f13f
000002a0: 6e85 a240 632b 3a40 066d 0140 5bc0 3a40
000002b0: 9977 1e3b 91e9 e73c 2a83 1641 e109 213d
000002c0: f933 9040 ba9a 11bd e79d 3240 d449 143c
000002d0: 8249 3e40 6748 3040 df94 0a40 477d f13f
000002e0: ba0c 1340 bd85 2f40 f892 95bd f449 a540
000002f0: 0968 4140 1f7c 3f40 1446 a040 003b 28bd
00000300: 5728 a040 a9dc a740 9368 4440 6e90 913f
00000310: e4aa 3140 c719 4740 6e70 8640 677c 8b40
00000320: 78b9 a440 708a 953f d5c3 4340 4a40 8940
00000330: 7145 4440 dd24 2640 a933 2740 3306 c83c
00000340: 2670 2d40 1112 da3f be3a 2e40 a3bb df3c
00000350: d20e 4140 eb65 1441 776b 9640 418c 52c1
00000360: 696b 4ec1 9c01 c23f 89f1 0540 7945 3d40
00000370: 8b7b 2040 cbe2 a440 2a16 a240 0b9e a440
00000380: e9c0 023d 148e 0f40 376c 3140 cba4 5340
00000390: 10a2 3a40 c9ad 8c40 5550 c33f e85b 1b40
000003a0: 35e4 2f40 b9cd 5a40 26ac a63f 0de2 f13f
000003b0: cceb 4c40 add5 6f40 ef0f 2d40 5a40 4040
000003c0: a281 0040 8b05 4cc1 a34a 3640 54d3 4440
000003d0: b078 3940 eddd a940 bb1c a440 cb3b 1541
000003e0: 8a17 1940 2b4a a440 0da2 4240 57ab 4340
000003f0: 6ba1 9f40 1ea0 3440 e178 9640 be37 a640
5.0746484 5.0033665 5.083955 -12.643205 2.5480094 2.8938892 0.0058041946 2.8958972
2.4921017 5.087813 2.3237145 3.2549717 2.7916453 2.676996 2.2764492 2.3718395
2.775882 2.8479514 3.2204993 2.4581203 -0.07529334 5.104332 0.05656169 8.949825
5.081811 -13.1841955 2.3967516 2.5885022 1.9107674 4.9476647 4.9386997 1.9850907
1.8159833 2.6299706 2.4674559 5.130471 3.439068 2.6485379 3.0676281 2.021818
5.038174 2.6276176 2.0356276 3.070463 0.022110963 0.04903809 9.530282 0.023509014
4.566112 0.045660872 2.8872154 0.05067306 2.6601636 2.9135787 2.4367788 1.7858266
2.3624024 2.4262822 0.04505989 4.9813447 3.2457564 2.6257436 5.010134 0.047378305
4.8911986 5.1967554 3.3344069 1.1034696 2.5018072 2.7706368 4.040896 4.5356836
5.0824857 1.439838 2.5869732 4.3757167 2.7937613 2.8354454 2.917002 -0.08712716
2.7864919 1.6261945 2.8514102 0.051768202 2.7079616 9.440102 4.6934986 -13.140829
-12.789547 1.5096643 2.0123744 3.228135 2.6090562 5.1189675 5.0452895 5.0633445
-0.07785748 2.235537 2.4765232 3.5813823 2.5636024 4.468227 1.6003643 2.5054405
2.3772838 3.6078968 1.3742906 2.0362103 3.1662865 3.703169 2.8950355 2.6303587
1.9109861 -12.687399 2.480825 2.736075 2.6347544 5.068922 4.9541016 9.482967
2.544868 4.991978 2.603558 2.6025777 5.038085 2.5357804 4.5744534 5.1092153
4.986259 4.992334 5.085687 -12.812729 2.9212675 2.5757475 0.026234461 2.6519032
2.4116662 5.2035837 2.1673276 3.2445173 3.0997374 2.9490404 2.1163974 2.2984874
2.6420166 3.105078 2.9586773 2.9366627 -0.08479477 5.187014 -0.003515795 8.985528
5.1431866 -13.268876 2.752755 2.501804 1.8703924 5.0993304 5.0976367 2.0284414
1.9377074 3.0494554 2.8718174 5.1041718 3.197371 2.924845 2.9847689 1.8850502
5.078788 2.908898 2.0222793 2.9179904 0.0024180172 0.028309615 9.407022 0.039316062
4.5063443 -0.03554795 2.7908876 0.009050805 2.9732366 2.754419 2.1653364 1.8866357
2.2976518 2.7425377 -0.07303423 5.1652775 3.0219748 2.9919508 5.0085545 -0.04107189
5.0049243 5.245686 3.0688827 1.1372201 2.7760553 3.1109483 4.2012243 4.358936
5.14764 1.1682873 3.0588276 4.289098 3.0667384 2.596 2.612528 0.024417019
2.70997 1.7036763 2.7223353 0.027311152 3.0165296 9.274882 4.7006183 -13.159242
-12.901223 1.5156741 2.0928671 2.9573653 2.5075405 5.1526847 5.0652056 5.1442924
0.031922255 2.2430468 2.77223 3.3069332 2.9161415 4.396214 1.525889 2.4274845
2.7483037 3.4188063 1.3021286 1.889711 3.201892 3.7474167 2.7040975 3.0039277
2.0079122 -12.751353 2.8483055 3.0753984 2.8979912 5.3083405 5.128507 9.327098
2.3920617 5.1340537 3.0411408 3.0573328 4.9884543 2.8222728 4.7022557 5.1943045

net.2.bias f4 [128]
00000000: 8182 29bf f84e 65be 72df 0bc1 4e7c c1be
00000010: f709 3b3d 62ad 1440 869f 97bc 641b 7740
00000020: 52ce 7540 0d81 b2bd b385 1741 0d82 94bf
00000030: 997d b1bd 309d 17bf 8a40 7540 eaf5 a23c
00000040: 3f61 7640 fdd9 0dbf 119d 00bf 7ac6 bbbe
00000050: 2312 d4bc fb6f 7d40 c58d e83c 3812 d0c0
00000060: a402 00c1 89e4 09c1 6a54 aabd 95a4 6e40
00000070: 4408 7440 d065 8f3f 1be7 7a40 620e a7bd
00000080: b443 08bd 5866 25bd 220e 7640 0aaf 57bf
00000090: 56a2 803d d645 1940 9f52 7240 f195 1b41
000000a0: bb0a 0a40 6d47 a1bb 7ce4 63bd 5f04 acbc
000000b0: af50 8040 c14c 7c40 053a 8b3d 0a1c dcbf
000000c0: 569c cec0 d76f f63c 6c0f a6be 9463 32bf
000000d0: 418c e03c 41c7 06bf d680 7a40 b4a4 75bc
000000e0: a01c 373b 57ff 7840 58d3 04bf df27 0cc1
000000f0: dd27 933c b87d abc0 43bd 6ebe 8223 97be
00000100: 4f50 f3c0 3637 f9bc 21c4 6f40 f4a3 7640
00000110: b7be 1340 6a5a 1040 349a a6bd c88a 6f40
00000120: daae 803c 7674 9bbd 820c 7d40 4d11 05c1
00000130: deef 7240 bfa2 6a40 3424 52c0 0c45 8f3f
00000140: 14b9 00bf f81a 05bd 183a 6b40 8b61 04bf
00000150: a567 943d c8d8 09bd ecb7 c03c 0f73 1240
00000160: 9bee 7840 b27c 24bd ce8a e9c0 7e8d 97c0
00000170: 2ff5 8838 a4e8 993d 06ba 61bd 9b35 7b40
00000180: 5391 e2c0 affc 693c b2ea 7640 f77d c3bd
00000190: 6f54 a6bd ce45 0bc1 04f5 43c0 c0ee 0b41
000001a0: c357 edbc 0620 c8c0 961e 043d 4002 f5c0
000001b0: c4e2 e53f 33a6 1f3c 8531 1740 0aed 7240
000001c0: 3825 e3be ba06 6ebd 1cf2 dcbe 9f18 0a3f
000001d0: 3726 09c1 ae3b aac0 6e70 743c 2e9b 26bf
000001e0: cba5 b3c0 00c8 cec0 aa5a 07c1 8283 9cbd
000001f0: a91b 7640 a78d c6bd b02b dfbe 9204 1840
-0.6621476 -0.22393405 -8.742052 -0.3779015 0.0456638 2.3230824 -0.018508684 3.8610468
3.8407178 -0.08716021 9.470141 -1.1602188 -0.08666534 -0.59224224 3.8320642 0.019892652
3.8496854 -0.5541075 -0.50239664 -0.36674863 -0.025887555 3.9599597 0.028387913 -6.502224
-8.000645 -8.618295 -0.08316882 3.7287953 3.8130045 1.1202946 3.9203556 -0.0815704
-0.03326769 -0.040380806 3.8446126 -0.84251463 0.06280963 2.3948874 3.7862928 9.724107
2.156905 -0.0049218447 -0.05563782 -0.020998178 4.009849 3.9421847 0.06798176 -1.7196057
-6.456584 0.030082626 -0.3243364 -0.69683194 0.027410628 -0.5264779 3.9141135 -0.014992882
0.0027940646 3.8905847 -0.51884985 -8.759734 0.017963344 -5.3590965 -0.23314385 -0.29519278
-7.6035533 -0.030421834 3.7463458 3.853757 2.3085153 2.2555184 -0.08134881 3.7428455
0.015708376 -0.075905725 3.9538884 -8.316724 3.7958903 3.6661832 -3.2834597 1.1192946
-0.50282407 -0.032496423 3.6754208 -0.5171134 0.07246331 -0.033654004 0.0235252 2.2882726
3.8895633 -0.04015798 -7.298194 -4.736022 6.530654e-05 0.07515076 -0.055109046 3.9251468
-7.08024 0.014281436 3.8580747 -0.0954551 -0.08121573 -8.704542 -3.0618296 8.745789
-0.028972512 -6.253909 0.03225573 -7.6565247 1.7959828 0.009744215 2.3623974 3.7957177
-0.44364333 -0.058111884 -0.43153465 0.5394382 -8.57183 -5.319785 0.014919383 -0.65080535
-5.6139884 -6.461914 -8.459635 -0.076422706 3.8454382 -0.09694987 -0.43588018 2.375279

net.4.weight f4 [20, 128]
00000000: c38b b4bf aaa7 9abf 6542 fb40 b8df 9ebf
00000010: d801 8dbc c93e 9d40 1585 7a3d b8c1 8140
00000020: 2d94 9440 78f0 0cbd 04c5 e53f e5c0 bbbf
00000030: 3753 f03c ca8e b1bf 03b9 8f40 2a2a 6bbc
00000040: b643 8840 2088 8bbf da94 99bf a280 95bf
00000050: 3fc8 40bd 8c11 8540 e25a 8abd fccc ed40
00000060: 9cc0 f740 f8ff f540 238e 1e3c 686d 8b40
00000070: 31b8 9540 4f44 9c40 2a20 8d40 8f66 fb3b
00000080: 7d00 3d3a bab0 493d 8f83 8840 3003 b7bf
00000090: a066 8dbd adcd 9a40 5ff3 8e40 53da f43f
000000a0: 9705 9840 3c69 16bc 23eb 1b3d 0c61 42bb
000000b0: b758 9140 b8cd 8a40 b323 93bd f4c4 a740
000000c0: 7fbe f140 98b7 ad3d 7a0f 99bf 51a5 a2bf
000000d0: 75f3 8bbf 4de8 a4bf 610e 8940 813b 973d
000000e0: b725 62bd 3da7 9240 c546 88bf cae7 f940
000000f0: 9c29 653d f182 e140 16ec 95bf ef77 87bf
00000100: 7ca7 f340 83be 03bd dd30 8b40 83a0 8840
00000110: 43ad 9b40 5e21 9c40 2d74 2f3d 4dda 8140
00000120: 4692 2fbd 15b2 90bf f56e 8b40 a24e f840
00000130: 40b8 8f40 2efa 6e40 fc56 c640 d75d 9840
00000140: c92b acbf 2dee 82bb 1ddd 8e40 ca44 9ebf
00000150: 0505 8cbb f96f a43d 9c32 a93d 31d8 9540
00000160: c1fb 8e40 8538 1e3d 0b97 f440 2d95 dc40
00000170: 60e0 ac3d 335d 9740 5c9a 5f3d 922b 8e40
00000180: c3ea ef40 bf5d 49bd 008f 8b40 e224 97bc
00000190: 2cea 8c3d 0a96 f740 d407 c240 6d76 8b3f
000001a0: be7a 4bbc 5783 ee40 d6be 893c 049b f440
000001b0: 2076 9940 9241 d93c 7ee5 9940 b42d 8640
000001c0: 0ced a2bf b9a5 97bd 274a a8bf 480b 0abf
000001d0: 958d f740 e944 e340 2796 1d3d 482b a0bf
000001e0: f2c9 ea40 8373 ec40 b1e5 fb40 f96a 11bd
000001f0: 48ff 8540 1c00 a33d e374 a9bf 6a0b 9c40
00000200: 21b6 44bf 2b6a 1abf 8b63 e740 0f38 59bf
00000210: 4bf0 86bd 0f7a 9240 976b b4bc 04fd 8140
00000220: b535 8b40 f975 6d3d a91a 893e b27f 86bf
00000230: e735 bcbc 2de0 44bf acdd 8740 9045 f33b
00000240: dd10 8440 89c5 19bf 9cd5 2bbf 0fe0 2dbf
00000250: e0a7 9b3d 7f52 8340 bc3f 1f3d 717a e940
00000260: dfe8 e540 ad8c e440 2eb5 a93d f8ae 8440
00000270: d681 8c40 7ba5 9540 abe2 8840 d18e aa3d
00000280: 27cb 343d 1483 0dbd 325a 8640 8e2d 60bf
00000290: d6a4 54bd 3f00 9140 a088 8740 f8ed 003f
000002a0: da5e 9240 a333 213c f463 253d 729d 0cbd
000002b0: 3a78 8a40 b8a9 8640 0d55 8abd 386a c140
000002c0: 815c eb40 02ff e23b 3d65 25bf 11b2 34bf
000002d0: 88ff 37bf 3c61 58bf 0bcc 8940 9995 96bd
000002e0: f42a 313e 8fc2 8c40 cec3 20bf 7d4d e740
000002f0: 3e56 2d3d f23b e940 11e6 22bf 144f 1dbf
00000300: 4c19 e840 0b64 ae3d a96d 8740 20dd 8440
00000310: 0f5e 9040 94f2 9040 eaed dfbb 3084 7a40
00000320: d7b9 a6bc 6ffa 1abf 1ae7 8840 2ab3 e440
00000330: c420 8940 bd36 6f40 ecd8 dc40 ebf3 9540
00000340: a2d0 5dbf 2047 6dbc 00e0 8940 248f 4fbf
00000350: 4842 2fbd 4ac0 70bd e7f1 5a3d a8fa 8d40
00000360: 9e68 8a40 0321 3ebd 6a99 ea40 002d e840
00000370: b310 213d 9100 a040 e47d 2c3d a568 8740
00000380: 33d5 e840 7ee6 893d 0a99 8540 5e5e a8bd
00000390: 4daf 77bd 1e9f e540 d052 da40 56a9 223f
000003a0: 95ac 9ebd 8c11 ed40 e1a3 873d d681 e740
000003b0: 71fb 9040 ed31 513d 64ea 9040 ab74 8340
000003c0: fa39 25bf a58b 503d 51af 49bf 55c6 11bf
000003d0: 1047 e540 fbdc ea40 b320 a53d 6c38 3abf
000003e0: 01db e840 fec5 ec40 c3e5 e340 8d2e d8bc
000003f0: bca1 8240 f61c 99bd f42f 3cbf ca9e 8f40
-1.4105152 -1.2082417 7.851855 -1.2412024 -0.017212793 4.913914 0.061162073 4.0548973
4.643088 -0.034409016 1.7950749 -1.4668242 0.029336555 -1.3871701 4.4913344 -0.014353314
4.2582655 -1.0900917 -1.1998551 -1.1679881 -0.04706597 4.158392 -0.06755616 7.4312725
7.742262 7.687496 0.009677443 4.3571053 4.6787343 4.8833385 4.4101763 0.007672138
0.00072098506 0.049240805 4.2660594 -1.4297848 -0.0690434 4.837607 4.4672084 1.9129127
4.7506824 -0.009180363 0.03806604 -0.0029659895 4.5420794 4.337612 -0.071845435 5.242792
7.554504 0.08482283 -1.1957848 -1.27067 -1.0933672 -1.2883393 4.283005 0.07384396
-0.05521175 4.582915 -1.0646597 7.8095446 0.055947885 7.047234 -1.1712673 -1.0583476
7.614195 -0.032164108 4.3497148 4.2695937 4.8649 4.879073 0.042835403 4.057898
-0.042864107 -1.1304346 4.3572946 7.7595987 4.4912415 3.7340198 6.198118 4.761455
-1.3450862 -0.003995678 4.4644914 -1.2364743 -0.0042730593 0.080291696 0.08261606 4.6826406
4.4682317 0.03862812 7.643438 6.89321 0.08441234 4.730127 0.054590568 4.4428186
7.4974074 -0.04916167 4.361206 -0.018450204 0.06880602 7.7370653 6.0634556 1.0895516
-0.012419401 7.4535327 0.01681463 7.643923 4.7956696 0.026520524 4.809264 4.193079
-1.2728591 -0.07404656 -1.314763 -0.53923464 7.736033 7.102162 0.038473275 -1.2513208
7.3371515 7.3891006 7.8717885 -0.035502408 4.1874123 0.07959005 -1.3238796 4.8763933
-0.76840407 -0.6031825 7.2309012 -0.84851164 -0.06588801 4.5773997 -0.02202396 4.0621357
4.350306 0.057973836 0.26778153 -1.050772 -0.022974921 -0.76904565 4.2458096 0.007424064
4.1270585 -0.6006704 -0.6712282 -0.6792001 0.07600379 4.1038203 0.03887914 7.2961965
7.1846766 7.1421723 0.082865104 4.1463585 4.390849 4.6764503 4.2776694 0.08328021
0.044139054 -0.034548834 4.19851 -0.8756951 -0.051915012 4.53128 4.235428 0.5036311
4.5740786 0.009838971 0.040378526 -0.03432984 4.327176 4.2082176 -0.067545034 6.044216
7.355042 0.006927372 -0.646076 -0.7058421 -0.71874285 -0.8452337 4.3061576 -0.07352752
0.17301542 4.39875 -0.62798774 7.228209 0.042318575 7.2885675 -0.63632303 -0.6144879
7.253088 0.085151754 4.2321362 4.151993 4.511482 4.5296116 -0.0068337815 3.914318
-0.020352287 -0.6053838 4.2782106 7.1468706 4.2852497 3.737716 6.9014797 4.686025
-0.86646473 -0.01448229 4.3085938 -0.8107779 -0.04278782 -0.05877713 0.053453352 4.4368477
4.3252707 -0.0464182 7.3312273 7.255493 0.039322566 5.000069 0.042112246 4.231524
7.2760253 0.06733416 4.1749315 -0.08221124 -0.060469914 7.1756735 6.822609 0.63539636
-0.07747761 7.408392 0.06623054 7.234599 4.5306935 0.051073004 4.528612 4.1079917
-0.6454159 0.050914425 -0.78783137 -0.56943256 7.1649246 7.339475 0.080628775 -0.7274234
7.276734 7.399169 7.121797 -0.026389385 4.082243 -0.07476227 -0.7351067 4.4881334

net.4.bias f4 [20]
00000000: e796 fc3f b87c e83f fd69 c63f 9211 d73f
00000010: 6858 8a3f 3505 993f 1ca4 c73f 8607 cb3f
00000020: cfa1 e9bd d3de ef3f 58c8 b53e 61ef f43e
00000030: acb4 553f a88d c63e 9490 843f ac56 e6be
00000040: c9b1 e13e 0309 79bc b122 463f f70b 813d
1.9733552 1.8163061 1.5501095 1.6802237 1.080823 1.1954714 1.5596957 1.5861671
-0.11407816 1.8739876 0.35504413 0.47838882 0.8347881 0.3877995 1.0356622 -0.44988
0.44080952 -0.0151999025 0.77396685 0.0630111
