realtime_model_ep133.pth (torch, 97610 bytes, 6 tensors)

net.0.weight f4 [128, 35]
0	0xc00c9b06	-2.1969619
1	0x41f08707	30.065931
2	0xbd852667	-0.06501465
3	0xbf563e7a	-0.8368908
4	0x3da1d1c0	0.07901335
5	0xbfb6de5e	-1.4286611
6	0x41e7536d	28.915735
7	0xbb9f4ada	-0.004861218
8	0x3f5aa9af	0.85415167
9	0x3f390ce8	0.7228532
10	0xbfee3222	-1.8609049
11	0x41e95b59	29.169603
12	0xbd201d4e	-0.039090447
13	0x3fe75dad	1.8075463
14	0x3d2da859	0.042396877
15	0xbf93d4fa	-1.154937
16	0x41e995f5	29.198221
17	0xbe7af9d6	-0.24509367
18	0x3f94d6ed	1.162809
19	0xbf797bbf	-0.97454447
20	0xc003697f	-2.053314
21	0x41ea932f	29.321867
22	0xbd96d79e	-0.073653445
23	0x4016e12b	2.3574932
24	0xbddaa3b8	-0.10675758
25	0x40e2dbc1	7.0893254
26	0x40d4c67b	6.6492286
27	0x410e7ea2	8.905916
28	0x40e22e5b	7.0681586
29	0x40cf38ae	6.475669
30	0x40bd4ac5	5.915377
31	0x40cc0d42	6.3766184
32	0x40e081d1	7.0158467
33	0x40735e11	3.8026164
34	0x40dc8fe8	6.8925667
35	0xc00a39a9	-2.1597693
36	0x41f0d677	30.10472
37	0x3db27c24	0.08715084
38	0xbf2cc98d	-0.6749504
39	0x3de3c6f4	0.11121932
40	0xbf985369	-1.1900455
41	0x41e8af51	29.085604
42	0xbe89ff27	-0.26952478
43	0x3f4b61f8	0.79446363
44	0x3f42216f	0.75832266
45	0xbfd7a79d	-1.6848027
46	0x41e9e690	29.23758
47	0xbdb0882b	-0.08619722
48	0x3feb0c0f	1.8363055
49	0x3e0bff5e	0.13671634
50	0xbf94dbb3	-1.1629547
51	0x41e93feb	29.15621
52	0xbe921c48	-0.28537202
53	0x3f951361	1.1646539
54	0xbf4777e8	-0.7791734
55	0xbffc67bc	-1.9719157
56	0x41e99d3d	29.201777
57	0xbe5f1c74	-0.21788198
58	0x4013a884	2.3071604
59	0xbedbb4aa	-0.42911273
60	0x40e65080	7.1973267
61	0x40d2e7cf	6.590797
62	0x410ee418	8.930687
63	0x40e063be	7.0121756
64	0x40c60db1	6.1891713
65	0x40baf7bd	5.8427415
66	0x40ca5f9c	6.324171
67	0x40e04bcc	7.0092525
68	0x4067d823	3.622567
69	0x40e02d19	7.005505
70	0xc0061d12	-2.0955243
71	0x41f1b30a	30.212421
72	0x3e1cef88	0.15325749
73	0xbf719540	-0.9436836
74	0x3ee14b1c	0.44002616
75	0xbf951c03	-1.1649173
76	0x41eadc2e	29.35751
77	0x3d122242	0.035677202
78	0x3f48b865	0.78406364
79	0x3f8941bd	1.0723187
80	0xbfdad458	-1.7096052
81	0x41eb9fed	29.453089
82	0x3e8de01f	0.27710053
83	0x3fe3b194	1.7788568
84	0x3ea1c23f	0.3159351
85	0xbf93b275	-1.1538836
86	0x41ec6233	29.547949
87	0xbd8ba60b	-0.068187796
88	0x3fe07b77	1.7537678
89	0xbf01ede7	-0.50753635
90	0xc002e3a0	-2.0451431
91	0x41ed76e4	29.683052
92	0x3e15114a	0.14557377
93	0x4013282d	2.2993271
94	0x3c230544	0.009949986
95	0x40f0789c	7.514723
96	0x40e5997e	7.174987
97	0x410e2068	8.882912
98	0x40e418f7	7.1280475
99	0x40d6d999	6.714062
100	0x40c1926b	6.0491233
101	0x40d788ec	6.735464
102	0x40e8a46a	7.27007
103	0x40726bb1	3.787823
104	0x40e4cf8d	7.150336
105	0xbffe1aa5	-1.9851881
106	0x41ef05c4	29.877815
107	0xc127b059	-10.480554
108	0xc00d2d1f	-2.205879
109	0xc14fc15f	-12.98471
110	0xbf918dcd	-1.1371399
111	0x41e8e8b4	29.113625
112	0xc12b663f	-10.712462
113	0x3f3b4bac	0.7316234
114	0xc142a1fe	-12.164549
115	0xbfbccd69	-1.4750186
116	0x41e76a72	28.926975
117	0xc12bf1fb	-10.746577
118	0x3f89c82a	1.076421
119	0xc14c05c4	-12.751408
120	0xbf872cec	-1.0560584
121	0x41e9708b	29.179953
122	0xc12ee3d8	-10.930626
123	0x3f320096	0.69532144
124	0xc14ce512	-12.805925
125	0xbff67dbb	-1.925712
126	0x41e8e287	29.11061
127	0xc12c7518	-10.778587
128	0x40038e22	2.05555
129	0xc14bd439	-12.739312
130	0x4109ce1d	8.612821
131	0x40ff2b17	7.97401
132	0x413fe24f	11.992751
133	0x4125bbb1	10.358323
134	0x410c433c	8.766415
135	0x411e25aa	9.884195
136	0x41077184	8.465214
137	0x4121c21a	10.109888
138	0x40d9c1bc	6.804899
139	0x4111a56f	9.102889
140	0x3ecb178d	0.39666405
141	0xc19d190c	-19.63723
142	0x412ced8d	10.807996
143	0x40216e6b	2.5223644
144	0x40fb04a9	7.844319
145	0x3e493e43	0.19652657
146	0xc1952909	-18.645037
147	0x41327068	11.152443
148	0x4016496c	2.3482313
149	0x40e8db3d	7.2767625
150	0x3e1c3072	0.15252855
151	0xc195cd2a	-18.725178
152	0x412c8648	10.7827835
153	0x406cb0ba	3.6982865
154	0x410e7233	8.902881
155	0x3f6c32aa	0.9226481
156	0xc1979ecc	-18.952538
157	0x4131cb6b	11.112163
158	0x3fecf01a	1.8510773
159	0x41171188	9.44178
160	0x3f22f465	0.63654166
161	0xc1969dcc	-18.82705
162	0x41327828	11.154335
163	0xbde782c9	-0.11304242
164	0x41014399	8.079003
165	0x40c9c071	6.3047414
166	0x40c149a7	6.040241
167	0x40b31e50	5.5974503
168	0x40c67a86	6.2024565
169	0x41201312	10.004656
170	0x40ba7528	5.8268013
171	0x40cbdbe2	6.370591
172	0x40f32714	7.5985203
173	0x40f86bef	7.7631755
174	0x410281c3	8.15668
175	0xc00f4360	-2.2384872
176	0x41ef27db	29.89446
177	0xbecb76db	-0.39739117
178	0xbf4a8577	-0.791099
179	0xbe55def1	-0.20885827
180	0xbfb55878	-1.4167624
181	0x41e6a1eb	28.829062
182	0xbf1ec675	-0.6202157
183	0x3f3b29a6	0.73110425
184	0x3edccb34	0.43123782
185	0xbfc3e334	-1.5303712
186	0x41e7d1c8	28.977432
187	0xbeca5ab8	-0.39522338
188	0x3ff9e50d	1.9523026
189	0x3d9d0a0c	0.07667932
190	0xbf961510	-1.1725178
191	0x41e78edf	28.944761
192	0xbf2abe6d	-0.66696817
193	0x3f63b86d	0.88953286
194	0xbf90e9f0	-1.1321392
195	0xbfe71ec5	-1.8056265
196	0x41e858cf	29.043364
197	0xbef9e9e6	-0.48811263
198	0x401895a3	2.384133
199	0xbea3d74d	-0.320002
200	0x40deb12a	6.9591265
201	0x40ca88c4	6.329195
202	0x4109d63f	8.614806
203	0x40d65134	6.6974125
204	0x40c57c0b	6.171392
205	0x40b5dfb6	5.6835585
206	0x40c5f55b	6.1862006
207	0x40d88381	6.7660527
208	0x4059f528	3.4055882
209	0x40d75e97	6.7302966
210	0x3cbf60ea	0.023361642
211	0x3d9576ae	0.07298027
212	0xbe09ac5c	-0.13444656
213	0xbb383b53	-0.0028111532
214	0xbde312b4	-0.11087552
215	0x3d52f969	0.051507387
216	0x3ca00309	0.019532697
217	0x3d86514b	0.06558474
218	0xbe05a6ad	-0.13051863
219	0xbdac9e0b	-0.08428582
220	0xbe12c9b2	-0.14334753
221	0x3dca22e1	0.09869934
222	0xbde42736	-0.111402914
223	0xbc14e842	-0.009088578
224	0xbde930e4	-0.11386278
225	0x3e03bdc7	0.12865363
226	0x3dd66f12	0.10470404
227	0xbc5597e4	-0.013036702
228	0xbda1b868	-0.07896501
229	0x3de0f6ac	0.10984549
230	0x3e276c37	0.16349874
231	0xbe092cc2	-0.1339598
232	0x3ca9f8e2	0.02074856
233	0xbdd5590e	-0.104173765
234	0x3d3a6a4c	0.04551153
235	0xbacaa930	-0.0015461799
236	0xbdbaa22a	-0.091129616
237	0xbdf6eb8e	-0.12056647
238	0x3d6588d4	0.056038693
239	0xbe13a9ab	-0.14420192
240	0xbd84b4af	-0.06479775
241	0xbe19339d	-0.14961095
242	0xbe04a2e0	-0.12952757
243	0x3d8b468b	0.068005644
244	0x3dd92e84	0.10604575
245	0xc00f5ebf	-2.2401578
246	0x41ef3f06	29.905773
247	0xbea46874	-0.3211094
248	0xbf65d871	-0.8978339
249	0x3c6249dc	0.013811555
250	0xbfa48785	-1.2853857
251	0x41e74ac2	28.911503
252	0xbf278ab3	-0.65446013
253	0x3f429646	0.7601055
254	0x3edee6ee	0.4353556
255	0xbfbf890d	-1.49637

net.0.bias f4 [128]
0	0x404d238c	3.2052946
1	0x404631a2	3.0967793
2	0x40557cd8	3.3357449
3	0xc09b022f	-4.8440166
4	0x411e1314	9.879658
5	0x403551e7	2.833124
6	0xbe41fc5f	-0.18943928
7	0x402dfa90	2.7184181
8	0x402a3f22	2.6601033
9	0x40520d00	3.2820435
10	0x4024cefb	2.575133
11	0x40325e79	2.7870162
12	0x411abff0	9.67186
13	0x411fa806	9.978521
14	0x40330020	2.7968826
15	0x402cf46b	2.702418
16	0x402c54a4	2.692666
17	0x411ca611	9.790544
18	0x4033a5f1	2.8070033
19	0x411dcd66	9.862646
20	0x3c6a34c3	0.014294806
21	0x40468500	3.1018677
22	0xbe19b9a1	-0.15012218
23	0x3fb5d2bd	1.4204937
24	0x4047be2e	3.1209826
25	0xc0ad686f	-5.4189982
26	0x411f1149	9.94172
27	0x4027c509	2.621401
28	0x402d0ec8	2.7040272
29	0x40535634	3.3021364
30	0x404abfbc	3.1679525
31	0x4025c228	2.5899754
32	0x40289b61	2.6344836
33	0x41210a61	10.065034
34	0x411e5734	9.89629
35	0x40485c6d	3.1306412
36	0x4032b134	2.7920656
37	0x411c6247	9.7739935
38	0x4028bd26	2.6365447
39	0x40285083	2.629914
40	0x405a463c	3.4105368
41	0x411c861f	9.782744
42	0x40288462	2.63308
43	0x40281895	2.6265004
44	0xbdae5d2d	-0.085138656
45	0xbcb4ece0	-0.022085607
46	0x3fd6dcef	1.6786174
47	0xbd66c334	-0.056338504
48	0x403c0a5e	2.9381328
49	0xbd0f694e	-0.035012536
50	0x402aa8f1	2.6665614
51	0xbe1c4d06	-0.15263757
52	0x411b60e2	9.711153
53	0x4023c123	2.5586631
54	0x402b3047	2.6748216
55	0x4027159f	2.6106946
56	0x4020fb5b	2.5153415
57	0x411e073c	9.876766
58	0xbe430fa5	-0.19048937
59	0x404d3086	3.2060866
60	0x40203ddf	2.5037763
61	0x411ecdc7	9.925239
62	0x405b6db3	3.4285705
63	0xbd68a31a	-0.05679617
64	0x4056e931	3.3579829
65	0x4055d25f	3.340965
66	0x402df52e	2.7180896
67	0x4021f778	2.5307293
68	0x411c192a	9.756144
69	0x411a4bff	9.643554
70	0x4026f3ec	2.6086378
71	0x403b6b75	2.9284337
72	0x404f9eea	3.2440743
73	0x40281663	2.6263664
74	0x411edfac	9.929607
75	0x402ede5d	2.732322
76	0x411a6e65	9.651952
77	0x4029eb8b	2.6550014
78	0x402a1d17	2.6580255
79	0x3d20323c	0.039110407
80	0x40298af8	2.649107
81	0x4030008f	2.750034
82	0x4028654d	2.631183
83	0xbe32066f	-0.17385267
84	0x411b9fe1	9.726533
85	0x3fd951a8	1.6978045
86	0x40329c3e	2.7907863
87	0xc093bb42	-4.6166086
88	0xc0995687	-4.7918124
89	0x402d959f	2.7122571
90	0x40234e55	2.551656
91	0x402367f0	2.5532188
92	0x402a4d17	2.6609552
93	0x405cdd5e	3.4510112
94	0x4057d383	3.3722847
95	0x404a9d08	3.1658344
96	0xbd182508	-0.03714469
97	0x4023fec9	2.5624259
98	0x411df0ac	9.871258
99	0x402fff1b	2.7499454
100	0x411f29e5	9.947728
101	0x4039c3ee	2.9025836
102	0x402ae8a6	2.6704497
103	0x4031ef63	2.780236
104	0x4121f6e7	10.122779
105	0x40247732	2.569775
106	0x401da3ca	2.463122
107	0x40226a5e	2.5377421
108	0x40290b18	2.641302
109	0x4036f716	2.858831
110	0x402c100e	2.68848
111	0x411b2040	9.695374
112	0x402e05ab	2.719096
113	0xc092d3c7	-4.5883517
114	0x411ec4b8	9.923027
115	0x411b9f53	9.7263975
116	0x411a6b02	9.651125
117	0x405b121d	3.4229805
118	0x4058190b	3.3765285
119	0x3fc34084	1.5254064
120	0x402b3fcd	2.675769
121	0x405d4108	3.4570942
122	0x411d910c	9.847912
123	0x411f7ed5	9.968465
124	0x403b9aa3	2.9313133
125	0x4123fdf1	10.249497
126	0x40349aa0	2.8219376
127	0x405300f0	3.2969322

net.2.weight f4 [128, 128]
0	0x40a11ce9	5.034779
1	0x409ed56f	4.963554
2	0x40a16897	5.0440173
3	0xc14baf01	-12.730226
4	0x40212de1	2.5184252
5	0x40369e72	2.8534207
6	0x3bbe311d	0.0058041946
7	0x4036c6b6	2.8558784
8	0x401ced32	2.4519773
9	0x40a18806	5.0478544
10	0x40121eea	2.2831368
11	0x404db06d	3.2138932
12	0x4030cecc	2.7626219
13	0x4029719b	2.647559
14	0x400f1a5a	2.2359834
15	0x401534d2	2.331349
16	0x402f1053	2.7353714
17	0x40345169	2.817469
18	0x404b85cd	3.1800416
19	0x401b6602	2.428101
20	0xbd9a3365	-0.07529334
21	0x40a20c94	5.0640354
22	0x3d67ad3b	0.05656169
23	0x410e6161	8.898774
24	0x40a15614	5.0417576
25	0xc1547406	-13.278326
26	0x40179535	2.3684819
27	0x40230a11	2.5474894
28	0x3fef57c4	1.8698659
29	0x409d0e8f	4.908027
30	0x409cc78c	4.8993587
31	0x3ff8e487	1.9444741
32	0x3fe342a4	1.7754712
33	0x40266d0f	2.6004064
34	0x401c0a06	2.4381118
35	0x40a2e959	5.090985
36	0x40597e50	3.3983345
37	0x40279d00	2.6189575
38	0x4041bc3d	3.0271142
39	0x3ffd8104	1.9804997
40	0x409ff4cb	4.998632
41	0x40264320	2.597847
42	0x3fff5eac	1.9950767
43	0x4041ddb6	3.0291572
44	0x3cb5220d	0.022110963
45	0x3d48dc2a	0.04903809
46	0x41178bd5	9.471639
47	0x3cc095fa	0.023509014
48	0x4090d451	4.5259175
49	0x3d3b06e5	0.045660872
50	0x40362db4	2.8465395
51	0x3d4f8e8e	0.05067306
52	0x40285300	2.630066
53	0x4037dbf5	2.8728
54	0x40195050	2.395527
55	0x3fdf618b	1.7451643
56	0x40149d88	2.322115
57	0x401963a4	2.3967066
58	0x3d3890b8	0.04505989
59	0x409e21e9	4.9416394
60	0x404d1a19	3.2047179
61	0x4026206d	2.595729
62	0x409f0eeb	4.970571
63	0x3d420fc1	0.047378305
64	0x409b40e8	4.851673
65	0x40a50898	5.157299
66	0x4052c580	3.2933044
67	0x3f881b84	1.0633397
68	0x401e240b	2.47095
69	0x402f542a	2.739512
70	0x408000bb	4.000089
71	0x408fdad0	4.4954605
72	0x40a15e94	5.042795
73	0x3fb30505	1.3985907
74	0x40239af3	2.5563323
75	0x408abd61	4.3356175
76	0x4030e013	2.7636764
77	0x4032daca	2.7946038
78	0x40381502	2.8762822
79	0xbdb26fb9	-0.08712716
80	0x402fb636	2.7454963
81	0x3fcafcdf	1.585842
82	0x4033e485	2.8108227
83	0x3d54e2e0	0.051974177
84	0x402b54b3	2.6770446
85	0x41161bec	9.381817
86	0x4094eb7d	4.653746
87	0xc153a596	-13.227926
88	0xc14e0650	-12.876541
89	0x3fbc0cde	1.4691427
90	0x3ffc6387	1.9717873
91	0x404c01a5	3.1876004
92	0x402468d3	2.568898
93	0x40a288b2	5.0791864
94	0x40a03026	5.0058775
95	0x40a0c50f	5.024055
96	0xbd9f73be	-0.07785748
97	0x400c7b0a	2.1950097
98	0x401cadb9	2.4481032
99	0x40629c65	3.5407956
100	0x40223d18	2.5349789
101	0x408db320	4.428116
102	0x3fc7af80	1.5600433
103	0x401dc22f	2.464977
104	0x401653dc	2.3488684
105	0x40644c62	3.567162
106	0x3faaa86d	1.333265
107	0x3fff66cf	1.995325
108	0x40481542	3.1262975
109	0x406a6676	3.6625037
110	0x4036b233	2.8546264
111	0x40265fad	2.5995896
112	0x3fef703e	1.8706129
113	0xc14c62e2	-12.774141
114	0x401cf1de	2.4522624
115	0x402d1eae	2.7049975
116	0x4026b96b	2.605067
117	0x40a0f26e	5.0295935
118	0x409d4365	4.914477
119	0x4116c9a3	9.424228
120	0x40204c91	2.5046732
121	0x409e7b18	4.952526
122	0x4024b0a7	2.573282
123	0x402493f3	2.57153
124	0x409ff357	4.9984546
125	0x402082f8	2.5079937
126	0x409118d3	4.5342803
127	0x40a23898	5.0694084
128	0x409e3f74	4.9452457
129	0x409e7066	4.9512205
130	0x40a171ce	5.045142
131	0xc14e94de	-12.911345
132	0x403a48db	2.9106967
133	0x40222147	2.533281
134	0x3cd6e9a7	0.026234461
135	0x402707c2	2.6098485
136	0x4017a632	2.3695188
137	0x40a53632	5.1628656
138	0x4007fb45	2.1247113
139	0x404ce670	3.2015648
140	0x4045c19a	3.0899415
141	0x403c12e8	2.938654
142	0x4004b97e	2.0738215
143	0x401060f5	2.2559178
144	0x40265e60	2.5995102
145	0x4045f719	3.0932066
146	0x403aa415	2.9162648
147	0x403b3874	2.9253206
148	0xbdada8e1	-0.08479477
149	0x40a4aad1	5.1458516
150	0xbb666941	-0.003515795
151	0x410f1a2f	8.9438925
152	0x40a34443	5.1020827
153	0xc15600ec	-13.375225
154	0x402f9ff5	2.744138
155	0x401d5d55	2.4588215
156	0x3fe9e891	1.8274099
157	0x40a1e391	5.059029
158	0x40a1db6c	5.058035
159	0x3ffe2ee7	1.9858063
160	0x3ff29245	1.8950888
161	0x40427cde	3.0388713
162	0x403723e7	2.8615663
163	0x40a20c81	5.0640264
164	0x4049e6f0	3.1547203
165	0x403a83cf	2.914295
166	0x403c4e4c	2.9422789
167	0x3febbdf2	1.8417342
168	0x40a13d3e	5.038726
169	0x403979d4	2.8980608
170	0x3ffd6897	1.9797543
171	0x4037fb4d	2.8747132
172	0x3b1e7799	0.0024180172
173	0x3ce7e991	0.028309615
174	0x4115ac94	9.354633
175	0x3d2109e1	0.039316062
176	0x408ede5f	4.464645
177	0xbd119aba	-0.03554795
178	0x402fe210	2.7481728
179	0x3c1449d4	0.009050805
180	0x403d8dc8	2.9617786
181	0x402d8bb3	2.7116516
182	0x4007d02d	2.122081
183	0x3fec05ef	1.8439311
184	0x40105722	2.2553182
185	0x402ed638	2.7318249
186	0xbd9592f8	-0.07303423
187	0x40a401fb	5.1252418
188	0x403ea83f	2.979019
189	0x403ec23d	2.9806054
190	0x409efe96	4.9685774
191	0xbd283b00	-0.04107189
192	0x409ee112	4.9649744
193	0x40a6942f	5.205589
194	0x4041a8de	3.0259318
195	0x3f8c2a52	1.0950415
196	0x4030de53	2.7635696
197	0x404645e0	3.0980148
198	0x40851585	4.158877
199	0x408a25f2	4.317132
200	0x40a36d90	5.1071243
201	0x3f900617	1.1251858
202	0x4042fafc	3.0465689
203	0x4087ea8d	4.2473817
204	0x40438d38	3.0554943
205	0x40236769	2.5531867
206	0x40247890	2.5698586
207	0x3cc80633	0.024417019
208	0x402ab157	2.667074
209	0x3fd4a131	1.6611692
210	0x402b821e	2.6798167
211	0x3ce17078	0.02751945
212	0x40403f43	3.0038612
213	0x411390c6	9.222845
214	0x40951995	4.659373
215	0xc154209d	-13.257962
216	0xc14fff43	-12.99982
217	0x3fbc8d72	1.4730666
218	0x400337e1	2.0502856
219	0x403a8bec	2.9147902
220	0x401dc9bc	2.465438
221	0x40a398b6	5.1123915
222	0x40a0cd43	5.0250564
223	0x40a35754	5.10441
224	0x3d02c0e9	0.031922255
225	0x400cd502	2.200501
226	0x4030da3d	2.7633202
227	0x4050ec00	3.2644043
228	0x403a0aa3	2.9068992
229	0x408b5845	4.354525
230	0x3fbde473	1.4835342
231	0x4018a2e8	2.384943
232	0x402f54ef	2.739559
233	0x405812b7	3.3761423
234	0x3fa12839	1.25904
235	0x3fec6a90	1.847002
236	0x404a3cb4	3.159955
237	0x406d1dbc	3.7049398
238	0x402a58ac	2.661662
239	0x403f7644	2.9915934
240	0x3ffb93b6	1.9654453
241	0xc14d9859	-12.849694
242	0x4035b545	2.8391888
243	0x4043ff10	3.0624428
244	0x4038c958	2.887289
245	0x40a8991b	5.2686896
246	0x40a2d3a4	5.088335
247	0x411464ec	9.274639
248	0x401663b5	2.3498356
249	0x40a3026a	5.0940447
250	0x4041e069	3.029322
251	0x4042dba5	3.044656
252	0x409e53fc	4.947752
253	0x40341f00	2.814392
254	0x409523a6	4.6606016
255	0x40a4ea43	5.1535964

net.2.bias f4 [128]
0	0xbf333822	-0.70007527
1	0xbe813883	-0.25238428
2	0xc10b494a	-8.705393
3	0xbed3b35d	-0.4134778
4	0x3d3b09f7	0.0456638
5	0x401ffff5	2.4999974
6	0xbc979f86	-0.018508684
7	0x40805b8f	4.0111766
8	0x407fa6ba	3.9945512
9	0xbdb2810d	-0.08716021
10	0x410ce6ee	8.806379
11	0xbf9a45cf	-1.2052554
12	0xbdb17d99	-0.08666534
13	0xbf2163d7	-0.6304297
14	0x407f22e2	3.986504
15	0x3ca2f5ea	0.019892652
16	0x4080060e	4.000739
17	0xbf13d3a1	-0.57744795
18	0xbf08cd20	-0.53437996
19	0xbecd7e9b	-0.40135655
20	0xbcd41223	-0.025887555
21	0x4083826a	4.1096697
22	0x3ce88dc5	0.028387913
23	0xc0cfc467	-6.492725
24	0xc0ff3eb4	-7.976404
25	0xc10952d6	-8.582724
26	0xbdaa546a	-0.08316882
27	0x40785d67	3.8807008
28	0x407dea22	3.9674153
29	0x3fa55e97	1.2919492
30	0x40825a22	4.0735025
31	0xbda70e62	-0.0815704
32	0xbd0843b4	-0.03326769
33	0xbd256658	-0.040380806
34	0x407fb8f0	3.9956627
35	0xbf62e359	-0.88628155
36	0x3d80a256	0.06280963
37	0x4024802f	2.5703237
38	0x407c02d9	3.9376738
39	0x4110c998	9.049217
40	0x401556c4	2.3334208
41	0xbba1476d	-0.0049218447
42	0xbd63e47c	-0.05563782
43	0xbcac045f	-0.020998178
44	0x40853ef4	4.1639347
45	0x40830625	4.0945
46	0x3d8b3a05	0.06798176
47	0xbfd3703e	-1.6518629
48	0xc0ce5570	-6.4479294
49	0x3cf66fd7	0.030082626
50	0xbeb454a8	-0.35220838
51	0xbf3bdcc4	-0.73383737
52	0xbae632a2	-0.0017562697
53	0xbf10111b	-0.562761
54	0x408219c9	4.0656476
55	0xbc75a4b4	-0.014992882
56	0xbd02c5b1	-0.031926814
57	0x40816b8c	4.0443783
58	0xbf0bcf0d	-0.5461281
59	0xc10b9956	-8.724936
60	0x3c9327dd	0.017963344
61	0xc0abac3e	-5.3647757
62	0xbe8329c3	-0.256178
63	0xbea49f4e	-0.3215279
64	0xc0f2cb8e	-7.587348
65	0xbcf93736	-0.030421834
66	0x40797d56	3.898275
67	0x40802e06	4.005618
68	0x401f1513	2.4856613
69	0x401bb96e	2.4331927
70	0xbda69a34	-0.08134881
71	0x40792ce4	3.893365
72	0x3c80aeda	0.015708376
73	0xbdd7ca92	-0.10536684
74	0x408378b1	4.108483
75	0xc10479b7	-8.279716
76	0x407cc096	3.9492545
77	0x40740cb3	3.813275
78	0xc0532b0c	-3.2995024
79	0x3fa556d3	1.2917122
80	0xbf0af533	-0.54280394
81	0xbd051af8	-0.032496423
82	0x407528cb	3.8306148
83	0xbf0e4abd	-0.5558279
84	0x3d9467a5	0.07246331
85	0xbd09d8c8	-0.033654004
86	0x3cc0b7ec	0.0235252
87	0x401da998	2.4634762
88	0x40815bc4	4.042452
89	0xbd247cb2	-0.04015798
90	0xc0e90293	-7.281564
91	0xc09824eb	-4.7545066
92	0x3888f52f	6.530654e-05
93	0x3e6c4593	0.23073415
94	0xbd61ba06	-0.055109046
95	0x408286c2	4.07895
96	0xc0e22cbd	-7.067961
97	0x3c69fcaf	0.014281436
98	0x40805002	4.0097666
99	0xbdc37df7	-0.0954551
100	0xbda638eb	-0.08116325
101	0xc10ab50c	-8.669201
102	0xc044b43a	-3.0735002
103	0x41017136	8.090139
104	0xbced57c3	-0.028972512
105	0xc0c7f155	-6.2482095
106	0x3d041e96	0.03225573
107	0xc0f45f31	-7.63662
108	0x3ffc3599	1.9703857
109	0x3c1fa633	0.009744215
110	0x40227680	2.5384827
111	0x407cae07	3.9481218
112	0xbef3e8bb	-0.47638497
113	0xbd6e06ba	-0.058111884
114	0xbeefff7f	-0.46874616
115	0x3e1ff0cc	0.156192
116	0xc10899a4	-8.53751
117	0xc0aa4254	-5.3205967
118	0x3c74706e	0.014919383
119	0xbf2f6a0f	-0.6852121
120	0xc0b38ff5	-5.611323
121	0xc0ce8796	-6.454051
122	0xc106c93f	-8.424132
123	0xbd9c8382	-0.076422706
124	0x407fa947	3.9947069
125	0xbdc68da7	-0.09694987
126	0xbef140f8	-0.4711988
127	0x40233dc9	2.550646

net.4.weight f4 [20, 128]
0	0xbfa03aad	-1.2517906
1	0xbf854166	-1.0410583
2	0x40f3a47f	7.61383
3	0xbf89ecde	-1.0775411
4	0xbc8d01d8	-0.017212793
5	0x409a8e68	4.8298836
6	0x3d7a8515	0.061162073
7	0x40809a0d	4.018805
8	0x409368bb	4.6065345
9	0xbd0cf078	-0.034409016
10	0x400bc8f9	2.1841414
11	0xbfa80443	-1.31263
12	0x3cf05337	0.029336555
13	0xbf9d29bd	-1.2278363
14	0x408e96b1	4.455895
15	0xbc6b2a2a	-0.014353314
16	0x408725fe	4.2233877
17	0xbf6c7a60	-0.9237423
18	0xbf84895c	-1.0354419
19	0xbf80a8e7	-1.0051545
20	0xbd40c83f	-0.04706597
21	0x4083edc9	4.1227765
22	0xbd8a5ae2	-0.06755616
23	0x40e66ad8	7.2005424
24	0x40f0419c	7.508009
25	0x40ee65f0	7.4499435
26	0x3c1e8e23	0.009677443
27	0x408a4bb0	4.321739
28	0x409489a0	4.6418
29	0x40988ed8	4.767437
30	0x408bf8eb	4.3741355
31	0x3bfb668f	0.007672138
32	0x3a3d007d	0.00072098506
33	0x3d49b0ba	0.049240805
34	0x408764ec	4.2310696
35	0xbfa339f6	-1.2752063
36	0xbd8d66a0	-0.0690434
37	0x40981e08	4.753666
38	0x408dcce5	4.4312615
39	0x401357ae	2.3022265
40	0x4095378a	4.6630297
41	0xbc16693c	-0.009180363
42	0x3d1beb23	0.03806604
43	0xbb42610c	-0.0029659895
44	0x40902de8	4.505604
45	0x4089b0de	4.30284
46	0xbd9323b3	-0.071845435
47	0x40a201de	5.062728
48	0x40ea5d8f	7.3239207
49	0x3dadb798	0.08482283
50	0xbf83c505	-1.02945
51	0xbf8e2bb9	-1.1107093
52	0xbf6ca031	-0.9243193
53	0xbf903281	-1.1265413
54	0x4087ed5b	4.247724
55	0x3d973b81	0.07384396
56	0xbcac53f7	-0.021036131
57	0x40917ebd	4.546721
58	0xbf65e45a	-0.8980156
59	0x40f24ec4	7.572115
60	0x3d65299c	0.055947885
61	0x40da36d4	6.819193
62	0xbf805a23	-1.0027508
63	0xbf6402f7	-0.89067024
64	0x40ec3e6c	7.38262
65	0xbd03be83	-0.032164108
66	0x408a0a96	4.313792
67	0x408783f3	4.234857
68	0x4098e898	4.778393
69	0x40996fa0	4.794876
70	0x3d2f742d	0.042835403
71	0x4080ba3c	4.0227337
72	0xbd2f9246	-0.042864107
73	0xbf764295	-0.96195346
74	0x408a48a5	4.3213677
75	0x40f0b059	7.521527
76	0x408e8fb5	4.4550424
77	0x406ce7bf	3.7016447
78	0x40bfbb45	5.99161
79	0x409496ea	4.643422
80	0xbf97cb61	-1.1858941
81	0xbb82ee2d	-0.003995678
82	0x408db6fa	4.428586
83	0xbf89dc1a	-1.0770295
84	0xbb8c0505	-0.0042730593
85	0x3da46ff9	0.080291696
86	0x3da9329c	0.08261606
87	0x40932eb0	4.599449
88	0x408dd4e4	4.4322376
89	0x3d1e3885	0.03862812
90	0x40ed2d78	7.4118004
91	0x40d56b14	6.669321
92	0x3dace060	0.08441234
93	0x40930645	4.5945153
94	0x3d5f9a5c	0.054590568
95	0x408d0328	4.4066353
96	0x40e885f8	7.2663536
97	0xbd495dbf	-0.04916167
98	0x408a70fa	4.326291
99	0xbc9724e2	-0.018450204
100	0x3d8cea2c	0.06880602
101	0x40effce8	7.4996223
102	0x40bb79a5	5.858599
103	0x3fbd47db	1.4787554
104	0xbc4b7abe	-0.012419401
105	0x40e7241e	7.223159
106	0x3c89bed6	0.01681463
107	0x40ed2a7f	7.4114375
108	0x409638d1	4.6944356
109	0x3cd94192	0.026520524
110	0x409734e6	4.7252073
111	0x40850fbf	4.158172
112	0xbf8df769	-1.1091129
113	0xbd97a5b9	-0.07404656
114	0xbf93a8a7	-1.1535844
115	0xbe495d69	-0.1966454
116	0x40eff7ab	7.498983
117	0x40dbef99	6.8729978
118	0x3d1d9627	0.038473275
119	0xbf8b784d	-1.0896088
120	0x40e36dda	7.1071596
121	0x40e51403	7.158693
122	0x40f44d0c	7.634405
123	0xbd116af9	-0.035502408
124	0x4084e188	4.1525307
125	0x3da3001c	0.07959005
126	0xbf94ac1f	-1.1615027
127	0x40995cba	4.792569
128	0xbf1c7678	-0.6111827
129	0xbee056e3	-0.4381629
130	0x40dd81f1	6.922112
131	0xbf2fe8b1	-0.68714434
132	0xbd86f04b	-0.06588801
133	0x408dcf08	4.4315224
134	0xbcb46b97	-0.02202396
135	0x407f8279	3.9923384
136	0x4088f4da	4.279889
137	0x3d6d75f9	0.057973836
138	0x3ecf5adb	0.40499005
139	0xbf65d547	-0.8977856
140	0xbcbc35e7	-0.022974921
141	0xbf1c82b4	-0.6113694
142	0x4085a937	4.176906
143	0x3bf34590	0.007424064
144	0x4081e243	4.05887
145	0xbedf2791	-0.43584874
146	0xbf023acf	-0.50870985
147	0xbf04b816	-0.5184339
148	0x3d9ba7e0	0.07600379
149	0x40811c28	4.034687
150	0x3d1f3fbc	0.03887914
151	0x40dfb22f	6.990501
152	0x40dc1408	6.877445
153	0x40daac80	6.833557
154	0x3da9b52e	0.082865104
155	0x40827b4c	4.077551
156	0x408a3cee	4.3199377
157	0x408f524f	4.4787974
158	0x4086a7d7	4.2079883
159	0x3daa8ed1	0.08328021
160	0x3d34cb27	0.044139054
161	0xbd0d8314	-0.034548834
162	0x40842a6a	4.1301775
163	0xbf390076	-0.7226633
164	0xbd54a4d6	-0.051915012
165	0x408c564c	4.3855343
166	0x40854eb6	4.1658583
167	0x3f247ab1	0.6424971
168	0x408d80be	4.4219656
169	0x3c2133a3	0.009838971
170	0x3d2563f4	0.040378526
171	0xbd0c9d72	-0.03432984
172	0x40883881	4.2568974
173	0x40847c67	4.140186
174	0xbd8a550d	-0.067545034
175	0x40b8b9ce	5.772681
176	0x40e194bb	7.0494056
177	0x3be2ff02	0.006927372
178	0xbef6abf9	-0.4817808
179	0xbf0c26a0	-0.5474644
180	0xbf0d6e34	-0.5524628
181	0xbf2f755e	-0.68538463
182	0x4087997f	4.2374873
183	0xbd969599	-0.07352752
184	0x3cf69535	0.030100444
185	0x408a85b6	4.328822
186	0xbeed175b	-0.4630688
187	0x40dd6d92	6.9196253
188	0x3d2d563e	0.042318575
189	0x40df7d60	6.9840546
190	0xbef07d08	-0.4697039
191	0xbee5f803	-0.4491578
192	0x40de4e39	6.9470487
193	0x3dae640b	0.085151754
194	0x408533ac	4.1625576
195	0x4082b038	4.084011
196	0x408b8f8b	4.3612723
197	0x408c4521	4.3834386
198	0xbbdfedea	-0.0068337815
199	0x4076202d	3.8457139
200	0xbca6b9d7	-0.020352287
201	0xbee1062a	-0.43950015
202	0x4086ad75	4.208674
203	0x40dad17c	6.838072
204	0x4086e425	4.2153497
205	0x406b08b1	3.6724055
206	0x40d38045	6.609408
207	0x408f8762	4.485276
208	0xbf3592c4	-0.7092707
209	0xbc6d4720	-0.01448229
210	0x4087a679	4.2390714
211	0xbf273aaf	-0.6532392
212	0xbd2f4248	-0.04278782
213	0xbd70c04a	-0.05877713
214	0x3d5af1e7	0.053453352
215	0x40895b14	4.292368
216	0x40882e37	4.2556415
217	0xbd3e2103	-0.0464182
218	0x40e0ce41	7.0251775
219	0x40de80b7	6.9532123
220	0x3d2110b3	0.039322566
221	0x4098d34e	4.775794
222	0x3d2c7de4	0.042112246
223	0x40852c0c	4.161627
224	0x40df0be6	6.9702024
225	0x3d89e67e	0.06733416
226	0x408369e3	4.1066756
227	0xbda85e5e	-0.08221124
228	0xbd77b005	-0.0604706
229	0x40dbbf2f	6.867088
230	0x40d1021c	6.5315075
231	0x3f457beb	0.7714221
232	0xbd9eac95	-0.07747761
233	0x40e34a6e	7.1028357
234	0x3d87a3e1	0.06623054
235	0x40ddb366	6.928149
236	0x408b6271	4.355767
237	0x3d5131ed	0.051073004
238	0x408c3f12	4.382699
239	0x408145d2	4.039773
240	0xbef7954e	-0.48356098
241	0x3d508ba5	0.050914425
242	0xbf20fd7e	-0.628868
243	0xbe7920d9	-0.24328937
244	0x40db689c	6.8565197
245	0x40e119fd	7.0344224
246	0x3da520b3	0.080628775
247	0xbf11429f	-0.5674228
248	0x40df151c	6.971327
249	0x40e2feb0	7.09359
250	0x40da0627	6.813251
251	0xbcd82e8d	-0.026389385
252	0x4080730f	4.0140452
253	0xbd991cf6	-0.07476227
254	0xbf131d2f	-0.57466406
255	0x408af6c8	4.3426247

net.4.bias f4 [20]
0	0x400aef5c	2.1708593
1	0x3ff49743	1.9108661
2	0x3fe6efa8	1.8041887
3	0x3ff58d04	1.918366
4	0x3faba569	1.3409854
5	0x3fad13fe	1.3521726
6	0x3fd23b5b	1.6424364
7	0x3fdbed49	1.7181789
8	0xbcbd9f01	-0.023147108
9	0x40010e55	2.0164998
10	0x3e9d59ed	0.3073267
11	0x3ef9ea12	0.48811394
12	0x3f4ab30d	0.7917946
13	0x3ec08fff	0.3760986
14	0x3f81336c	1.0093818
15	0xbebe5d40	-0.3718052
16	0x3eef1584	0.46696103
17	0x3b91104c	0.0044269916
18	0x3f40228c	0.75052714
19	0x3d7af08c	0.06126456
