realtime_model_ep264.pth (torch, 97610 bytes, 6 tensors)

net.0.weight f4 [128, 35]
00000000: 2812 18c0 deb4 f541 e453 d2be 30b6 0cbf
00000010: 79a9 99be 0422 c3bf 39ef e841 aed0 febe
00000020: 4a70 ad3f 2b9f f03e 6abe f9bf 855c eb41
00000030: deb0 02bf 097e 0540 8f9f 9ebd ab6b 9ebf
00000040: 686a eb41 6a6e 38bf 3300 923f 45d5 40bf
00000050: 5330 08c0 9234 ec41 3db0 12bf 8b37 2140
00000060: f6d0 e8be 80a3 de40 198f d140 0bc3 0c41
00000070: 4eaa de40 23f0 cb40 54bf ba40 49f6 c740
00000080: 1883 dc40 04fb 6d40 4f91 d940 34b1 15c0
00000090: 6102 f641 a217 84be c879 c6be c2d3 88be
000000a0: 3098 a4bf a548 ea41 251a 43bf 98d1 a53f
000000b0: c19f 013f 6635 e3bf 3fe5 eb41 85ac 0ebf
000000c0: df53 0740 5ce3 8b3c 6173 9fbf d611 eb41
000000d0: edab 42bf 9d4a 923f 53c8 0ebf 75fb 02c0
000000e0: ff3b eb41 538c 37bf 1300 1e40 2cb3 46bf
000000f0: 0b17 e240 0aaf cf40 d727 0d41 4dde dc40
00000100: 88c3 c240 ba6a b840 5847 c640 844b dc40
00000110: fc70 6240 022d dd40 6d90 11c0 67e6 f641
00000120: f446 43be ab1f 28bf 0037 6c3d 445a a1bf
00000130: bf7e ec41 396b e8be 5958 a43f 0df7 503f
00000140: e559 e6bf 69a7 ed41 6314 44be 66b8 0340
00000150: e7b1 483e b842 9ebf 5a3d ee41 4060 0abf
00000160: 3068 dd3f dec4 91be d9a6 07c0 951e ef41
00000170: 5191 b3be 568c 1d40 63e9 adbe 1d44 ec40
00000180: 4767 e240 ba66 0c41 f799 e040 5297 d340
00000190: 8e0e bf40 8077 d340 52ab e440 871b 6d40
000001a0: dfd7 e140 386e 0ac0 0dd3 f341 8579 1ec1
000001b0: 1fe6 efbf 65de 4fc1 27ba 9dbf 4f0c ea41
000001c0: 575c 26c1 3928 a73f 684f 40c1 cf57 c8bf
000001d0: 46f7 e841 7c57 26c1 5c97 b33f 01c5 4ac1
000001e0: 15c1 91bf 73cb ea41 e154 29c1 5617 643f
000001f0: b363 46c1 0210 00c0 d30f ea41 b170 27c1
00000200: f808 0f40 97b9 4bc1 cdf6 0841 7b60 fe40
00000210: e066 3f41 ba3f 2541 29b3 0b41 d2e1 1d41
00000220: 088e 0641 f0f4 2041 34b7 d840 fc3e 1141
00000230: f882 133f c245 a1c1 cdda 2a41 188a 0c40
00000240: 741c 0041 9ba9 963e 21bc 95c1 3f81 3441
00000250: d326 e63f c4a0 e940 5b83 7a3e 9ed0 96c1
00000260: 0607 2e41 5690 5940 ced2 0e41 32e7 803f
00000270: 736b 98c1 a361 3341 76b7 dd3f bc61 1241
00000280: 17bf 363f 1542 97c1 60a6 3441 910b 87be
00000290: e490 0341 5cf0 cc40 2f9e c340 8ea3 b540
000002a0: a50e c940 e66b 2141 c77f bc40 f018 cf40
000002b0: e257 f640 06d4 fa40 ccb0 0341 3bbe 1ac0
000002c0: 963c f441 9c02 3bbf 9d8c 00bf 2eb8 13bf
000002d0: 43a3 c1bf d31d e841 d598 8dbf a107 9e3f
000002e0: 161c 433e 217b cfbf 99b3 e941 b6e8 5bbf
000002f0: 4fca 0e40 a8b8 1dbd 7cb7 a0bf af42 e941
00000300: f441 91bf 67a8 5f3f 6840 68bf aebd f0bf
00000310: d5da e941 240a 7bbf cbfe 2240 1ee7 27bf
00000320: ab75 da40 064b c740 7f18 0841 abc9 d240
00000330: 912a c240 6b49 b340 12d9 c140 3e7f d440
00000340: 5f74 5440 3a57 d440 ea60 bf3c ae76 953d
00000350: 5cac 09be 533b 38bb b412 e3bd 69f9 523d
00000360: 0903 a03c 4b51 863d ada6 05be 0b9e acbd
00000370: b2c9 12be e122 ca3d 3627 e4bd 42e8 14bc
00000380: e430 e9bd c7bd 033e 126f d63d e497 55bc
00000390: 68b8 a1bd acf6 e03d 376c 273e c22c 09be
000003a0: e2f8 a93c 0e59 d5bd 4c6a 3a3d 30a9 caba
000003b0: 2aa2 babd 8eeb f6bd d488 653d aba9 13be
000003c0: afb4 84bd 9d33 19be e0a2 04be 8b46 8b3d
000003d0: 842e d93d 90d9 1ac0 1054 f441 408f 27bf
000003e0: b7e0 1bbf 4b7f b5be 36d2 b0bf 13c7 e841
000003f0: e902 92bf 5bbc a13f 3136 473e 0821 cbbf
-2.3761082 30.713314 -0.41079628 -0.54965496 -0.3001211 -1.5244756 29.116808 -0.49768585
1.3549893 0.46996436 -1.9511235 29.420176 -0.5105113 2.0858176 -0.07745277 -1.2376608
29.426956 -0.7204348 1.1406311 -0.75325423 -2.1279495 29.52567 -0.5730017 2.519015
-0.45471925 6.9574585 6.548718 8.797618 6.958289 6.3730636 5.8358555 6.248814
6.8910027 3.7184458 6.798988 -2.3389406 30.751162 -0.2579928 -0.38764787 -0.26724058
-1.2858944 29.285471 -0.7621177 1.2954588 0.5063439 -1.7750671 29.486937 -0.55731994
2.114494 0.017076187 -1.2457086 29.383709 -0.7604359 1.142902 -0.5577442 -2.0465977
29.404295 -0.7169849 2.4687545 -0.77617145 7.065313 6.490117 8.822227 6.9021363
6.0863686 5.763028 6.196209 6.884218 3.538146 6.911744 -2.27444 30.862501
-0.19070035 -0.6567332 0.05766964 -1.2605672 29.561888 -0.45394304 1.2839462 0.8162697
-1.7996184 29.706743 -0.19148402 2.0581298 0.19599114 -1.2364111 29.779957 -0.54053116
1.729742 -0.2847051 -2.1195586 29.889933 -0.35071805 2.4616904 -0.33967122 7.3833146
7.075107 8.77508 7.0187945 6.6122217 5.9705267 6.6083374 7.145913 3.7048051
7.0576015 -2.1629772 30.478052 -9.904668 -1.8742102 -12.991796 -1.2322434 29.25601
-10.397544 1.305915 -12.019386 -1.5651797 29.120739 -10.3963585 1.4030566 -12.673097
-1.1387049 29.34934 -10.583222 0.8909811 -12.399341 -2.000977 29.257727 -10.465013
2.2349224 -12.73281 8.560254 7.9492774 11.962616 10.328058 8.73124 9.867632
8.409676 10.059799 6.7723637 9.077877 0.5762172 -20.159061 10.678418 2.1959286
8.006947 0.29426274 -18.71686 11.281554 1.7980598 7.3008747 0.2446417 -18.851864
10.876715 3.3994346 8.926466 1.0070555 -19.052465 11.211337 1.7321613 9.148861
0.7138533 -18.907267 11.290619 -0.26376012 8.222874 6.4043407 6.1130595 5.676215
6.2830377 10.088842 5.890598 6.471794 7.698228 7.838382 8.230663 -2.4178607
30.529583 -0.73050857 -0.5021456 -0.5770291 -1.5127949 29.014563 -1.1062266 1.2346078
0.19053683 -1.6209451 29.212694 -0.85901964 2.231098 -0.03850618 -1.2555995 29.15756
-1.1348252 0.87366337 -0.90723276 -1.8807886 29.231852 -0.9806235 2.5468013 -0.6558703
6.826864 6.227908 8.5059805 6.5871177 6.067696 5.602712 6.057748 6.6405325
3.3196027 6.635648 0.023361642 0.07298027 -0.13444656 -0.0028111532 -0.11087552 0.051507387
0.019532697 0.06558474 -0.13051863 -0.08428582 -0.14334753 0.09869934 -0.111402914 -0.009088578
-0.11386278 0.12865363 0.10470404 -0.013036702 -0.07896501 0.10984549 0.16349874 -0.1339598
0.02074856 -0.104173765 0.04551153 -0.0015461799 -0.091129616 -0.12056647 0.056038693 -0.14420192
-0.06479775 -0.14961095 -0.12952757 0.068005644 0.10604575 -2.419529 30.541046 -0.6545296
-0.6088976 -0.3544868 -1.3814151 29.097204 -1.1407138 1.2635607 0.19454266 -1.5869455

net.0.bias f4 [128]
00000000: 7909 4540 e117 3e40 cb68 4d40 e18b 9bc0
00000010: aa56 1f41 d84c 2d40 5ffc 41be f4f4 2540
00000020: 2141 2240 91f6 4940 14d6 1c40 7754 2a40
00000030: e005 1c41 78eb 2041 0e08 2b40 0bf8 2440
00000040: d750 2440 56ec 1d41 0c9b 2b40 8611 1f41
00000050: c334 6a3c 8a6e 3e40 a1b9 19be f8e5 c13f
00000060: 61a4 3f40 dfbd aec0 6453 2041 09c4 1f40
00000070: 8618 2540 1142 4b40 18a7 4240 aacc 1d40
00000080: 46a5 2040 c24d 2241 7498 1f41 8646 4040
00000090: b2a8 2a40 49a6 1d41 8ab6 2040 205a 2040
000000a0: aa2e 5240 87ca 1d41 e48c 2040 8e12 2040
000000b0: 2d5d aebd e0ec b4bc fc70 e43f 34c3 66bd
000000c0: 3ef2 3340 4e69 0fbd 94a5 2240 064d 1cbe
000000d0: 6aa5 1c41 12bb 1b40 c634 2340 ba20 1f40
000000e0: 9eff 1840 e049 1f41 a50f 43be 771a 4540
000000f0: fd33 1840 fe11 2041 1358 5340 1aa3 68bd
00000100: 9ad3 4e40 95b4 4d40 8be8 2540 740e 1a40
00000110: 7d5d 1d41 5291 1b41 88ee 1e40 1956 3340
00000120: 8d87 4740 b737 2040 c124 2041 fdc8 2640
00000130: d1b4 1b41 cde9 2140 9517 2240 3c32 203d
00000140: c586 2140 f60f 2840 9060 2040 fb5d 34be
00000150: 47e5 1c41 99ec e63f 3983 2a40 4142 94c0
00000160: 91e4 99c0 63a5 2540 c953 1b40 f35e 1b40
00000170: e647 2240 3cc5 5440 cfbf 4f40 2384 4240
00000180: 0825 18bd 5401 1c40 f533 1f41 d1ec 2740
00000190: fd6d 2041 6aa9 3140 53fa 2240 f9f1 2940
000001a0: 1b3a 2341 1163 1c40 09b7 1540 0f83 1a40
000001b0: 6d01 2140 38e8 2e40 7f0a 2440 6665 1c41
000001c0: 0c12 2640 1359 93c0 5907 2041 76e5 1c41
000001d0: 43af 1b41 94f1 5240 1902 5040 60d2 d03f
000001e0: 293e 2340 9326 5540 f4d5 1e41 b2c2 2041
000001f0: 907f 3340 e83e 2541 7881 2c40 4fe8 4a40
3.0787032 2.9702075 3.209521 -4.860825 9.958658 2.7078152 -0.18943928 2.5930758
2.5352252 3.1556742 2.4505663 2.6614053 9.751434 10.0574875 2.6723666 2.5776393
2.567434 9.870199 2.6813383 9.941778 0.014294806 2.9754968 -0.15012218 1.5148306
2.994408 -5.4606776 10.020359 2.49634 2.5796218 3.1759074 3.0414486 2.4656167
2.5100875 10.143984 9.97472 3.0043044 2.6665463 9.853097 2.5111413 2.5055008
3.2840981 9.861945 2.5085993 2.5011325 -0.085138656 -0.022085607 1.784698 -0.056338504
2.8116603 -0.035012536 2.541356 -0.15263757 9.790384 2.4332929 2.550096 2.4863725
2.3906016 9.955536 -0.19048937 3.0797403 2.378173 10.004393 3.3022506 -0.05679617
3.2316651 3.2141469 2.5923183 2.4071321 9.835324 9.722979 2.4833088 2.80213
3.1176484 2.5034006 10.008973 2.6060174 9.731645 2.529895 2.5326893 0.039110407
2.5238507 2.6259742 2.5058937 -0.17613976 9.805976 1.8040954 2.6642592 -4.6330876
-4.809151 2.5882194 2.4269888 2.4276702 2.5356383 3.3245382 3.246082 3.039315
-0.03714469 2.437581 9.950185 2.6238291 10.026853 2.7759652 2.5465286 2.6553938
10.201686 2.4435465 2.3392966 2.4142492 2.515712 2.7329235 2.5631406 9.7747555
2.5948515 -4.6046233 10.001794 9.806021 9.7302885 3.2959948 3.250128 1.6314201
2.550669 3.3304794 9.927235 10.047533 2.8046608 10.327858 2.6954021 3.170429

net.2.weight f4 [128, 128]
00000000: b8da a240 a093 a040 b923 a340 b1c3 49c1
00000010: f3de 2240 e930 3a40 1d31 be3b f24f 3a40
00000020: fb77 2040 8344 a340 3ab3 1540 a34e 5140
00000030: be72 3240 661f 2b40 d4ac 1240 efc7 1840
00000040: 87a2 3240 ff1a 3640 b216 4f40 8423 1d40
00000050: 6533 9abd 9ccd a340 3bad 673d e35e 0f41
00000060: 6915 a340 155a 52c1 3e23 1940 7ca7 2640
00000070: 8a8f f63f fcc6 9e40 ae7a 9e40 2707 0040
00000080: d66a ea3f 9c1d 2840 f7b4 1d40 1fa0 a440
00000090: 9514 5d40 094e 2940 b84e 4540 fc63 0240
000000a0: 2bab a140 87f9 2740 1c42 0340 e780 4540
000000b0: 0d22 b53c 2adc 483d 61b8 1841 fa95 c03c
000000c0: 0098 9240 e506 3b3d 87c4 3940 8e8e 4f3d
000000d0: 8f12 2a40 2775 3b40 75f2 1c40 0b8f e63f
000000e0: 4e2c 1840 1415 1b40 b890 383d 06d9 9f40
000000f0: f1b7 5040 7fde 2740 b1c4 a040 c10f 423d
00000100: 70f6 9c40 3bbf a640 9d63 5640 bb32 8f3f
00000110: 1cf6 1f40 1a2e 3140 84ca 8140 109f 9140
00000120: 6c18 a340 dc46 ba3f 0368 2540 7e80 8c40
00000130: 559e 3240 8c74 3640 d2ab 3b40 b96f b2bd
00000140: 8e52 3340 f31f d23f 5378 3740 e50a 543d
00000150: ad29 2d40 9846 1741 6faa 9640 16ba 51c1
00000160: fc1a 4cc1 4435 c33f 26c6 0140 3c96 4f40
00000170: 0df4 2740 5041 a440 8ce6 a140 0979 a240
00000180: be73 9fbd 3b0e 1040 e940 1e40 a330 6640
00000190: 08d6 2340 9476 8f40 e2ce ce3f 2655 2140
000001a0: d1e4 1740 dbe3 6740 4ee5 b13f 0d4d 0340
000001b0: bb9c 4b40 0cfb 6d40 5a43 3a40 1a2f 2840
000001c0: 5a92 f63f 4479 4ac1 2788 1e40 85f8 2e40
000001d0: 416d 2840 d7a5 a240 82fa 9e40 99f6 1741
000001e0: 7cd9 2340 9f30 a040 6c75 2640 b169 2640
000001f0: 27ae a140 5a03 2240 f8db 9240 60f4 a340
00000200: 320d a040 0b40 a040 0c38 a340 3d6c 4cc1
00000210: 5d9f 3a40 c0e3 2540 a7e9 d63c e4c1 2a40
00000220: a261 1b40 37ff a640 59c0 0b40 7fb2 5040
00000230: c006 4640 9f65 3c40 517e 0840 e325 1440
00000240: 9c20 2a40 0a6d 4640 6e64 3e40 b7a1 3b40
00000250: e1a8 adbd 5379 a640 4169 66bb 93eb 0f41
00000260: a812 a540 2aa6 53c1 b0c7 2f40 3f2a 2140
00000270: 2f84 f13f b0a7 a340 2896 a340 e1dc 0240
00000280: 301f fa3f c3d3 4240 0b73 3740 face a340
00000290: 18ac 4d40 f8d9 3a40 9b10 4040 4065 f33f
000002a0: e6fd a240 0dd7 3940 ad76 0240 16ce 3b40
000002b0: 9977 1e3b 91e9 e73c d1bb 1641 e109 213d
000002c0: 7ab5 9040 ba9a 11bd c2a9 3340 d449 143c
000002d0: a9f9 3d40 b154 3140 81a2 0b40 9e95 f33f
000002e0: f516 1440 1d30 2f40 f892 95bd 6bc1 a540
000002f0: a974 4240 0f2c 3f40 65bd a040 003b 28bd
00000300: c49f a040 4b56 a840 3f74 4540 eaa3 933f
00000310: d161 3140 4dd4 4640 2df3 8640 6bfe 8b40
00000320: 9c34 a540 38a2 973f 7a79 4340 2dc2 8940
00000330: dff3 4340 ad30 2740 9b3e 2840 3306 c83c
00000340: b07b 2e40 f72a dc3f cc44 2f40 a3bb df3c
00000350: 84c7 4040 3a9e 1441 f8eb 9640 bcf7 51c1
00000360: 8ad6 4dc1 9419 c43f 73fc 0640 5c51 3e40
00000370: 0b84 2140 8a5b a540 1190 a240 4b16 a540
00000380: e9c0 023d 0e99 1040 a409 3140 0daf 5440
00000390: 3542 3a40 dd2f 8d40 7565 c53f 6567 1c40
000003a0: 4c7f 2f40 ded8 5b40 eac7 a83f abf6 f33f
000003b0: 86f3 4d40 e5de 7040 781a 2e40 e6f5 3f40
000003c0: 0c8d 0140 7571 4bc1 43e9 3540 918e 4440
000003d0: 2523 3940 d254 aa40 3795 a440 7d74 1541
000003e0: 7a21 1a40 c0c2 a440 0755 4240 be62 4340
000003f0: 1f1e a040 a534 3440 09fa 9640 d6b3 a640
5.089199 5.0180206 5.0981107 -12.610276 2.5448577 2.9092352 0.0058041946 2.9111295
2.507323 5.1021132 2.3390641 3.2704246 2.7882533 2.6737914 2.2917986 2.387203
2.79117 2.8453977 3.2357602 2.4552927 -0.07529334 5.118849 0.05656169 8.960666
5.0963635 -13.146993 2.392776 2.6039724 1.9262555 4.96179 4.9524755 2.0004365
1.8313854 2.6268072 2.4641702 5.144546 3.4543812 2.645388 3.0829296 2.0373526
5.0521445 2.624605 2.05091 3.0859926 0.022110963 0.04903809 9.545014 0.023509014
4.5810547 0.045660872 2.90262 0.05067306 2.6573827 2.9290254 2.4522984 1.8012403
2.3777041 2.4231615 0.04505989 4.995242 3.261227 2.622955 5.02401 0.047378305
4.9050827 5.2108436 3.34983 1.1187357 2.4993963 2.7684388 4.055971 4.550667
5.096731 1.4552875 2.5844734 4.390685 2.7909138 2.8508635 2.932362 -0.08712716
2.8019137 1.6416 2.866719 0.051768202 2.7056687 9.454735 4.708305 -13.107931
-12.756588 1.525063 2.027719 3.2435446 2.6242707 5.1329727 5.059393 5.077275
-0.07785748 2.2508686 2.4727118 3.5967185 2.5599384 4.483225 1.6156886 2.520822
2.3733408 3.6232822 1.3898103 2.0515778 3.181441 3.7184477 2.9103608 2.6278749
1.9263413 -12.654606 2.47706 2.7339184 2.6316683 5.082744 4.9680796 9.4977045
2.5601492 5.005935 2.6009169 2.600201 5.052509 2.5314546 4.5893517 5.123581
5.0016108 5.0078177 5.1005917 -12.776425 2.9159768 2.5920258 0.026234461 2.6680841
2.427834 5.218654 2.183615 3.2608945 3.094162 2.9437025 2.1327097 2.3148124
2.6582403 3.1004052 2.9748797 2.9317453 -0.08479477 5.20231 -0.003515795 8.995013
5.1585274 -13.228067 2.746563 2.5182035 1.8868464 5.1142197 5.1120796 2.0447314
1.9540768 3.044175 2.8663967 5.1190157 3.2136288 2.9195538 3.0010135 1.9015274
5.0934935 2.9037507 2.0384934 2.9344535 0.0024180172 0.028309615 9.420854 0.039316062
4.522153 -0.03554795 2.8072362 0.009050805 2.968363 2.7707942 2.1817935 1.9030035
2.3139012 2.7373116 -0.07303423 5.1798606 3.0383704 2.9870641 5.0231194 -0.04107189
5.0195026 5.260534 3.08522 1.1534398 2.7715952 3.1067078 4.2171845 4.374807
5.162672 1.184638 3.0542893 4.304953 3.0617597 2.612346 2.6288211 0.024417019
2.7262993 1.7200612 2.738574 0.027311152 3.0121775 9.28863 4.716305 -13.122982
-12.864878 1.5320306 2.1091583 2.9737158 2.5236843 5.167424 5.080086 5.1589713
0.031922255 2.2593417 2.7662134 3.3231843 2.910291 4.4120927 1.5421587 2.4438107
2.7421446 3.4351115 1.3186009 1.9059652 3.2179885 3.7636044 2.7203655 2.9993834
2.0242338 -12.715199 2.8423622 3.0712016 2.89277 5.322854 5.1432147 9.3409395
2.4082932 5.148773 3.0364397 3.0529017 5.003677 2.8157132 4.718022 5.2094526

net.2.bias f4 [128]
00000000: 7bbd 28bf ed17 62be 5920 0cc1 570e c0be
00000010: f709 3b3d 33ad 1140 869f 97bc 6091 7540
00000020: 9935 7440 0d81 b2bd d80d 1b41 522c 94bf
00000030: 997d b1bd 07d8 16bf 17a4 7340 eaf5 a23c
00000040: 42d1 7440 397d 0dbf aaaf ffbe 84f9 b9be
00000050: 2312 d4bc a5e3 7b40 c58d e83c 3638 d0c0
00000060: 9b2c 00c1 9321 0ac1 6a54 aabd 470f 6d40
00000070: 3669 7240 8ddc 883f c84c 7940 620e a7bd
00000080: b443 08bd 5866 25bd e681 7440 4ece 56bf
00000090: 56a2 803d b34c 1640 05bf 7040 32c8 1e41
000000a0: 2906 0740 6d47 a1bb 7ce4 63bd 5f04 acbc
000000b0: 1202 7f40 4abb 7a40 053a 8b3d 2b74 debf
000000c0: 43be cec0 d76f f63c 2ec3 a4be c499 31bf
000000d0: 09de f53c b621 06bf bff1 7840 b4a4 75bc
000000e0: 7869 343e 1267 7740 dc26 04bf 0164 0cc1
000000f0: dd27 933c 5978 abc0 ab1c 6dbe 53f0 95be
00000100: a685 f3c0 3637 f9bc 5232 6e40 e412 7540
00000110: 92bc 1040 5259 0d40 349a a6bd 9afd 6d40
00000120: daae 803c b4bf 94bd ee72 7b40 a451 05c1
00000130: 2857 7140 5845 6940 5d74 51c0 88b8 883f
00000140: 20dc ffbe f81a 05bd 299d 6940 b480 03bf
00000150: a567 943d c8d8 09bd ecb7 c03c 757c 0f40
00000160: 305a 7740 b27c 24bd b8c0 e9c0 e857 97c0
00000170: 2ff5 8838 d193 e33c 06ba 61bd 0999 7940
00000180: 43be e2c0 affc 693c fb5a 7540 f77d c3bd
00000190: 6f54 a6bd 8482 0bc1 535b 43c0 e240 0f41
000001a0: c357 edbc 833c c8c0 961e 043d e441 f5c0
000001b0: 939b df3f 33a6 1f3c 5133 1440 0358 7140
000001c0: d379 e1be ba06 6ebd 3513 dbbe 849f 183f
000001d0: 8860 09c1 9246 aac0 6e70 743c dbdf 25bf
000001e0: 79bb b3c0 90e8 cec0 ba96 07c1 8283 9cbd
000001f0: 0a95 7440 a78d c6bd c7a3 ddbe 780a 1540
-0.65914124 -0.2207944 -8.757897 -0.3751094 0.0456638 2.2761962 -0.018508684 3.836998
3.8157713 -0.08716021 9.69088 -1.1576025 -0.08666534 -0.5892338 3.8068902 0.019892652
3.825272 -0.552692 -0.4993871 -0.36323178 -0.025887555 3.9357693 0.028387913 -6.5068617
-8.01089 -8.633197 -0.08316882 3.7040575 3.7876716 1.0692307 3.8953114 -0.0815704
-0.03326769 -0.040380806 3.8204284 -0.83908546 0.06280963 2.3484313 3.761659 9.923876
2.109751 -0.0049218447 -0.05563782 -0.020998178 3.9845014 3.9176812 0.06798176 -1.7379202
-6.4607253 0.030082626 -0.3218016 -0.6937525 0.030013101 -0.5239519 3.889755 -0.014992882
0.17618358 3.865666 -0.51621795 -8.774415 0.017963344 -5.358441 -0.23155467 -0.29284915
-7.6100645 -0.030421834 3.7218213 3.829278 2.2615094 2.2085767 -0.08134881 3.7186036
0.015708376 -0.07263127 3.9288898 -8.332432 3.7709446 3.6448574 -3.2727273 1.0681314
-0.4997263 -0.032496423 3.6502173 -0.5136826 0.07246331 -0.033654004 0.0235252 2.2419713
3.8648796 -0.04015798 -7.304775 -4.7294807 6.530654e-05 0.027780445 -0.055109046 3.8999655
-7.0857253 0.014281436 3.833678 -0.0954551 -0.08121573 -8.719364 -3.052449 8.953341
-0.028972512 -6.2573867 0.03225573 -7.6642933 1.7469352 0.009744215 2.315632 3.7709968
-0.44038257 -0.058111884 -0.4278809 0.596184 -8.586067 -5.3211145 0.014919383 -0.647947
-5.616635 -6.465889 -8.4742985 -0.076422706 3.8215966 -0.09694987 -0.43289015 2.328764

net.4.weight f4 [20, 128]
00000000: 4e6b b8bf 78c3 9ebf 0cbd fd40 40e1 a2bf
00000010: d801 8dbc f545 9e40 1585 7a3d 155b 8240
00000020: de2e 9540 78f0 0cbd c0da d63f 5780 bfbf
00000030: 3753 f03c 9d71 b5bf 1851 9040 2a2a 6bbc
00000040: 3fda 8840 7b9e 8fbf d19d 9dbf 3e7c 99bf
00000050: 3fc8 40bd cda9 8540 e25a 8abd 4035 f040
00000060: f931 fa40 8b79 f840 238e 1e3c 1405 8c40
00000070: 8953 9640 d996 9d40 75b9 8d40 8f66 fb3b
00000080: 7d00 3d3a bab0 493d 631a 8940 b9c2 babf
00000090: a066 8dbd 7cd4 9b40 6e8c 8f40 5bf4 e53f
000000a0: 2115 9940 3c69 16bc 23eb 1b3d 0c61 42bb
000000b0: 27f3 9140 1864 8b40 b323 93bd a3ae a940
000000c0: 5726 f440 98b7 ad3d 8c26 9dbf d88d a6bf
000000d0: 391c 90bf 5bdd a8bf c5a5 8940 813b 973d
000000e0: eb18 0cbe 0741 9340 2b61 8cbf 1361 fc40
000000f0: 9c29 653d c0e3 e340 7d13 9abf 0a97 8bbf
00000100: 2a12 f640 83be 03bd 02ca 8b40 b836 8940
00000110: 35ba 9c40 ee28 9d40 2d74 2f3d 8171 8240
00000120: 4692 2fbd 39d7 94bf 0b08 8c40 69c9 fa40
00000130: e951 9040 111e 7040 da7f c840 3db5 9940
00000140: 620c b0bf 2dee 82bb 5276 8f40 d027 a2bf
00000150: 0505 8cbb f96f a43d 9c32 a93d 31dd 9640
00000160: e494 8f40 8538 1e3d d001 f740 3cea de40
00000170: 60e0 ac3d 47dd 9840 5c9a 5f3d 4ec5 8e40
00000180: f053 f240 bf5d 49bd b325 8c40 e224 97bc
00000190: 2cea 8c3d 5e0f fa40 c52c c440 38fc 783f
000001a0: be7a 4bbc adea f040 d6be 893c d907 f740
000001b0: 51a5 9a40 9241 d93c 88ec 9a40 4ac4 8640
000001c0: 0af0 a6bf b9a5 97bd 3f39 acbf 8485 1bbf
000001d0: db05 fa40 b2a8 e540 2796 1d3d b11f a4bf
000001e0: 1d30 ed40 08db ee40 df5e fe40 f96a 11bd
000001f0: c995 8640 1c00 a33d e96d adbf ed11 9d40
00000200: 34fc 44bf aee8 19bf bcd5 e940 c3e3 58bf
00000210: 4bf0 86bd b7d2 9240 976b b4bc 24bb 8140
00000220: c9f4 8a40 f975 6d3d 45d5 db3e 29d5 86bf
00000230: e735 bcbc 7e0a 45bf 8a9b 8740 9045 f33b
00000240: 8dcd 8340 118c 19bf 6a9e 2bbf baac 2dbf
00000250: e0a7 9b3d b50f 8340 bc3f 1f3d 6ee1 eb40
00000260: 8c55 e840 25fe e640 2eb5 a93d 406c 8440
00000270: cb40 8c40 f5ab 9640 5da0 8840 d18e aa3d
00000280: 27cb 343d 1483 0dbd 1d17 8640 7aab 60bf
00000290: d6a4 54bd 3a58 9140 7c46 8740 e644 2a3f
000002a0: 2fcb 9240 a333 213c f463 253d 729d 0cbd
000002b0: b036 8a40 f065 8640 0d55 8abd ab6e c340
000002c0: 34c3 ed40 02ff e23b 6c05 25bf 9edd 34bf
000002d0: 5b2f 37bf 804f 58bf ac88 8940 9995 96bd
000002e0: e842 e73e 5681 8c40 a47c 20bf d5be e940
000002f0: 3e56 2d3d e79d eb40 af72 22bf 1bb8 1cbf
00000300: c981 ea40 0b64 ae3d 902b 8740 d299 8440
00000310: 69c4 9040 2e4c 9140 eaed dfbb 2aff 7940
00000320: d7b9 a6bc 9041 1abf 9ba4 8840 6825 e740
00000330: 71de 8840 a9b7 6e40 f912 df40 3505 9740
00000340: 3bdc 5dbf 2047 6dbc 279e 8940 63a1 4fbf
00000350: 4842 2fbd 4ac0 70bd e7f1 5a3d 694e 8e40
00000360: 9e26 8a40 0321 3ebd 0102 ed40 6887 ea40
00000370: b310 213d 6a68 a140 e47d 2c3d be26 8740
00000380: bc3c eb40 7ee6 893d 2456 8540 5e5e a8bd
00000390: 4daf 77bd 7910 e840 8889 dc40 6cc5 4b3f
000003a0: 95ac 9ebd cc77 ef40 e1a3 873d c9eb e940
000003b0: a1b2 9140 ed31 513d f342 9140 4531 8340
000003c0: 2908 25bf a58b 503d 228b 49bf 2d26 04bf
000003d0: d4b7 e740 1141 ed40 b320 a53d be39 3abf
000003e0: 8940 eb40 5c2c ef40 0457 e640 8d2e d8bc
000003f0: 665e 8240 f61c 99bd 7912 3cbf 25f6 8f40
-1.4407747 -1.2403402 7.929327 -1.2724991 -0.017212793 4.9460397 0.061162073 4.0736184
4.661971 -0.034409016 1.6785507 -1.4961041 0.029336555 -1.4175297 4.509899 -0.014353314
4.2766414 -1.1220239 -1.2313787 -1.1991041 -0.04706597 4.1769776 -0.06755616 7.5065002
7.8186 7.764837 0.009677443 4.37562 4.697697 4.924664 4.428889 0.007672138
0.00072098506 0.049240805 4.284471 -1.4590675 -0.0690434 4.869688 4.4858923 1.7965196
4.783829 -0.009180363 0.03806604 -0.0029659895 4.5609317 4.3559685 -0.071845435 5.302568
7.62968 0.08482283 -1.2277389 -1.3012037 -1.1258613 -1.3192552 4.3014855 0.07384396
-0.1368138 4.601688 -1.0967153 7.88685 0.055947885 7.1215515 -1.2037197 -1.0905468
7.6897173 -0.032164108 4.368409 4.2879295 4.8977304 4.9112463 0.042835403 4.0763555
-0.042864107 -1.1628181 4.375982 7.837086 4.509999 3.751835 6.265607 4.803374
-1.3753779 -0.003995678 4.4831934 -1.26684 -0.0042730593 0.080291696 0.08261606 4.714501
4.486925 0.03862812 7.7189713 6.966093 0.08441234 4.7770114 0.054590568 4.461585
7.5727463 -0.04916167 4.379602 -0.018450204 0.06880602 7.814376 6.130465 0.97259855
-0.012419401 7.528647 0.01681463 7.719708 4.83268 0.026520524 4.8413734 4.211461
-1.3042004 -0.07404656 -1.345497 -0.60750604 7.813215 7.1768427 0.038473275 -1.2822171
7.412123 7.464237 7.949081 -0.035502408 4.2057843 0.07959005 -1.3549167 4.908438
-0.7694733 -0.60120666 7.3073406 -0.84722537 -0.06588801 4.588222 -0.02202396 4.0540943
4.342381 0.057973836 0.4293615 -1.0533801 -0.022974921 -0.76969135 4.2377367 0.007424064
4.1188416 -0.5997935 -0.67038596 -0.67841685 0.07600379 4.0956674 0.03887914 7.3712683
7.2604427 7.2185235 0.082865104 4.138214 4.3829093 4.708491 4.2695756 0.08328021
0.044139054 -0.034548834 4.1903214 -0.8776165 -0.051915012 4.54202 4.227354 0.6651138
4.5873027 0.009838971 0.040378526 -0.03432984 4.3191757 4.1999435 -0.067545034 6.1072593
7.4300785 0.006927372 -0.644614 -0.7065066 -0.71556634 -0.8449631 4.2979336 -0.07352752
0.45168233 4.390788 -0.62690187 7.304545 0.042318575 7.363025 -0.63456243 -0.6121842
7.328343 0.085151754 4.2240677 4.143777 4.523976 4.5405493 -0.0068337815 3.906199
-0.020352287 -0.6025629 4.2700934 7.223316 4.2771535 3.7299597 6.971066 4.7193856
-0.8666417 -0.01448229 4.3005557 -0.8110563 -0.04278782 -0.05877713 0.053453352 4.4470716
4.317214 -0.0464182 7.4064946 7.329029 0.039322566 5.043996 0.042112246 4.2234793
7.351164 0.06733416 4.166765 -0.08221124 -0.060469914 7.252011 6.8917885 0.79598117
-0.07747761 7.4833736 0.06623054 7.3100324 4.5530553 0.051073004 4.5394225 4.0997643
-0.64465576 0.050914425 -0.78727925 -0.5162075 7.24119 7.4141927 0.080628775 -0.7274436
7.351628 7.474165 7.198122 -0.026389385 4.0740232 -0.07476227 -0.7346569 4.498797

net.4.bias f4 [20]
00000000: 3d99 f83f 7830 f83f 62c8 be3f 1950 d03f
00000010: 96c7 873f 79cf 923f 8abd c53f 46de c63f
00000020: 36b9 08be 7c61 f43f 89e2 bd3e eefc f23e
00000030: 7398 5c3f 8e3d d23e 44c4 853f 3cba ecbe
00000040: 48e4 da3e 099a a9bc 5360 493f e94a 253d
1.9421765 1.9389791 1.4904902 1.6274444 1.0607784 1.1469566 1.5448468 1.5536582
-0.13351902 1.909225 0.37086895 0.47458595 0.8617012 0.41062587 1.045052 -0.46235836
0.4275229 -0.020703332 0.78662604 0.040354643
