realtime_model_ep158.pth (torch, 97610 bytes, 6 tensors)

net.0.weight f4 [128, 35]
0	0xc00e2c04	-2.2214365
1	0x41f1b504	30.213387
2	0xbe098be0	-0.13432264
3	0xbf46647e	-0.7749709
4	0x3cfd488b	0.03091838
5	0xbfb7c3e3	-1.4356655
6	0x41e7cfbf	28.976439
7	0xbdd32dd6	-0.10311477
8	0x3f748574	0.95516133
9	0x3f27c124	0.65529084
10	0xbfeef372	-1.8668044
11	0x41e9ea5b	29.239431
12	0xbe09577c	-0.13412279
13	0x3fef8eb8	1.8715429
14	0x3cfb5459	0.030679869
15	0xbf94524e	-1.1587617
16	0x41ea1c96	29.263958
17	0xbeaedfa2	-0.34154993
18	0x3f92d0bb	1.146995
19	0xbf67de59	-0.9057365
20	0xc0038bda	-2.0554109
21	0x41eb073d	29.378534
22	0xbe316672	-0.17324236
23	0x40194521	2.3948443
24	0xbe4038eb	-0.18771712
25	0x40e28228	7.078388
26	0x40d49e52	6.644326
27	0x410e6c62	8.901461
28	0x40e201a5	7.0627007
29	0x40cf2178	6.4728355
30	0x40bd4ddf	5.9157557
31	0x40cbaf44	6.3651447
32	0x40e039d2	7.007058
33	0x40732485	3.799104
34	0x40dc814a	6.8907824
35	0xc00bcabe	-2.1842494
36	0x41f20417	30.251997
37	0x3c931f65	0.017959306
38	0xbf1cedd0	-0.61300373
39	0x3d818838	0.0632481
40	0xbf993925	-1.1970564
41	0x41e92b1d	29.146051
42	0xbebc47a3	-0.36773404
43	0x3f654008	0.8955083
44	0x3f30e115	0.6909345
45	0xbfd8690c	-1.6907058
46	0x41ea7505	29.307138
47	0xbe398655	-0.1811765
48	0x3ff33d10	1.900301
49	0x3e000eaf	0.12505601
50	0xbf95591c	-1.1667819
51	0x41e9c607	29.221693
52	0xbec37846	-0.381777
53	0x3f930f24	1.1488996
54	0xbf35d7b8	-0.71032286
55	0xbffcac67	-1.9740113
56	0x41ea10b8	29.258163
57	0xbea285d3	-0.31742725
58	0x40160c98	2.3445187
59	0xbf028889	-0.50989586
60	0x40e5f6cf	7.186378
61	0x40d2bf80	6.5858765
62	0x410ed1be	8.926207
63	0x40e036eb	7.006704
64	0x40c5f64f	6.186317
65	0x40bafaa3	5.8430953
66	0x40ca017f	6.3126826
67	0x40e00392	7.000436
68	0x40679e15	3.6190236
69	0x40e01e50	7.0037003
70	0xc007adf6	-2.1199927
71	0x41f2e1f6	30.360332
72	0x3dac3c08	0.084098876
73	0xbf61c433	-0.8819
74	0x3ec85f4a	0.391352
75	0xbf960158	-1.171916
76	0x41eb59c8	29.418839
77	0xbd7e9dad	-0.06216209
78	0x3f6283c1	0.8848229
79	0x3f808419	1.0040313
80	0xbfdb952a	-1.7154896
81	0x41ec3034	29.523537
82	0x3e3ac928	0.18240798
83	0x3febe789	1.8430034
84	0x3e9bb7b5	0.30413595
85	0xbf942f3a	-1.1576912
86	0x41ecea11	29.61429
87	0xbe283853	-0.16427736
88	0x3fde69b4	1.7376008
89	0xbee08f12	-0.43859154
90	0xc003058f	-2.0472143
91	0x41edec44	29.740364
92	0x3d3de685	0.04636242
93	0x40158e87	2.3368242
94	0xbd927de1	-0.07152916
95	0x40f01f31	7.5038075
96	0x40e571d9	7.1701474
97	0x410e0e58	8.878502
98	0x40e3ecdb	7.122663
99	0x40d6c36c	6.711355
100	0x40c19671	6.0496144
101	0x40d72b67	6.724048
102	0x40e85cfa	7.2613497
103	0x40723460	3.7844467
104	0x40e4c1f7	7.1486773
105	0xc0009c4c	-2.0095396
106	0x41f01fc5	30.015512
107	0xc12611ce	-10.379347
108	0xc00899e2	-2.1343923
109	0xc14f9881	-12.974732
110	0xbf9274b3	-1.1441864
111	0x41e94b01	29.161623
112	0xc12aa039	-10.664117
113	0x3f59c670	0.85068417
114	0xc14270d4	-12.152546
115	0xbfbd9552	-1.4811194
116	0x41e7e06e	28.984585
117	0xc12b0d22	-10.690706
118	0x3f92d514	1.1471276
119	0xc14b89d7	-12.721152
120	0xbf87b182	-1.0601046
121	0x41e9dd0d	29.232935
122	0xc12e0881	-10.877076
123	0x3f3c4332	0.7354003
124	0xc14b3589	-12.70057
125	0xbff6ccea	-1.9281285
126	0x41e93d62	29.154972
127	0xc12bae3b	-10.730037
128	0x400638f6	2.0972266
129	0xc14bc04c	-12.7344475
130	0x4109d6b2	8.614916
131	0x40ff63c9	7.980931
132	0x413ffed9	11.999719
133	0x4125db24	10.366001
134	0x410c5a26	8.772009
135	0x411e5186	9.894903
136	0x410775a1	8.466218
137	0x4121d095	10.113423
138	0x40d9ed89	6.810246
139	0x4111c584	9.110722
140	0x3ed79cdf	0.4211187
141	0xc19e1a3c	-19.76281
142	0x412c6031	10.773484
143	0x401cde86	2.4510818
144	0x40fb5a19	7.8547482
145	0x3e50c6d7	0.20388351
146	0xc1957227	-18.680738
147	0x4132b325	11.168736
148	0x400ef0a6	2.233438
149	0x40e95f9a	7.29292
150	0x3e22aab5	0.15885432
151	0xc1962d68	-18.772171
152	0x412caf5e	10.792814
153	0x40685e33	3.6307495
154	0x410e3ecd	8.890332
155	0x3f6d466e	0.9268559
156	0xc197f43b	-18.994253
157	0x4131fdad	11.124433
158	0x3fea0ef4	1.8285813
159	0x4115aad6	9.354208
160	0x3f23a5c4	0.63924813
161	0xc196e3a0	-18.861145
162	0x4132bf72	11.17174
163	0xbe16d208	-0.14728558
164	0x4101a702	8.103273
165	0x40c9e4b9	6.3091702
166	0x40c14720	6.0399323
167	0x40b31953	5.5968413
168	0x40c6770a	6.202031
169	0x4120171e	10.005644
170	0x40ba54bb	5.822843
171	0x40cc05ec	6.375723
172	0x40f3442d	7.6020722
173	0x40f872bf	7.764007
174	0x41027cc0	8.155457
175	0xc010d458	-2.2629604
176	0x41f050d6	30.03947
177	0xbeecf412	-0.4627996
178	0xbf3a8a3f	-0.72867197
179	0xbe826320	-0.2546625
180	0xbfb63e95	-1.4237849
181	0x41e7177d	28.886469
182	0xbf37419a	-0.71584475
183	0x3f552eb7	0.83274406
184	0x3ebbd1e1	0.36683562
185	0xbfc4a636	-1.5363224
186	0x41e85a40	29.044067
187	0xbef99c57	-0.4875209
188	0x40010e3c	2.0164938
189	0x3d88007f	0.066407196
190	0xbf96945f	-1.1764029
191	0x41e80eb6	29.007183
192	0xbf42bdc1	-0.7607079
193	0x3f600877	0.87512916
194	0xbf87eda6	-1.06194
195	0xbfe7660d	-1.8078018
196	0x41e8c65f	29.09686
197	0xbf15cae6	-0.58512723
198	0x401aff65	2.421838
199	0xbecb85b7	-0.39750454
200	0x40de5839	6.9482694
201	0x40ca60b1	6.324303
202	0x4109c405	8.610356
203	0x40d624e6	6.692004
204	0x40c56334	6.1683598
205	0x40b5e20a	5.6838427
206	0x40c597a4	6.174761
207	0x40d83bcf	6.757301
208	0x4059b8b8	3.4018993
209	0x40d74f30	6.7284164
210	0x3cbf60ea	0.023361642
211	0x3d9576ae	0.07298027
212	0xbe09ac5c	-0.13444656
213	0xbb383b53	-0.0028111532
214	0xbde312b4	-0.11087552
215	0x3d52f969	0.051507387
216	0x3ca00309	0.019532697
217	0x3d86514b	0.06558474
218	0xbe05a6ad	-0.13051863
219	0xbdac9e0b	-0.08428582
220	0xbe12c9b2	-0.14334753
221	0x3dca22e1	0.09869934
222	0xbde42736	-0.111402914
223	0xbc14e842	-0.009088578
224	0xbde930e4	-0.11386278
225	0x3e03bdc7	0.12865363
226	0x3dd66f12	0.10470404
227	0xbc5597e4	-0.013036702
228	0xbda1b868	-0.07896501
229	0x3de0f6ac	0.10984549
230	0x3e276c37	0.16349874
231	0xbe092cc2	-0.1339598
232	0x3ca9f8e2	0.02074856
233	0xbdd5590e	-0.104173765
234	0x3d3a6a4c	0.04551153
235	0xbacaa930	-0.0015461799
236	0xbdbaa22a	-0.091129616
237	0xbdf6eb8e	-0.12056647
238	0x3d6588d4	0.056038693
239	0xbe13a9ab	-0.14420192
240	0xbd84b4af	-0.06479775
241	0xbe19339d	-0.14961095
242	0xbe04a2e0	-0.12952757
243	0x3d8b468b	0.068005644
244	0x3dd92e84	0.10604575
245	0xc010efbc	-2.2646322
246	0x41f06812	30.050816
247	0xbec5eb8f	-0.3865628
248	0xbf55dd60	-0.83540916
249	0xbd031a95	-0.032007772
250	0xbfa56d97	-1.2924069
251	0x41e7c06f	28.968962
252	0xbf4007fd	-0.7501219
253	0x3f5c9b43	0.8617441
254	0x3ebdeac7	0.37093183
255	0xbfc04c06	-1.50232

net.0.bias f4 [128]
0	0x404c6c34	3.1941042
1	0x40457a73	3.0855987
2	0x4054c5ac	3.324565
3	0xc09ab3ec	-4.834463
4	0x411e1275	9.879506
5	0x4034a2ef	2.8224447
6	0xbe41fc5f	-0.18943928
7	0x402d4b85	2.7077343
8	0x4029919f	2.649513
9	0x405155d2	3.270863
10	0x40242304	2.5646372
11	0x4031add4	2.7762346
12	0x411abfa1	9.671784
13	0x411fa761	9.978364
14	0x4032547a	2.786406
15	0x402c4797	2.6918695
16	0x402ba5e6	2.6820006
17	0x411ca5f1	9.790513
18	0x4032f541	2.796219
19	0x411dcc98	9.86245
20	0x3c6a34c3	0.014294806
21	0x4045cdf8	3.0906963
22	0xbe19b9a1	-0.15012218
23	0x3fb64928	1.4241076
24	0x404706ba	3.1097856
25	0xc0ad39de	-5.413314
26	0x411f101e	9.941435
27	0x40271715	2.6107838
28	0x402c63b6	2.6935859
29	0x40529f5d	3.2909768
30	0x404a06df	3.1566694
31	0x40251715	2.5795338
32	0x4027f05f	2.624046
33	0x4121098b	10.06483
34	0x411e554e	9.895826
35	0x4047a511	3.1194499
36	0x40320021	2.7812579
37	0x411c61b6	9.773855
38	0x40280d4c	2.6258116
39	0x4027a575	2.6194737
40	0x40598e44	3.3993082
41	0x411c85ae	9.782637
42	0x4027d8e8	2.622614
43	0x4027694c	2.6158018
44	0xbdae5d2d	-0.085138656
45	0xbcb4ece0	-0.022085607
46	0x3fd7ab07	1.6849068
47	0xbd66c334	-0.056338504
48	0x403b543f	2.927017
49	0xbd0f694e	-0.035012536
50	0x4029fa45	2.6559002
51	0xbe1c4d06	-0.15263757
52	0x411b6075	9.711049
53	0x402311f4	2.5479708
54	0x402a83b7	2.6642892
55	0x40266ae1	2.6002734
56	0x40204ec2	2.504807
57	0x411e0620	9.876495
58	0xbe430fa5	-0.19048937
59	0x404c784b	3.194842
60	0x401f8d5c	2.493003
61	0x411ecd4d	9.925122
62	0x405ab5be	3.4173427
63	0xbd68a31a	-0.05679617
64	0x4056315c	3.3467627
65	0x40551967	3.3296754
66	0x402d4449	2.7072928
67	0x40214fc1	2.5204928
68	0x411c18ba	9.756037
69	0x411a4bbc	9.64349
70	0x4026425e	2.5978007
71	0x403ab5de	2.9173503
72	0x404ee796	3.232885
73	0x402770d0	2.6162605
74	0x411edf3c	9.929501
75	0x402e28fe	2.721252
76	0x411a6e35	9.651906
77	0x40293d4a	2.6443658
78	0x40296dfc	2.647338
79	0x3d20323c	0.039110407
80	0x4028dc1d	2.6384346
81	0x402f56bb	2.7396686
82	0x4027b636	2.6204963
83	0xbe3318db	-0.1748995
84	0x411b9f9d	9.726468
85	0x3fda217b	1.7041467
86	0x4031e5b5	2.7796452
87	0xc0936d0c	-4.6070614
88	0xc099092f	-4.782371
89	0x402cec07	2.701906
90	0x4022a24c	2.5411558
91	0x4022b7bb	2.542464
92	0x40299e40	2.6502838
93	0x405c24ed	3.4397538
94	0x40571c99	3.3611205
95	0x4049e4d0	3.1545906
96	0xbd182508	-0.03714469
97	0x402351c8	2.5518665
98	0x411defc5	9.8710375
99	0x402f4caa	2.7390542
100	0x411f293d	9.947568
101	0x40390d6b	2.891444
102	0x402a3f5a	2.6601167
103	0x4031423f	2.7696683
104	0x4121f5ef	10.122542
105	0x4023c477	2.5588663
106	0x401cfb11	2.4528239
107	0x4021c23b	2.52748
108	0x40285a39	2.6305068
109	0x4036444c	2.8479185
110	0x402b60fd	2.6777947
111	0x411b1fd5	9.6952715
112	0x402d5b02	2.7086797
113	0xc09284a2	-4.5786905
114	0x411ec3aa	9.92277
115	0x411b9f2e	9.726362
116	0x411a6a67	9.650977
117	0x405a5796	3.4115958
118	0x40576119	3.3653014
119	0x3fc40e7e	1.5316923
120	0x402a91d5	2.665151
121	0x405c8881	3.4458315
122	0x411d9096	9.847799
123	0x411f7e48	9.96833
124	0x403ae329	2.9201148
125	0x4123fc83	10.249148
126	0x4033e3f8	2.810789
127	0x40524964	3.2857294

net.2.weight f4 [128, 128]
0	0x40a0e1e9	5.027577
1	0x409e9a88	4.9563637
2	0x40a12d29	5.0367627
3	0xc14b8981	-12.72107
4	0x402075d8	2.5071926
5	0x40362e10	2.8465614
6	0x3bbe311d	0.0058041946
7	0x40365421	2.8488848
8	0x401c7b43	2.4450233
9	0x40a14ce9	5.0406384
10	0x4011af5b	2.2763278
11	0x404d4285	3.207185
12	0x403012d2	2.7511487
13	0x4028b8a9	2.6362708
14	0x400eaa5b	2.2291477
15	0x4014c50e	2.3245273
16	0x402ea03c	2.72853
17	0x40339f63	2.8066032
18	0x404b1594	3.173192
19	0x401ab1e3	2.4171073
20	0xbd9a3365	-0.07529334
21	0x40a1d2af	5.056968
22	0x3d67ad3b	0.05656169
23	0x410e55df	8.895965
24	0x40a11b9e	5.0346212
25	0xc15448ac	-13.267742
26	0x4016d400	2.3566895
27	0x40229c74	2.5407991
28	0x3fee7c39	1.863166
29	0x409cd26c	4.9006863
30	0x409c8a12	4.8918543
31	0x3ff805fa	1.9376824
32	0x3fe26298	1.7686338
33	0x4025b53f	2.5891874
34	0x401b5081	2.4267886
35	0x40a2acce	5.0835943
36	0x40590eff	3.3915403
37	0x4026e4d2	2.607716
38	0x40414b7b	3.020232
39	0x3ffca960	1.9739189
40	0x409fb835	4.991236
41	0x40258c4d	2.5866883
42	0x3ffe7f8f	1.9882678
43	0x40417175	3.0225499
44	0x3cb5220d	0.022110963
45	0x3d48dc2a	0.04903809
46	0x41178df1	9.472154
47	0x3cc095fa	0.023509014
48	0x40909ace	4.518897
49	0x3d3b06e5	0.045660872
50	0x4035be7f	2.839752
51	0x3d4f8e8e	0.05067306
52	0x40279f41	2.619095
53	0x40376cee	2.8660235
54	0x4018e43a	2.3889298
55	0x3fde834c	1.7383819
56	0x40142c5b	2.3152072
57	0x4018ac9e	2.3855357
58	0x3d3890b8	0.04505989
59	0x409de5b5	4.9342904
60	0x404cabe6	3.1979918
61	0x40256c15	2.5847218
62	0x409ed25b	4.963178
63	0x3d420fc1	0.047378305
64	0x409b046a	4.844289
65	0x40a4cbf7	5.149898
66	0x405257f0	3.2866173
67	0x3f8736c5	1.0563589
68	0x401d74fd	2.4602654
69	0x402ea75c	2.7289648
70	0x407f91ab	3.9932659
71	0x408fa13e	4.488433
72	0x40a122e4	5.035509
73	0x3fb22b5f	1.3919486
74	0x4022eb31	2.545605
75	0x408a83a7	4.328571
76	0x40302b5e	2.752647
77	0x40326c3f	2.7878568
78	0x4037a5c2	2.869492
79	0xbdb26fb9	-0.08712716
80	0x402f4866	2.7387938
81	0x3fca1b64	1.5789609
82	0x40337462	2.8039784
83	0x3d540c01	0.05176926
84	0x402aa6af	2.6664236
85	0x41161d86	9.382208
86	0x4094b0d3	4.646585
87	0xc1537ff4	-13.218739
88	0xc14de0e9	-12.86741
89	0x3fbb2d4b	1.4623197
90	0x3ffb8495	1.9649836
91	0x404b9161	3.1807482
92	0x4023f692	2.5619245
93	0x40a24ce1	5.0718846
94	0x409ff3a9	4.9984937
95	0x40a08826	5.0166197
96	0xbd9f73be	-0.07785748
97	0x400c0ad0	2.18816
98	0x401bedaf	2.436382
99	0x40622c1c	3.5339422
100	0x40217e9f	2.5233533
101	0x408d796e	4.421073
102	0x3fc6cd3b	1.5531381
103	0x401d51f3	2.4581268
104	0x40159336	2.33711
105	0x4063dc99	3.5603392
106	0x3fa9ce46	1.3266075
107	0x3ffe893f	1.9885634
108	0x4047a1ee	3.1192584
109	0x4069f60a	3.655642
110	0x403641d7	2.8477685
111	0x4025b039	2.5888808
112	0x3fee8f2b	1.8637441
113	0xc14c3daf	-12.765059
114	0x401c330b	2.4406154
115	0x402c71e8	2.6944523
116	0x402601e8	2.5938663
117	0x40a0b53d	5.022124
118	0x409d0740	4.907135
119	0x4116cbd4	9.424763
120	0x401fda6d	2.4977067
121	0x409e3e57	4.94511
122	0x4023fec2	2.5624242
123	0x4023e601	2.5609133
124	0x409fb7a3	4.9911666
125	0x401fbe32	2.4959836
126	0x4090df3f	4.5272517
127	0x40a1fd69	5.062184
128	0x409e051d	4.938124
129	0x409e3685	4.944155
130	0x40a13613	5.037851
131	0xc14e633f	-12.89923
132	0x403934ed	2.8938553
133	0x4021b665	2.5267575
134	0x3cd6e9a7	0.026234461
135	0x40269aba	2.6031938
136	0x401739c9	2.362902
137	0x40a4fad4	5.1556187
138	0x40079173	2.1182525
139	0x404c7d82	3.1951604
140	0x4044a8bf	3.0727994
141	0x403afde0	2.9217453
142	0x40044f9b	2.0673587
143	0x400ff6ee	2.2494464
144	0x4025f3cd	2.5930054
145	0x4044eb2f	3.0768545
146	0x403a3938	2.9097424
147	0x403a29fe	2.908813
148	0xbdada8e1	-0.08479477
149	0x40a4711d	5.138808
150	0xbb666941	-0.003515795
151	0x410f03de	8.938444
152	0x40a30a35	5.094996
153	0xc155c8c2	-13.361513
154	0x402e7fa5	2.7265408
155	0x401cf524	2.4524622
156	0x3fe918c7	1.8210686
157	0x40a1a73d	5.051665
158	0x40a19cb5	5.0503793
159	0x3ffd5bb3	1.9793609
160	0x3ff1be54	1.8886209
161	0x4041693a	3.0220475
162	0x40360e11	2.8446085
163	0x40a1cf94	5.056589
164	0x40497cc7	3.1482408
165	0x40396f9f	2.8974378
166	0x403be314	2.9357347
167	0x3feaf177	1.8354939
168	0x40a10028	5.031269
169	0x4038677d	2.8813164
170	0x3ffc9471	1.9732801
171	0x40379481	2.868439
172	0x3b1e7799	0.0024180172
173	0x3ce7e991	0.028309615
174	0x4115a7c9	9.353463
175	0x3d2109e1	0.039316062
176	0x408ea663	4.457811
177	0xbd119aba	-0.03554795
178	0x402f7885	2.741731
179	0x3c1449d4	0.009050805
180	0x403c7fd7	2.9453027
181	0x402d223c	2.7052145
182	0x400769d9	2.1158354
183	0x3feb333b	1.8375009
184	0x400feb78	2.2487469
185	0x402dc3ba	2.7150712
186	0xbd9592f8	-0.07303423
187	0x40a3c49e	5.117751
188	0x403e3f45	2.9726117
189	0x403db3a9	2.9640906
190	0x409ec137	4.961086
191	0xbd283b00	-0.04107189
192	0x409ea3b6	4.9574842
193	0x40a6570d	5.1981263
194	0x4041402c	3.0195417
195	0x3f8b5126	1.088414
196	0x402fd654	2.7474566
197	0x40454125	3.082101
198	0x4084df5b	4.152265
199	0x4089ee1e	4.310317
200	0x40a331c8	5.099827
201	0x3f8f365b	1.1188463
202	0x4041f238	3.0304089
203	0x4087b299	4.2405515
204	0x40427d84	3.0389109
205	0x4022fe59	2.5467741
206	0x40240ea1	2.5633929
207	0x3cc80633	0.024417019
208	0x402a48f1	2.660702
209	0x3fd3cbd6	1.6546581
210	0x402b1733	2.673291
211	0x3cdfc090	0.0273135
212	0x403f38f9	2.9878523
213	0x41138b8c	9.221569
214	0x4094e072	4.652398
215	0xc153eec4	-13.245792
216	0xc14fcdb0	-12.987717
217	0x3fbbb9c3	1.4666065
218	0x4002ce02	2.0438237
219	0x403a215e	2.9082866
220	0x401d5c96	2.458776
221	0x40a35c44	5.105013
222	0x40a09073	5.017633
223	0x40a31a12	5.0969324
224	0x3d02c0e9	0.031922255
225	0x400c6a9a	2.1940064
226	0x402fbbd9	2.7458403
227	0x40508104	3.2578745
228	0x4038ee7c	2.889556
229	0x408b204f	4.347694
230	0x3fbd0d91	1.4769765
231	0x4018387d	2.3784478
232	0x402e3522	2.721993
233	0x4057a840	3.3696442
234	0x3fa059da	1.252742
235	0x3feb96a7	1.840535
236	0x4049cea1	3.1532366
237	0x406cb1f3	3.6983612
238	0x4029edf6	2.655149
239	0x403e6d9b	2.9754398
240	0x3ffabe72	1.9589369
241	0xc14d66fc	-12.837643
242	0x4034985b	2.821799
243	0x4042fab5	3.046552
244	0x4037b606	2.8704848
245	0x40a85acd	5.261084
246	0x40a296e7	5.0809207
247	0x4114602e	9.273481
248	0x4015f6f3	2.3431976
249	0x40a2c525	5.0865655
250	0x4040d51d	3.0130074
251	0x4041d4d8	3.028616
252	0x409e18ce	4.940528
253	0x4032f9f6	2.7965064
254	0x4094eb88	4.6537514
255	0x40a4af0e	5.146369

net.2.bias f4 [128]
0	0xbf351a44	-0.70743203
1	0xbe8695bc	-0.26286113
2	0xc10b339a	-8.700098
3	0xbed7e6e5	-0.42168346
4	0x3d3b09f7	0.0456638
5	0x401e65c5	2.4749615
6	0xbc979f86	-0.018508684
7	0x407f3411	3.987553
8	0x407e16bc	3.9701376
9	0xbdb2810d	-0.08716021
10	0x410fa075	8.976674
11	0xbf9ae8e9	-1.2102329
12	0xbdb17d99	-0.08666534
13	0xbf234698	-0.6377959
14	0x407d8b42	3.9616246
15	0x3ca2f5ea	0.019892652
16	0x407e8402	3.976807
17	0xbf16d0ae	-0.5891217
18	0xbf0b3cf7	-0.543899
19	0xbed1ef91	-0.41003087
20	0xbcd41223	-0.025887555
21	0x4082c0d9	4.086041
22	0x3ce88dc5	0.028387913
23	0xc0cf639a	-6.4809084
24	0xc0fefb59	-7.968182
25	0xc1093b4f	-8.57698
26	0xbdaa546a	-0.08316882
27	0x4076d163	3.85653
28	0x407c591f	3.9429395
29	0x3fa26183	1.2686008
30	0x4081927d	4.049132
31	0xbda70e62	-0.0815704
32	0xbd0843b4	-0.03326769
33	0xbd256658	-0.040380806
34	0x407e2dcd	3.9715455
35	0xbf645c4b	-0.8920333
36	0x3d80a256	0.06280963
37	0x4022ede1	2.545769
38	0x407a7b68	3.9137821
39	0x41138d15	9.221944
40	0x4013be18	2.3084774
41	0xbba1476d	-0.0049218447
42	0xbd63e47c	-0.05563782
43	0xbcac045f	-0.020998178
44	0x4084771a	4.139539
45	0x40823e12	4.070077
46	0x3d8b3a05	0.06798176
47	0xbfd3adc9	-1.653741
48	0xc0cdf2dd	-6.4358964
49	0x3cf66fd7	0.030082626
50	0xbeb9bd79	-0.3627737
51	0xbf3de5bf	-0.7417869
52	0xbc446c6d	-0.011988741
53	0xbf1215a3	-0.57064265
54	0x408154db	4.0416083
55	0xbc75a4b4	-0.014992882
56	0xbd02c5b1	-0.031926814
57	0x4080a24a	4.0198107
58	0xbf0e906a	-0.5568911
59	0xc10b817e	-8.719114
60	0x3c9327dd	0.017963344
61	0xc0ab31ae	-5.3498144
62	0xbe892e30	-0.2679305
63	0xbeaa4a71	-0.3325992
64	0xc0f27878	-7.5772057
65	0xbcf93736	-0.030421834
66	0x4077ef34	3.8739748
67	0x407ecde8	3.9813175
68	0x401d7a75	2.4605992
69	0x401a1bd3	2.4079483
70	0xbda69a34	-0.08134881
71	0x4077a5ac	3.8694868
72	0x3c80aeda	0.015708376
73	0xbded0a3b	-0.11574217
74	0x4082ab89	4.0834394
75	0xc104642e	-8.274458
76	0x407b302d	3.9248154
77	0x407286ba	3.789473
78	0xc052380a	-3.2846704
79	0x3fa2496e	1.2678659
80	0xbf0cc00d	-0.54980546
81	0xbd051af8	-0.032496423
82	0x40738d79	3.8055098
83	0xbf102bf0	-0.56317043
84	0x3d9467a5	0.07246331
85	0xbd09d8c8	-0.033654004
86	0x3cc0b7ec	0.0235252
87	0x401c1723	2.4389122
88	0x4080933c	4.017973
89	0xbd247cb2	-0.04015798
90	0xc0e8b01a	-7.271497
91	0xc09793b5	-4.7367806
92	0x3888f52f	6.530654e-05
93	0x3e57f2b1	0.21088673
94	0xbd61ba06	-0.055109046
95	0x4081bf3a	4.054593
96	0xc0e1d1ce	-7.056861
97	0x3c69fcaf	0.014281436
98	0x407f1035	3.9853642
99	0xbdc37df7	-0.0954551
100	0xbda638eb	-0.08116325
101	0xc10a9d88	-8.66346
102	0xc043e644	-3.0609293
103	0x4104199f	8.256255
104	0xbced57c3	-0.028972512
105	0xc0c78918	-6.235485
106	0x3d041e96	0.03225573
107	0xc0f4139b	-7.6273932
108	0x3ff91b0b	1.9461378
109	0x3c1fa633	0.009744215
110	0x4020e084	2.5137033
111	0x407b1c87	3.9236162
112	0xbef8a6e7	-0.48564836
113	0xbd6e06ba	-0.058111884
114	0xbef404da	-0.4765995
115	0x3e87f14f	0.2655129
116	0xc10881f1	-8.531724
117	0xc0a9d084	-5.3067036
118	0x3c74706e	0.014919383
119	0xbf31a2b6	-0.693889
120	0xc0b3225d	-5.5979447
121	0xc0ce239c	-6.441847
122	0xc106b19a	-8.41836
123	0xbd9c8382	-0.076422706
124	0x407e2745	3.9711468
125	0xbdc68da7	-0.09694987
126	0xbef56b77	-0.47933552
127	0x4021ab14	2.5260668

net.4.weight f4 [20, 128]
0	0xbfa59cdf	-1.2938498
1	0xbf8aeeb3	-1.0854095
2	0x40f5a349	7.6761823
3	0xbf8f7b10	-1.1209431
4	0xbc8d01d8	-0.017212793
5	0x409b3700	4.850464
6	0x3d7a8515	0.061162073
7	0x4080dd2e	4.0269995
8	0x4093acb0	4.61483
9	0xbd0cf078	-0.034409016
10	0x40055104	2.0830698
11	0xbfad3dfa	-1.3534539
12	0x3cf05337	0.029336555
13	0xbfa29180	-1.2700653
14	0x408ed843	4.463899
15	0xbc6b2a2a	-0.014353314
16	0x40876679	4.231259
17	0xbf77c6f2	-0.9678794
18	0xbf8a1de1	-1.0790368
19	0xbf862fea	-1.0483372
20	0xbd40c83f	-0.04706597
21	0x40842fe6	4.130847
22	0xbd8a5ae2	-0.06755616
23	0x40e858ef	7.260856
24	0x40f237cb	7.5693107
25	0x40f063ab	7.5121665
26	0x3c1e8e23	0.009677443
27	0x408a8d35	4.329737
28	0x4094ce68	4.650196
29	0x40997bcb	4.7963614
30	0x408c3be0	4.382309
31	0x3bfb668f	0.007672138
32	0x3a3d007d	0.00072098506
33	0x3d49b0ba	0.049240805
34	0x4087a59b	4.2389655
35	0xbfa877cf	-1.3161563
36	0xbd8d66a0	-0.0690434
37	0x4098c67e	4.77423
38	0x408e0faa	4.439412
39	0x400cdee7	2.2011049
40	0x4095e7ba	4.684537
41	0xbc16693c	-0.009180363
42	0x3d1beb23	0.03806604
43	0xbb42610c	-0.0029659895
44	0x409071bc	4.5138836
45	0x4089f11c	4.3106823
46	0xbd9323b3	-0.071845435
47	0x40a37e37	5.109157
48	0x40ec4b64	7.384203
49	0x3dadb798	0.08482283
50	0xbf896a92	-1.0735648
51	0xbf93991c	-1.15311
52	0xbf781b55	-0.96916705
53	0xbf95b012	-1.1694357
54	0x40882ebe	4.255706
55	0x3d973b81	0.07384396
56	0xbcac53f7	-0.021036131
57	0x4091c1f2	4.554925
58	0xbf7134ac	-0.94220996
59	0x40f44c3a	7.634305
60	0x3d65299c	0.055947885
61	0x40dc1f17	6.878795
62	0xbf861342	-1.0474627
63	0xbf6f66cb	-0.93516225
64	0x40ee2e5d	7.4431596
65	0xbd03be83	-0.032164108
66	0x408a4d52	4.3219385
67	0x4087c413	4.242685
68	0x40999671	4.7996144
69	0x409a188d	4.815497
70	0x3d2f742d	0.042835403
71	0x4080fb4f	4.0306773
72	0xbd2f9246	-0.042864107
73	0xbf80d9f4	-1.0066514
74	0x408a8b5f	4.329513
75	0x40f2af41	7.5838933
76	0x408ed300	4.463257
77	0x406d5d55	3.7088215
78	0x40c172c9	6.045262
79	0x40958896	4.672923
80	0xbf9d31fd	-1.228088
81	0xbb82ee2d	-0.003995678
82	0x408df990	4.436714
83	0xbf8f44da	-1.1192887
84	0xbb8c0505	-0.0042730593
85	0x3da46ff9	0.080291696
86	0x3da9329c	0.08261606
87	0x4093d578	4.619808
88	0x408e17bd	4.4403977
89	0x3d1e3885	0.03862812
90	0x40ef1d86	7.472354
91	0x40d74a03	6.7277846
92	0x3dace060	0.08441234
93	0x40941e6d	4.628714
94	0x3d5f9a5c	0.054590568
95	0x408d4661	4.414841
96	0x40ea74b7	7.3267474
97	0xbd495dbf	-0.04916167
98	0x408ab180	4.3341675
99	0xbc9724e2	-0.018450204
100	0x3d8cea2c	0.06880602
101	0x40f1fa67	7.5618167
102	0x40bd2d6a	5.9117937
103	0x3fb0598a	1.3777325
104	0xbc4b7abe	-0.012419401
105	0x40e91181	7.2833867
106	0x3c89bed6	0.01681463
107	0x40ef1c88	7.472233
108	0x4097064d	4.719519
109	0x3cd94192	0.026520524
110	0x4097dd96	4.745799
111	0x40855046	4.166049
112	0xbf93866a	-1.1525395
113	0xbd97a5b9	-0.07404656
114	0xbf9920e4	-1.1963162
115	0xbe958950	-0.29206324
116	0x40f1f441	7.561066
117	0x40ddda61	6.9329076
118	0x3d1d9627	0.038473275
119	0xbf90f524	-1.1324811
120	0x40e55a6f	7.1672893
121	0x40e7016c	7.2189236
122	0x40f64a6c	7.6965847
123	0xbd116af9	-0.035502408
124	0x4085220f	4.1604075
125	0x3da3001c	0.07959005
126	0xbf9a2ec6	-1.2045524
127	0x409a04e3	4.8130965
128	0xbf28dea2	-0.6596471
129	0xbefb2dca	-0.49058372
130	0x40e06873	7.01275
131	0xbf3ce989	-0.73793846
132	0xbd86f04b	-0.06588801
133	0x408f7168	4.4825935
134	0xbcb46b97	-0.02202396
135	0x4080c4cc	4.024023
136	0x4089f9a9	4.311726
137	0x3d6d75f9	0.057973836
138	0x3e8c5095	0.2740523
139	0xbf71b290	-0.9441309
140	0xbcbc35e7	-0.022974921
141	0xbf28ff64	-0.66014695
142	0x4086aa1a	4.2082644
143	0x3bf34590	0.007424064
144	0x4082e19e	4.090041
145	0xbef9ca04	-0.48786938
146	0xbf0f4f43	-0.5598032
147	0xbf11a004	-0.5688479
148	0x3d9ba7e0	0.07600379
149	0x40821e1b	4.066175
150	0x3d1f3fbc	0.03887914
151	0x40e2919f	7.080276
152	0x40def6b2	6.967614
153	0x40dd9287	6.9241366
154	0x3da9b52e	0.082865104
155	0x40837c32	4.1089106
156	0x408b4321	4.3519444
157	0x4091525d	4.541304
158	0x4087ab11	4.239632
159	0x3daa8ed1	0.08328021
160	0x3d34cb27	0.044139054
161	0xbd0d8314	-0.034548834
162	0x40852a11	4.161385
163	0xbf44eea4	-0.76926637
164	0xbd54a4d6	-0.051915012
165	0x408df88c	4.43659
166	0x4086519f	4.1974635
167	0x3f02e353	0.5112812
168	0x408f2eaf	4.4744487
169	0x3c2133a3	0.009838971
170	0x3d2563f4	0.040378526
171	0xbd0c9d72	-0.03432984
172	0x40893d2d	4.2887177
173	0x40857b73	4.1713195
174	0xbd8a550d	-0.067545034
175	0x40bb4beb	5.8530173
176	0x40e47413	7.139169
177	0x3be2ff02	0.006927372
178	0xbf08a4c9	-0.5337644
179	0xbf18b460	-0.5965023
180	0xbf1b1228	-0.6057458
181	0xbf3c3b48	-0.73527956
182	0x40889a42	4.2688303
183	0xbd969599	-0.07352752
184	0x3cf69535	0.030100444
185	0x408b8941	4.3605046
186	0xbf03e1b9	-0.515163
187	0x40e05382	7.010194
188	0x3d2d563e	0.042318575
189	0x40e25a0c	7.073492
190	0xbf05ce59	-0.52267987
191	0xbf00772e	-0.50181854
192	0x40e12e50	7.0369034
193	0x3dae640b	0.085151754
194	0x408636a4	4.19417
195	0x4083aefa	4.1151094
196	0x408d39c8	4.4133034
197	0x408de816	4.434581
198	0xbbdfedea	-0.0068337815
199	0x407820f5	3.8770115
200	0xbca6b9d7	-0.020352287
201	0xbefc2acf	-0.4925141
202	0x4087b05a	4.2402773
203	0x40ddb806	6.928714
204	0x4087e810	4.247078
205	0x406cf478	3.7024212
206	0x40d64100	6.6954346
207	0x40918d14	4.5484715
208	0xbf420d01	-0.7580109
209	0xbc6d4720	-0.01448229
210	0x4088a90b	4.270635
211	0xbf33bb90	-0.7020807
212	0xbd2f4248	-0.04278782
213	0xbd70c04a	-0.05877713
214	0x3d5af1e7	0.053453352
215	0x408afb0b	4.343145
216	0x4089313b	4.2872596
217	0xbd3e2103	-0.0464182
218	0x40e3ae60	7.115036
219	0x40e15825	7.04201
220	0x3d2110b3	0.039322566
221	0x409b049d	4.844313
222	0x3d2c7de4	0.042112246
223	0x40862fcb	4.193334
224	0x40e1eb86	7.0600004
225	0x3d89e67e	0.06733416
226	0x4084693d	4.1378465
227	0xbda85e5e	-0.08221124
228	0xbd77b005	-0.0604706
229	0x40dea522	6.957658
230	0x40d3c0ae	6.6172705
231	0x3f2410d7	0.64088196
232	0xbd9eac95	-0.07747761
233	0x40e6299b	7.192579
234	0x3d87a3e1	0.06623054
235	0x40e09457	7.018108
236	0x408d3955	4.4132485
237	0x3d5131ed	0.051073004
238	0x408de18e	4.4337835
239	0x40824541	4.070954
240	0xbf08cd22	-0.5343801
241	0x3d508ba5	0.050914425
242	0xbf2db3a3	-0.6785223
243	0xbec36905	-0.3816606
244	0x40de4e04	6.9470234
245	0x40e3f809	7.1240277
246	0x3da520b3	0.080628775
247	0xbf1e0665	-0.6172851
248	0x40e1f3f7	7.061031
249	0x40e5dde7	7.1833377
250	0x40dcebfa	6.9038057
251	0xbcd82e8d	-0.026389385
252	0x4081727d	4.0452256
253	0xbd991cf6	-0.07476227
254	0xbf1ff585	-0.6248401
255	0x408c9897	4.3936267

net.4.bias f4 [20]
0	0x400771f7	2.1163309
1	0x3feac0a0	1.8340034
2	0x3fdf469c	1.7443423
3	0x3febfe5e	1.8437002
4	0x3f9e97fc	1.2390132
5	0x3faa745b	1.3316759
6	0x3fcf9a49	1.6218959
7	0x3fd91c0e	1.6961687
8	0xbd19640a	-0.03744892
9	0x3ffc35c4	1.9703908
10	0x3ea489b9	0.32136324
11	0x3efc3b1e	0.49263853
12	0x3f4d3d13	0.80171317
13	0x3eca384e	0.39496082
14	0x3f83c9c6	1.0295951
15	0xbec4e01c	-0.38452232
16	0x3eee0de3	0.4649497
17	0x3c011895	0.007879396
18	0x3f436c92	0.7633754
19	0x3d85c3f6	0.06531517
