realtime_model_ep356.pth (torch, 97610 bytes, 6 tensors)

net.0.weight f4 [128, 35]
000000 3c af 1f c0 c3 e1 f8 41 52 c8 e4 be 91 a3 d4 be
       -2.4950705 31.110235 -0.44684082 -0.4153104
000010 e2 ea b5 be 58 db cb bf d9 cb e9 41 2e 6c 24 bf
       -0.35530764 -1.5926313 29.224535 -0.6422757
000020 d2 b1 da 3f 0f 9a 0d 3f 0f 2a 01 c0 38 72 ec 41
       1.7085516 0.553132 -2.018192 29.55577
000030 fd ee 22 bf 23 01 0f 40 a7 6a f3 bd 3b 6c a6 bf
       -0.6364592 2.2344444 -0.11885577 -1.3001779
000040 7f 64 ec 41 bb 1d 5b bf a0 4d a3 3f 07 76 23 bf
       29.54907 -0.8559224 1.2758064 -0.6385197
000050 3d ff 0b c0 4d 1d ed 41 11 6c 37 bf 2c 20 28 40
       -2.1874535 29.639307 -0.7164927 2.6269636
000060 1e 91 02 bf 20 d5 db 40 35 27 cf 40 c5 44 0b 41
       -0.5100268 6.869766 6.473536 8.704289
000070 9e fb db 40 89 38 c9 40 65 a9 b8 40 85 24 c5 40
       6.874465 6.2881513 5.770678 6.160708
000080 ab 7c d9 40 a3 2b 6a 40 8b 21 d7 40 8e 4d 1d c0
       6.7964683 3.6589134 6.7228446 -2.4578586
000090 0a 2e f9 41 b1 c5 96 be 1c f2 81 be 03 0d a5 be
       31.14748 -0.29447702 -0.25380027 -0.3223649
0000a0 55 4a ad bf d2 23 eb 41 8b 48 68 bf 4b 11 d3 3f
       -1.3538309 29.39249 -0.9073569 1.6489652
0000b0 f0 ed 16 3f e3 c4 eb bf 8e f9 ec 41 7e 13 2f bf
       0.58956814 -1.841946 29.621853 -0.6838912
0000c0 b8 d5 10 40 ba da c6 bc 3c 6d a7 bf 76 0a ec 41
       2.2630444 -0.024274219 -1.3080211 29.505108
0000d0 b9 84 65 bf 30 96 a3 3f d5 d6 e2 be d0 c6 06 c0
       -0.89655644 1.2780209 -0.4430453 -2.1058846
0000e0 60 23 ec 41 03 72 5c bf a2 e7 24 40 9e d2 54 bf
       29.517273 -0.8611147 2.5766377 -0.83133876
0000f0 b5 48 df 40 f6 46 cd 40 62 a9 0b 41 57 2f da 40
       6.9776254 6.414912 8.728853 6.818279
000100 ec 0b c0 40 10 55 b6 40 c1 75 c3 40 c1 44 d9 40
       6.0014553 5.6978836 6.1081243 6.789643
000110 eb a1 5e 40 32 bd da 40 bc 30 19 c0 1f 17 fa 41
       3.4786327 6.835595 -2.3935995 31.26129
000120 24 a6 62 be b6 15 05 bf d4 9d 36 3b 75 34 aa bf
       -0.2213369 -0.51986253 0.002786507 -1.3297259
000130 ac 5f ed 41 60 93 17 bf 20 ae d1 3f b2 57 66 3f
       29.671715 -0.5920925 1.6381264 0.8997756
000140 fe 0e ef bf 34 c1 ee 41 d4 4a 9f be 91 45 0d 40
       -1.867645 29.844337 -0.31111777 2.207371
000150 1b bc 1e 3e ab 64 a6 bf aa 3b ef 41 2a 6e 2b bf
       0.15501444 -1.2999471 29.904133 -0.6696497
000160 6b ce ee 3f 74 ed 2c be eb 86 0b c0 93 0b f0 41
       1.8656744 -0.16887456 -2.1801097 30.005651
000170 2f c2 f9 be f7 7f 24 40 f4 32 ca be 5b 77 e9 40
       -0.48780963 2.5703104 -0.39492 7.2958198
000180 f2 00 e0 40 96 e8 0a 41 f2 eb dd 40 e6 df d0 40
       7.0001154 8.681784 6.935052 6.5273314
000190 2e f9 bc 40 aa a6 d0 40 f2 a6 e1 40 82 50 69 40
       5.9054174 6.5203447 7.051629 3.6455388
0001a0 99 69 df 40 fc 02 12 c0 b1 cc f6 41 c8 3d 1a c1
       6.9816403 -2.2814322 30.849947 -9.640083
0001b0 33 4a dc bf 42 6f 4e c1 26 66 a6 bf d2 ab ea 41
       -1.7210144 -12.902163 -1.2999923 29.333897
0001c0 7d 7d 24 c1 64 71 d6 3f 55 15 3e c1 94 e6 d0 bf
       -10.280637 1.6753354 -11.880208 -1.6320367
0001d0 03 d1 e9 41 29 2c 24 c1 73 15 ce 3f 01 9f 4a c1
       29.227057 -10.260781 1.6100296 -12.663819
0001e0 48 b9 99 bf 08 87 eb 41 09 3e 27 c1 91 f1 85 3f
       -1.2009668 29.440933 -10.452645 1.0464345
0001f0 f9 e4 43 c1 d6 df 03 c0 bb bd ea 41 9d 88 25 c1
       -12.243402 -2.0605369 29.342642 -10.345853
000200 1d 93 15 40 29 b0 4b c1 9a 25 08 41 a4 10 fd 40
       2.337104 -12.730508 8.50918 7.9082813
000210 06 b8 3e 41 5e 91 24 41 cc 01 0b 41 09 5b 1d 41
       11.919928 10.28549 8.687939 9.834725
000220 7c b4 05 41 60 11 20 41 05 71 d7 40 54 a8 10 41
       8.356564 10.004242 6.7325463 9.041096
000230 c4 c0 31 3f ce d2 a3 c1 14 b4 2a 41 09 a2 03 40
       0.6943476 -20.477932 10.668964 2.0567648
000240 51 02 00 41 db fb b7 3e a1 fd 95 c1 14 bb 36 41
       8.000566 0.35934338 -18.748842 11.420673
000250 46 75 b8 3f 85 1c e7 40 3c f8 9d 3e 75 4e 97 c1
       1.4410789 7.2222314 0.3085345 -18.91331
000260 83 ea 2f 41 7c 9e 4e 40 ae 74 0f 41 6d 71 88 3f
       10.994754 3.228423 8.965986 1.0659615
000270 c6 c4 98 c1 1d 6a 35 41 27 89 cc 3f c8 d8 10 41
       -19.09608 11.338407 1.5979356 9.052925
000280 0e 1b 45 3f 29 90 97 c1 95 dc 36 41 66 b1 b4 be
       0.7699441 -18.94539 11.428853 -0.35291594
000290 84 69 04 41 0d 7e cf 40 13 d9 c5 40 8f 16 b8 40
       8.275761 6.484137 6.1827483 5.7527537
0002a0 79 6a cb 40 8f a1 22 41 f5 7f be 40 ef bb d1 40
       6.356747 10.164443 5.9531198 6.554191
0002b0 9d 27 f9 40 a1 f2 fc 40 bd ce 04 41 ea 52 22 c0
       7.7860856 7.904618 8.300473 -2.5363107
0002c0 d2 5a f7 41 b3 7e 43 bf 8d 86 be be 16 d4 20 bf
       30.919346 -0.763652 -0.3721203 -0.6282362
0002d0 e4 10 ca bf 90 e8 e8 41 34 2b a0 bf cc 4f cb 3f
       -1.5786405 29.113556 -1.2513185 1.5883727
0002e0 ef 74 8d 3e 73 ca d7 bf e9 b7 ea 41 28 2a 7c bf
       0.27628276 -1.6858658 29.3398 -0.98501825
0002f0 fc 53 18 40 ba 7f 9f bd 0b 6d a8 bf c8 2a ea 41
       2.380126 -0.07788034 -1.3158277 29.27089
000300 42 9e a2 bf 5c 39 81 3f 99 7d 4a bf 0d 0f f8 bf
       -1.2704546 1.009563 -0.79097897 -1.9379593
000310 87 b2 ea 41 77 ed 8f bf 62 e5 29 40 87 09 35 bf
       29.337172 -1.1244344 2.6546254 -0.7071766
000320 c2 ac d7 40 0c e8 c4 40 27 9d 06 41 a9 21 d0 40
       6.7398386 6.153326 8.413367 6.504109
000330 79 7a bf 40 68 3a b1 40 b8 0d bf 40 f1 7c d1 40
       5.9837003 5.5383797 5.9704247 6.5465016
000340 8f af 50 40 1f ed d1 40 ea 60 bf 3c ae 76 95 3d
       3.2607152 6.5601954 0.023361642 0.07298027
000350 5c ac 09 be 53 3b 38 bb b4 12 e3 bd 69 f9 52 3d
       -0.13444656 -0.0028111532 -0.11087552 0.051507387
000360 09 03 a0 3c 4b 51 86 3d ad a6 05 be 0b 9e ac bd
       0.019532697 0.06558474 -0.13051863 -0.08428582
000370 b2 c9 12 be e1 22 ca 3d 36 27 e4 bd 42 e8 14 bc
       -0.14334753 0.09869934 -0.111402914 -0.009088578
000380 e4 30 e9 bd c7 bd 03 3e 12 6f d6 3d e4 97 55 bc
       -0.11386278 0.12865363 0.10470404 -0.013036702
000390 68 b8 a1 bd ac f6 e0 3d 37 6c 27 3e c2 2c 09 be
       -0.07896501 0.10984549 0.16349874 -0.1339598
0003a0 e2 f8 a9 3c 0e 59 d5 bd 4c 6a 3a 3d 30 a9 ca ba
       0.02074856 -0.104173765 0.04551153 -0.0015461799
0003b0 2a a2 ba bd 8e eb f6 bd d4 88 65 3d ab a9 13 be
       -0.091129616 -0.12056647 0.056038693 -0.14420192
0003c0 af b4 84 bd 9d 33 19 be e0 a2 04 be 8b 46 8b 3d
       -0.06479775 -0.14961095 -0.12952757 0.068005644
0003d0 84 2e d9 3d 78 6e 22 c0 73 72 f7 41 33 24 30 bf
       0.10604575 -2.5379925 30.930883 -0.68805236
0003e0 70 2c f5 be d1 c8 cf be a7 40 b9 bf ff 91 e9 41
       -0.47885466 -0.40582898 -1.4472855 29.196287
0003f0 3f a0 a4 bf 3b 03 cf 3f 58 6c 8f 3e 1a 71 d3 bf
       -1.2861403 1.6172861 0.28012347 -1.6518891

net.0.bias f4 [128]
000000 d7 f9 40 40 dd 08 3a 40 71 5a 49 40 0e 94 9c c0
       3.015249 2.906791 3.146145 -4.893073
000010 29 63 20 41 42 55 29 40 5f fc 41 be 58 fc 21 40
       10.024209 2.6458287 -0.18943928 2.5310268
000020 7b 50 1e 40 6a e5 45 40 fe e8 18 40 2c 55 26 40
       2.4736621 3.0921273 2.3892207 2.5989485
000030 e2 10 1d 41 fa f6 21 41 93 1a 27 40 4c 06 21 40
       9.816622 10.122797 2.610997 2.5160093
000040 d1 57 20 40 da f6 1e 41 1c 9c 27 40 76 1e 20 41
       2.50536 9.9352665 2.6189032 10.007437
000050 c3 34 6a 3c 4e 5c 3a 40 a1 b9 19 be 77 9c c7 3f
       0.014294806 2.9118838 -0.15012218 1.5594624
000060 ca 93 3b 40 69 61 b0 c0 eb 62 21 41 a8 cf 1b 40
       2.9308953 -5.511891 10.08665 2.4345493
000070 db 30 21 40 31 32 47 40 a3 99 3e 40 23 e2 19 40
       2.518607 3.1124384 2.9781272 2.4044273
000080 ef bd 1c 40 44 5a 23 41 cd a2 20 41 9e 37 3c 40
       2.4490926 10.2095375 10.039746 2.9408946
000090 f5 ae 26 40 ac b1 1e 41 e0 bc 1c 40 84 70 1c 40
       2.6044285 9.918377 2.449028 2.4443674
0000a0 3c 1f 4e 40 e9 d4 1e 41 1d a2 1c 40 4c 15 1c 40
       3.2206564 9.92698 2.4473946 2.4387999
0000b0 2d 5d ae bd e0 ec b4 bc e5 2f ea 3f 34 c3 66 bd
       -0.085138656 -0.022085607 1.8295866 -0.056338504
0000c0 9f e5 2f 40 4e 69 0f bd dc ab 1e 40 06 4d 1c be
       2.74839 -0.035012536 2.4792395 -0.15263757
0000d0 77 af 1d 41 e0 c1 17 40 fb 44 1f 40 fe 38 1b 40
       9.855338 2.3712082 2.4885852 2.4253535
0000e0 5c 11 15 40 cd 57 20 41 a5 0f 43 be 02 0d 41 40
       2.3291845 10.021436 -0.19048937 3.016419
0000f0 27 35 14 40 fb 1c 21 41 97 4a 4f 40 1a a3 68 bd
       2.3157442 10.069575 3.2389276 -0.05679617
000100 a7 c5 4a 40 b6 a0 49 40 1f e5 21 40 98 33 16 40
       3.1683137 3.150434 2.5296094 2.346899
000110 f4 68 1e 41 fd 9c 1c 41 1d ed 1a 40 7f 51 2f 40
       9.900623 9.788327 2.4207222 2.7393491
000120 31 77 43 40 ec 5d 1c 40 02 31 21 41 3b c4 22 40
       3.0541499 2.4432325 10.074465 2.543227
000130 61 c0 1c 41 fc f1 1d 40 f6 1d 1e 40 3c 32 20 3d
       9.7969675 2.4678946 2.4705787 0.039110407
000140 63 90 1d 40 9c 2a 24 40 60 68 1c 40 fb 5d 34 be
       2.4619377 2.5651007 2.4438705 -0.17613976
000150 c4 f0 1d 41 97 af ec 3f 13 75 26 40 ad 48 95 c0
       9.871281 1.8491086 2.6008956 -4.6651216
000160 b8 ed 9a c0 c3 bf 21 40 d2 66 17 40 4f 60 17 40
       -4.8415184 2.5273292 2.3656507 2.3652532
000170 12 52 1e 40 83 b7 50 40 45 b2 4b 40 53 75 3e 40
       2.4737592 3.2612007 3.1827557 2.975911
000180 08 25 18 bd 20 11 18 40 af 41 20 41 ef e5 23 40
       -0.03714469 2.3760452 10.016036 2.560909
000190 06 7b 21 41 1d 9b 2d 40 79 15 1f 40 f5 ff 25 40
       10.092535 2.7125924 2.4856856 2.5937474
0001a0 0b 48 24 41 71 5a 18 40 e8 d5 11 40 c5 9e 16 40
       10.267589 2.38052 2.2786808 2.3534405
0001b0 7b 04 1d 40 ef e5 2a 40 ee 0f 20 40 78 71 1d 41
       2.4533985 2.670284 2.5009723 9.840202
0001c0 de 29 22 40 e5 60 94 c0 48 16 21 41 4d f0 1d 41
       2.5338054 -4.636828 10.06794 9.871167
0001d0 22 ba 1c 41 05 e1 4e 40 5d f3 4b 40 0a 92 d6 3f
       9.795443 3.232484 3.1867287 1.6763318
0001e0 aa 4b 1f 40 a6 16 51 40 e6 e1 1f 41 d9 ce 21 41
       2.4889932 3.2670074 9.992651 10.113
0001f0 27 6f 2f 40 ed 4d 26 41 1e 77 28 40 cc d8 46 40
       2.7411592 10.394025 2.6322703 3.1069822

net.2.weight f4 [128, 128]
000000 ae 8c a3 40 f5 49 a1 40 13 cb a3 40 94 7d 48 c1
       5.110923 5.040278 5.1185393 -12.530659
000010 8a 1f 21 40 3a c6 3b 40 1d 31 be 3b ba de 3b 40
       2.51755 2.9339738 0.0058041946 2.9354692
000020 cc 03 22 40 f4 ee a3 40 64 47 17 40 99 e9 52 40
       2.5314817 5.122919 2.3637323 3.2955077
000030 b1 a6 30 40 ad 5c 29 40 52 3e 14 40 79 5d 1a 40
       2.760174 2.6462815 2.3163037 2.411955
000040 2a 34 34 40 4f 83 34 40 0a aa 50 40 6c 79 1b 40
       2.8156838 2.8205144 3.2603784 2.429286
000050 65 33 9a bd a1 80 a4 40 3b ad 67 3d e9 d8 0f 41
       -0.07529334 5.140702 0.05656169 8.990457
000060 30 c7 a3 40 ad f1 50 c1 52 2c 17 40 2a 43 28 40
       5.118065 -13.059003 2.36208 2.6290994
000070 19 c6 f9 3f 12 6f 9f 40 40 15 9f 40 65 9b 01 40
       1.951358 4.9823084 4.971344 2.0251095
000080 ea 94 ed 3f a9 5e 26 40 37 eb 1b 40 74 45 a5 40
       1.856107 2.5995276 2.4362314 5.164728
000090 b8 a4 5e 40 0f 8d 27 40 10 db 46 40 26 05 04 40
       3.4788036 2.6179845 3.1071205 2.0628142
0000a0 96 4d a2 40 9a 42 26 40 0d d5 04 40 98 1f 47 40
       5.071971 2.597815 2.0755036 3.1113033
0000b0 0d 22 b5 3c 2a dc 48 3d fd 69 19 41 fa 95 c0 3c
       0.022110963 0.04903809 9.588376 0.023509014
0000c0 ca 55 93 40 e5 06 3b 3d 98 5c 3b 40 8e 8e 4f 3d
       4.6042223 0.045660872 2.9275265 0.05067306
0000d0 7c 6b 28 40 54 0d 3d 40 7a 91 1e 40 bb be e9 3f
       2.6315603 2.9539385 2.4776292 1.8261331
0000e0 a8 bb 19 40 00 55 19 40 b8 90 38 3d 7a 79 a0 40
       2.4020786 2.395813 0.04505989 5.0148287
0000f0 69 4f 52 40 9e 35 26 40 47 63 a1 40 c1 0f 42 3d
       3.2860968 2.5970225 5.043369 0.047378305
000100 92 97 9d 40 c7 64 a7 40 44 fd 57 40 d8 49 92 3f
       4.924752 5.231052 3.374833 1.1428785
000110 da 63 1e 40 d2 ab 2f 40 05 8d 82 40 01 5c 92 40
       2.4748445 2.744862 4.0797143 4.573731
000120 90 c1 a3 40 02 79 bd 3f 59 d3 23 40 a0 3e 8d 40
       5.117378 1.4802554 2.5597746 4.4138947
000130 a7 f4 30 40 b4 0c 38 40 1b 42 3d 40 b9 6f b2 bd
       2.7649324 2.8757753 2.9571598 -0.08712716
000140 8e ee 34 40 54 45 d5 3f 2a 08 39 40 e5 0a 54 3d
       2.8270602 1.6661782 2.8911233 0.051768202
000150 1f a2 2b 40 c2 f7 17 41 14 66 97 40 f5 73 50 c1
       2.68177 9.497988 4.7312107 -13.02831
000160 9a d4 4a c1 11 66 c6 3f de 5d 03 40 33 2d 51 40
       -12.676905 1.5499898 2.0526042 3.2683837
000170 c0 7e 29 40 ba e4 a4 40 71 8c a2 40 78 1b a3 40
       2.6483612 5.1529207 5.0796437 5.097103
000180 be 73 9f bd 47 9f 11 40 22 57 1c 40 f1 c6 67 40
       -0.07785748 2.2753465 2.4428182 3.6215174
000190 28 f7 21 40 e4 36 90 40 1b f4 d1 3f fe eb 22 40
       2.5307102 4.5067005 1.640262 2.5456538
0001a0 f3 ef 15 40 4a 78 69 40 34 1f b5 3f 8a e0 04 40
       2.3427703 3.6479669 1.4150147 2.0762048
0001b0 6b 23 4d 40 0f 87 6f 40 b3 db 3b 40 72 9a 26 40
       3.2052867 3.7426183 2.9352844 2.6031766
0001c0 db bb f9 3f 45 34 49 c1 fe a2 1c 40 be 7b 2d 40
       1.9510454 -12.575261 2.4474483 2.7106776
0001d0 20 b1 26 40 1d 45 a3 40 64 9e 9f 40 89 a8 18 41
       2.6045609 5.1021867 4.988085 9.541146
0001e0 33 67 25 40 e2 d0 a0 40 34 da 24 40 d5 d8 24 40
       2.5844238 5.0254984 2.575818 2.5757344
0001f0 29 5d a2 40 9a f8 1f 40 7f 98 93 40 3a a2 a4 40
       5.073872 2.4995484 4.6123652 5.144803
000200 6e ba a0 40 2b f2 a0 40 d7 d9 a3 40 e6 05 4b c1
       5.0227575 5.0295615 5.120342 -12.68894
000210 6b 7f 38 40 d6 73 27 40 a7 e9 d6 3c b0 4b 2c 40
       2.882777 2.616445 0.026234461 2.6921196
000220 ef e8 1c 40 98 a4 a7 40 00 50 0d 40 e5 47 52 40
       2.4517171 5.238842 2.2080078 3.285638
000230 aa d8 43 40 ad 42 3a 40 ec 0b 0a 40 9e b7 15 40
       3.0600991 2.9103196 2.1569777 2.339332
000240 67 ad 2b 40 d3 75 44 40 34 f3 3f 40 db 99 39 40
       2.6824586 3.0696914 2.999219 2.9000156
000250 e1 a8 ad bd e1 27 a7 40 41 69 66 bb a0 4f 10 41
       -0.08479477 5.223618 -0.003515795 9.01944
000260 d0 bf a5 40 cb 1a 52 c1 6d 6e 2d 40 d9 c0 22 40
       5.1796646 -13.131541 2.7098649 2.5430205
000270 4f b3 f4 3f 57 4a a4 40 04 2a a4 40 b7 6c 04 40
       1.9117221 5.1340747 5.130129 2.0691354
000280 58 41 fd 3f 54 b5 40 40 f5 48 35 40 c5 6e a4 40
       1.9785566 3.0110674 2.832578 5.1385217
000290 bb 37 4f 40 cb b8 38 40 ff 97 41 40 ec 9d f6 3f
       3.2377765 2.8862789 3.024902 1.9266944
0002a0 43 9a a3 40 d1 bf 37 40 20 05 04 40 6c 67 3d 40
       5.112581 2.8710825 2.0628128 2.9594374
0002b0 99 77 1e 3b 91 e9 e7 3c d4 5c 17 41 e1 09 21 3d
       0.0024180172 0.028309615 9.460163 0.039316062
0002c0 7d 6f 91 40 ba 9a 11 bd 66 3d 35 40 d4 49 14 3c
       4.5448594 -0.03554795 2.8318725 0.009050805
0002d0 71 f4 3b 40 e7 e7 32 40 0b 3d 0d 40 64 bc f6 3f
       2.9367945 2.7954042 2.2068508 1.9276242
0002e0 bc a1 15 40 43 12 2d 40 f8 92 95 bd 38 5b a6 40
       2.3379965 2.7042396 -0.07303423 5.198635
0002f0 95 06 44 40 e2 24 3d 40 88 55 a1 40 00 3b 28 bd
       3.0629017 2.9553761 5.041691 -0.04107189
000300 cb 3a a1 40 1c f6 a8 40 bd 07 47 40 9c b1 96 3f
       5.038427 5.2800426 3.1098473 1.1772952
000310 e6 72 2f 40 92 f5 44 40 66 b1 87 40 df b7 8c 40
       2.7413878 3.0774884 4.240405 4.397445
000320 cc d8 a5 40 81 c7 9a 3f 24 88 41 40 ef 7c 8a 40
       5.1827145 1.2092134 3.0239344 4.3277507
000330 c9 e9 41 40 c5 c3 28 40 b6 cf 29 40 33 06 c8 3c
       3.029894 2.6369488 2.6533027 0.024417019
000340 c9 11 30 40 38 49 df 3f 39 cf 30 40 a3 bb df 3c
       2.7510855 1.744422 2.7626479 0.027311152
000350 da e2 3e 40 ba 3e 15 41 ef a3 97 40 85 91 50 c1
       2.982596 9.327814 4.7387614 -13.035527
000360 e2 6f 4c c1 55 42 c7 3f 77 8f 08 40 21 e3 3f 40
       -12.777315 1.5567118 2.1337564 2.9982378
000370 5c 09 23 40 fe f8 a5 40 90 30 a3 40 2b b3 a5 40
       2.5474463 5.1866446 5.099678 5.178121
000380 e9 c0 02 3d 98 25 12 40 85 bd 2e 40 b5 3f 56 40
       0.031922255 2.2835445 2.7303174 3.3476384
000390 41 01 38 40 79 ec 8d 40 8e 80 c8 3f ce f9 1d 40
       2.8750765 4.4351163 1.5664232 2.4683719
0003a0 a6 27 2d 40 77 67 5d 40 72 f9 ab 3f 8a 10 f7 3f
       2.705545 3.45944 1.34355 1.9301922
0003b0 4e 75 4f 40 3f 65 72 40 7f ae 2f 40 d7 03 3e 40
       3.2415347 3.7874296 2.7450254 2.9689844
0003c0 bf 1d 03 40 46 0c 4a c1 60 a2 33 40 47 b5 42 40
       2.0486906 -12.627996 2.8067856 3.0423143
0003d0 a8 06 37 40 13 ee aa 40 60 33 a5 40 a4 15 16 41
       2.8597813 5.341562 5.1625214 9.380283
0003e0 49 aa 1b 40 32 5d a5 40 bc 5c 40 40 fc 74 41 40
       2.4322684 5.1676264 3.00566 3.0227652
0003f0 52 c8 a0 40 f2 c6 31 40 f6 b2 97 40 30 5d a7 40
       5.024453 2.7777677 4.740596 5.2301254

net.2.bias f4 [128]
000000 fa 50 2c bf 4f ce 6f be 33 41 0d c1 a4 af c7 be
       -0.6731106 -0.23418544 -8.828418 -0.3900119
000010 f7 09 3b 3d e3 5e 0a 40 86 9f 97 bc 0a ad 73 40
       0.0456638 2.1620414 -0.018508684 3.8074365
000020 56 22 72 40 0d 81 b2 bd d5 80 1b 41 29 18 96 bf
       3.7833457 -0.08716021 9.718953 -1.1726123
000030 99 7d b1 bd 81 6f 1a bf 9b 99 71 40 ea f5 a2 3c
       -0.08666534 -0.6032639 3.7750003 0.019892652
000040 8b d2 72 40 10 76 11 bf 19 44 03 bf f0 ad c0 be
       3.7941005 -0.56820774 -0.51275784 -0.37632704
000050 23 12 d4 bc 56 fc 79 40 c5 8d e8 3c 15 81 d1 c0
       -0.025887555 3.9060264 0.028387913 -6.547007
000060 a9 0f 01 c1 12 39 0b c1 6a 54 aa bd c1 0e 6b 40
       -8.066323 -8.701433 -0.08316882 3.6727755
000070 c9 4d 70 40 ea 57 70 3f 21 4a 77 40 62 0e a7 bd
       3.7547476 0.93884146 3.8638995 -0.0815704
000080 b4 43 08 bd 58 66 25 bd 2c 8c 72 40 d2 38 5a bf
       -0.03326769 -0.040380806 3.7898054 -0.8524295
000090 56 a2 80 3d fc 13 0f 40 26 c0 6e 40 52 43 1f 41
       0.06280963 2.2355947 3.7304778 9.953936
0000a0 4e 53 ff 3f 6d 47 a1 bb 7c e4 63 bd 5f 04 ac bc
       1.9947298 -0.0049218447 -0.05563782 -0.020998178
0000b0 af ef 7c 40 ae bd 78 40 05 3a 8b 3d fd 03 e7 bf
       3.9521291 3.8865771 0.06798176 -1.8048092
0000c0 3c fd cf c0 d7 6f f6 3c 8e ad ab be 7a f9 34 bf
       -6.4996624 0.030082626 -0.3353085 -0.7069317
0000d0 09 1d 7e 3c 3a d8 09 bf fe fb 76 40 b4 a4 75 bc
       0.015509852 -0.5384556 3.8591304 -0.014992882
0000e0 8b 1d d6 3e 6e 61 75 40 43 e1 07 bf 3d 7c 0d c1
       0.41819414 3.8340716 -0.530781 -8.842832
0000f0 dd 27 93 3c 27 47 ac c0 c4 ca 7c be c8 07 9d be
       0.017963344 -5.3836856 -0.24686724 -0.3067
000100 d3 fa f4 c0 36 37 f9 bc 9b 44 6c 40 8b 1a 73 40
       -7.655618 -0.030421834 3.6916873 3.798495
000110 73 5f 09 40 46 10 06 40 34 9a a6 bd 06 0d 6c 40
       2.1464508 2.0947433 -0.08134881 3.688295
000120 da ae 80 3c ec e7 ae bd c5 77 79 40 e5 70 06 c1
       0.015708376 -0.08540329 3.8979352 -8.402562
000130 80 56 6f 40 8c 93 67 40 6d 5d 51 c0 e5 d9 6f 3f
       3.7396545 3.6183805 -3.2713273 0.93691856
000140 37 6a 03 bf f8 1a 05 bd 4e 97 67 40 d9 0f 07 bf
       -0.51333946 -0.032496423 3.61861 -0.52758557
000150 a5 67 94 3d c8 d8 09 bd ec b7 c0 3c 3e 45 08 40
       0.07246331 -0.033654004 0.0235252 2.1292262
000160 47 5e 75 40 b2 7c 24 bd 21 37 eb c0 44 8a 97 c0
       3.8338792 -0.04015798 -7.3504796 -4.735628
000170 2f f5 88 38 a9 b0 cf bd 06 ba 61 bd 4a 8d 77 40
       6.530654e-05 -0.10141117 -0.055109046 3.8679986
000180 d2 16 e4 c0 af fc 69 3c 12 65 73 40 f7 7d c3 bd
       -7.1277857 0.014281436 3.8030438 -0.0954551
000190 6f 54 a6 bd 83 9b 0c c1 14 6e 43 c0 0f fe 0e 41
       -0.08121573 -8.787967 -3.0535936 8.937026
0001a0 c3 57 ed bc 8d 68 c9 c0 96 1e 04 3d 97 d4 f6 c0
       -0.028972512 -6.2940125 0.03225573 -7.713451
0001b0 a3 70 cf 3f 33 a6 1f 3c d2 eb 0c 40 16 5c 6f 40
       1.6206249 0.009744215 2.2018933 3.7399955
0001c0 51 d1 e7 be ba 06 6e bd 4e b9 e1 be d1 4d 2d 3f
       -0.45276883 -0.058111884 -0.4408669 0.67696863
0001d0 75 73 0a c1 4f 40 ab c0 6e 70 74 3c 9d 85 29 bf
       -8.653188 -5.3516 0.014919383 -0.662195
0001e0 18 d0 b4 c0 ad 23 d0 c0 1e af 08 c1 82 83 9c bd
       -5.650402 -6.504355 -8.542753 -0.076422706
0001f0 b0 a8 72 40 a7 8d c6 bd 3a 78 e4 be 15 cb 0d 40
       3.7915459 -0.09694987 -0.44622976 2.2155201

net.4.weight f4 [20, 128]
000000 85 01 c4 bf 2d f1 aa bf b2 01 02 41 1b cc ae bf
       -1.5312964 -1.3354851 8.125414 -1.3656038
000010 d8 01 8d bc 4b ce a0 40 15 85 7a 3d df af 83 40
       -0.017212793 5.0251822 0.061162073 4.1152186
000020 c4 87 96 40 78 f0 0c bd df a3 b5 3f 40 c6 ca bf
       4.704073 -0.034409016 1.4190634 -1.5841751
000030 37 53 f0 3c 88 0f c1 bf fa a2 91 40 2a 2a 6b bc
       0.029336555 -1.5082865 4.5511446 -0.014353314
000040 9c 27 8a 40 4a be 9b bf 7c 9c a9 bf b8 58 a5 bf
       4.317335 -1.2167447 -1.325088 -1.29177
000050 3f c8 40 bd 83 fb 86 40 e2 5a 8a bd cc 53 f6 40
       -0.04706597 4.218202 -0.06755616 7.697729
000060 87 32 00 41 6a bd fe 40 23 8e 1e 3c ac 55 8d 40
       8.012336 7.960622 0.009677443 4.416708
000070 63 ae 97 40 28 f1 a0 40 43 0e 8f 40 8f 66 fb 3b
       4.7400374 5.029438 4.470491 0.007672138
000080 7d 00 3d 3a ba b0 49 3d b4 68 8a 40 da 07 c6 bf
       0.00072098506 0.049240805 4.325281 -1.5471146
000090 a0 66 8d bd 9c 5b 9e 40 98 e0 90 40 5f da c4 3f
       -0.0690434 4.948683 4.527416 1.5379142
0000a0 a2 b4 9b 40 3c 69 16 bc 23 eb 1b 3d 0c 61 42 bb
       4.8658 -0.009180363 0.03806604 -0.0029659895
0000b0 23 4b 93 40 c6 b0 8c 40 b3 23 93 bd 79 9a ae 40
       4.602922 4.396579 -0.071845435 5.4563565
0000c0 17 44 fa 40 98 b7 ad 3d 85 48 a9 bf ad 3a b2 bf
       7.8208117 0.08482283 -1.3225256 -1.3924156
0000d0 f0 69 9c bf 5b a9 b4 bf 7a f5 8a 40 81 3b 97 3d
       -1.221983 -1.4114183 4.3424654 0.07384396
0000e0 be d2 c6 be 72 97 94 40 a6 8b 98 bf 3c 52 01 41
       -0.3883266 4.643487 -1.1917617 8.082577
0000f0 9c 29 65 3d 8a f0 e9 40 5a 5e a6 bf f5 cb 97 bf
       0.055947885 7.3106127 -1.2997544 -1.1859118
000100 e2 35 fc 40 83 be 03 bd 01 1e 8d 40 22 83 8a 40
       7.8815775 -0.032164108 4.4099126 4.3285074
000110 c6 52 9f 40 55 b2 9f 40 2d 74 2f 3d e9 c0 83 40
       4.978854 4.990519 0.042835403 4.1172986
000120 46 92 2f bd a2 1c a1 bf 29 5c 8d 40 fd 87 00 41
       -0.042864107 -1.2586863 4.4175 8.0332
000130 98 a7 91 40 6b a0 72 40 55 05 ce 40 93 1c 9d 40
       4.551708 3.7910411 6.438151 4.909738
000140 86 a4 bb bf 2d ee 82 bb 07 cb 90 40 a4 c5 ad bf
       -1.4659584 -0.003995678 4.5247836 -1.357594
000150 05 05 8c bb f9 6f a4 3d 9c 32 a9 3d f6 5e 99 40
       -0.0042730593 0.080291696 0.08261606 4.792842
000160 60 e9 90 40 85 38 1e 3d c6 25 fd 40 a7 db e4 40
       4.528488 0.03862812 7.910861 7.151813
000170 60 e0 ac 3d 3e b1 9c 40 5c 9a 5f 3d 4b 1b 90 40
       0.08441234 4.896636 0.054590568 4.5033317
000180 77 74 f8 40 bf 5d 49 bd 9f 73 8d 40 e2 24 97 bc
       7.764217 -0.04916167 4.420364 -0.018450204
000190 2c ea 8c 3d 7a 29 00 41 b7 a8 c9 40 e7 46 36 3f
       0.06880602 8.010126 6.301845 0.7120194
0001a0 be 7a 4b bc d4 06 f7 40 d6 be 89 3c b9 30 fd 40
       -0.012419401 7.7195835 0.01681463 7.9121976
0001b0 77 9e 9d 40 92 41 d9 3c 78 74 9d 40 d7 11 88 40
       4.925594 0.026520524 4.9204674 4.2521777
0001c0 f2 df b2 bf b9 a5 97 bd 68 f5 b7 bf e0 fb 4a bf
       -1.3974593 -0.07404656 -1.4371767 -0.7929058
0001d0 a4 23 00 41 e9 bc eb 40 27 96 1d 3d 9c ea af bf
       8.008701 7.3668103 0.038473275 -1.3743472
0001e0 ba 49 f3 40 d2 f7 f4 40 04 51 02 41 f9 6a 11 bd
       7.60275 7.6552515 8.144779 -0.035502408
0001f0 cc e2 87 40 1c 00 a3 3d 94 44 b9 bf 45 98 9f 40
       4.246435 0.07959005 -1.4474053 4.9873376
000200 4e 70 4e bf e4 15 21 bf 28 02 f1 40 01 8d 60 bf
       -0.80640113 -0.6292403 7.531513 -0.87715155
000210 4b f0 86 bd 1b cb 93 40 97 6b b4 bc 47 7c 80 40
       -0.06588801 4.618543 -0.02202396 4.0151706
000220 e4 b9 89 40 f9 75 6d 3d e6 c9 5c 3f 06 21 8c bf
       4.3039417 0.057973836 0.8624557 -1.0947578
000230 e7 35 bc bc c6 2a 4e bf 78 5c 86 40 90 45 f3 3b
       -0.022974921 -0.8053402 4.1987877 0.007424064
000240 3f 8a 82 40 d7 9b 21 bf c1 a6 33 bf f0 b8 35 bf
       4.0793757 -0.6312842 -0.7017632 -0.7098532
000250 e0 a7 9b 3d 34 ce 81 40 bc 3f 1f 3d 75 f1 f2 40
       0.07600379 4.0564213 0.03887914 7.5919747
000260 8f 74 ef 40 1d 29 ee 40 2e b5 a9 3d 1f 2b 83 40
       7.4829783 7.4425187 0.082865104 4.099014
000270 5b 05 8b 40 54 dc 99 40 40 60 87 40 d1 8e aa 3d
       4.3444037 4.8081455 4.2304993 0.08328021
000280 27 cb 34 3d 14 83 0d bd 94 d4 84 40 e5 b7 6a bf
       0.044139054 -0.034548834 4.1509495 -0.9168685
000290 d6 a4 54 bd 7b 4d 92 40 04 07 86 40 4d e0 8c 3f
       -0.051915012 4.571958 4.1883564 1.1005951
0002a0 86 04 94 40 a3 33 21 3c f4 63 25 3d 72 9d 0c bd
       4.625552 0.009838971 0.040378526 -0.03432984
0002b0 86 f9 88 40 3d 21 85 40 0d 55 8a bd 85 7a c9 40
       4.2804594 4.1603074 -0.067545034 6.296206
0002c0 82 d2 f4 40 02 ff e2 3b 4f 98 2c bf 10 05 3e bf
       7.6506968 0.006927372 -0.67419904 -0.74226475
0002d0 c1 6e 3d bf d5 c0 60 bf 35 45 88 40 99 95 96 bd
       -0.7399712 -0.8779424 4.258448 -0.07352752
0002e0 14 40 4d 3f d0 44 8b 40 d5 5e 28 bf 63 e9 f0 40
       0.801759 4.35215 -0.657697 7.5284896
0002f0 3e 56 2d 3d c8 a0 f2 40 7e d5 29 bf cc a5 23 bf
       0.042318575 7.5821266 -0.6634139 -0.6392486
000300 d6 95 f1 40 0b 64 ae 3d 10 ec 85 40 d1 56 83 40
       7.5495405 0.085151754 4.185066 4.1043477
000310 12 ea 91 40 89 47 92 40 ea ed df bb 68 7e 77 40
       4.559823 4.5712323 -0.0068337815 3.8670902
000320 d7 b9 a6 bc 34 c6 20 bf 10 64 87 40 ee 51 ee 40
       -0.020352287 -0.62802434 4.2309647 7.447501
000330 52 9e 87 40 e3 43 6c 40 e9 a8 e5 40 3e 57 9a 40
       4.238076 3.6916435 7.176869 4.8231497
000340 7d 9a 66 bf 20 47 6d bc 93 5f 88 40 e1 76 58 bf
       -0.9007948 -0.01448229 4.261667 -0.84556395
000350 48 42 2f bd 4a c0 70 bd e7 f1 5a 3d b6 35 8f 40
       -0.04278782 -0.05877713 0.053453352 4.4753065
000360 67 e7 88 40 03 21 3e bd 43 16 f4 40 42 76 f1 40
       4.2782474 -0.0464182 7.6277175 7.545686
000370 b3 10 21 3d 03 c3 a5 40 e4 7d 2c 3d f6 e7 85 40
       0.039322566 5.180055 0.042112246 4.1845655
000380 5a 4e f2 40 7e e6 89 3d 4c 14 84 40 5e 5e a8 bd
       7.5720644 0.06733416 4.1274776 -0.08221124
000390 4d af 77 bd 26 3b ef 40 a6 17 e3 40 e5 5b 9d 3f
       -0.060469914 7.4759703 7.096637 1.2293669
0003a0 95 ac 9e bd e3 85 f6 40 e1 a3 87 3d e9 03 f1 40
       -0.07747761 7.7038436 0.06623054 7.5317273
0003b0 19 e3 93 40 ed 31 51 3d a3 3a 92 40 cd ed 81 40
       4.621472 0.051073004 4.569658 4.0602784
0003c0 8d 1d 2d bf a5 8b 50 3d 10 be 51 bf 96 de c8 be
       -0.67623216 0.050914425 -0.8193064 -0.3923232
0003d0 1a e1 ee 40 b8 49 f4 40 b3 20 a5 3d b9 e6 42 bf
       7.464978 7.633999 0.080628775 -0.76133305
0003e0 c6 4c f2 40 e8 3a f6 40 5b 81 ed 40 8d 2e d8 bc
       7.5718718 7.6946907 7.4220405 -0.026389385
0003f0 ef 1a 81 40 f6 1c 99 bd 0e 61 44 bf 7b e9 90 40
       4.034538 -0.07476227 -0.76710594 4.528501

net.4.bias f4 [20]
000000 3c b2 ed 3f a8 30 11 40 30 78 af 3f 47 d8 c2 3f
       1.8570018 2.2685947 1.3708553 1.5222253
000010 78 62 8c 3f 02 6c 8c 3f 95 1a b9 3f 6d 25 b7 3f
       1.096755 1.0970461 1.4461237 1.4308296
000020 5f d6 23 be fd 73 02 40 15 b6 cd 3e 7d 9b f6 3e
       -0.15999745 2.0383294 0.4017798 0.48165503
000030 cf 34 64 3f 0d a7 e1 3e d7 91 86 3f 5f 5c ea be
       0.8914308 0.44072762 1.0513257 -0.457736
000040 04 b0 de 3e 7e ba 0c bd ae cb 4c 3f ba f8 a8 3c
       0.43493664 -0.03435754 0.7999829 0.020626415
