realtime_model_ep23.pth (torch, 97600 bytes, 6 tensors)

net.0.weight f4 [128, 35]
000000 32 58 fe bf 57 76 eb 41 58 b9 ed 3e e8 3b 50 bf
       -1.9870665 29.432783 0.4643047 -0.8134141
000010 da a0 a1 3e f0 53 a9 bf 76 b7 e5 41 33 78 23 3f
       0.31568033 -1.3228741 28.71458 0.63855284
000020 bf fc 92 3f bf af 95 3f c3 85 de bf dd 5d e7 41
       1.1483382 1.1694258 -1.7384571 28.920832
000030 90 69 16 3f 0d 5d c7 3f 81 9a c0 3e 90 4e 85 bf
       0.58754826 1.5575272 0.37617877 -1.04146
000040 31 a8 e7 41 dc f2 c5 3e 78 7f cc 3f 7d 03 9b bf
       28.957125 0.3866185 1.59764 -1.211044
000050 be d7 f9 bf 4d 00 e9 41 1b 55 12 3f 77 9f 1c 40
       -1.9518964 29.125147 0.5716111 2.447233
000060 6d 8f ee 3e 57 5d ea 40 c8 85 da 40 0e 6c 11 41
       0.465938 7.323894 6.8288307 9.088881
000070 bd 67 e8 40 7f 57 d5 40 d1 26 c3 40 3f d2 d2 40
       7.2626634 6.6669307 6.0984883 6.588165
000080 d3 ab e6 40 cf 33 7e 40 04 5e e2 40 ce 9a f9 bf
       7.2084746 3.9719121 7.0739765 -1.9500368
000090 18 c8 eb 41 f2 b0 1d 3f d8 dd 26 bf 95 d9 b1 3e
       29.472702 0.6159812 -0.65182257 0.34736314
0000a0 df cc 8a bf 32 16 e7 41 ad 57 bf 3e 53 5a 8b 3f
       -1.0843772 28.885838 0.3737158 1.088694
0000b0 a6 15 9a 3f 88 ff c7 bf c7 eb e7 41 23 4c 0a 3f
       1.2037857 -1.5624857 28.990126 0.54022425
0000c0 6e 08 cb 3f 37 78 f0 3e c9 59 86 bf 05 55 e7 41
       1.5861948 0.46966717 -1.049615 28.916513
0000d0 c3 38 b1 3e db b8 cc 3f e6 20 82 bf be 70 ef bf
       0.34613618 1.5993913 -1.016629 -1.8706281
0000e0 2c 0d e8 41 65 ba da 3e a0 65 19 40 20 d2 11 3e
       29.006432 0.42720333 2.3968277 0.14240313
0000f0 6c d0 ed 40 bf a5 d8 40 ca d0 11 41 05 9b e6 40
       7.431692 6.7702327 9.113474 7.2064233
000100 9d 2a cc 40 ca d1 c0 40 3d 22 d1 40 19 74 e6 40
       6.380202 6.025609 6.5354295 7.201672
000110 7f ab 72 40 6d f9 e5 40 36 50 f1 bf 6e 9d ec 41
       3.7917173 7.1866975 -1.8852603 29.57687
000120 51 e3 2e 3f 72 5f 6b bf 39 b4 2d 3f dd 88 87 bf
       0.6831561 -0.91942513 0.6785312 -1.0588642
000130 ab 39 e9 41 17 c2 2d 3f cd d3 89 3f 92 f3 c2 3f
       29.153158 0.6787428 1.0767761 1.5230582
000140 81 1e cb bf ff 9b e9 41 5a 51 67 3f 08 bf c3 3f
       -1.5868684 29.20117 0.9035851 1.5292673
000150 49 f9 26 3f 4d 23 85 bf d8 6d ea 41 d3 33 10 3f
       0.6522413 -1.0401398 29.303635 0.5632908
000160 42 21 0c 40 b8 d0 3d bf 39 c5 f8 bf 46 dd eb 41
       2.18953 -0.74146605 -1.9435188 29.483044
000170 7a 61 4a 3f 18 be 18 40 8a 2c 16 3f 34 03 f8 40
       0.7905499 2.3866024 0.5866171 7.750391
000180 7b 5f eb 40 00 12 11 41 00 5c ea 40 9a ff dc 40
       7.3554053 9.066895 7.3237305 6.9062014
000190 9d 77 c7 40 e2 55 de 40 b4 d5 ee 40 ea 4b 7d 40
       6.233351 6.9479837 7.463587 3.9577584
0001a0 b6 a4 ea 40 d3 58 e4 bf 15 65 ea 41 0b da 27 c1
       7.3326063 -1.7839607 29.299356 -10.490733
0001b0 9b d3 14 c0 01 42 4e c1 2b c7 84 bf ae d9 e7 41
       -2.3254154 -12.891114 -1.0373281 28.981289
0001c0 2b a7 27 c1 2c be 6d 3f 10 e0 40 c1 1e f5 ad bf
       -10.4783125 0.92868304 -12.054703 -1.3590429
0001d0 57 f5 e5 41 2f c6 28 c1 92 ab 49 3f 45 b4 4a c1
       28.744795 -10.548385 0.7877742 -12.669011
0001e0 14 f3 72 bf 7d 11 e8 41 ac a9 2b c1 e9 ad 6d 3f
       -0.9490216 29.00854 -10.728924 0.9284349
0001f0 e1 58 54 c1 e1 2f ea bf 7f da e7 41 19 bf 28 c1
       -13.271699 -1.8295861 28.981688 -10.546655
000200 e8 8f 07 40 6f 3c 49 c1 b4 6a 0c 41 dd 7a 01 41
       2.1181583 -12.577254 8.776051 8.092496
000210 c3 ba 41 41 2e 7e 27 41 4c 41 0e 41 0e d6 1f 41
       12.108096 10.468306 8.890942 9.989759
000220 7b 9c 09 41 62 bb 23 41 16 4e dd 40 51 7f 13 41
       8.600703 10.233248 6.915782 9.218583
000230 65 be 44 3e 30 0b 99 c1 5a d3 29 41 ca 64 26 40
       0.19213255 -19.130463 10.6140995 2.5999017
000240 eb 66 f6 40 6f 50 c0 3d 22 aa 94 c1 e2 fb 2b 41
       7.700063 0.093903415 -18.583073 10.748995
000250 37 43 05 40 40 bf e1 40 67 6d 07 3d ad d9 94 c1
       2.0822275 7.054596 0.03306332 -18.606287
000260 6a 8e 26 41 02 05 7f 40 ea c0 0b 41 d6 b5 4f 3f
       10.409769 3.9846807 8.734598 0.81136835
000270 a4 b7 96 c1 a7 bd 2b 41 fe 67 c5 3f bb 37 1d 41
       -18.839668 10.733802 1.5422361 9.826106
000280 0c 84 09 3f bb 1a 96 c1 4a 01 2c 41 2a 68 33 be
       0.5371711 -18.763052 10.750315 -0.17520204
000290 16 1e f9 40 f4 98 c3 40 fa 93 bc 40 74 71 ae 40
       7.7849226 6.112421 5.8930635 5.4513493
0002a0 20 d0 c1 40 1a 88 1d 41 65 f8 b5 40 cc 7f c6 40
       6.056656 9.845728 5.6865716 6.2031
0002b0 dc 2d ee 40 66 f6 f3 40 85 26 00 41 c0 f8 01 c0
       7.443098 7.623828 8.009404 -2.0308075
0002c0 81 33 ea 41 1a ab f3 3d a7 32 46 bf d5 c5 9b 3c
       29.275148 0.118978694 -0.7742104 0.019015232
0002d0 66 02 a8 bf 2f 2b e5 41 52 23 81 3c a8 1d 83 3f
       -1.3125732 28.646086 0.015763912 1.0243425
0002e0 eb 23 5c 3f 15 70 b4 bf 48 f8 e5 41 e4 a0 64 3e
       0.85992306 -1.4096705 28.746231 0.22327
0002f0 12 a5 d9 3f 03 e3 ca 3e 6a c7 87 bf 85 c6 e5 41
       1.70035 0.3962632 -1.0607731 28.721933
000300 ef 20 31 bd 25 22 a9 3f 74 3e b1 bf f2 53 da bf
       -0.0432443 1.3213545 -1.3847184 -1.7056868
000310 6d ea e6 41 77 4c 19 3e 8c 14 1e 40 24 66 6e 3e
       28.864466 0.14970575 2.470004 0.23281151
000320 dd 15 e6 40 18 2f d0 40 08 b6 0c 41 3d 66 dc 40
       7.190169 6.5057487 8.794441 6.8874803
000330 6e 7c cb 40 a8 98 bb 40 1a 97 cc 40 0c 8e de 40
       6.358939 5.862385 6.393445 6.9548397
000340 20 99 64 40 1b 10 dd 40 ea 60 bf 3c ae 76 95 3d
       3.571846 6.908216 0.023361642 0.07298027
000350 5c ac 09 be 53 3b 38 bb b4 12 e3 bd 69 f9 52 3d
       -0.13444656 -0.0028111532 -0.11087552 0.051507387
000360 09 03 a0 3c 4b 51 86 3d ad a6 05 be 0b 9e ac bd
       0.019532697 0.06558474 -0.13051863 -0.08428582
000370 b2 c9 12 be e1 22 ca 3d 36 27 e4 bd 42 e8 14 bc
       -0.14334753 0.09869934 -0.111402914 -0.009088578
000380 e4 30 e9 bd c7 bd 03 3e 12 6f d6 3d e4 97 55 bc
       -0.11386278 0.12865363 0.10470404 -0.013036702
000390 68 b8 a1 bd ac f6 e0 3d 37 6c 27 3e c2 2c 09 be
       -0.07896501 0.10984549 0.16349874 -0.1339598
0003a0 e2 f8 a9 3c 0e 59 d5 bd 4c 6a 3a 3d 30 a9 ca ba
       0.02074856 -0.104173765 0.04551153 -0.0015461799
0003b0 2a a2 ba bd 8e eb f6 bd d4 88 65 3d ab a9 13 be
       -0.091129616 -0.12056647 0.056038693 -0.14420192
0003c0 af b4 84 bd 9d 33 19 be e0 a2 04 be 8b 46 8b 3d
       -0.06479775 -0.14961095 -0.12952757 0.068005644
0003d0 84 2e d9 3d b7 13 02 c0 4d 4a ea 41 1f 16 48 3e
       0.10604575 -2.0324533 29.28628 0.19539689
0003e0 67 7f 61 bf 3d 92 77 3e a7 30 97 bf 87 d3 e5 41
       -0.88085026 0.24176879 -1.1811723 28.728285
0003f0 aa bb 96 bc af d5 86 3f e5 3b 5d 3f 17 15 b0 bf
       -0.018400032 1.0533961 0.86419517 -1.3756436

net.0.bias f4 [128]
000000 f5 da 5a 40 ba e2 53 40 8c 49 63 40 21 8d 97 c0
       3.419614 3.3107133 3.551364 -4.7359776
000010 71 b3 1b 41 24 9f 42 40 5f fc 41 be 9f 48 3b 40
       9.731309 3.0409632 -0.18943928 2.9263074
000020 bf 87 37 40 b1 d3 5f 40 97 06 32 40 f2 be 3f 40
       2.8676603 3.4972956 2.7816522 2.9960294
000030 81 5f 18 41 10 4a 1d 41 af 36 40 40 e1 33 3a 40
       9.523316 9.830582 3.0033376 2.9094164
000040 21 a2 39 40 1a 44 1a 41 0f 02 41 40 1d 72 1b 41
       2.9005206 9.641626 3.0157506 9.71536
000050 c3 34 6a 3c c6 44 54 40 a1 b9 19 be 89 21 a0 3f
       0.014294806 3.3166976 -0.15012218 1.2510234
000060 8c 7b 55 40 3a fe a9 c0 f6 b3 1c 41 75 0b 35 40
       3.3356657 -5.3122835 9.793936 2.8288243
000070 03 3d 3a 40 f3 1d 61 40 0a 9c 58 40 c3 f4 32 40
       2.9099739 3.517453 3.3845239 2.796189
000080 03 ca 35 40 4b ad 1e 41 cd fb 1b 41 e1 28 56 40
       2.8404548 9.917308 9.748975 3.346245
000090 f2 19 40 40 fa 03 1a 41 0c 17 36 40 7c 7e 35 40
       3.0015836 9.625971 2.8451567 2.835845
0000a0 45 17 68 40 af 26 1a 41 f9 b8 35 40 fe 6a 35 40
       3.6264203 9.634444 2.8394148 2.8346553
0000b0 2d 5d ae bd e0 ec b4 bc b4 37 bf 3f c6 6f 56 bd
       -0.085138656 -0.022085607 1.4938874 -0.05235269
0000c0 34 a3 49 40 4e 69 0f bd 44 f8 37 40 28 e6 15 be
       3.1505861 -0.035012536 2.874528 -0.14638579
0000d0 a5 02 19 41 b2 0f 31 40 6b 6c 38 40 54 42 34 40
       9.563146 2.766583 2.8816173 2.8165483
0000e0 d4 35 2e 40 35 b0 1b 41 a5 0f 43 be f2 09 5b 40
       2.7220354 9.730519 -0.19048937 3.422482
0000f0 0d 9b 2d 40 56 6e 1c 41 a9 42 69 40 1a a3 68 bd
       2.7125885 9.7769375 3.6446936 -0.05679617
000100 f7 bc 64 40 1f a5 63 40 30 54 3b 40 c3 0b 2f 40
       3.5740335 3.5569532 2.9270134 2.7350929
000110 df b8 19 41 0f ef 17 41 78 6e 34 40 c3 01 49 40
       9.607635 9.495864 2.8192425 3.1407325
000120 58 65 5d 40 36 27 35 40 9f 85 1c 41 88 6f 3c 40
       3.4593105 2.8305182 9.782622 2.9443073
000130 19 0c 18 41 89 35 37 40 0a 6c 37 40 3c 32 20 3d
       9.502954 2.8626425 2.8659692 0.039110407
000140 f1 d6 36 40 88 28 3d 40 5b b6 35 40 76 a3 31 be
       2.856869 2.9555988 2.839255 -0.17347512
000150 79 44 19 41 be a0 c1 3f 72 3c 40 40 4e 48 90 c0
       9.579217 1.512718 3.0036893 -4.5088263
000160 0f df 95 c0 2a b8 3a 40 39 84 30 40 0c c1 30 40
       -4.683479 2.9174905 2.7580702 2.7617826
000170 e6 97 37 40 11 b5 6a 40 24 9c 65 40 63 6f 58 40
       2.8686461 3.6673014 3.587655 3.3817985
000180 08 25 18 bd 4d 3d 31 40 47 93 1b 41 07 68 3d 40
       -0.03714469 2.7693665 9.723456 2.9594743
000190 50 cb 1c 41 3a 5b 47 40 df 0b 38 40 40 31 3f 40
       9.799637 3.114943 2.8757246 2.987381
0001a0 ec 99 1f 41 73 e2 31 40 71 be 2a 40 b0 92 2f 40
       9.975079 2.7794464 2.6678736 2.743328
0001b0 9d 6e 36 40 35 6c 44 40 38 60 39 40 53 c3 18 41
       2.8505013 3.0691044 2.8964977 9.547687
0001c0 18 33 3b 40 e3 61 8f c0 20 67 1c 41 23 3d 19 41
       2.9249935 -4.480699 9.775177 9.577426
0001d0 43 0d 18 41 c8 f6 68 40 02 eb 65 40 1b 97 ab 3f
       9.503238 3.6400623 3.5924687 1.3405489
0001e0 5c 84 38 40 d4 14 6b 40 a6 36 1b 41 1c 21 1d 41
       2.8830786 3.6731462 9.700842 9.820583
0001f0 e1 54 49 40 c4 a2 21 41 2d 3a 42 40 53 c4 60 40
       3.1458056 10.102238 3.0348008 3.5119827

net.2.weight f4 [128, 128]
000000 77 a2 9c 40 db 60 9a 40 c0 fb 9c 40 65 4c 4e c1
       4.894832 4.824323 4.905731 -12.893651
000010 36 91 1b 40 4f 97 2d 40 1d 31 be 3b 8e cf 2d 40
       2.430738 2.7123601 0.0058041946 2.7157931
000020 28 f9 13 40 3d 15 9d 40 99 1f 09 40 d1 a4 44 40
       2.3120823 4.9088426 2.1425536 3.0725596
000030 ad 2f 2b 40 24 d6 23 40 18 1d 06 40 aa 39 0c 40
       2.674785 2.559945 2.0955257 2.1910195
000040 1f 0c 26 40 4f 9d 2e 40 1d 8b 42 40 12 d0 15 40
       2.5944898 2.7283514 3.0397408 2.3408246
000050 65 33 9a bd 91 99 9d 40 3b ad 67 3d de 64 0c 41
       -0.07529334 4.924996 0.05656169 8.774626
000060 af df 9c 40 24 1f 57 c1 cc 0c 12 40 49 fe 19 40
       4.902305 -13.445103 2.282031 2.4061453
000070 7a 50 dd 3f cf a1 98 40 c5 5b 98 40 df ee e6 3f
       1.7290184 4.769752 4.7612023 1.8041648
000080 0f 3a d1 3f cb d5 20 40 57 73 16 40 71 7a 9e 40
       1.6345843 2.513049 2.3507898 4.9524465
000090 b6 81 50 40 ed 01 22 40 a7 b8 38 40 11 69 eb 3f
       3.257917 2.5313675 2.8862703 1.8391439
0000a0 21 85 9b 40 ee 9e 20 40 2f 62 ed 3f 4a d1 38 40
       4.860001 2.5097003 1.8545588 2.887774
0000b0 0d 22 b5 3c 2a dc 48 3d 4e 90 15 41 49 20 c2 3c
       0.022110963 0.04903809 9.347731 0.023697035
0000c0 ae 56 8c 40 e5 06 3b 3d 9a 28 2d 40 e3 40 4f 3d
       4.385581 0.045660872 2.7056031 0.05059899
0000d0 e3 b6 22 40 01 d8 2e 40 a7 4b 10 40 a3 5e cd 3f
       2.5424125 2.7319338 2.2546175 1.6044506
0000e0 af 95 0b 40 c0 db 13 40 b8 90 38 3d 9a b7 99 40
       2.181011 2.3102875 0.04505989 4.8036623
0000f0 55 0d 44 40 6b 87 20 40 dd a0 9a 40 c1 0f 42 3d
       3.0633137 2.5082653 4.8321366 0.047378305
000100 f8 d6 96 40 50 97 a0 40 dd b5 49 40 70 1b 6c 3f
       4.7137413 5.018471 3.151725 0.92229366
000110 fc 7f 18 40 5d ad 29 40 09 fb 76 40 63 5f 8b 40
       2.3828115 2.6512063 3.859072 4.355394
000120 25 eb 9c 40 37 e2 a0 3f 1d fe 1d 40 d9 41 86 40
       4.903704 1.2569035 2.4686348 4.195538
000130 bf 2f 2b 40 b1 d7 29 40 7a 12 2f 40 b9 6f b2 bd
       2.6747892 2.6537898 2.7355027 -0.08712716
000140 0f b5 26 40 26 00 b9 3f 72 dc 2a 40 af 05 58 3d
       2.604801 1.445317 2.669705 0.052739795
000150 a7 ae 25 40 a3 21 14 41 d3 74 90 40 b4 44 56 c1
       2.588785 9.258212 4.514261 -13.391773
000160 2a a2 50 c1 41 0f aa 3f 70 6e ea 3f e7 01 43 40
       -13.039591 1.3285905 1.8314953 3.046991
000170 2f 5f 1b 40 63 19 9e 40 f5 c4 9b 40 b6 5a 9c 40
       2.4276845 4.940599 4.8677926 4.886073
000180 be 73 9f bd 9a 73 03 40 b9 1e 17 40 f2 96 59 40
       -0.07785748 2.0539308 2.3612502 3.399838
000190 d5 a8 1c 40 ac 38 89 40 74 ac b5 3f 3b c5 14 40
       2.4478047 4.288168 1.4193254 2.324538
0001a0 15 c4 10 40 12 40 5b 40 fe 9f 98 3f 60 5e ed 3f
       2.261968 3.4257855 1.1923826 1.8544426
0001b0 d0 16 3f 40 b1 5e 61 40 db b8 2d 40 fe b8 20 40
       2.9857674 3.5214045 2.7144077 2.511291
0001c0 34 74 dd 3f 8f fe 4e c1 49 65 17 40 7b 76 27 40
       1.7301087 -12.937148 2.365557 2.6166065
0001d0 dd 18 21 40 c4 8a 9c 40 84 d8 98 40 47 cd 14 41
       2.5171425 4.891939 4.77643 9.300117
0001e0 ed 43 17 40 db 0a 9a 40 e7 18 1f 40 da ec 1e 40
       2.3635209 4.813825 2.485895 2.4832063
0001f0 47 7b 9b 40 6a f9 1a 40 06 9e 8c 40 bd c8 9d 40
       4.8587985 2.421473 4.39429 4.930754
000200 4d db 99 40 21 10 9a 40 a9 20 9d 40 83 57 51 c1
       4.80802 4.814469 4.910237 -13.083865
000210 06 8e 36 40 96 34 19 40 a7 e9 d6 3c 29 2a 1e 40
       2.8524184 2.3938346 0.026234461 2.4713233
000220 1e cc 0e 40 1a dd a0 40 39 2a fe 3f a2 f7 43 40
       2.2312083 5.02699 1.9856635 3.0619893
000230 c3 08 42 40 87 59 38 40 9a a7 f7 3f 4c 7e 07 40
       3.0317848 2.8804643 1.9348023 2.1170835
000240 4d 74 1d 40 2f 1b 42 40 af c4 31 40 51 7d 37 40
       2.4602234 3.0329092 2.7776296 2.8670237
000250 e1 a8 ad bd 93 50 a0 40 41 69 66 bb 25 5d 0d 41
       -0.08479477 5.0098357 -0.003515795 8.83524
000260 53 e5 9e 40 4b d4 58 c1 cf 07 2c 40 5f 6c 14 40
       4.9654937 -13.551829 2.6879766 2.3191144
000270 31 12 d8 3f 7e 91 9d 40 15 8e 9d 40 10 6c ec 3f
       1.6880552 4.9240103 4.923594 1.8470478
000280 56 b9 e0 3f 94 c6 3e 40 6f 70 33 40 5f b8 9d 40
       1.755656 2.9808702 2.8037374 4.928756
000290 a9 06 41 40 c5 ca 36 40 d6 64 33 40 88 d9 d9 3f
       3.0160315 2.856126 2.8030295 1.701951
0002a0 99 e9 9c 40 cc b4 35 40 a2 a0 eb 3f 55 09 2f 40
       4.9035153 2.83916 1.8408396 2.7349446
0002b0 99 77 1e 3b 91 e9 e7 3c bb df 13 41 8d c8 21 3d
       0.0024180172 0.028309615 9.242122 0.0394979
0002c0 a3 72 8a 40 ba 9a 11 bd d4 f6 26 40 15 bb 13 3c
       4.3264937 -0.03554795 2.6088152 0.009016772
0002d0 07 cb 39 40 dd a1 24 40 e0 ca fd 3f 95 35 da 3f
       2.9030168 2.5723794 1.9827538 1.7047602
0002e0 5f 68 07 40 8a 2d 2b 40 f8 92 95 bd 37 b6 9f 40
       2.1157453 2.6746545 -0.07303423 4.990993
0002f0 d7 b6 35 40 f5 02 3b 40 66 ae 9a 40 00 3b 28 bd
       2.8392847 2.9220555 4.833789 -0.04107189
000300 2b 95 9a 40 eb 3d a2 40 40 b6 38 40 cc 9b 74 3f
       4.830709 5.0700583 2.8861237 0.9555023
000310 1e 0e 2d 40 b8 6e 42 40 ec a3 80 40 29 bc 85 40
       2.7039866 3.0380077 4.02001 4.179219
000320 75 13 9f 40 ea 36 7c 3f 77 32 3f 40 7c 80 83 40
       4.971125 0.9852129 2.9874551 4.109434
000330 50 ba 3f 40 a2 7e 1a 40 1a 91 1b 40 33 06 c8 3c
       2.9957466 2.413979 2.4307313 0.024417019
000340 39 cc 21 40 31 d2 c2 3f 96 95 22 40 3f bc e7 3c
       2.5280898 1.5220395 2.54038 0.028288005
000350 36 6a 3c 40 57 c5 11 41 94 b5 90 40 00 e5 56 c1
       2.9439826 9.110679 4.5221653 -13.430908
000360 9a c0 52 c1 10 c1 aa 3f 94 af f4 3f 10 a5 31 40
       -13.172022 1.3340168 1.9116082 2.7756996
000370 73 db 14 40 7e 46 9f 40 e6 7b 9c 40 ac 08 9f 40
       2.325894 4.977355 4.8901243 4.9698086
000380 e9 c0 02 3d 13 e7 03 40 93 38 2d 40 3b 02 48 40
       0.031922255 2.0609787 2.706578 3.1251361
000390 5f 60 36 40 88 ef 86 40 87 13 ac 3f c5 be 0f 40
       2.849632 4.2167397 1.3443459 2.2460186
0003a0 93 b5 2b 40 d2 21 4f 40 31 50 8f 3f ca 9a da 3f
       2.6829574 3.2364392 1.1196347 1.7078488
0003b0 ac 59 41 40 d5 33 64 40 0d 7a 21 40 ad a4 3b 40
       3.0210981 3.5656636 2.5230744 2.931926
0003c0 cb c7 e9 3f 61 59 50 c1 52 15 32 40 eb 24 40 40
       1.8264097 -13.021821 2.7825513 3.0022533
0003d0 7f 09 35 40 99 50 a4 40 8c 85 9e 40 8b 97 12 41
       2.8287046 5.1348386 4.953802 9.161998
0003e0 ce 74 0d 40 eb ad 9e 40 1e 1f 3e 40 64 08 3f 40
       2.2102542 4.95873 2.9706492 2.9848871
0003f0 5e f2 99 40 80 8b 30 40 b5 bb 90 40 1b 93 a0 40
       4.810836 2.7585144 4.5229135 5.017957

net.2.bias f4 [128]
000000 50 6b 4a bf 71 79 a6 be fc 84 09 c1 32 55 00 bf
       -0.79069996 -0.32514527 -8.594967 -0.5013
000010 f7 09 3b 3d 67 6c 31 40 86 9f 97 bc b6 c1 88 40
       0.0456638 2.7722414 -0.018508684 4.2736464
000020 d0 7b 88 40 0d 81 b2 bd 5f 9a 04 41 61 8a a7 bf
       4.265114 -0.08716021 8.287688 -1.3089105
000030 99 7d b1 bd 50 7d 38 bf c1 51 88 40 ea f5 a2 3c
       -0.08666534 -0.7206621 4.2599797 0.019892652
000040 8a 8e 88 40 2b 37 25 bf 87 58 1d bf 5d 03 f8 be
       4.2674 -0.64537305 -0.61463207 -0.48440066
000050 23 12 d4 bc 89 f2 8b 40 c5 8d e8 3c 97 93 cc c0
       -0.025887555 4.3733563 0.028387913 -6.3930163
000060 07 d6 fb c0 11 8c 07 c1 6a 54 aa bd f5 c0 84 40
       -7.8698764 -8.471696 -0.08316882 4.1485543
000070 b5 a7 87 40 d3 9d c8 3f d3 ff 8a 40 62 0e a7 bd
       4.239222 1.5673164 4.3437285 -0.0815704
000080 b4 43 08 bd 58 66 25 bd 9b 64 88 40 fc 66 7c bf
       -0.03326769 -0.040380806 4.262281 -0.9859464
000090 56 a2 80 3d a9 cd 35 40 09 92 86 40 6b 2f 08 41
       0.06280963 2.8406775 4.2053266 8.511577
0000a0 68 ca 26 40 6d 47 a1 bb 7c e4 63 bd 5f 04 ac bc
       2.606104 -0.0049218447 -0.05563782 -0.020998178
0000b0 03 f8 8d 40 06 b3 8b 40 05 3a 8b 3d 1a ff b4 bf
       4.436525 4.3656034 0.06798176 -1.4140351
0000c0 6a 29 cb c0 d7 6f f6 3c b5 74 da be 21 4c 52 bf
       -6.3488054 0.030082626 -0.42667165 -0.82147413
0000d0 4d 22 a0 bd 7b bc 26 bf d7 ab 8a 40 b4 a4 75 bc
       -0.07819042 -0.6513135 4.3334765 -0.014992882
0000e0 b1 c5 02 bd 6e 1c 8a 40 b2 5a 1e bf 91 d5 09 c1
       -0.031926814 4.3159704 -0.6185714 -8.61464
0000f0 dd 27 93 3c 94 c2 a8 c0 5c 48 a6 be a4 1d c9 be
       0.017963344 -5.273752 -0.3247708 -0.39280427
000100 6e 76 ef c0 36 37 f9 bc 73 4e 85 40 25 c8 88 40
       -7.4832067 -0.030421834 4.1658263 4.2744317
000110 1c 7d 30 40 5f 3a 2d 40 34 9a a6 bd ef 05 85 40
       2.757636 2.7066877 -0.08134881 4.1569743
000120 da ae 80 3c 45 e0 38 be 71 2f 8c 40 7f b3 02 c1
       0.015708376 -0.18054302 4.380791 -8.168822
000130 d9 13 87 40 20 7d 82 40 58 7d 47 c0 7b 21 c9 3f
       4.221173 4.077774 -3.1170254 1.5713342
000140 6c ef 22 bf f8 1a 05 bd e7 5c 83 40 9f 7d 25 bf
       -0.6364658 -0.032496423 4.1050906 -0.6464481
000150 a5 67 94 3d c8 d8 09 bd ec b7 c0 3c 28 ee 2e 40
       0.07246331 -0.033654004 0.0235252 2.733286
000160 b7 fc 89 40 b2 7c 24 bd 48 a6 e5 c0 40 4a 95 c0
       4.312099 -0.04015798 -7.176548 -4.6653137
000170 2f f5 88 38 9e 11 01 3f 06 ba 61 bd 3e 39 8b 40
       6.530654e-05 0.50417507 -0.055109046 4.3507376
000180 a7 ec de c0 af fc 69 3c ae e0 88 40 f7 7d c3 bd
       -6.966388 0.014281436 4.2774267 -0.0954551
000190 eb 38 a6 bd ac ee 08 c1 b4 9c 38 c0 cb a8 f3 40
       -0.08116325 -8.5582695 -2.8845644 7.6143546
0001a0 c3 57 ed bc 41 dc c4 c0 96 1e 04 3d 70 f5 f0 c0
       -0.028972512 -6.1518865 0.03225573 -7.5299606
0001b0 2f 8f 0f 40 33 a6 1f 3c 91 dd 33 40 d3 f7 86 40
       2.2431142 0.009744215 2.8103983 4.217752
0001c0 9e bc 0e bf ba 06 6e bd ee ab 0e bf 0d 67 29 3d
       -0.55756557 -0.058111884 -0.55731094 0.041358043
0001d0 bb d1 06 c1 c0 4b a7 c0 6e 70 74 3c b3 42 45 bf
       -8.426204 -5.227997 0.014919383 -0.770549
0001e0 5e 8f b0 c0 a2 60 cb c0 17 fe 04 c1 82 83 9c bd
       -5.517501 -6.355546 -8.312034 -0.076422706
0001f0 2b 43 88 40 a7 8d c6 bd 9a 7f 0e bf 9c 7d 34 40
       4.258199 -0.09694987 -0.55663455 2.8201666

net.4.weight f4 [20, 128]
000000 aa b7 85 bf 17 a4 52 bf d8 ee ea 40 e7 32 5d bf
       -1.0446675 -0.8228163 7.3416557 -0.86405796
000010 d8 01 8d bc 40 ca 98 40 15 85 7a 3d 25 64 80 40
       -0.017212793 4.7746887 0.061162073 4.0122247
000020 44 31 93 40 78 f0 0c bd d5 be 28 40 b3 47 8e bf
       4.599764 -0.034409016 2.6366475 -1.1115631
000030 37 53 f0 3c 23 8b 82 bf b3 68 8e 40 2a 2a 6b bc
       0.029336555 -1.0198711 4.4502807 -0.014353314
000040 c5 fa 86 40 e7 d0 34 bf b8 27 52 bf c6 e7 4a bf
       4.2181115 -0.7063126 -0.82091856 -0.7925991
000050 3f c8 40 bd 6b bc 83 40 e2 5a 8a bd ed 28 de 40
       -0.04706597 4.1167502 -0.06755616 6.942496
000060 f1 c8 e7 40 60 b8 e5 40 23 8e 1e 3c e5 1c 8a 40
       7.243279 7.1787567 0.009677443 4.316027
000070 57 4e 94 40 d9 bc 95 40 b9 c4 8b 40 8f 66 fb 3b
       4.634563 4.6793027 4.367764 0.007672138
000080 7d 00 3d 3a ba b0 49 3d 04 39 87 40 01 64 89 bf
       0.00072098506 0.049240805 4.22571 -1.0733644
000090 a0 66 8d bd f7 59 96 40 40 99 8d 40 75 77 30 40
       -0.0690434 4.698482 4.4249573 2.757291
0000a0 e4 54 93 40 3c 69 16 bc 23 eb 1b 3d 0c 61 42 bb
       4.6041126 -0.009180363 0.03806604 -0.0029659895
0000b0 c8 f6 8f 40 59 87 89 40 b3 23 93 bd cb b0 9c 40
       4.4988747 4.297772 -0.071845435 4.896581
0000c0 54 1e e2 40 98 b7 ad 3d a3 f7 4f bf 7d e4 66 bf
       7.066202 0.08482283 -0.8123724 -0.90192395
0000d0 97 2e 34 bf 34 5e 6a bf e2 be 87 40 81 3b 97 3d
       -0.7038359 -0.9154999 4.242051 0.07384396
0000e0 f7 53 ac bc ff 49 91 40 7c 38 2e bf 5a a3 e9 40
       -0.021036131 4.5402827 -0.6805494 7.3011904
0000f0 9c 29 65 3d e3 1d d2 40 ba 63 48 bf 24 f6 2b bf
       0.055947885 6.5661483 -0.7827717 -0.67172456
000100 a3 f0 e3 40 83 be 03 bd 70 d7 89 40 7a 5a 87 40
       7.1231246 -0.032164108 4.3075485 4.2297945
000110 c7 0f 97 40 59 aa 97 40 2d 74 2f 3d 64 8c 80 40
       4.720676 4.7395444 0.042835403 4.0171375
000120 46 92 2f bd 35 ff 3d bf aa 15 8a 40 01 fa e7 40
       -0.042864107 -0.7421754 4.3151445 7.249268
000130 46 5a 8e 40 26 c4 6c 40 62 0e b9 40 28 b2 91 40
       4.4485197 3.699472 5.7830057 4.5529976
000140 d1 65 7a bf 2d ee 82 bb 4d 85 8d 40 50 72 5e bf
       -0.9781161 -0.003995678 4.422522 -0.8689318
000150 05 05 8c bb f9 6f a4 3d 9c 32 a9 3d 36 70 91 40
       -0.0042730593 0.080291696 0.08261606 4.5449476
000160 07 a1 8d 40 85 38 1e 3d dd de e4 40 c8 94 cd 40
       4.4259067 0.03862812 7.152205 6.424412
000170 60 e0 ac 3d eb 85 8f 40 5c 9a 5f 3d 34 ce 8c 40
       0.08441234 4.4850974 0.054590568 4.4001713
000180 2a 3f e0 40 bf 5d 49 bd f6 45 8a 40 e2 24 97 bc
       7.0077105 -0.04916167 4.32104 -0.018450204
000190 2c ea 8c 3d 5e 51 e7 40 f5 e6 b4 40 0c 82 f6 3f
       0.06880602 7.2286825 5.653193 1.9258437
0001a0 be 7a 4b bc b9 e7 de 40 d6 be 89 3c fa cd e4 40
       -0.012419401 6.9657865 0.01681463 7.1501436
0001b0 c4 e2 93 40 92 41 d9 3c 00 70 95 40 86 e4 84 40
       4.6214314 0.026520524 4.669922 4.152896
0001c0 69 35 65 bf b9 a5 97 bd c4 77 71 bf b4 42 bf bc
       -0.8953462 -0.07404656 -0.9432337 -0.023347236
0001d0 57 51 e7 40 ab c5 d3 40 27 96 1d 3d 08 e8 60 bf
       7.228679 6.6178794 0.038473275 -0.8785405
0001e0 fc 36 db 40 cd d7 dc 40 2e a2 eb 40 f9 6a 11 bd
       6.850462 6.901343 7.3635473 -0.035502408
0001f0 f3 b5 84 40 1c 00 a3 3d 3e 1b 73 bf 5e 99 97 40
       4.1472106 0.07959005 -0.94963443 4.7374716
000200 30 94 8c be 4a 35 a5 bd 4a 15 d0 40 10 45 ad be
       -0.27456808 -0.08066805 6.502599 -0.33841753
000210 4b f0 86 bd eb 36 88 40 97 6b b4 bc 9e 90 7a 40
       -0.06588801 4.256704 -0.02202396 3.9150767
000220 7e 79 86 40 f9 75 6d 3d 1d cb 9c 3f a5 97 12 bf
       4.2023306 0.057973836 1.2249485 -0.5726264
000230 e7 35 bc bc 2d d4 8b be eb 40 83 40 90 45 f3 3b
       -0.022974921 -0.27310315 4.1016746 0.007424064
000240 0d fe 7e 40 ea f0 a3 bd 83 f9 21 be 6c 99 2f be
       3.984256 -0.08004935 -0.15817837 -0.1714837
000250 e0 a7 9b 3d 06 56 7d 40 bc 3f 1f 3d 2c 5f d2 40
       0.07600379 3.9583755 0.03887914 6.5741177
000260 49 b4 ce 40 8e 41 cd 40 2e b5 a9 3d da 10 80 40
       6.4595075 6.4142523 0.082865104 4.002057
000270 76 ba 87 40 90 bb 87 40 90 32 84 40 d1 8e aa 3d
       4.2415113 4.241646 4.131172 0.08328021
000280 27 cb 34 3d 14 83 0d bd 01 c6 81 40 e2 b6 ca be
       0.044139054 -0.034548834 4.0554204 -0.39592654
000290 d6 a4 54 bd e9 bd 86 40 c7 da 82 40 67 3c bb 3f
       -0.051915012 4.2106824 4.089206 1.4627808
0002a0 b6 ac 87 40 a3 33 21 3c f4 63 25 3d 72 9d 0c bd
       4.239833 0.009838971 0.040378526 -0.03432984
0002b0 f5 bd 85 40 47 1b 82 40 0d 55 8a bd 34 46 ad 40
       4.179438 4.0658298 -0.067545034 5.4148197
0002c0 49 42 d4 40 02 ff e2 3b 0d 84 01 be ac af 54 be
       6.6330914 0.006927372 -0.1264803 -0.20770139
0002d0 bb 32 43 be f7 be ae be 7d 2f 85 40 99 95 96 bd
       -0.19062321 -0.3413007 4.162047 -0.07352752
0002e0 35 95 f6 3c 56 10 88 40 09 7f db bd d8 02 d0 40
       0.030100444 4.251994 -0.107175894 6.500347
0002f0 3e 56 2d 3d a0 34 d2 40 76 6e df bd 27 dc b8 bd
       0.042318575 6.568924 -0.109097406 -0.09026366
000300 9e f8 d0 40 0b 64 ae 3d c0 be 82 40 fe 50 80 40
       6.530349 0.085151754 4.085785 4.0098867
000310 7d ce 85 40 78 aa 86 40 ea ed df bb 2e 50 71 40
       4.181456 4.208309 -0.0068337815 3.7705188
000320 d7 b9 a6 bc 18 d2 a1 bd 06 3a 84 40 ba 64 cd 40
       -0.020352287 -0.079014 4.132083 6.4185457
000330 ee 6b 84 40 1b ae 66 40 57 c6 c6 40 05 cf 87 40
       4.138175 3.6043766 6.2117114 4.244021
000340 86 14 be be 20 47 6d bc de 35 85 40 d8 19 a1 be
       -0.37125033 -0.01448229 4.1628256 -0.3146503
000350 48 42 2f bd 4a c0 70 bd e7 f1 5a 3d f4 cd 83 40
       -0.04278782 -0.05877713 0.053453352 4.118891
000360 56 ba 85 40 03 21 3e bd 90 78 d3 40 14 4d d1 40
       4.178996 -0.0464182 6.608467 6.540659
000370 b3 10 21 3d b6 0c 90 40 e4 7d 2c 3d f1 b4 82 40
       0.039322566 4.5015516 0.042112246 4.0845876
000380 fa b7 d1 40 7e e6 89 3d 42 07 81 40 5e 5e a8 bd
       6.553708 0.06733416 4.032136 -0.08221124
000390 05 b0 77 bd 69 54 ce 40 a6 58 c4 40 d5 97 cb 3f
       -0.0604706 6.447804 6.1358213 1.590571
0003a0 95 ac 9e bd 68 f8 d5 40 e1 a3 87 3d 8f 5a d0 40
       -0.07747761 6.686573 0.06623054 6.5110545
0003b0 9a b1 84 40 ed 31 51 3d c9 a5 86 40 46 c5 7d 40
       4.14668 0.051073004 4.2077374 3.9651656
0003c0 5e aa 09 be a5 8b 50 3d 98 69 92 be 6f d6 3d 3d
       -0.13443896 0.050914425 -0.28596187 0.046347078
0003d0 6d ff cd 40 30 cc d3 40 b3 20 a5 3d fe b8 64 be
       6.43743 6.618675 0.080628775 -0.22336194
0003e0 34 c4 d1 40 b6 ac d5 40 d6 9b cc 40 8d 2e d8 bc
       6.5552006 6.677333 6.394023 -0.026389385
0003f0 77 1d 7c 40 f6 1c 99 bd 78 8b 6a be 7c 60 85 40
       3.9392984 -0.07476227 -0.22904766 4.168028

net.4.bias f4 [20]
000000 71 e1 1b 40 3b f8 19 40 5f 29 0b 40 3a 79 0f 40
       2.4356349 2.4057758 2.1744 2.241774
000010 5e 90 be 3f 0d 1d b6 3f cc 95 fa 3f 64 3c 00 40
       1.4887807 1.4227616 1.9576964 2.003686
000020 df 29 3e 3e 71 7e 1b 40 73 ae 69 3e 8f aa c7 3e
       0.1857066 2.4295924 0.22820453 0.38997313
000030 5e 6a 56 3f 56 3c 99 3e a1 42 65 3f ce fe ce be
       0.83756053 0.29928845 0.8955479 -0.40428776
000040 17 1a 00 3f 11 fc 27 3d a4 5b 47 3f 99 ba 88 bc
       0.5003981 0.041011874 0.7787421 -0.01669054
