realtime_model_ep168.pth (torch, 97610 bytes, 6 tensors)

net.0.weight f4 [128, 35]
000000 4a 06 0f c0 dc 32 f2 41 50 0b 38 be 94 0e 42 bf
       -2.2347589 30.274834 -0.17973065 -0.75803494
000010 56 1c f1 3a 36 a4 b8 bf fb 07 e8 41 78 5e 22 be
       0.0018395286 -1.4425113 29.003897 -0.1585635
000020 98 c3 7e 3f fc 92 1f 3f 4d ba ef bf 14 28 ea 41
       0.995172 0.62333655 -1.872873 29.26957
000030 d1 3f 40 be 9e 2b f2 3f 04 48 a3 3c 86 fc 94 bf
       -0.18774344 1.8919561 0.0199318 -1.1639564
000040 48 54 ea 41 77 c3 ca be 18 75 92 3f 2b db 62 bf
       29.291153 -0.39602253 1.1441984 -0.88615674
000050 a7 e1 03 c0 d1 42 eb 41 4b 12 6a be 07 ff 19 40
       -2.0606477 29.407625 -0.2285854 2.4061906
000060 bb d0 67 be 07 3a e2 40 7c 68 d4 40 be 4f 0e 41
       -0.22638218 7.0695834 6.6377544 8.894468
000070 d7 c4 e1 40 5a f0 ce 40 e5 29 bd 40 48 69 cb 40
       7.0552783 6.46684 5.911364 6.3566017
000080 dd f6 df 40 f8 c7 72 40 c2 53 dc 40 1e a5 0c c0
       6.9988847 3.7934551 6.8852243 -2.197578
000090 c9 81 f2 41 73 a7 e0 bc 53 97 18 bf be 2c 0c 3d
       30.313372 -0.027423596 -0.596059 0.034222357
0000a0 b0 19 9a bf 2a 63 e9 41 87 ab d8 be 31 7f 6f 3f
       -1.2039089 29.17342 -0.42318365 0.93553454
0000b0 75 b7 28 3f 45 30 d9 bf 8e b2 ea 41 80 6d 70 be
       0.65904933 -1.6967856 29.337185 -0.23479271
0000c0 13 da f5 3f f8 23 ea 3d 98 03 96 bf 70 fd e9 41
       1.9207176 0.11432642 -1.1719847 29.248749
0000d0 be 5b df be 10 b5 92 3f 98 d3 30 bf 2e 58 fd bf
       -0.4362468 1.1461506 -0.69072866 -1.9792535
0000e0 20 4c ea 41 87 db be be 6c c6 16 40 15 6a 0c bf
       29.28717 -0.3727686 2.3558607 -0.5484937
0000f0 90 ae e5 40 95 89 d2 40 1b b5 0e 41 ff f9 df 40
       7.177559 6.5792947 8.919215 6.999267
000100 0e c5 c5 40 81 d6 ba 40 79 bb c9 40 7a c0 df 40
       6.1803045 5.8386846 6.304135 6.9922457
000110 3d 41 67 40 ab f0 df 40 00 88 08 c0 32 60 f3 41
       3.6133568 6.9981284 -2.1333008 30.42197
000120 61 4e 1e 3d a5 71 5d bf 78 52 b9 3e 14 e1 96 bf
       0.038648967 -0.8650153 0.3619573 -1.1787438
000130 6f 92 eb 41 70 c2 f0 bd a4 bb 6c 3f d7 c1 78 3f
       29.4465 -0.11755836 0.92473817 0.97170776
000140 58 5b dc bf 64 6e ec 41 98 e7 03 3e a0 84 ee 3f
       -1.7215376 29.553902 0.12881315 1.8634224
000150 80 2b 96 3e d8 d8 94 bf 48 22 ed 41 ee f5 5f be
       0.29330063 -1.1628675 29.641739 -0.21871158
000160 0b 05 de 3f c0 88 d6 be 01 5b 03 c0 5f 28 ee 41
       1.7345289 -0.41901207 -2.0524294 29.769712
000170 5c 7c 12 bc 2b 49 16 40 7d 4d e2 bd 05 d7 ef 40
       -0.008940782 2.3482158 -0.11049936 7.4949975
000180 39 3c e5 40 b1 f1 0d 41 30 b0 e3 40 91 92 d6 40
       7.1636014 8.871507 7.1152573 6.7053914
000190 d6 72 c1 40 9a e5 d6 40 13 1a e8 40 92 d8 71 40
       6.045268 6.7155275 7.253183 3.7788434
0001a0 b0 94 e4 40 73 7b 01 c0 2d 96 f0 41 86 70 25 c1
       7.1431503 -2.0231597 30.073328 -10.339972
0001b0 7e 4c 07 c0 3b 97 4f c1 2e 60 93 bf 55 79 e9 41
       -2.1140437 -12.9744215 -1.1513727 29.184244
0001c0 e2 5d 2a c1 08 b0 65 3f 0b 5f 42 c1 fd 69 be bf
       -10.647921 0.8972173 -12.148204 -1.4876095
0001d0 8e 14 e8 41 c9 bd 2a c1 fc fa 95 3f f1 68 4b c1
       29.010036 -10.671334 1.1717219 -12.71312
0001e0 8e 69 88 bf c6 0a ea 41 ce bc 2d c1 5a b6 41 3f
       -1.0657213 29.25526 -10.858595 0.7566887
0001f0 f1 9a 4a c1 3a 87 f7 bf 55 6f e9 41 1b 69 2b c1
       -12.6628275 -1.9338143 29.179361 -10.7131605
000200 93 1a 07 40 99 c5 4b c1 e1 cb 09 41 ac 59 ff 40
       2.110997 -12.735742 8.612275 7.9796963
000210 ff f9 3f 41 b7 d6 25 41 3b 55 0c 41 bf 52 1e 41
       11.998534 10.364921 8.770808 9.895202
000220 ee 68 07 41 e5 c5 21 41 64 e2 d9 40 21 c3 11 41
       8.463118 10.110814 6.8088856 9.110139
000230 df 77 de 3e d0 81 9e c1 aa 53 2c 41 6d 92 1b 40
       0.4345083 -19.813385 10.770426 2.4308121
000240 57 ad fb 40 c4 0a 58 3e fe 96 95 c1 a1 fd 32 41
       7.8649096 0.21097857 -18.698727 11.186921
000250 ea 1b 0c 40 d0 a7 e9 40 07 24 29 3e 41 57 96 c1
       2.1892037 7.301735 0.1651765 -18.792604
000260 78 ed 2c 41 1c d8 66 40 79 3d 0e 41 fa ab 6e 3f
       10.807976 3.6069403 8.890008 0.93231165
000270 8a 19 98 c1 2c 40 32 41 b4 34 e8 3f b1 33 15 41
       -19.01247 11.140667 1.8141084 9.32512
000280 aa 11 25 3f 8d 0b 97 c1 29 09 33 41 bc c9 23 be
       0.6448008 -18.88064 11.189736 -0.15994924
000290 97 e1 01 41 d3 11 ca 40 47 67 c1 40 e5 3a b3 40
       8.117576 6.314676 6.043857 5.6009393
0002a0 b8 99 c6 40 f1 27 20 41 49 6a ba 40 27 36 cc 40
       6.2062645 10.009751 5.8254743 6.3816104
0002b0 ab 71 f3 40 d6 92 f8 40 ff 8a 02 41 0c b0 11 c0
       7.6076255 7.7679243 8.158935 -2.27637
0002c0 d1 cc f0 41 60 d0 01 bf 1e 2a 36 bf 4e c7 90 be
       30.100008 -0.5070858 -0.71158016 -0.28277057
0002d0 bd 21 b7 bf 1f 4d e7 41 95 48 45 bf 52 7d 5f 3f
       -1.4307171 28.912657 -0.77063876 0.873006
0002e0 8e 15 ac 3e 8e 70 c5 bf 7e 95 e8 41 cc 58 0a bf
       0.33610195 -1.5424974 29.072994 -0.54041743
0002f0 00 5f 02 40 7c 02 66 3d 1f 42 97 bf e4 43 e8 41
       2.0370483 0.056154713 -1.1817054 29.03315
000300 fc 81 50 bf da 89 5f 3f d0 5a 85 bf 53 15 e8 bf
       -0.8144834 0.8731972 -1.0418339 -1.8131508
000310 69 ff e8 41 0b ca 23 bf 03 ba 1b 40 bc a9 de be
       29.124712 -0.6398017 2.4332283 -0.43488872
000320 b5 0f de 40 34 2a ca 40 43 a7 09 41 d3 e7 d5 40
       6.9394174 6.3176517 8.603335 6.684549
000330 53 31 c5 40 30 bd b5 40 3a 51 c5 40 52 f8 d7 40
       6.162271 5.679344 6.1661654 6.7490625
000340 c2 59 59 40 e2 20 d7 40 ea 60 bf 3c ae 76 95 3d
       3.3961034 6.722764 0.023361642 0.07298027
000350 5c ac 09 be 53 3b 38 bb b4 12 e3 bd 69 f9 52 3d
       -0.13444656 -0.0028111532 -0.11087552 0.051507387
000360 09 03 a0 3c 4b 51 86 3d ad a6 05 be 0b 9e ac bd
       0.019532697 0.06558474 -0.13051863 -0.08428582
000370 b2 c9 12 be e1 22 ca 3d 36 27 e4 bd 42 e8 14 bc
       -0.14334753 0.09869934 -0.111402914 -0.009088578
000380 e4 30 e9 bd c7 bd 03 3e 12 6f d6 3d e4 97 55 bc
       -0.11386278 0.12865363 0.10470404 -0.013036702
000390 68 b8 a1 bd ac f6 e0 3d 37 6c 27 3e c2 2c 09 be
       -0.07896501 0.10984549 0.16349874 -0.1339598
0003a0 e2 f8 a9 3c 0e 59 d5 bd 4c 6a 3a 3d 30 a9 ca ba
       0.02074856 -0.104173765 0.04551153 -0.0015461799
0003b0 2a a2 ba bd 8e eb f6 bd d4 88 65 3d ab a9 13 be
       -0.091129616 -0.12056647 0.056038693 -0.14420192
0003c0 af b4 84 bd 9d 33 19 be e0 a2 04 be 8b 46 8b 3d
       -0.06479775 -0.14961095 -0.12952757 0.068005644
0003d0 84 2e d9 3d 69 cb 11 c0 12 e4 f0 41 5b 99 dc be
       0.10604575 -2.2780402 30.111362 -0.4308575
0003e0 4a 7d 51 bf 94 40 76 bd bc 50 a6 bf 13 f6 e7 41
       -0.818318 -0.06012018 -1.2993388 28.995153
0003f0 43 0f 4e bf d4 e9 66 3f b6 2d ae 3e 57 16 c1 bf
       -0.8049204 0.90200543 0.3401925 -1.5084943

net.0.bias f4 [128]
000000 7b c5 4b 40 a0 d3 44 40 67 1e 54 40 8f b6 9a c0
       3.1839283 3.0754166 3.3143556 -4.834785
000010 fe 24 1e 41 c7 fe 33 40 5f fc 41 be 61 a7 2c 40
       9.884031 2.8124254 -0.18943928 2.697716
000020 ab ed 28 40 cb ae 50 40 a5 7f 23 40 58 09 31 40
       2.639506 3.2606685 2.5546658 2.7661953
000030 6d d2 1a 41 e4 b9 1f 41 38 b1 31 40 10 a4 2b 40
       9.6763735 9.982883 2.7764416 2.6818886
000040 eb 01 2b 40 f1 b8 1c 41 c7 50 32 40 2d df 1d 41
       2.671992 9.795152 2.7861803 9.866986
000050 c3 34 6a 3c 45 27 45 40 a1 b9 19 be a6 48 b7 3f
       0.014294806 3.0805218 -0.15012218 1.4319046
000060 dd 5f 46 40 7c 47 ad c0 4f 22 1f 41 43 73 26 40
       3.099601 -5.414976 9.945876 2.600785
000070 4f c0 2b 40 55 f8 51 40 b6 5e 49 40 ec 73 24 40
       2.6836126 3.280782 3.1464057 2.5695753
000080 e5 4c 27 40 00 1c 21 41 b9 67 1e 41 b5 fd 46 40
       2.6140683 10.069336 9.900323 3.109235
000090 38 5b 31 40 43 74 1c 41 db 68 27 40 36 02 27 40
       2.7711926 9.778384 2.6157749 2.60951
0000a0 b3 e6 58 40 5f 98 1c 41 81 35 27 40 5e c5 26 40
       3.3890808 9.7872 2.6126406 2.6057963
0000b0 2d 5d ae bd e0 ec b4 bc 39 d8 d8 3f 34 c3 66 bd
       -0.085138656 -0.022085607 1.6940986 -0.056338504
0000c0 ff ad 3a 40 4e 69 0f bd 59 56 29 40 06 4d 1c be
       2.9168699 -0.035012536 2.6458952 -0.15263757
0000d0 21 73 1b 41 cf 6d 22 40 2c e0 29 40 a5 c7 25 40
       9.715608 2.5379522 2.6543074 2.5903103
0000e0 26 ab 1f 40 cc 18 1e 41 a5 0f 43 be 6b d0 4b 40
       2.494821 9.881054 -0.19048937 3.1845958
0000f0 02 e9 1e 40 f5 df 1e 41 02 0e 5a 40 1a a3 68 bd
       2.4829717 9.929677 3.407105 -0.05679617
000100 b6 89 55 40 9c 71 54 40 eb 9f 2c 40 25 ad 20 40
       3.3365302 3.3194342 2.6972606 2.510568
000110 5c 2b 1c 41 8e 5e 1a 41 a0 9d 25 40 3c 0f 3a 40
       9.760586 9.648085 2.5877457 2.9071798
000120 78 40 4e 40 f3 ce 26 40 e7 f1 1e 41 86 82 2d 40
       3.2226849 2.6063812 9.934058 2.7110915
000130 15 81 1a 41 84 99 28 40 df c9 28 40 3c 32 20 3d
       9.656514 2.6343699 2.6373212 0.039110407
000140 03 38 28 40 cf b3 2e 40 0c 12 27 40 12 30 34 be
       2.6284187 2.7297246 2.6104765 -0.17596462
000150 77 b2 1b 41 38 4f db 3f 43 3f 31 40 42 6f 93 c0
       9.7310705 1.7133551 2.7694862 -4.6073313
000160 1e 0c 99 c0 40 49 2c 40 be fe 21 40 7f 13 22 40
       -4.782729 2.6919708 2.5311732 2.53244
000170 f0 f9 28 40 fe 7c 5b 40 78 75 56 40 12 3d 49 40
       2.640255 3.429504 3.3509197 3.1443524
000180 08 25 18 bd 09 ae 22 40 1f 02 1e 41 d6 a7 2e 40
       -0.03714469 2.5418723 9.875518 2.728994
000190 be 3b 1f 41 10 67 38 40 af 9c 29 40 a3 9e 30 40
       9.9520855 2.8812904 2.6501882 2.7596824
0001a0 39 08 22 41 90 1f 23 40 6c 58 1c 40 e6 1f 21 40
       10.1270075 2.5488014 2.4428968 2.517572
0001b0 76 b5 27 40 2c 9f 35 40 e6 bc 2a 40 84 32 1b 41
       2.6204505 2.83784 2.6677794 9.699833
0001c0 fe b7 2c 40 d0 86 92 c0 f3 d5 1e 41 23 b2 1b 41
       2.69873 -4.5789566 9.927234 9.73099
0001d0 0a 7d 1a 41 e9 ae 59 40 74 b9 56 40 8a 3b c5 3f
       9.655527 3.4013007 3.3550692 1.5408795
0001e0 c2 ed 29 40 ac e0 5b 40 62 a3 1d 41 e5 90 1f 41
       2.6551366 3.435588 9.852388 9.972875
0001f0 59 3c 3a 40 9c 0e 24 41 47 3d 33 40 32 a2 51 40
       2.9099333 10.253567 2.800615 3.2755246

net.2.weight f4 [128, 128]
000000 e0 f6 a0 40 46 af 9e 40 1f 43 a1 40 3f 6e 4b c1
       5.030136 4.9588957 5.0394435 -12.714416
000010 69 d7 20 40 96 56 36 40 1d 31 be 3b c2 7b 36 40
       2.5131476 2.8490348 0.0058041946 2.8513036
000020 44 a3 1c 40 8e 62 a1 40 35 d8 11 40 9b 6c 4d 40
       2.447465 5.0432806 2.2788212 3.2097538
000030 df 73 30 40 1b 1a 29 40 a3 d2 0e 40 a3 ed 14 40
       2.7570722 2.6422184 2.2316062 2.3270042
000040 dc c8 2e 40 ea 01 34 40 a5 3e 4b 40 eb 13 1b 40
       2.7310095 2.8126168 3.1756985 2.4230907
000050 65 33 9a bd 9a e8 a1 40 3b ad 67 3d af 72 0e 41
       -0.07529334 5.0596437 0.05656169 8.902999
000060 fe 30 a1 40 12 2c 54 c1 8b 34 17 40 3a c6 22 40
       5.0372305 -13.260759 2.362582 2.5433488
000070 d7 ce ee 3f 10 e8 9c 40 b7 9f 9c 40 c6 57 f8 3f
       1.8656873 4.903328 4.8944964 1.9401786
000080 23 b3 e2 3f e2 16 26 40 d5 b1 1b 40 25 c2 a2 40
       1.7710918 2.5951467 2.432729 5.0861993
000090 71 38 59 40 6b 46 27 40 fe 73 41 40 52 fe fc 3f
       3.39407 2.613673 3.0227046 1.9765112
0000a0 e4 cd 9f 40 1d ee 25 40 b8 d1 fe 3f c8 9b 41 40
       4.993883 2.5926583 1.9907751 3.0251331
0000b0 0d 22 b5 3c 2a dc 48 3d e8 ac 17 41 fa 95 c0 3c
       0.022110963 0.04903809 9.479713 0.023509014
0000c0 58 af 90 40 e5 06 3b 3d 72 e7 35 40 8e 8e 4f 3d
       4.5214043 0.045660872 2.8422513 0.05067306
0000d0 37 01 28 40 2c 96 37 40 8c 0e 19 40 1e d5 de 3f
       2.6250741 2.8685408 2.3915129 1.7408788
0000e0 2f 54 14 40 23 0e 19 40 b8 90 38 3d cd fb 9d 40
       2.3176382 2.3914878 0.04505989 4.9369874
0000f0 a3 d5 4c 40 dc cd 25 40 2d e8 9e 40 c1 0f 42 3d
       3.2005394 2.5906897 4.965842 0.047378305
000100 47 1a 9b 40 45 e1 a4 40 30 82 52 40 cc 85 87 3f
       4.8469577 5.1524987 3.289196 1.0587707
000110 d9 d7 1d 40 8c 0a 2f 40 44 bc 7f 40 aa b5 8f 40
       2.4662993 2.7350187 3.9958658 4.490926
000120 0d 38 a1 40 42 80 b2 3f e7 4d 23 40 fe 97 8a 40
       5.038092 1.3945391 2.5516298 4.3310537
000130 96 8d 30 40 c8 95 32 40 10 cf 37 40 b9 6f b2 bd
       2.7586417 2.790392 2.872013 -0.08712716
000140 9b 72 2f 40 be 6a ca 3f 22 9d 33 40 e2 0a 54 3d
       2.74137 1.5813825 2.8064656 0.05176819
000150 92 09 2b 40 57 3c 16 41 04 c5 94 40 9e 64 53 c1
       2.6724591 9.389731 4.6490498 -13.212065
000160 b5 c5 4d c1 44 7e bb 3f a5 d6 fb 3f da b9 4b 40
       -12.860768 1.4647908 1.9674879 3.1832185
000170 61 1e 24 40 e8 62 a2 40 cd 08 a0 40 93 9d a0 40
       2.5643542 5.0745735 5.0010743 5.019235
000180 be 73 9f bd 3f 33 0c 40 29 4e 1c 40 1f 55 62 40
       -0.07785748 2.1906278 2.4422705 3.5364454
000190 3c df 21 40 d8 8d 8d 40 5d 1d c7 3f 5f 7a 1d 40
       2.5292501 4.423565 1.5555836 2.460594
0001a0 f8 f3 15 40 c3 05 64 40 81 21 aa 3f ef dc fe 3f
       2.3430157 3.5628517 1.3291475 1.9911174
0001b0 8a c9 47 40 47 1f 6a 40 a9 6a 36 40 28 13 26 40
       3.121676 3.658159 2.85026 2.5949192
0001c0 23 df ee 3f 7d 22 4c c1 cc 93 1c 40 d3 d4 2c 40
       1.8661846 -12.75842 2.4465208 2.7004898
0001d0 98 63 26 40 fa ca a0 40 23 1d 9d 40 da ea 16 41
       2.5998287 5.0247774 4.9098067 9.432337
0001e0 1b 02 20 40 cf 53 9e 40 e8 60 24 40 41 49 24 40
       2.5001285 4.9477305 2.5684147 2.566971
0001f0 6d cc 9f 40 5d 1e 20 40 df f3 90 40 c4 12 a2 40
       4.9937043 2.5018532 4.5297694 5.0647907
000200 c9 1c 9e 40 1c 4e 9e 40 20 4e a1 40 34 42 4e c1
       4.941014 4.947035 5.0407867 -12.891163
000210 d1 73 39 40 f6 e5 21 40 a7 e9 d6 3c 85 c9 26 40
       2.8976939 2.5296607 0.026234461 2.6060498
000220 e1 68 17 40 b5 12 a5 40 5c c1 07 40 72 ae 4c 40
       2.3657763 5.1585336 2.1211767 3.1981473
000230 a4 e6 44 40 7d 3c 3b 40 24 7f 04 40 b3 26 10 40
       3.0765772 2.925567 2.07026 2.252362
000240 84 23 26 40 f9 2b 45 40 3d 69 3a 40 e8 69 3a 40
       2.5959177 3.0808089 2.9126732 2.912714
000250 e1 a8 ad bd 74 89 a4 40 41 69 66 bb db 1c 0f 41
       -0.08479477 5.141779 -0.003515795 8.944545
000260 23 22 a3 40 0b a6 55 c1 2e bc 2e 40 ea 25 1d 40
       5.097917 -13.353038 2.7302356 2.455439
000270 ce 79 e9 3f fe be a1 40 29 b4 a1 40 ab bb fd 3f
       1.8240297 5.0545645 5.053242 1.9822897
000280 64 1d f2 3f 32 a8 41 40 80 4c 36 40 20 e7 a1 40
       1.8915219 3.0258908 2.8484192 5.0594635
000290 02 ad 49 40 6b ae 39 40 8f 12 3c 40 82 54 eb 3f
       3.1511846 2.9012706 2.9386327 1.8385165
0002a0 c9 17 a1 40 bc a6 38 40 84 f4 fc 3f d3 c5 37 40
       5.0341535 2.8851767 1.976212 2.8714492
0002b0 99 77 1e 3b 91 e9 e7 3c 8f c4 15 41 e1 09 21 3d
       0.0024180172 0.028309615 9.360488 0.039316062
0002c0 05 be 8e 40 ba 9a 11 bd 8e a8 2f 40 d4 49 14 3c
       4.4606957 -0.03554795 2.7446628 0.009050805
0002d0 e2 bf 3c 40 70 52 2d 40 33 9b 07 40 59 93 eb 3f
       2.9492116 2.7081566 2.1188476 1.8404342
0002e0 96 1a 10 40 e4 02 2e 40 f8 92 95 bd 94 dc a3 40
       2.2516227 2.7189264 -0.07303423 5.120676
0002f0 ec 6f 3e 40 75 f3 3d 40 f5 d8 9e 40 00 3b 28 bd
       2.9755812 2.9679844 4.963984 -0.04107189
000300 7c bb 9e 40 88 6e a6 40 43 71 41 40 6c ae 8b 3f
       4.9603863 5.2009926 3.022538 1.0912604
000310 af 17 30 40 2b 83 45 40 ae f7 84 40 bc 05 8a 40
       2.7514455 3.0861309 4.1552343 4.3132
000320 5e 49 a3 40 d5 98 8f 3f 5c 33 42 40 22 ca 87 40
       5.102706 1.1218516 3.0343847 4.2434244
000330 70 bd 42 40 e7 2e 23 40 f3 3e 24 40 33 06 c8 3c
       3.0428123 2.5497377 2.566342 0.024417019
000340 1d 7a 2a 40 e0 29 d4 3f f8 46 2b 40 b0 bb df 3c
       2.6637032 1.6575279 2.6762066 0.027311176
000350 8b 7a 3f 40 26 a8 13 41 b8 f7 94 40 99 cd 53 c1
       2.9918544 9.228552 4.655239 -13.237695
000360 ac ac 4f c1 21 19 bc 3f 16 fe 02 40 fc 50 3a 40
       -12.979656 1.4695169 2.0467582 2.911193
000370 78 8b 1d 40 3d 74 a3 40 e1 a7 a0 40 88 31 a3 40
       2.4616375 5.1079392 5.020493 5.0997963
000380 e9 c0 02 3d 1d 9a 0c 40 a3 f8 2f 40 f4 b0 50 40
       0.031922255 2.1969063 2.7495506 3.2608004
000390 a3 2b 39 40 e6 37 8b 40 d8 6b bd 3f 13 68 18 40
       2.8932884 4.3505735 1.4798536 2.3813522
0003a0 d8 71 2e 40 54 d8 57 40 7b bb a0 3f b9 f7 eb 3f
       2.7256985 3.3725786 1.2557214 1.8434974
0003b0 39 fd 49 40 c8 e1 6c 40 df 1d 2a 40 e1 ae 3e 40
       3.1560805 3.7012806 2.6580732 2.9794238
0003c0 eb 1c fb 3f 08 46 4d c1 7b d5 34 40 a1 3c 43 40
       1.96182 -12.829597 2.8255298 3.0505755
0003d0 00 f5 37 40 67 72 a8 40 cd ae a2 40 fb 7c 14 41
       2.8743286 5.263965 5.083838 9.280513
0003e0 ce 25 16 40 a7 dc a2 40 94 15 41 40 95 16 42 40
       2.3460574 5.089435 3.016942 3.0326283
0003f0 3f 30 9e 40 9a 35 33 40 3b 03 95 40 ce c6 a4 40
       4.9433894 2.8001466 4.6566443 5.149268

net.2.bias f4 [128]
000000 2f b4 33 bf bd 55 84 be c4 39 0b c1 6f 3b d5 be
       -0.70196813 -0.25846663 -8.701603 -0.41646907
000010 f7 09 3b 3d 43 36 1d 40 86 9f 97 bc a1 16 7e 40
       0.0456638 2.4564369 -0.018508684 3.9701312
000020 d9 f4 7c 40 0d 81 b2 bd 4e a8 10 41 06 1d 9a bf
       3.9524443 -0.08716021 9.04109 -1.2040107
000030 99 7d b1 bd b0 d9 21 bf 15 67 7c 40 ea f5 a2 3c
       -0.08666534 -0.6322279 3.9437916 0.019892652
000040 0a 65 7d 40 3a c4 15 bf b2 f3 09 bf 39 42 cf be
       3.959292 -0.5850254 -0.53887475 -0.4048021
000050 23 12 d4 bc b1 32 82 40 c5 8d e8 3c 7b 5a cf c0
       -0.025887555 4.068688 0.028387913 -6.479795
000060 2f fc fe c0 bf 40 09 c1 6a 54 aa bd 28 b2 75 40
       -7.968284 -8.578307 -0.08316882 3.8389988
000070 27 36 7b 40 4d 21 a0 3f 97 01 81 40 62 0e a7 bd
       3.9251802 1.2510163 4.031444 -0.0815704
000080 b4 43 08 bd 58 66 25 bd f2 0f 7d 40 4f c8 62 bf
       -0.03326769 -0.040380806 3.9540982 -0.88586897
000090 56 a2 80 3d 08 bf 21 40 72 5d 79 40 20 9b 14 41
       0.06280963 2.5272846 3.8963284 9.287872
0000a0 8f 8e 12 40 6d 47 a1 bb 7c e4 63 bd 5f 04 ac bc
       2.289951 -0.0049218447 -0.05563782 -0.020998178
0000b0 d5 e5 83 40 56 ad 81 40 05 3a 8b 3d 8b 82 d4 bf
       4.1218057 4.052409 0.06798176 -1.6602339
0000c0 f9 e8 cd c0 d7 6f f6 3c 8c 73 b7 be 6e 7d 3c bf
       -6.434689 0.030082626 -0.35830343 -0.7362889
0000d0 f5 fc f1 bb b1 af 10 bf 4d c5 80 40 b4 a4 75 bc
       -0.007384891 -0.56518084 4.0240846 -0.014992882
0000e0 b1 c5 02 bd be 11 80 40 26 71 0d bf f1 86 0b c1
       -0.031926814 4.002166 -0.55250776 -8.720445
0000f0 dd 27 93 3c 62 1c ab c0 7c 27 87 be c9 09 a8 be
       0.017963344 -5.3472147 -0.26397312 -0.32819965
000100 1b 75 f2 c0 36 37 f9 bc 41 cf 76 40 00 ae 7d 40
       -7.576795 -0.030421834 3.8563998 3.963745
000110 25 4b 1c 40 ab e8 18 40 34 9a a6 bd 35 87 76 40
       2.4420865 2.389201 -0.08134881 3.8520024
000120 da ae 80 3c f3 81 e3 bd ed 19 82 40 c0 6a 04 c1
       0.015708376 -0.1110877 4.065665 -8.276062
000130 be 0e 7a 40 a9 66 71 40 cd 24 52 c0 c8 08 a0 3f
       3.9071498 3.7718909 -3.2834961 1.250268
000140 1a 41 0b bf f8 1a 05 bd 95 68 72 40 ab c1 0e bf
       -0.5439621 -0.032496423 3.7876332 -0.55764264
000150 a5 67 94 3d c8 d8 09 bd ec b7 c0 3c e2 ea 1a 40
       0.07246331 -0.033654004 0.0235252 2.420586
000160 3e 02 80 40 b2 7c 24 bd 5f ad e8 c0 5e 7b 97 c0
       4.0002737 -0.04015798 -7.2711635 -4.7338095
000170 2f f5 88 38 13 fd 47 3e 06 ba 61 bd f6 2d 81 40
       6.530654e-05 0.19530134 -0.055109046 4.0368605
000180 c1 ca e1 c0 af fc 69 3c 97 f1 7d 40 f7 7d c3 bd
       -7.056 0.014281436 3.9678705 -0.0954551
000190 eb 38 a6 bd 33 a3 0a c1 49 db 43 c0 b1 1d 05 41
       -0.08116325 -8.664844 -3.060259 8.319749
0001a0 c3 57 ed bc 1a 7d c7 c0 96 1e 04 3d 55 11 f4 c0
       -0.028972512 -6.234021 0.03225573 -7.6271157
0001b0 ba c9 f6 3f 33 a6 1f 3c 54 b1 1f 40 5f fb 79 40
       1.9280312 0.009744215 2.4951982 3.9059675
0001c0 e0 20 f6 be ba 06 6e bd ff 3b f1 be 4a 36 9c 3e
       -0.48071957 -0.058111884 -0.47116086 0.3051017
0001d0 1d 86 08 c1 50 c0 a9 c0 6e 70 74 3c e3 53 30 bf
       -8.5327425 -5.3047256 0.014919383 -0.68878
0001e0 ee 13 b3 c0 f8 18 ce c0 d2 b6 06 c1 82 83 9c bd
       -5.596183 -6.440548 -8.419634 -0.076422706
0001f0 14 0b 7d 40 a7 8d c6 bd 8a b1 f2 be fc 7d 20 40
       3.9538012 -0.09694987 -0.47401077 2.5076895

net.4.weight f4 [20, 128]
000000 a8 e3 a7 bf 5b 53 8d bf 90 71 f6 40 17 d3 91 bf
       -1.311635 -1.1041063 7.7013626 -1.1392545
000010 d8 01 8d bc e6 7b 9b 40 15 85 7a 3d 93 f7 80 40
       -0.017212793 4.8588743 0.061162073 4.0302215
000020 79 c7 93 40 78 f0 0c bd b7 98 02 40 9d 74 af bf
       4.6180997 -0.034409016 2.040571 -1.3707463
000030 37 53 f0 3c 5c da a4 bf 0a f2 8e 40 2a 2a 6b bc
       0.029336555 -1.2879138 4.467046 -0.014353314
000040 c5 7f 87 40 aa 8a 7c bf d1 78 8c bf 12 85 88 bf
       4.234347 -0.98649085 -1.097437 -1.066561
000050 3f c8 40 bd e3 49 84 40 e2 5a 8a bd a0 21 e9 40
       -0.04706597 4.1340194 -0.06755616 7.2853546
000060 2d 03 f3 40 9a 31 f1 40 23 8e 1e 3c f1 a6 8a 40
       7.5941377 7.537305 0.009677443 4.3328786
000070 7d e9 94 40 28 dd 99 40 32 56 8c 40 8f 66 fb 3b
       4.653502 4.8082466 4.385522 0.007672138
000080 7d 00 3d 3a ba b0 49 3d fd be 87 40 c2 af aa bf
       0.00072098506 0.049240805 4.242064 -1.3334887
000090 a0 66 8d bd 52 0b 99 40 e8 29 8e 40 25 26 0a 40
       -0.0690434 4.782632 4.4426155 2.1585782
0000a0 e2 2f 96 40 3c 69 16 bc 23 eb 1b 3d 0c 61 42 bb
       4.693345 -0.009180363 0.03806604 -0.0029659895
0000b0 70 8c 90 40 58 0a 8a 40 b3 23 93 bd 18 19 a4 40
       4.5171432 4.3137627 -0.071845435 5.128063
0000c0 f7 13 ed 40 98 b7 ad 3d 4f cc 8b bf 48 e4 95 bf
       7.408687 0.08482283 -1.0921725 -1.1710291
0000d0 8f f1 7c bf 9b 01 98 bf 68 48 88 40 81 3b 97 3d
       -0.9880609 -1.187549 4.2588387 0.07384396
0000e0 f7 53 ac bc 62 dc 91 40 85 fa 75 bf 10 1a f5 40
       -0.021036131 4.558152 -0.9608539 7.6594315
0000f0 9c 29 65 3d e0 e5 dc 40 c1 7c 88 bf 9c 33 74 bf
       0.055947885 6.903061 -1.0663072 -0.9539125
000100 a7 f7 ee 40 83 be 03 bd 8b 67 8a 40 45 dd 87 40
       7.467731 -0.032164108 4.3251395 4.2457604
000110 8f dd 99 40 95 5d 9a 40 2d 74 2f 3d d8 14 81 40
       4.8082957 4.8239236 0.042835403 4.0337944
000120 46 92 2f bd 01 43 83 bf 9a a5 8a 40 95 7d f3 40
       -0.042864107 -1.0254823 4.332715 7.60908
000130 74 ed 8e 40 42 8b 6d 40 34 26 c2 40 d8 eb 95 40
       4.466486 3.7116246 6.0671635 4.6850395
000140 2c 7a 9f bf 2d ee 82 bb bf 13 8e 40 1f 8e 91 bf
       -1.2459159 -0.003995678 4.4399104 -1.1371497
000150 05 05 8c bb f9 6f a4 3d 9c 32 a9 3d a3 19 94 40
       -0.0042730593 0.080291696 0.08261606 4.6281295
000160 05 32 8e 40 85 38 1e 3d de e6 ef 40 92 0d d8 40
       4.443606 0.03862812 7.496932 6.7516565
000170 60 e0 ac 3d 70 91 94 40 5c 9a 5f 3d cf 60 8d 40
       0.08441234 4.6427536 0.054590568 4.4180675
000180 a2 3d eb 40 bf 5d 49 bd cf ca 8a 40 e2 24 97 bc
       7.3512735 -0.04916167 4.337257 -0.018450204
000190 2c ea 8c 3d 42 c8 f2 40 50 df bd 40 21 e9 aa 3f
       0.06880602 7.5869455 5.93351 1.3352395
0001a0 be 7a 4b bc f8 d9 e9 40 d6 be 89 3c 87 e6 ef 40
       -0.012419401 7.3078575 0.01681463 7.4968905
0001b0 97 5a 97 40 92 41 d9 3c 85 22 98 40 97 69 85 40
       4.7298083 0.026520524 4.754214 4.1691394
0001c0 eb de 95 bf b9 a5 97 bd 39 70 9b bf b6 95 a8 be
       -1.1708654 -0.07404656 -1.2143623 -0.3292672
0001d0 d2 c1 f2 40 ef a1 de 40 27 96 1d 3d 70 46 93 bf
       7.5861597 6.9572673 0.038473275 -1.1505871
0001e0 8b 22 e6 40 e9 c9 e7 40 35 18 f7 40 f9 6a 11 bd
       7.1917167 7.243397 7.721705 -0.035502408
0001f0 5e 3b 85 40 1c 00 a3 3d 77 82 9c bf 9f 49 9a 40
       4.163497 0.07959005 -1.2227315 4.821487
000200 d5 08 2e bf bd 14 03 bf c7 65 e1 40 94 44 42 bf
       -0.67982227 -0.5120352 7.043674 -0.7588589
000210 4b f0 86 bd db f5 8f 40 97 6b b4 bc d9 0a 81 40
       -0.06588801 4.4987617 -0.02202396 4.032574
000220 35 40 8a 40 f9 75 6d 3d 19 8f 70 3e f1 af 76 bf
       4.320338 0.057973836 0.23492087 -0.96362215
000230 e7 35 bc bc e6 2f 2e bf 33 ef 86 40 90 45 f3 3b
       -0.022974921 -0.6804184 4.216699 0.007424064
000240 26 26 83 40 11 5b 02 bf 54 b1 14 bf 0d f3 16 bf
       4.098407 -0.50920206 -0.5808308 -0.58964616
000250 e0 a7 9b 3d 86 63 82 40 bc 3f 1f 3d ff 8c e3 40
       0.07600379 4.074649 0.03887914 7.1109614
000260 02 f3 df 40 c3 8f de 40 2e b5 a9 3d 45 c1 83 40
       6.998414 6.955049 0.082865104 4.1173425
000270 37 8a 8b 40 39 fc 91 40 0c f1 87 40 d1 8e aa 3d
       4.360622 4.562039 4.2481747 0.08328021
000280 27 cb 34 3d 14 83 0d bd b7 6e 85 40 91 f0 49 bf
       0.044139054 -0.034548834 4.169765 -0.788827
000290 d6 a4 54 bd f0 7c 8e 40 6e 97 86 40 e1 a9 f1 3e
       -0.051915012 4.452751 4.205985 0.4719992
0002a0 97 b7 8f 40 a3 33 21 3c f4 63 25 3d 72 9d 0c bd
       4.491161 0.009838971 0.040378526 -0.03432984
0002b0 ac 83 89 40 e3 bf 85 40 0d 55 8a bd 5b 2c bc 40
       4.297323 4.1796737 -0.067545034 5.8804145
0002c0 6d 6f e5 40 02 ff e2 3b b6 19 0e bf bc ea 1d bf
       7.169852 0.006927372 -0.5550798 -0.616863
0002d0 bc a1 20 bf 90 83 41 bf 41 df 88 40 99 95 96 bd
       -0.6274679 -0.75591373 4.2772527 -0.07352752
0002e0 35 95 f6 3c 54 cf 8b 40 91 59 09 bf b6 50 e1 40
       0.030100444 4.3690586 -0.5365229 7.0411024
0002f0 3e 56 2d 3d b7 54 e3 40 c0 58 0b bf d4 f9 05 bf
       0.042318575 7.104091 -0.54432297 -0.5233433
000300 e9 29 e2 40 0b 64 ae 3d 7a 7c 86 40 52 f3 83 40
       7.067616 0.085151754 4.202695 4.123452
000310 45 c1 8d 40 c6 6c 8e 40 ea ed df bb ad aa 78 40
       4.4298425 4.450778 -0.0068337815 3.8854172
000320 d7 b9 a6 bc 7d 9f 03 bf 2d f6 87 40 59 b5 de 40
       -0.020352287 -0.51415235 4.2488008 6.959637
000330 43 2e 88 40 9d 76 6d 40 9b 32 d7 40 2c 39 92 40
       4.255647 3.7103646 6.7249274 4.569479
000340 30 3c 47 bf 20 47 6d bc c8 ee 88 40 19 ed 38 bf
       -0.77826214 -0.01448229 4.279148 -0.7223678
000350 48 42 2f bd 4a c0 70 bd e7 f1 5a 3d 80 7e 8b 40
       -0.04278782 -0.05877713 0.053453352 4.359192
000360 1e 77 89 40 03 21 3e bd f6 a9 e4 40 43 51 e2 40
       4.2957907 -0.0464182 7.145747 7.0724196
000370 b3 10 21 3d f5 c1 9b 40 e4 7d 2c 3d ef 75 86 40
       0.039322566 4.8674264 0.042112246 4.201896
000380 03 e7 e2 40 7e e6 89 3d ca ad 84 40 5e 5e a8 bd
       7.0906997 0.06733416 4.1462145 -0.08221124
000390 05 b0 77 bd 57 a2 df 40 7e b1 d4 40 86 1a 1a 3f
       -0.0604706 6.988567 6.6466665 0.6019672
0003a0 95 ac 9e bd eb 24 e7 40 e1 a3 87 3d 1b 90 e1 40
       -0.07747761 7.2232566 0.06623054 7.048841
0003b0 c6 d2 8d 40 ed 31 51 3d 10 66 8e 40 cf 89 82 40
       4.431979 0.051073004 4.449959 4.0793223
0003c0 15 29 0e bf a5 8b 50 3d 27 f6 32 bf d9 89 db be
       -0.55531436 0.050914425 -0.6990685 -0.42878607
0003d0 20 4b df 40 0a f3 e4 40 b3 20 a5 3d 3d 4e 23 bf
       6.9779205 7.154668 0.080628775 -0.6379126
0003e0 2e ef e2 40 38 d9 e6 40 26 e9 dd 40 8d 2e d8 bc
       7.0916967 7.214016 6.9347105 -0.026389385
0003f0 09 b7 81 40 f6 1c 99 bd d4 43 25 bf c0 1c 8d 40
       4.053593 -0.07476227 -0.6455662 4.4097595

net.4.bias f4 [20]
000000 80 0c 06 40 04 7c e7 3f 16 fe db 3f 9b 0f e9 3f
       2.094513 1.8084722 1.7186916 1.8207887
000010 89 56 9b 3f 9b ad a7 3f f2 f8 cd 3f 5b 14 d8 3f
       1.2135783 1.3099855 1.6091597 1.6881212
000020 d5 78 47 bd be 0e f9 3f f4 77 a9 3e 45 2c fb 3e
       -0.04869922 1.9457624 0.3309933 0.49057212
000030 7d c9 4e 3f ee 89 c9 3e 09 99 84 3f f8 b6 c7 be
       0.80776197 0.39363045 1.0359203 -0.39006782
000040 07 3c ef 3e 55 ef 46 bb 79 5b 43 3f ac 6f 88 3d
       0.46725485 -0.0030355055 0.7631145 0.06661925
