realtime_model_ep241.pth (torch, 97610 bytes, 6 tensors)

net.0.weight f4 [128, 35]
00000000: d523 16c0 40e6 f441 709d d3be 3c11 1abf
00000010: 47c8 80be f506 c1bf 34c0 e841 4f31 f0be
00000020: 3626 a33f 0328 eb3e 58af f7bf 2e19 eb41
00000030: 6c40 f9be 880b 0340 1b26 91bd e07a 9cbf
00000040: 3d2f eb41 8972 32bf 5bf7 903f 0641 4bbf
00000050: 3447 07c0 e8fd eb41 948a 0bbf 1871 1f40
00000060: 3af4 ddbe 4f43 df40 ce0d d240 2108 0d41
00000070: e039 df40 9379 cc40 7f2d bb40 4f88 c840
00000080: 3123 dd40 28ae 6e40 220a da40 47c2 13c0
00000090: 1634 f541 616f 85be fc2f e1be f4f2 5fbe
000000a0: fa7b a2bf 071a ea41 dacb 3bbf 3a87 9b3f
000000b0: 06c0 fd3e 8825 e1bf 3ca2 eb41 509e 08bf
000000c0: 13e2 0440 a5fe c13c bc81 9dbf 07d7 ea41
000000d0: 73b2 3cbf 1740 913f 5b2f 19bf dd11 02c0
000000e0: dc05 eb41 8168 30bf c139 1c40 1d4a 41bf
000000f0: 5bb7 e240 482e d040 356d 0d41 5f6e dd40
00000100: af4d c340 6ed9 b840 f3d9 c640 31ec dc40
00000110: 5125 6340 52a6 dd40 55a5 0fc0 c016 f641
00000120: 6e6e 46be 727e 35bf 8022 da3d 5144 9fbf
00000130: 794e ec41 d443 dabe e90f 9a3f 103d 4e3f
00000140: 0350 e4bf f362 ed41 5fae 2cbe cb40 0140
00000150: 0320 4f3e f756 9cbf f600 ee41 0f9d 04bf
00000160: 8263 dc3f 89f2 a6be 57c0 06c0 b0e6 ee41
00000170: 85b9 a5be f6c2 1b40 cd1a a3be 84e1 ec40
00000180: 40e3 e240 87aa 0c41 f226 e140 ef1d d440
00000190: 097a bf40 e406 d440 ce48 e540 acc7 6d40
000001a0: c44d e240 ae87 08c0 ca13 f341 f066 20c1
000001b0: 8c2b f7bf e6f4 4fc1 25ac 9bbf eaef e941
000001c0: 56a5 27c1 1ed7 9b3f 3823 41c1 c953 c6bf
000001d0: b3c5 e841 deb8 27c1 e772 ad3f 62fe 4ac1
000001e0: 75db 8fbf f6a2 ea41 05b9 2ac1 84da 5b3f
000001f0: 9c58 47c1 d755 febf cfea e941 c5c2 28c1
00000200: 0354 0d40 29e4 4bc1 f914 0941 7e79 fe40
00000210: 2277 3f41 b555 2541 52c7 0b41 98ec 1d41
00000220: d8ab 0641 5613 2141 f4d5 d840 524d 1141
00000230: 57a9 0b3f b0a1 a0c1 09bb 2b41 a222 1040
00000240: e386 ff40 a3e9 8d3e e8b8 95c1 b0a6 3441
00000250: 0aff f03f a482 ea40 4d75 693e 01b7 96c1
00000260: 1548 2e41 401f 5c40 2fcc 0e41 64cc 7d3f
00000270: e45c 98c1 0ca5 3341 1957 e03f 6409 1341
00000280: b0f1 323f ed35 97c1 47d2 3441 6409 78be
00000290: b466 0341 0767 cc40 aa34 c340 3331 b540
000002a0: 9493 c840 462e 2141 c11b bc40 e693 ce40
000002b0: 83c9 f540 1f70 fa40 b679 0341 a1ca 18c0
000002c0: 2e72 f341 650c 3cbf 6ff1 0dbf 7d8b 07bf
000002d0: d27f bfbf 14f4 e741 c000 8abf eeb5 933f
000002e0: bc9a 373e 5663 cdbf 6d75 e941 bb02 56bf
000002f0: eb5a 0c40 204c 02bd 32be 9ebf cd0c e941
00000300: 4759 8ebf bf6e 5d3f ff7e 72bf 3ee2 eebf
00000310: 39a9 e941 3809 74bf 0e37 2140 eea0 22bf
00000320: 7219 db40 25ce c740 ed5f 0841 205d d340
00000330: 41b8 c240 73bc b340 696f c240 9223 d540
00000340: 1233 5540 f0d4 d440 ea60 bf3c ae76 953d
00000350: 5cac 09be 533b 38bb b412 e3bd 69f9 523d
00000360: 0903 a03c 4b51 863d ada6 05be 0b9e acbd
00000370: b2c9 12be e122 ca3d 3627 e4bd 42e8 14bc
00000380: e430 e9bd c7bd 033e 126f d63d e497 55bc
00000390: 68b8 a1bd acf6 e03d 376c 273e c22c 09be
000003a0: e2f8 a93c 0e59 d5bd 4c6a 3a3d 30a9 caba
000003b0: 2aa2 babd 8eeb f6bd d488 653d aba9 13be
000003c0: afb4 84bd 9d33 19be e0a2 04be 8b46 8b3d
000003d0: 842e d93d 01e6 18c0 a189 f341 d193 28bf
000003e0: 2d45 29bf fc22 9dbe e8ae aebf 3c9d e841
000003f0: 7f68 8ebf f56a 973f feba 3b3e 4709 c9bf
-2.345937 30.612427 -0.41331053 -0.6018255 -0.251528 -1.5080248 29.09385 -0.4691262
1.2746036 0.45928964 -1.9350386 29.387295 -0.48681962 2.0475788 -0.07087346 -1.2224998
29.398066 -0.69706017 1.1325487 -0.7939609 -2.113721 29.498978 -0.5450833 2.4912777
-0.43350393 6.9769664 6.564185 8.814485 6.975815 6.3898406 5.8493037 6.266639
6.910546 3.7293797 6.813737 -2.3087327 30.650433 -0.26061538 -0.43981922 -0.21870023
-1.2694085 29.262709 -0.7335793 1.2150643 0.49560565 -1.7589579 29.454216 -0.53366566
2.0762985 0.023680994 -1.2305217 29.354994 -0.7370979 1.1347684 -0.59837884 -2.0323403
29.377861 -0.6890946 2.441025 -0.7550371 7.0848823 6.5056496 8.839162 6.919723
6.103233 5.7765417 6.214105 6.903832 3.5491526 6.926553 -2.244466 30.761108
-0.19378063 -0.70896065 0.106511116 -1.2442724 29.538317 -0.42629874 1.2036105 0.80561924
-1.7836918 29.673315 -0.16863392 2.0195796 0.20227055 -1.221404 29.75047 -0.5180215
1.7217867 -0.32606915 -2.1054895 29.86264 -0.32368103 2.4337745 -0.31856385 7.402529
7.0902405 8.791633 7.036004 6.628654 5.983647 6.625841 7.1651373 3.715312
7.071993 -2.1332812 30.384663 -10.025131 -1.9310164 -12.99729 -1.2161909 29.242146
-10.477865 1.2175024 -12.071098 -1.5494319 29.096533 -10.482634 1.355069 -12.687105
-1.1238848 29.32957 -10.670171 0.85880303 -12.459133 -1.9869946 29.239653 -10.547551
2.2082527 -12.743203 8.56762 7.9523306 11.966585 10.333425 8.736162 9.870262
8.416954 10.067221 6.7761173 9.081377 0.5455527 -20.078949 10.733163 2.2521138
7.9852157 0.27717313 -18.715286 11.290695 1.8827832 7.3284473 0.22798653 -18.839357
10.892598 3.4394073 8.9248495 0.9914 -19.045357 11.227795 1.752658 9.189793
0.69900036 -18.90133 11.301337 -0.24222332 8.212574 6.3875766 6.1001787 5.662256
6.268015 10.073797 5.878388 6.455554 7.6808486 7.8261867 8.217215 -2.3873675
30.430752 -0.7345641 -0.55446523 -0.5294722 -1.4960883 28.994179 -1.0781479 1.1539896
0.1793012 -1.604594 29.182337 -0.83597916 2.1930492 -0.03181088 -1.2401793 29.13125
-1.1120995 0.8649711 -0.9472503 -1.8662794 29.207628 -0.95326567 2.5189853 -0.6352681
6.846856 6.243914 8.523419 6.605118 6.084992 5.616754 6.0761 6.660592
3.331242 6.6509933 0.023361642 0.07298027 -0.13444656 -0.0028111532 -0.11087552 0.051507387
0.019532697 0.06558474 -0.13051863 -0.08428582 -0.14334753 0.09869934 -0.111402914 -0.009088578
-0.11386278 0.12865363 0.10470404 -0.013036702 -0.07896501 0.10984549 0.16349874 -0.1339598
0.02074856 -0.104173765 0.04551153 -0.0015461799 -0.091129616 -0.12056647 0.056038693 -0.14420192
-0.06479775 -0.14961095 -0.12952757 0.068005644 0.10604575 -2.3890383 30.442202 -0.6585055
-0.6612118 -0.30690753 -1.3647127 29.076775 -1.112564 1.1829516 0.1833305 -1.5705956

net.0.bias f4 [128]
00000000: 1cef 4540 32fe 3e40 5549 4e40 587f 9bc0
00000010: ca23 1f41 8139 2e40 5ffc 41be bae1 2640
00000020: a42b 2340 35d9 4a40 00c1 1d40 d340 2b40
00000030: 67d2 1b41 a1b8 2041 00f3 2b40 8fe3 2540
00000040: 5e3d 2540 9cb9 1d41 fd87 2c40 17de 1e41
00000050: c334 6a3c 6252 3f40 a1b9 19be 229e c03f
00000060: 9c89 4040 9e8b aec0 c51f 2041 42b0 2040
00000070: 2e03 2640 a723 4c40 d185 4340 21b7 1e40
00000080: c18f 2140 591a 2241 d665 1f41 bc27 4140
00000090: a792 2b40 5173 1d41 1ca2 2140 2845 2140
000000a0: 9b0f 5340 c397 1d41 9677 2140 93ff 2040
000000b0: 2d5d aebd e0ec b4bc 8e1b e33f 34c3 66bd
000000c0: a6db 3440 4e69 0fbd ea91 2340 064d 1cbe
000000d0: 8772 1c41 11a8 1c40 3220 2440 4d0b 2040
000000e0: 0feb 1940 ec16 1f41 a50f 43be 30f9 4540
000000f0: c620 1940 2adf 1f41 6b37 5440 1aa3 68bd
00000100: 50b3 4f40 7497 4e40 6cd6 2640 81f7 1a40
00000110: aa2a 1d41 7f5e 1b41 36d6 1f40 023e 3440
00000120: 686a 4840 761e 2140 4cf1 1f41 afb1 2740
00000130: 5a81 1b41 26d6 2240 5e04 2340 3c32 203d
00000140: 2c73 2240 def9 2840 c34c 2140 fb5d 34be
00000150: 82b2 1c41 c096 e53f 0f6c 2b40 9736 94c0
00000160: 82d7 99c0 eb8f 2640 3e3f 1c40 f44b 1c40
00000170: 8b34 2340 04a5 5540 ffa0 5040 1c65 4340
00000180: 0825 18bd e9ec 1c40 5d00 1f41 3cdb 2840
00000190: 823a 2041 ea93 3240 4ae4 2340 87dd 2a40
000001a0: 5506 2341 d051 1d40 05a1 1640 766a 1b40
000001b0: aaec 2140 30d3 2f40 39f7 2440 f631 1c41
000001c0: 65fc 2640 894d 93c0 cdd3 1f41 a7b2 1c41
000001d0: 787c 1b41 c8d1 5340 7be2 5040 e27d cf3f
000001e0: 5f2a 2440 cf07 5640 e9a2 1e41 e68f 2041
000001f0: 7b65 3440 670b 2541 ce69 2d40 b1cb 4b40
3.092719 2.9842649 3.2232258 -4.859295 9.946238 2.7222598 -0.18943928 2.6075273
2.5495386 3.1695073 2.4649048 2.6758316 9.738868 10.045075 2.6867065 2.592014
2.5818706 9.857815 2.6958 9.929221 0.014294806 2.9894032 -0.15012218 1.5048258
3.008399 -5.454543 10.007756 2.510758 2.593944 3.189676 3.0550425 2.4799273
2.524399 10.131433 9.962362 3.0180502 2.680826 9.840653 2.5255194 2.519846
3.2978275 9.849551 2.522924 2.515599 -0.085138656 -0.022085607 1.7742784 -0.056338504
2.8259063 -0.035012536 2.555781 -0.15263757 9.777961 2.447758 2.564465 2.5006897
2.4049718 9.943096 -0.19048937 3.0933342 2.3926253 9.991983 3.3158824 -0.05679617
3.2453194 3.227994 2.6068373 2.4213564 9.822916 9.71057 2.4974494 2.8162847
3.1314945 2.5174842 9.99641 2.62022 9.71908 2.5443206 2.5471416 0.039110407
2.5382795 2.6402507 2.5203102 -0.17613976 9.793581 1.793663 2.6784704 -4.631664
-4.807557 2.602534 2.44136 2.4421358 2.550082 3.3381968 3.2598264 3.0530462
-0.03714469 2.4519598 9.937589 2.638381 10.014284 2.790278 2.5608087 2.669771
10.189046 2.4581184 2.3535779 2.4283729 2.5300698 2.7472649 2.5775893 9.7621975
2.609155 -4.6032147 9.989209 9.793616 9.717888 3.309679 3.2638233 1.6210291
2.5650861 3.3442266 9.914773 10.035131 2.8186939 10.315284 2.7095828 3.1843073

net.2.weight f4 [128, 128]
00000000: 799d a240 ad55 a040 a2e8 a240 4f1a 4ac1
00000010: ad26 2340 daac 3940 1d31 be3b 25cd 3940
00000020: 55f5 1f40 b808 a340 ff2e 1540 06c9 5040
00000030: 85bd 3240 c167 2b40 b828 1240 9943 1840
00000040: 301f 3240 515b 3640 6193 4e40 1f67 1d40
00000050: 6533 9abd 5690 a340 3bad 673d 8945 0f41
00000060: 0bd8 a240 1dbd 52c1 6475 1940 c221 2640
00000070: c283 f53f 0b8c 9e40 0142 9e40 c105 ff3f
00000080: 7861 e93f 7665 2840 67fe 1d40 b365 a440
00000090: c090 5c40 ce95 2940 59cb 4440 64dd 0140
000000a0: 3f71 a140 9f3f 2840 84be 0240 68fa 4440
000000b0: 0d22 b53c 2adc 483d b092 1841 fa95 c03c
000000c0: 6d58 9240 e506 3b3d a53f 3940 8e8e 4f3d
000000d0: c455 2a40 aaef 3a40 dc6b 1c40 ed84 e53f
000000e0: d7a8 1740 6d5c 1b40 b890 383d 869f 9f40
000000f0: 4e32 5040 b121 2840 518b a040 c10f 423d
00000100: f7bc 9c40 bd84 a640 54de 5540 f82c 8e3f
00000110: 9f34 2040 cc69 3140 028a 8140 475f 9140
00000120: fddc a240 2c3c b93f 7ba7 2540 c840 8c40
00000130: 49e2 3240 70ef 3540 5f27 3b40 b96f b2bd
00000140: 1ccd 3240 ab16 d13f d4f4 3640 e50a 543d
00000150: 8b66 2d40 3621 1741 9f6b 9640 9e10 52c1
00000160: b471 4cc1 8e2b c23f c841 0140 6311 4f40
00000170: b671 2740 1d07 a440 e6ab a140 413f a240
00000180: be73 9fbd 778a 0f40 f890 1e40 9dac 6540
00000190: 3d24 2440 9436 8f40 51c7 cd3f 80d0 2040
000001a0: ab36 1840 625f 6740 91d8 b03f 81c8 0240
000001b0: 111b 4b40 f277 6d40 2abf 3940 756e 2840
000001c0: fe89 f53f 83cf 4ac1 90d7 1e40 b033 2f40
000001d0: 4fb4 2840 c66c a240 71c0 9e40 e8d0 1741
000001e0: 5f56 2340 e9f6 9f40 afb6 2640 bda7 2640
000001f0: b771 a140 f359 2240 a59c 9240 1fb8 a340
00000200: 7dc8 9f40 74fa 9f40 a5f5 a240 52cd 4cc1
00000210: 49f5 3a40 794f 2540 a7e9 d63c a52e 2a40
00000220: 87ce 1a40 fcbb a640 ce2b 0b40 e81c 5040
00000230: 2760 4640 18bc 3c40 9fe9 0740 f690 1340
00000240: ed8c 2940 7abb 4640 e2d0 3d40 0df3 3b40
00000250: e1a8 adbd 8e34 a640 4169 66bb 87d4 0f41
00000260: d7cd a440 3d14 54c1 c928 3040 7794 2040
00000270: 4957 f03f 5d65 a340 8a56 a340 4748 0240
00000280: 96f4 f83f 8a29 4340 9cca 3740 0c8d a340
00000290: f117 4d40 e82f 3b40 ca7c 3f40 5c37 f23f
000002a0: d0bc a240 3b2b 3a40 e6e2 0140 8337 3b40
000002b0: 9977 1e3b 91e9 e73c 7c97 1641 e109 213d
000002c0: 1c6e 9040 ba9a 11bd 9a14 3340 d449 143c
000002d0: a14a 3e40 26bf 3040 cf0b 0b40 a76a f23f
000002e0: 1983 1340 2285 2f40 f892 95bd dc80 a540
000002f0: 00df 4140 1c7d 3f40 147d a040 003b 28bd
00000300: 505f a040 6014 a840 16df 4440 367d 923f
00000310: b2ad 3140 631d 4740 caaa 8640 b9b6 8b40
00000320: baf1 a440 9e77 963f 23c6 4340 937a 8940
00000330: f045 4440 769b 2640 ffa9 2740 3306 c83c
00000340: 54e6 2d40 5b00 db3f 0db1 2e40 a3bb df3c
00000350: ea11 4140 1e7a 1441 4aa5 9640 b058 52c1
00000360: bd37 4ec1 06ef c23f cd67 0640 28bc 3d40
00000370: 74f1 2040 241a a540 e44d a240 5ad5 a440
00000380: e9c0 023d a904 1040 8d68 3140 fa1a 5440
00000390: 079f 3a40 0ce8 8c40 2f3d c43f 69d2 1b40
000003a0: 10e0 2f40 4e44 5b40 649a a73f 46ce f23f
000003b0: 7261 4d40 d44b 7040 0786 2d40 af42 4040
000003c0: 43f8 0040 22d2 4bc1 3f47 3640 15d7 4440
000003d0: 4778 3940 c514 aa40 ff53 a440 2350 1541
000003e0: ea8d 1940 a681 a440 afa3 4240 28ae 4340
000003f0: 2eda 9f40 179a 3440 e5b2 9640 2d70 a640
5.0817227 5.0104585 5.0908976 -12.631423 2.5492356 2.901175 0.0058041946 2.903146
2.4993489 5.0948143 2.3309934 3.2622695 2.7928174 2.6782076 2.2837353 2.3791258
2.7831535 2.8493235 3.2277453 2.459419 -0.07529334 5.111369 0.05656169 8.954476
5.0888724 -13.17117 2.39779 2.5958104 1.9180834 4.954595 4.945557 1.9923631
1.823287 2.6311927 2.4686525 5.1374145 3.4463348 2.6497684 3.0749114 2.0291376
5.045074 2.6288831 2.0428782 3.0777836 0.022110963 0.04903809 9.535812 0.023509014
4.573294 0.045660872 2.8945096 0.05067306 2.6614847 2.920878 2.4440832 1.7931191
2.3696802 2.4275162 0.04505989 4.988223 3.2530704 2.6270564 5.0170064 0.047378305
4.898067 5.2037034 3.3416948 1.1107473 2.5032117 2.7720823 4.0480967 4.5428805
5.089476 1.4471488 2.5883472 4.382908 2.7950613 2.842739 2.924278 -0.08712716
2.793769 1.6335043 2.8586931 0.051768202 2.7093837 9.445608 4.7006373 -13.129057
-12.77776 1.5169542 2.01964 3.2354362 2.6163154 5.1258683 5.0522337 5.0702214
-0.07785748 2.2428262 2.4775982 3.5886605 2.5647118 4.4754124 1.6076452 2.5127258
2.3783367 3.6151967 1.3816091 2.0434878 3.173527 3.710446 2.9022927 2.6317418
1.9182737 -12.675662 2.481907 2.7375298 2.6360052 5.075778 4.9609914 9.4885025
2.5521467 4.9988904 2.6049001 2.603988 5.045131 2.53674 4.5816216 5.1162257
4.9932237 4.999323 5.092486 -12.800127 2.921221 2.5829756 0.026234461 2.659097
2.4188554 5.2104473 2.1745486 3.2517643 3.0996187 2.9489803 2.123634 2.3057227
2.6492264 3.1051927 2.9658742 2.9367096 -0.08479477 5.1939154 -0.003515795 8.989387
5.150127 -13.254941 2.7524893 2.5090616 1.8776637 5.1061234 5.104314 2.0356615
1.9449642 3.0494103 2.8717413 5.1109676 3.2045863 2.924799 2.9919915 1.8923144
5.0855484 2.9088886 2.0294738 2.9252632 0.0024180172 0.028309615 9.4119835 0.039316062
4.513441 -0.03554795 2.7981324 0.009050805 2.973305 2.7616668 2.1725957 1.8938798
2.3048766 2.7425008 -0.07303423 5.17198 3.0292358 2.992011 5.0152683 -0.04107189
5.011635 5.252487 3.076116 1.1444461 2.7762265 3.1111686 4.2083483 4.366055
5.1545076 1.1755254 3.0589683 4.2962127 3.0667686 2.6032386 2.6197507 0.024417019
2.717183 1.7109483 2.7295563 0.027311152 3.0167184 9.279814 4.707677 -13.146652
-12.888608 1.5229194 2.1000855 2.9646091 2.5147371 5.159441 5.072008 5.151044
0.031922255 2.2502844 2.7720063 3.3141465 2.9159563 4.403326 1.5331172 2.4347174
2.7480507 3.426044 1.3093991 1.89692 3.2090726 3.7546282 2.7113054 3.00407
2.0151527 -12.738802 2.8480985 3.0756276 2.8979661 5.3150353 5.1352534 9.332065
2.3992867 5.140826 3.0412405 3.0575047 4.9953833 2.821905 4.7093377 5.2011933

net.2.bias f4 [128]
00000000: 98b6 28bf 5ea4 62be eff5 0bc1 5c0c c0be
00000010: f709 3b3d 0d93 1340 869f 97bc c15b 7640
00000020: 1d0b 7540 0d81 b2bd bc95 1841 fc16 94bf
00000030: 997d b1bd 7dd7 16bf cd7d 7440 eaf5 a23c
00000040: 89a2 7540 8056 0dbf c2d7 ffbe bf3f babe
00000050: 2312 d4bc aab1 7c40 c58d e83c 2726 d0c0
00000060: 1c13 00c1 fcf9 09c1 6a54 aabd b2e3 6d40
00000070: 0f43 7340 8a26 8d3f 0824 7a40 620e a7bd
00000080: b443 08bd 5866 25bd 974f 7540 f2cd 56bf
00000090: 56a2 803d a12e 1840 d391 7140 8caf 1c41
000000a0: 4bf1 0840 6d47 a1bb 7ce4 63bd 5f04 acbc
000000b0: 2bdc 7f40 c88d 7b40 053a 8b3d 0aed dcbf
000000c0: 48af cec0 d76f f63c 4ecb a4be 00a5 31bf
000000d0: 46b5 f53c d612 06bf 12c2 7940 b4a4 75bc
000000e0: 4485 343d df3b 7840 9830 04bf 333d 0cc1
000000f0: dd27 933c 5185 abc0 afae 6cbe 32ee 95be
00000100: 7e69 f3c0 3637 f9bc 3c04 6f40 c6e4 7540
00000110: 67a4 1240 a540 0f40 349a a6bd 3bcc 6e40
00000120: daae 803c e008 96bd 0949 7c40 7927 05c1
00000130: 8f2d 7240 8bf2 6940 7901 52c0 ed0b 8d3f
00000140: e8da ffbe f81a 05bd 5676 6a40 2f93 03bf
00000150: a567 943d c8d8 09bd ecb7 c03c ba5b 1140
00000160: 902d 7840 b27c 24bd bba3 e9c0 1a86 97c0
00000170: 2ff5 8838 c2b9 723d 06ba 61bd 8f71 7a40
00000180: 9ea7 e2c0 affc 693c 042c 7640 f77d c3bd
00000190: 6f54 a6bd 395b 0bc1 25d7 43c0 8bff 0c41
000001a0: c357 edbc 4432 c8c0 961e 043d 3f1d f5c0
000001b0: eaa2 e33f 33a6 1f3c f318 1640 482d 7240
000001c0: c1ad e1be ba06 6ebd db67 dbbe 09d1 103f
000001d0: ee3a 09c1 8548 aac0 6e70 743c 88e1 25bf
000001e0: 68b5 b3c0 cfda cec0 b36f 07c1 8283 9cbd
000001f0: 5c5f 7540 a78d c6bd 6eb2 ddbe b2ec 1640
-0.65903616 -0.22133014 -8.747542 -0.3750943 0.0456638 2.3058503 -0.018508684 3.8493502
3.8288033 -0.08716021 9.536556 -1.1569514 -0.08666534 -0.5892256 3.8201783 0.019892652
3.8380454 -0.55210114 -0.49969298 -0.3637676 -0.025887555 3.9483438 0.028387913 -6.5046573
-8.004665 -8.623531 -0.08316882 3.7170224 3.800968 1.1027386 3.9084492 -0.0815704
-0.03326769 -0.040380806 3.8329828 -0.83908 0.06280963 2.377846 3.7745254 9.792858
2.1397274 -0.0049218447 -0.05563782 -0.020998178 3.997813 3.9305286 0.06798176 -1.7259839
-6.4588966 0.030082626 -0.3218636 -0.69392395 0.029993664 -0.5237249 3.90247 -0.014992882
0.044072405 3.8786542 -0.5163665 -8.764941 0.017963344 -5.360024 -0.23113512 -0.2928329
-7.6066275 -0.030421834 3.7346334 3.8420882 2.2912843 2.2383206 -0.08134881 3.7312152
0.015708376 -0.073259115 3.9419577 -8.322137 3.7840307 3.6554286 -3.28134 1.1019264
-0.499717 -0.032496423 3.6634727 -0.5139646 0.07246331 -0.033654004 0.0235252 2.2712235
3.877781 -0.04015798 -7.3012366 -4.73512 6.530654e-05 0.059259184 -0.055109046 3.913181
-7.082961 0.014281436 3.8464365 -0.0954551 -0.08121573 -8.709771 -3.0600064 8.812388
-0.028972512 -6.256136 0.03225573 -7.65982 1.7784092 0.009744215 2.3452728 3.7840137
-0.44077876 -0.058111884 -0.42852673 0.5656896 -8.576887 -5.3213525 0.014919383 -0.6479726
-5.6158943 -6.46421 -8.46477 -0.076422706 3.8339453 -0.09694987 -0.43300194 2.3581967

net.4.weight f4 [20, 128]
00000000: 9e81 b5bf 57b0 9bbf 3408 fc40 51e0 9fbf
00000010: d801 8dbc ec98 9d40 1585 7a3d 65fc 8140
00000020: 3fcf 9440 78f0 0cbd 4a56 e13f c1ac bcbf
00000030: 3753 f03c be85 b2bf 54f3 8f40 2a2a 6bbc
00000040: 837d 8840 fc8e 8cbf 8297 9abf 577f 96bf
00000050: 3fc8 40bd ec4b 8540 e25a 8abd a58d ee40
00000060: cd83 f840 79c5 f640 238e 1e3c 92a7 8b40
00000070: 70f3 9540 cfb3 9c40 cf5a 8d40 8f66 fb3b
00000080: 7d00 3d3a bab0 493d 6fbd 8840 43ef b7bf
00000090: a066 8dbd b327 9b40 f92d 8f40 f56a f03f
000000a0: 1b62 9840 3c69 16bc 23eb 1b3d 0c61 42bb
000000b0: b793 9140 7607 8b40 b323 93bd 1f60 a840
000000c0: 007f f240 98b7 ad3d 7b16 9abf df9d a3bf
000000d0: 2f00 8dbf e5e4 a5bf 7448 8940 813b 973d
000000e0: 718f 97bd 07e2 9240 b84e 89bf 3aad fa40
000000f0: 9c29 653d 8c41 e240 17f8 96bf 9f81 88bf
00000100: c168 f440 83be 03bd 756b 8b40 3cda 8840
00000110: 0309 9c40 987b 9c40 2d74 2f3d 4c14 8240
00000120: 4692 2fbd a7bd 91bf 94a9 8b40 7c14 f940
00000130: 01f3 8f40 2d6b 6f40 d405 c740 b1ce 9840
00000140: 2922 adbf 2dee 82bb c517 8f40 d83b 9fbf
00000150: 0505 8cbb f96f a43d 9c32 a93d bd31 9640
00000160: 6036 8f40 8538 1e3d 5058 f540 7750 dd40
00000170: 60e0 ac3d c1d9 9740 5c9a 5f3d 5866 8e40
00000180: a1ab f040 bf5d 49bd d9c8 8b40 e224 97bc
00000190: 2cea 8c3d 7a5b f840 7ab5 c240 e403 873f
000001a0: be7a 4bbc bc43 ef40 d6be 893c f65c f540
000001b0: 8ddb 9940 9241 d93c 9a3f 9a40 8567 8640
000001c0: 02ee a3bf b9a5 97bd f144 a9bf 4615 0fbf
000001d0: bf52 f840 5604 e440 2796 1d3d a227 a1bf
000001e0: ff89 eb40 f433 ed40 18ab fc40 f96a 11bd
000001f0: 1339 8640 1c00 a33d bd72 aabf 5865 9c40
00000200: c215 46bf aca3 1bbf bb23 e840 e677 5abf
00000210: 4bf0 86bd c6a8 9240 976b b4bc b4f3 8140
00000220: d22c 8b40 f975 6d3d ea6b 9d3e e638 87bf
00000230: e735 bcbc af39 46bf 1dd4 8740 9045 f33b
00000240: c706 8440 dd0f 1bbf e21d 2dbf fb26 2fbf
00000250: e0a7 9b3d cb48 8340 bc3f 1f3d 9e38 ea40
00000260: 33a8 e640 cb4c e540 2eb5 a93d 33a5 8440
00000270: 1379 8c40 9907 9640 41d9 8840 d18e aa3d
00000280: 27cb 343d 1483 0dbd 3a50 8640 2995 61bf
00000290: d6a4 54bd c42e 9140 327f 8740 ec12 0b3f
000002a0: 9d93 9240 a333 213c f463 253d 729d 0cbd
000002b0: 2e6f 8a40 829f 8640 0d55 8abd 1612 c240
000002c0: 9c1a ec40 02ff e23b e0a5 26bf bb0c 36bf
000002d0: 8627 39bf 06af 59bf 1cc2 8940 9995 96bd
000002e0: f4ab 813e 78b9 8c40 430b 22bf 950d e840
000002f0: 3e56 2d3d 1ef9 e940 d724 24bf 9b83 1ebf
00000300: c7d7 e840 0b64 ae3d 3864 8740 fdd2 8440
00000310: 1791 9040 8a21 9140 eaed dfbb 8970 7a40
00000320: d7b9 a6bc 8d27 1cbf 9add 8840 5a73 e540
00000330: 7317 8940 b722 6f40 398d dd40 2a59 9640
00000340: 3422 5fbf 2047 6dbc a8d6 8940 b6e2 50bf
00000350: 4842 2fbd 4ac0 70bd e7f1 5a3d 0428 8e40
00000360: 3f5f 8a40 0321 3ebd e857 eb40 a3e8 e840
00000370: b310 213d cf7d a040 e47d 2c3d 685f 8740
00000380: 7b93 e940 7ee6 893d 188f 8540 5e5e a8bd
00000390: 4daf 77bd 375f e640 6d06 db40 63c3 2c3f
000003a0: 95ac 9ebd 9bcf ed40 e1a3 873d 9c40 e840
000003b0: b246 9140 ed31 513d 1619 9140 976a 8340
000003c0: b482 26bf a58b 503d a6f7 4abf ec22 10bf
000003d0: 1207 e640 9b9a eb40 b320 a53d 0f8b 3bbf
000003e0: ec98 e940 0f84 ed40 d7a5 e440 8d2e d8bc
000003f0: a497 8240 f61c 99bd d87b 3dbf 25cd 8f40
-1.4180181 -1.216319 7.8760014 -1.2490331 -0.017212793 4.924917 0.061162073 4.06206
4.6502986 -0.034409016 1.7604458 -1.474022 0.029336555 -1.3947065 4.498453 -0.014353314
4.2653213 -1.0981135 -1.2077487 -1.1757611 -0.04706597 4.165518 -0.06755616 7.4547906
7.766089 7.7116055 0.009677443 4.3642054 4.6859665 4.8969493 4.417335 0.007672138
0.00072098506 0.049240805 4.273124 -1.4369892 -0.0690434 4.848596 4.474362 1.8782641
4.761976 -0.009180363 0.03806604 -0.0029659895 4.5492816 4.3446608 -0.071845435 5.2617335
7.578003 0.08482283 -1.203811 -1.2782553 -1.1015681 -1.2960478 4.2900944 0.07384396
-0.07400406 4.590091 -1.0727148 7.833646 0.055947885 7.0705013 -1.1794461 -1.0664557
7.6377873 -0.032164108 4.3568673 4.27664 4.8761 4.890087 0.042835403 4.0649776
-0.042864107 -1.1386002 4.3644505 7.7837505 4.4984136 3.7409165 6.2194614 4.775231
-1.352605 -0.003995678 4.4716516 -1.2440138 -0.0042730593 0.080291696 0.08261606 4.6935716
4.4753876 0.03862812 7.6670303 6.9160724 0.08441234 4.7453313 0.054590568 4.449993
7.520951 -0.04916167 4.3682675 -0.018450204 0.06880602 7.7611666 6.084653 1.0548062
-0.012419401 7.4770184 0.01681463 7.667598 4.8080506 0.026520524 4.820264 4.2001367
-1.2807009 -0.07404656 -1.3224164 -0.55891836 7.760101 7.1255293 0.038473275 -1.259022
7.360595 7.412592 7.8958855 -0.035502408 4.194467 0.07959005 -1.3316265 4.887371
-0.7737695 -0.6079662 7.2543616 -0.853392 -0.06588801 4.583102 -0.02202396 4.060999
4.349221 0.057973836 0.30746394 -1.0564239 -0.022974921 -0.7743177 4.2446427 0.007424064
4.1258273 -0.6057108 -0.6762372 -0.68418854 0.07600379 4.102636 0.03887914 7.3194113
7.208032 7.165624 0.082865104 4.145166 4.3897796 4.6884274 4.2765203 0.08328021
0.044139054 -0.034548834 4.1972933 -0.88118225 -0.051915012 4.5369587 4.234277 0.5432575
4.580519 0.009838971 0.040378526 -0.03432984 4.3260717 4.206971 -0.067545034 6.0647078
7.378248 0.006927372 -0.65096855 -0.71113175 -0.7232593 -0.8503269 4.304945 -0.07352752
0.25326502 4.39764 -0.63298434 7.251658 0.042318575 7.31166 -0.64118713 -0.61919564
7.27634 0.085151754 4.2309837 4.1507554 4.517711 4.535344 -0.0068337815 3.9131186
-0.020352287 -0.6099785 4.277051 7.170331 4.2841125 3.7364938 6.923489 4.6983843
-0.87161565 -0.01448229 4.307453 -0.81595933 -0.04278782 -0.05877713 0.053453352 4.4423847
4.3241267 -0.0464182 7.3544807 7.278398 0.039322566 5.0153575 0.042112246 4.2303963
7.299253 0.06733416 4.1737175 -0.08221124 -0.060469914 7.199123 6.8445344 0.67485636
-0.07747761 7.4315925 0.06623054 7.257887 4.53988 0.051073004 4.5343122 4.1067615
-0.6504319 0.050914425 -0.7928413 -0.56303287 7.188363 7.3626227 0.080628775 -0.7325906
7.299917 7.4223704 7.145244 -0.026389385 4.081011 -0.07476227 -0.74017096 4.493792

net.4.bias f4 [20]
00000000: fc81 fb3f d33a ec3f a93c c33f 2f3f d53f
00000010: 3eb4 883f 919d 953f dddf c63f b726 ca3f
00000020: 470e f3bd 565b ef3f b671 b73e 6977 f63e
00000030: aed3 573f ee81 c93e d8bd 843f b7b0 e6be
00000040: 6946 df3e 27d5 4fbc 47f9 453f 0a91 653d
1.9649043 1.8455452 1.5252887 1.6659907 1.0680006 1.168871 1.5537068 1.5793065
-0.118679576 1.8699749 0.35828942 0.48137978 0.8430737 0.3935694 1.0370436 -0.45056698
0.43608406 -0.012685097 0.7733349 0.056046523
