realtime_model_ep53.pth (torch, 97600 bytes, 6 tensors)

net.0.weight f4 [128, 35]
00000000: b8a7 02c0 d2de ec41 d9bb 893e 7f81 73bf
00000010: 99b5 793e 7b65 adbf 6f3e e641 d17a db3e
00000020: 5222 7a3f e942 853f 2a3c e3bf 6cee e741
00000030: 8885 c23e 3175 d33f c9ef 613e ad06 8abf
00000040: 9758 e841 4963 383e c26a b23f 2e24 98bf
00000050: e9cc fdbf ec7d e941 26c9 b83e 24f3 1840
00000060: 587f 963e 74ad e740 4c85 d840 d466 1041
00000070: 0f49 e640 4618 d340 b914 c140 11b4 d040
00000080: 2fa2 e440 bb2f 7a40 d756 e040 cc47 00c0
00000090: d72f ed41 396a d73e 561a 4abf 632c 8d3e
000000a0: 1edc 8ebf 569c e741 60c3 273e 3ed9 6a3f
000000b0: b5b4 893f 78b3 ccbf 867b e841 3d4b aa3e
000000c0: ee1f d73f 4f08 a13e 5f0f 8bbf 9604 e841
000000d0: 2ef0 0e3e 56a1 b23f 8d65 7ebf c763 f3bf
000000e0: e889 e841 d9b1 5d3e 5fba 1540 7e09 efbc
000000f0: 4221 eb40 01a6 d640 ffcb 1041 717d e440
00000100: 7fec c940 c0c0 be40 fb04 cf40 616b e440
00000110: 4aa9 6e40 32f3 e340 424d f8bf 5c07 ee41
00000120: e29c f93e 7642 87bf 1d20 1b3f 4f9f 8bbf
00000130: 98c2 e941 94fa ef3e e607 683f 1957 b23f
00000140: 25da cfbf 842e ea41 4e1e 323f 34d7 cf3f
00000150: 8b80 fd3e c3e0 89bf 3f20 eb41 758e b63e
00000160: 2935 fe3f 6d8f 38bf 10bf fcbf ea5c ec41
00000170: 2567 143f 1816 1540 a86f d33e 014f f540
00000180: b45b e940 b30a 1041 4b38 e840 c6bb da40
00000190: 1361 c540 4b33 dc40 a1c7 ec40 3e3f 7940
000001a0: 8199 e840 ffcc eabf 23aa eb41 b134 29c1
000001b0: 6b31 19c0 51c2 4ec1 9a68 88bf 2f35 e841
000001c0: 3c9a 29c1 1cd1 483f 367f 41c1 5034 b2bf
000001d0: 035c e641 94a4 2ac1 d2bb 623f d98a 4bc1
000001e0: 076c 7bbf 1796 e841 1877 2dc1 eaa2 403f
000001f0: ff56 52c1 b7ba edbf 6c2c e841 77b5 2ac1
00000200: 35b6 0440 46ef 49c1 3f71 0b41 c2cd 0041
00000210: 6d19 4141 e2e5 2641 fc8a 0d41 4139 1f41
00000220: 4df9 0841 6a1e 2341 0a18 dc40 3dd9 1241
00000230: 32cb 793e ab1c 9ac1 ecf5 2b41 82b8 2c40
00000240: 19e3 f740 1d0b fe3d 8fd3 94c1 5f92 2e41
00000250: 8c50 1040 c3f2 e340 b6ea 8b3d e713 95c1
00000260: ea13 2941 1ca7 7840 5523 0d41 acc6 583f
00000270: 3c14 97c1 b038 2e41 3957 de3f f5bd 1b41
00000280: ec0c 113f 643b 96c1 b39d 2e41 21e5 09be
00000290: 98fb fb40 13df c540 fe41 be40 9813 b040
000002a0: 8a67 c340 9d74 1e41 c192 b740 5b24 c840
000002b0: a6c6 ef40 4b88 f540 32fa 0041 3363 05c0
000002c0: 0f93 eb41 cb59 99bd cda3 68bf a36e 4cbd
000002d0: 3df6 abbf 07a7 e541 4c08 46be df4e 5a3f
000002e0: b9b0 3c3f b806 b9bf 137e e641 d00b 873c
000002f0: 87b8 e53f ca83 7c3e ce5e 8cbf 906b e641
00000300: c5ea 7ebe e7f1 8e3f 0d7f adbf 702c debf
00000310: bd5c e741 b1eb 76bd 6d81 1a40 5cb8 893d
00000320: 2d71 e340 4939 ce40 e1b6 0b41 d356 da40
00000330: 9c4b c940 4595 b940 9387 ca40 2992 dc40
00000340: 19b1 6040 8815 db40 ea60 bf3c ae76 953d
00000350: 5cac 09be 533b 38bb b412 e3bd 69f9 523d
00000360: 0903 a03c 4b51 863d ada6 05be 0b9e acbd
00000370: b2c9 12be e122 ca3d 3627 e4bd 42e8 14bc
00000380: e430 e9bd c7bd 033e 126f d63d e497 55bc
00000390: 68b8 a1bd acf6 e03d 376c 273e c22c 09be
000003a0: e2f8 a93c 0e59 d5bd 4c6a 3a3d 30a9 caba
000003b0: 2aa2 babd 8eeb f6bd d488 653d aba9 13be
000003c0: afb4 84bd 9d33 19be e0a2 04be 8b46 8b3d
000003d0: 842e d93d 5e7e 05c0 fba9 eb41 701c c83a
000003e0: 08fb 81bf 40f6 303e d424 9bbf 864f e641
000003f0: ef05 69be 97bd 613f 5ac5 3d3f 23ac b4bf
-2.0414867 29.608799 0.2690113 -0.9511947 0.2438568 -1.3546594 28.780485 0.4286714
0.9770862 1.0411044 -1.7752736 28.991417 0.379925 1.6520139 0.22064127 -1.0783287
29.043257 0.18006624 1.393883 -1.1886041 -1.9828159 29.186485 0.36090964 2.3898401
0.2939403 7.2399235 6.7662716 9.0251045 7.1964183 6.596713 6.0337796 6.521981
7.144798 3.9091632 7.0106006 -2.0043821 29.64836 0.4207323 -0.78946435 0.27572927
-1.1160924 28.951336 0.16383123 0.91737735 1.0758272 -1.599227 29.060314 0.33260527
1.6806619 0.3145165 -1.0864066 29.00224 0.13958809 1.3955486 -0.99373704 -1.9014825
29.067337 0.21649875 2.3395002 -0.02917933 7.34781 6.707764 9.049804 7.1403127
6.310119 5.961029 6.469358 7.138108 3.7290826 7.123437 -1.9398577 29.753593
0.48752505 -1.0567157 0.60595876 -1.0907992 29.220016 0.46870863 0.9063705 1.393283
-1.6238447 29.272713 0.6957749 1.623755 0.49512133 -1.0771717 29.390745 0.3565556
1.9859973 -0.7209385 -1.9745808 29.545368 0.57969886 2.3294735 0.41296124 7.665894
7.292444 9.002612 7.2568717 6.8354216 6.1681 6.8812613 7.399369 3.894485
7.2687383 -1.834381 29.458075 -10.575364 -2.3936412 -12.922441 -1.0656922 29.025969
-10.600155 0.78444076 -12.093557 -1.3922215 28.794928 -10.66518 0.8856784 -12.721398
-0.9821171 29.073286 -10.841576 0.7524859 -13.146239 -1.8572606 29.02169 -10.669303
2.073621 -12.620916 8.715148 8.050234 12.068707 10.431124 8.846432 9.951478
8.560864 10.194925 6.8779345 9.178037 0.24393919 -19.263998 10.7475395 2.6987615
7.746472 0.124044634 -18.6033 10.910735 2.2549162 7.123384 0.06831877 -18.634718
10.567362 3.8851995 8.821126 0.8467815 -18.88488 10.88884 1.7370368 9.733876
0.5666034 -18.779 10.913501 -0.13466312 7.874462 6.1834807 5.9455557 5.502392
6.106389 9.90347 5.7366643 6.254438 7.492999 7.6728873 8.061083 -2.0841796
29.446806 -0.0748783 -0.9087494 -0.0499102 -1.3434521 28.706556 -0.19339103 0.852766
0.7370716 -1.4455175 28.81156 0.016485125 1.7946938 0.24659649 -1.0966432 28.80252
-0.24894245 1.1167573 -1.3554398 -1.7357311 28.920282 -0.060283367 2.4141495 0.06724617
7.1075654 6.444493 8.732148 6.8230987 6.2904797 5.7994714 6.3290496 6.892842
3.5108092 6.8463783 0.023361642 0.07298027 -0.13444656 -0.0028111532 -0.11087552 0.051507387
0.019532697 0.06558474 -0.13051863 -0.08428582 -0.14334753 0.09869934 -0.111402914 -0.009088578
-0.11386278 0.12865363 0.10470404 -0.013036702 -0.07896501 0.10984549 0.16349874 -0.1339598
0.02074856 -0.104173765 0.04551153 -0.0015461799 -0.091129616 -0.12056647 0.056038693 -0.14420192
-0.06479775 -0.14961095 -0.12952757 0.068005644 0.10604575 -2.0858378 29.457998 0.0015267264
-1.0154734 0.17281437 -1.2120614 28.78883 -0.2275617 0.88179916 0.7412926 -1.4115032

net.0.bias f4 [128]
00000000: 8f37 5640 1142 4f40 639b 5e40 96c4 98c0
00000010: d986 1c41 2024 3e40 5ffc 41be 49cd 3640
00000020: f30c 3340 e028 5b40 f591 2d40 353d 3b40
00000030: 8932 1941 471c 1e41 48c2 3b40 ddbc 3540
00000040: ed26 3540 d317 1b41 2182 3c40 a041 1c41
00000050: c334 6a3c fe9c 4f40 a1b9 19be 7ec3 a73f
00000060: 67d5 5040 7f1a abc0 8b86 1d41 8592 3040
00000070: 6fcb 3540 1872 5c40 75e7 5340 6d81 2e40
00000080: ff57 3140 ec7e 1f41 d6cd 1c41 1c7b 5140
00000090: f193 3b40 64d6 1a41 1897 3140 1c0d 3140
000000a0: c967 6340 8af9 1a41 2c45 3140 51ee 3040
000000b0: 2d5d aebd e0ec b4bc d87f c73f c66f 56bd
000000c0: 960c 4540 4e69 0fbd 337c 3340 28e6 15be
000000d0: 73d5 1941 5a94 2c40 8af6 3340 24d1 2f40
000000e0: 9dc0 2940 357c 1c41 a50f 43be 4d56 5640
000000f0: ac1a 2940 0841 1d41 e090 6440 1aa3 68bd
00000100: c60b 6040 1cf6 5e40 b5d3 3640 f2a1 2a40
00000110: d28b 1a41 32be 1841 08e1 2f40 326b 4440
00000120: 91ba 5840 19bd 3040 bf52 1d41 4bdb 3740
00000130: 6be0 1841 61bb 3240 80f0 3240 3c32 203d
00000140: 3f5c 3240 77b8 3840 e139 3140 76a3 31be
00000150: f711 1a41 d3ec c93f 03a3 3b40 b47e 91c0
00000160: be16 97c0 744a 3640 6910 2c40 2f42 2c40
00000170: d51d 3340 8a02 6640 cbef 6040 60bf 5340
00000180: 0825 18bd 9dc6 2c40 1e65 1c41 8be4 3840
00000190: a19d 1d41 c2c5 4240 9d9d 3340 6cb9 3a40
000001a0: 4d6c 2041 505e 2d40 3853 2640 f220 2b40
000001b0: 48eb 3140 c5e2 3f40 2fe4 3440 0a93 1941
000001c0: 8cc1 3640 2098 90c0 d639 1d41 d210 1a41
000001d0: fbdf 1841 fb3f 6440 e13a 6140 43e1 b33f
000001e0: f00b 3440 7764 6640 3404 1c41 4bf2 1d41
000001f0: 55b0 4440 8e74 2241 afa0 3d40 131b 5c40
3.347141 3.2384074 3.478234 -4.7739973 9.782922 2.970955 -0.18943928 2.8562796
2.7976654 3.4243698 2.7120335 2.9256108 9.574838 9.881904 2.933733 2.8396523
2.8305008 9.693316 2.9454424 9.766022 0.014294806 3.243957 -0.15012218 1.3106534
3.263025 -5.3469844 9.845347 2.7589428 2.8405416 3.4444637 3.311002 2.7266495
2.7709959 9.968487 9.800253 3.273139 2.9309046 9.677341 2.774847 2.7664251
3.5532095 9.685923 2.769847 2.7645457 -0.085138656 -0.022085607 1.558589 -0.05235269
3.0788932 -0.035012536 2.8044555 -0.14638579 9.614612 2.6965547 2.8119226 2.74714
2.6523812 9.780324 -0.19048937 3.3490174 2.642253 9.828377 3.5713425 -0.05679617
3.5007186 3.4837713 2.8566716 2.6661344 9.659136 9.546434 2.7481098 3.0690427
3.386387 2.7615416 9.832702 2.8727596 9.55479 2.7926867 2.795929 0.039110407
2.7868803 2.8862588 2.7691576 -0.17347512 9.629386 1.5775398 2.9318244 -4.5467167
-4.721526 2.8482943 2.6885016 2.6915395 2.7986958 3.593905 3.5146358 3.3085556
-0.03714469 2.6996224 9.774687 2.8889492 9.850984 3.0433202 2.806495 2.9175673
10.026441 2.7088814 2.5988293 2.6738858 2.7799854 2.998216 2.8264272 9.598398
2.8555632 -4.51857 9.82662 9.6291065 9.554683 3.566405 3.5192187 1.405312
2.8132286 3.599882 9.751026 9.871654 3.0732625 10.153456 2.9629323 3.4391525

net.2.weight f4 [128, 128]
00000000: 9c65 9e40 ca20 9c40 91bb 9e40 3a8f 4dc1
00000010: d4a8 1e40 0c19 3140 1d31 be3b de4b 3140
00000020: e373 1740 8bd6 9e40 5f9c 0c40 7626 4840
00000030: 574e 2e40 32ee 2640 e098 0940 f2b4 0f40
00000040: d18b 2940 61b5 3140 6807 4640 74de 1840
00000050: 6533 9abd 1759 9f40 3bad 673d 7732 0d41
00000060: d6a0 9e40 a461 56c1 2c2a 1540 9c7f 1d40
00000070: f049 e43f e661 9a40 a11e 9a40 5ce3 ed3f
00000080: 8b37 d83f 21ea 2340 568a 1940 133c a040
00000090: 43fe 5340 0c19 2540 e938 3c40 0166 f23f
000000a0: 6647 9d40 99b7 2340 2a5b f43f 3c51 3c40
000000b0: 0d22 b53c 2adc 483d 9c49 1641 4920 c23c
000000c0: f617 8e40 e506 3b3d 21a8 3040 e340 4f3d
000000d0: 82c7 2540 e856 3240 3cc7 1340 4c59 d43f
000000e0: a417 0f40 dce8 1640 b890 383d cf78 9b40
000000f0: a58f 4740 2297 2340 1c63 9c40 c10f 423d
00000100: 8897 9840 b059 a240 e738 4d40 1126 7a3f
00000110: f28c 1b40 9fb7 2c40 cd7f 7a40 8c1f 8d40
00000120: 3aad 9e40 9aea a73f a908 2140 6802 8840
00000130: d94a 2e40 6455 2d40 1991 3240 b96f b2bd
00000140: 3a32 2a40 c8f9 bf3f 7a5e 2e40 af05 583d
00000150: 0bba 2840 fbda 1441 b334 9240 ef86 55c1
00000160: a6e5 4fc1 5107 b13f f464 f13f a87f 4640
00000170: e6e3 1e40 f1da 9f40 aa84 9d40 db1a 9e40
00000180: be73 9fbd e9f4 0640 013d 1a40 fb17 5d40
00000190: 5cc6 1f40 b1f8 8a40 7aaa bc3f a541 1840
000001a0: 76e4 1340 3bc4 5e40 2398 9f3f d85e f43f
000001b0: 5398 4240 92e1 6440 9634 3140 bac7 2340
000001c0: 5c6d e43f e141 4ec1 9080 1a40 db80 2a40
000001d0: 4131 2440 8c4b 9e40 7298 9a40 1487 1541
000001e0: 4dc7 1a40 80cd 9b40 4b24 2240 b4f9 2140
000001f0: 4a3e 9d40 291d 1e40 945e 8e40 6e88 9f40
00000200: 7495 9b40 a7c7 9b40 3cd6 9e40 4d91 50c1
00000210: 2b17 3940 5ca9 1c40 a7e9 d63c eb99 2140
00000220: 473a 1240 a794 a240 4c85 0240 f76b 4740
00000230: 8497 4440 02e3 3a40 d386 fe3f 71ed 0a40
00000240: 36e7 2040 78a7 4440 0c34 3540 defe 3940
00000250: e1a8 adbd 8e06 a240 4169 66bb 2017 0e41
00000260: 1e9d a040 b00c 58c1 b392 2e40 a1e0 1740
00000270: 2bf3 de3f 9647 9f40 cb45 9f40 8247 f33f
00000280: 9c9e e73f a54c 4140 cef8 3540 f26f 9f40
00000290: fe75 4440 6853 3940 3ed8 3640 4dbd e03f
000002a0: 79a1 9e40 9e3f 3840 fa7f f23f 737c 3240
000002b0: 9977 1e3b 91e9 e73c 2c8a 1441 8dc8 213d
000002c0: 3e2c 8c40 ba9a 11bd 8b69 2a40 15bb 133c
000002d0: 6d4f 3c40 1314 2840 4354 0240 4017 e13f
000002e0: cfdd 0a40 b8ac 2d40 f892 95bd 316c a140
000002f0: 012c 3940 4a86 3d40 a465 9c40 003b 28bd
00000300: 884a 9c40 19f6 a340 e22b 3c40 aa3a 813f
00000310: 9090 2f40 59ef 4440 a35e 8240 cc74 8740
00000320: 98cb a040 a009 853f 23b2 4140 8239 8540
00000330: 3248 4240 99ef 1d40 e402 1f40 3306 c83c
00000340: d33b 2540 3bb4 c93f 690a 2640 3fbc e73c
00000350: b4eb 3e40 c36f 1241 876d 9240 321e 56c1
00000360: fdfa 51c1 86a0 b13f 9a8c fb3f 7a16 3540
00000370: 4453 1840 54fd a040 c531 9e40 61be a040
00000380: e9c0 023d d65b 0740 fbc4 2f40 ea75 4b40
00000390: 10ed 3840 d8a7 8840 d3f8 b23f b32e 1340
000003a0: 6e43 2e40 aa98 5240 0330 963f b180 e13f
000003b0: eecd 4440 b3a8 6740 ebe8 2440 6f28 3e40
000003c0: a2a8 f03f 8e93 4fc1 f79e 3440 26a6 4240
000003d0: c493 3740 de05 a640 d43a a040 5e42 1341
000003e0: a9eb 1040 2b66 a040 0f9f 4040 b98a 4140
000003f0: 4fac 9b40 2d1b 3340 3174 9240 2249 a240
4.9499035 4.8790026 4.9603963 -12.847467 2.4790545 2.7671537 0.0058041946 2.7702556
2.3664482 4.9636893 2.1970441 3.1273475 2.7235315 2.6082883 2.1499557 2.245419
2.6491587 2.7766955 3.094202 2.3885775 -0.07529334 4.979625 0.05656169 8.8248205
4.9571333 -13.398838 2.330699 2.4609137 1.7835064 4.8244505 4.816239 1.858501
1.689195 2.561165 2.3990684 5.0073333 3.312394 2.5796537 2.9409735 1.8937379
4.9149656 2.558081 1.9090321 2.9424582 0.022110963 0.04903809 9.392971 0.023697035
4.440425 0.045660872 2.7602618 0.05059899 2.590302 2.7865543 2.3090353 1.6589751
2.235818 2.3579626 0.04505989 4.858497 3.1181424 2.5560994 4.8870983 0.047378305
4.7684975 5.073448 3.206598 0.97714335 2.4304776 2.6987073 3.9140503 4.410101
4.958646 1.311847 2.5161536 4.2502937 2.7233183 2.7083368 2.790106 -0.08712716
2.6593156 1.4998102 2.7245164 0.052739795 2.6363552 9.303462 4.568933 -13.345443
-12.9935665 1.3830358 1.8858933 3.1015415 2.4826598 4.9954762 4.9224443 4.9407783
-0.07785748 2.1086981 2.4099734 3.4545887 2.496482 4.342858 1.4739525 2.3790066
2.3108191 3.480727 1.2468303 1.9091444 3.0405471 3.5762677 2.7688346 2.5590653
1.7845874 -12.891084 2.4140968 2.6641147 2.5655062 4.946722 4.831109 9.345478
2.4184144 4.8688354 2.5334651 2.5308657 4.9138536 2.4705298 4.449045 4.985404
4.861994 4.8681216 4.9636517 -13.035474 2.892039 2.4478369 0.026234461 2.5250194
2.284807 5.080646 2.0393858 3.1159647 3.0717478 2.9201055 1.9884895 2.1707423
2.514112 3.0727215 2.8313017 2.9061809 -0.08479477 5.0633 -0.003515795 8.880646
5.0191793 -13.503098 2.7277038 2.3730853 1.7417959 4.9774885 4.9772696 1.9006197
1.8095279 3.020303 2.8433108 4.982415 3.0697017 2.8957157 2.8569484 1.755777
4.957211 2.878883 1.8945305 2.7888458 0.0024180172 0.028309615 9.283733 0.0394979
4.3804007 -0.03554795 2.6626918 0.009016772 2.9423478 2.6262252 2.036393 1.758522
2.1697881 2.713667 -0.07303423 5.044457 2.8933108 2.9613214 4.8874073 -0.04107189
4.884098 5.123791 2.9401784 1.0096028 2.7431984 3.0771086 4.0740523 4.2330074
5.0248528 1.0393562 3.0264976 4.16327 3.0356565 2.4677489 2.4845514 0.024417019
2.5817764 1.5758127 2.5943854 0.028288005 2.9831362 9.152286 4.57587 -13.382372
-13.123776 1.3877113 1.9652283 2.8294969 2.3800821 5.030924 4.9435754 5.0232396
0.031922255 2.1149802 2.7463977 3.179072 2.8894691 4.2704887 1.3982185 2.2997253
2.7228656 3.2905679 1.1733402 1.7617399 3.075069 3.6196716 2.5767162 2.9712179
1.8801463 -12.973524 2.8222024 3.041391 2.868394 5.188216 5.007181 9.203703
2.2643836 5.0124717 3.0097082 3.024092 4.864784 2.7985337 4.5766835 5.0714273

net.2.bias f4 [128]
00000000: bd90 40bf 7189 95be 9a24 0ac1 77ac edbe
00000010: f709 3b3d 6da6 2b40 869f 97bc 3df7 8540
00000020: fd9b 8540 0d81 b2bd e6ab 0441 7722 a2bf
00000030: 997d b1bd 19b2 2ebf a167 8540 eaf5 a23c
00000040: ebb7 8540 3c26 1dbf 7a4b 14bf 6a9e e5be
00000050: 2312 d4bc 7523 8940 c58d e83c c1c5 cdc0
00000060: d315 fdc0 162c 08c1 6a54 aabd 93e4 8140
00000070: dec2 8440 3bc0 bc3f da1f 8840 620e a7bd
00000080: b443 08bd 5866 25bd 4b8d 8540 81de 71bf
00000090: 56a2 803d 5612 3040 c0b5 8340 1b65 0841
000000a0: 35fb 2040 6d47 a1bb 7ce4 63bd 5f04 acbc
000000b0: 6c10 8b40 4ccf 8840 053a 8b3d 2735 c0bf
000000c0: 295a ccc0 d76f f63c 6663 c9be b2b2 48bf
000000d0: 6734 36bd 2224 1dbf 46d3 8740 b4a4 75bc
000000e0: b1c5 02bd b239 8740 f7e1 15bf ab74 0ac1
000000f0: dd27 933c fae0 a9c0 012a 96be 6277 b8be
00000100: b3b1 f0c0 3637 f9bc b775 8240 59eb 8540
00000110: 21b8 2a40 c96d 2740 349a a6bd 5a38 8240
00000120: daae 803c 868c 16be ca4b 8940 ea52 03c1
00000130: 492d 8440 8c5e 7f40 632a 4cc0 340f bd3f
00000140: 2df2 18bf f81a 05bd 6571 8040 6fad 1bbf
00000150: a567 943d c8d8 09bd ecb7 c03c 6f31 2940
00000160: 0a1f 8740 b27c 24bd ede2 e6c0 cb74 96c0
00000170: 2ff5 8838 647c d23e 06ba 61bd 8553 8840
00000180: f421 e0c0 affc 693c 6506 8640 f77d c3bd
00000190: eb38 a6bd 408e 09c1 2b5f 3dc0 2d19 f340
000001a0: c357 edbc ee06 c6c0 961e 043d 2733 f2c0
000001b0: 39b9 0940 33a6 1f3c 6d17 2e40 e319 8440
000001c0: 45bd 05bf ba06 6ebd e207 05bf 0d67 293d
000001d0: 2873 07c1 866b a8c0 6e70 743c 92d9 3bbf
000001e0: a5b4 b1c0 f98f ccc0 f29f 05c1 8283 9cbd
000001f0: bc72 8540 a78d c6bd 621a 05bf c7c4 2e40
-0.75220853 -0.29206422 -8.633936 -0.46420643 0.0456638 2.6820328 -0.018508684 4.1864305
4.1752915 -0.08716021 8.291967 -1.2666768 -0.08666534 -0.68240505 4.1689 0.019892652
4.178701 -0.61386466 -0.5792767 -0.44847423 -0.025887555 4.2855783 0.028387913 -6.43039
-7.908914 -8.510763 -0.08316882 4.059152 4.1487875 1.4746164 4.253888 -0.0815704
-0.03326769 -0.040380806 4.1734977 -0.9448014 0.06280963 2.7511191 4.1159363 8.524684
2.5153325 -0.0049218447 -0.05563782 -0.020998178 4.3457546 4.275305 0.06798176 -1.5016221
-6.386006 0.030082626 -0.39333647 -0.7839767 -0.04448357 -0.6138326 4.24454 -0.014992882
-0.031926814 4.225793 -0.5854792 -8.653483 0.017963344 -5.308713 -0.2932892 -0.36028582
-7.521692 -0.030421834 4.0768695 4.184979 2.6674883 2.6160758 -0.08134881 4.069379
0.015708376 -0.14702043 4.2905016 -8.207743 4.130528 3.9901457 -3.190087 1.4770265
-0.5974453 -0.032496423 4.013842 -0.60811514 0.07246331 -0.033654004 0.0235252 2.6436422
4.222539 -0.04015798 -7.215201 -4.701757 6.530654e-05 0.41110528 -0.055109046 4.2601953
-7.0041447 0.014281436 4.1882806 -0.0954551 -0.08116325 -8.597229 -2.9589336 7.596823
-0.028972512 -6.188346 0.03225573 -7.568744 2.15193 0.009744215 2.7201798 4.12816
-0.5224193 -0.058111884 -0.51965153 0.041358043 -8.465614 -5.2631254 0.014919383 -0.7337886
-5.5533013 -6.392575 -8.351549 -0.076422706 4.1702557 -0.09694987 -0.5199338 2.7307603

net.4.weight f4 [20, 128]
00000000: 7a36 8ebf 3f5a 64bf 30ee ec40 d698 6ebf
00000010: d801 8dbc baad 9840 1585 7a3d 86ce 7f40
00000020: 90b4 9240 78f0 0cbd a123 2240 c993 96bf
00000030: 3753 f03c 0a11 8bbf a8e9 8d40 2a2a 6bbc
00000040: 4c7b 8640 897b 46bf 9f9f 63bf 9a3f 5cbf
00000050: 3fc8 40bd 863e 8340 e25a 8abd b8fa df40
00000060: 4eb0 e940 78b4 e740 238e 1e3c 3f9e 8940
00000070: a9d2 9340 c4e2 9540 6247 8b40 8f66 fb3b
00000080: 7d00 3d3a bab0 493d a9b9 8640 79b7 91bf
00000090: a066 8dbd 813d 9640 d81b 8d40 5fc8 2940
000000a0: bc3f 9340 3c69 16bc 23eb 1b3d 0c61 42bb
000000b0: 057a 8f40 5507 8940 b323 93bd b77e 9d40
000000c0: 0fef e340 98b7 ad3d d299 61bf 11fe 77bf
000000d0: 2408 46bf f99b 7bbf 3240 8740 813b 973d
000000e0: f753 acbc adcc 9040 63e1 3fbf a89e eb40
000000f0: 9c29 653d f8df d340 4836 5abf 4fb8 3dbf
00000100: 29c7 e540 83be 03bd da59 8940 89da 8640
00000110: 53f8 9640 168e 9740 2d74 2f3d 980d 8040
00000120: 4692 2fbd b6cd 4fbf 0f98 8940 9cf9 e940
00000130: 2cdd 8d40 b7b7 6b40 d546 ba40 e6dc 9140
00000140: 3ab7 85bf 2dee 82bb 2507 8d40 4f80 6fbf
00000150: 0505 8cbb f96f a43d 9c32 a93d 6d52 9140
00000160: a023 8d40 8538 1e3d bdb5 e640 b73d cf40
00000170: 60e0 ac3d f4d7 8f40 5c9a 5f3d f450 8c40
00000180: f012 e240 bf5d 49bd 5ec6 8940 e224 97bc
00000190: 2cea 8c3d b24c e940 9a16 b640 579d e93f
000001a0: be7a 4bbc 6cb7 e040 d6be 893c 5caa e640
000001b0: 1fea 9340 9241 d93c c253 9540 0365 8440
000001c0: 86a1 76bf b9a5 97bd 5e55 81bf b442 bfbc
000001d0: 9b4a e940 398e d540 2796 1d3d 7527 72bf
000001e0: 9004 dd40 62a7 de40 419d ed40 f96a 11bd
000001f0: 9336 8440 1c00 a33d b833 82bf c47c 9740
00000200: 00bc b0be c6a6 21be 7841 d440 5155 d3be
00000210: 4bf0 86bd e93c 8a40 976b b4bc b026 7d40
00000220: 84c4 8740 f975 6d3d 283b 773f 1fbf 23bf
00000230: e735 bcbc da3d b0be 6d87 8440 9045 f33b
00000240: dfc4 8040 4c94 20be 59c4 6ebe 3536 7bbe
00000250: e0a7 9b3d 9ee8 7f40 bc3f 1f3d f382 d640
00000260: 38dc d240 296d d140 2eb5 a93d 3b58 8140
00000270: 1107 8940 a93b 8a40 5c7c 8540 d18e aa3d
00000280: 27cb 343d 1483 0dbd 070c 8340 e946 edbe
00000290: d6a4 54bd 25c4 8840 5724 8440 8e00 9a3f
000002a0: 0cc1 8940 a333 213c f463 253d 729d 0cbd
000002b0: c008 8740 6c60 8340 0d55 8abd 43cc b040
000002c0: e065 d840 02ff e23b 08e0 4fbe 4503 8fbe
000002d0: accb 89be f314 d4be d876 8640 9995 96bd
000002e0: 3595 f63c f659 8940 6c54 3cbe 632e d440
000002f0: 3e56 2d3d 5a55 d640 fed5 3fbe d9f1 2bbe
00000300: 361d d540 0b64 ae3d ba08 8440 b595 8140
00000310: 4cde 8740 0ab1 8840 eaed dfbb 32de 7340
00000320: d7b9 a6bc 3fe3 20be 8283 8540 ea90 d140
00000330: 54b6 8540 8d1e 6940 d2b4 ca40 5357 8a40
00000340: df6e e2be 2047 6dbc 687e 8640 ed8d c5be
00000350: 4842 2fbd 4ac0 70bd e7f1 5a3d a4d1 8540
00000360: dc03 8740 0321 3ebd 319d d740 1f67 d540
00000370: b310 213d c6d8 9240 e47d 2c3d 09ff 8340
00000380: 0adc d540 7ee6 893d df4c 8240 5e5e a8bd
00000390: 05b0 77bd f87f d240 e340 c840 298c aa3f
000003a0: 95ac 9ebd e51b da40 e1a3 873d 4380 d440
000003b0: 52fa 8640 ed31 513d 1fac 8840 6c28 8040
000003c0: 2d01 56be a58b 503d f58c b7be 6fd6 3d3d
000003d0: 772a d240 63ee d740 b320 a53d 70b6 97be
000003e0: 5be7 d540 2cd0 d940 3ec7 d040 8d2e d8bc
000003f0: daa9 7e40 f61c 99bd 9cdd 9abe 3666 8740
-1.1110375 -0.89200205 7.4040756 -0.9320196 -0.017212793 4.771207 0.061162073 3.9969802
4.5845413 -0.034409016 2.5334246 -1.176385 0.029336555 -1.0864575 4.4347725 -0.014353314
4.202551 -0.7753225 -0.8891544 -0.8603455 -0.04706597 4.1013823 -0.06755616 6.9993553
7.3027716 7.24078 0.009677443 4.300567 4.6194654 4.6839314 4.3524637 0.007672138
0.00072098506 0.049240805 4.2101636 -1.1384116 -0.0690434 4.695008 4.409649 2.6528547
4.60153 -0.009180363 0.03806604 -0.0029659895 4.483645 4.282145 -0.071845435 4.921718
7.122932 0.08482283 -0.88125336 -0.9687205 -0.7735617 -0.9828487 4.2265863 0.07384396
-0.021036131 4.524985 -0.7495329 7.363117 0.055947885 6.62109 -0.85239077 -0.7410936
7.1805615 -0.032164108 4.292218 4.2141767 4.717813 4.7360945 0.042835403 4.0016594
-0.042864107 -0.81173265 4.299812 7.31172 4.4332485 3.683088 5.8211465 4.558215
-1.0446541 -0.003995678 4.407122 -0.9355516 -0.0042730593 0.080291696 0.08261606 4.5413117
4.4105988 0.03862812 7.209685 6.4762836 0.08441234 4.4951115 0.054590568 4.384882
7.0648117 -0.04916167 4.3054647 -0.018450204 0.06880602 7.290612 5.690259 1.8251141
-0.012419401 7.0223904 0.01681463 7.208296 4.622329 0.026520524 4.6664743 4.1373305
-0.96340215 -0.07404656 -1.0104177 -0.023347236 7.290357 6.673611 0.038473275 -0.94591457
6.906807 6.9579325 7.425446 -0.035502408 4.131662 0.07959005 -1.0172033 4.73398
-0.34518433 -0.15786275 6.632992 -0.4127603 -0.06588801 4.3199353 -0.02202396 3.9554863
4.2427387 0.057973836 0.9657464 -0.639635 -0.022974921 -0.3442219 4.1415315 0.007424064
4.024032 -0.15681571 -0.23317088 -0.24532397 0.07600379 3.9985728 0.03887914 6.703485
6.589382 6.544575 0.082865104 4.0420203 4.2821126 4.3197827 4.1714306 0.08328021
0.044139054 -0.034548834 4.095218 -0.46343163 -0.051915012 4.2739434 4.129436 1.2031419
4.3048153 0.009838971 0.040378526 -0.03432984 4.219818 4.1055202 -0.067545034 5.5249343
6.762436 0.006927372 -0.20300305 -0.27932182 -0.26913202 -0.41422233 4.2020073 -0.07352752
0.030100444 4.2922316 -0.1839158 6.6306624 0.042318575 6.697919 -0.18733975 -0.16791476
6.659816 0.085151754 4.1260653 4.049525 4.245886 4.271611 -0.0068337815 3.8104367
-0.020352287 -0.15711688 4.172303 6.5489397 4.178507 3.6424897 6.334573 4.3231597
-0.44225213 -0.01448229 4.2029305 -0.38584843 -0.04278782 -0.05877713 0.053453352 4.181841
4.219221 -0.0464182 6.7379384 6.668838 0.039322566 4.5889616 0.042112246 4.124882
6.68311 0.06733416 4.0718837 -0.08221124 -0.0604706 6.578121 6.2579207 1.3324023
-0.07747761 6.815905 0.06623054 6.640657 4.2180567 0.051073004 4.271011 4.0049343
-0.20898886 0.050914425 -0.3584973 0.046347078 6.5676837 6.74785 0.080628775 -0.29631376
6.6844916 6.8066616 6.5243216 -0.026389385 3.979117 -0.07476227 -0.302472 4.231227

net.4.bias f4 [20]
00000000: 84ca 1640 d64d 1240 2a4d 0740 4529 0b40
00000010: c2e9 b53f d164 b13f 9b9e ea3f 2e51 f23f
00000020: 2854 2f3e 4c2f 1340 7b40 8c3e 3408 de3e
00000030: d69a 513f cfc9 9f3e 6749 663f 8343 ccbe
00000040: 8247 f83e f698 cabb c53d 433f 6126 87bd
2.3561106 2.2860007 2.1140847 2.174394 1.4211962 1.3858892 1.8329653 1.8931024
0.17121947 2.2997618 0.27392945 0.43365633 0.81876886 0.31208655 0.89955753 -0.39895257
0.48492056 -0.006182785 0.7626613 -0.06599117
