realtime_model_ep1.pth (torch, 97590 bytes, 6 tensors)

net.0.weight f4 [128, 35]
000000 09 24 fa bf f9 28 ea 41 94 0f 25 3f 6b 37 26 bf
       -1.9542247 29.270006 0.64476895 -0.6492831
000010 d7 c0 ab 3e 46 2b a7 bf bc 06 e5 41 1a 00 54 3f
       0.33545563 -1.3060081 28.628288 0.82812655
000020 fb 32 a5 3f 67 21 a1 3f d2 99 db bf 6d bb e6 41
       1.2906183 1.2588319 -1.7156317 28.841516
000030 b6 9e 46 3f 05 cd b7 3f af f2 f1 3e 69 d6 81 bf
       0.77585924 1.4359442 0.47255465 -1.0143558
000040 c5 a2 e6 41 56 e7 11 3f bc da e4 3f 7d 96 98 bf
       28.829477 0.56993616 1.7879252 -1.1920925
000050 2d d6 f8 bf a3 86 e8 41 24 c7 44 3f 54 95 1f 40
       -1.9440361 29.06574 0.76866364 2.4934893
000060 fb 50 0e 3f e4 da eb 40 4d a1 db 40 65 f6 11 41
       0.55592316 7.37047 6.86344 9.122655
000070 9d 9d e9 40 b5 ac d6 40 c0 50 c4 40 9d ba d3 40
       7.30049 6.7085824 6.134857 6.61653
000080 19 a8 e7 40 9f 47 80 40 3a bb e3 40 a6 6a f5 bf
       7.2392697 4.008743 7.116605 -1.9173172
000090 23 7b ea 41 04 de 4b 3f da bb f9 be 66 df bb 3e
       29.310125 0.79635644 -0.48776132 0.36693877
0000a0 2d a8 88 bf 03 66 e6 41 0a 30 10 3f d3 8f 9d 3f
       -1.0676323 28.79981 0.563233 1.2309517
0000b0 dd 7b a5 3f 5e 17 c5 bf e1 49 e7 41 6b 7d 3a 3f
       1.2928425 -1.5397756 28.911074 0.7284762
0000c0 c1 77 bb 3f b4 d0 10 3f a2 e5 82 bf 13 50 e6 41
       1.4645921 0.56568456 -1.0226328 28.789099
0000d0 1f 85 07 3f 3c 16 e5 3f 0a 85 7f bf 1f 72 ee bf
       0.529375 1.789741 -0.99812376 -1.8628577
0000e0 3e 94 e7 41 07 cc 1f 3f c5 5b 1c 40 08 9c 6d 3e
       28.947384 0.62420696 2.4431012 0.23204052
0000f0 33 4d ef 40 4f c0 d9 40 8d 5a 12 41 c8 cf e7 40
       7.4781737 6.804725 9.147107 7.244114
000100 a3 7e cd 40 a8 fa c1 40 8a 09 d2 40 6e 6f e7 40
       6.4217086 6.0618477 6.5636644 7.2323523
000110 ea 04 75 40 7f 55 e7 40 0e 13 ed bf 2c 4f eb 41
       3.828425 7.2291865 -1.852144 29.413658
000120 e3 40 5d 3f bc 60 41 bf b2 f8 32 3f 0d 57 85 bf
       0.86427134 -0.7553823 0.6991073 -1.0417191
000130 9d 87 e8 41 3c 6c 5e 3f 89 00 9c 3f 26 95 ce 3f
       29.066217 0.868839 1.2187663 1.6139266
000140 5f 29 c8 bf 62 f8 e8 41 fc d4 8b 3f ae 33 b4 3f
       -1.5637625 29.12128 1.0924373 1.4078271
000150 32 0a 40 3f f8 a1 81 bf 69 67 e9 41 f9 49 3f 3f
       0.75015557 -1.0127554 29.175493 0.7472225
000160 02 4d 18 40 71 7b 38 bf 36 bc f7 bf d9 61 eb 41
       2.3797002 -0.72063357 -1.9354312 29.422777
000170 00 ee 7c 3f c5 aa 1b 40 00 99 2d 3f 07 84 f9 40
       0.9880066 2.432298 0.67811584 7.7973666
000180 a8 7e ec 40 43 9e 11 41 b1 96 eb 40 c8 59 de 40
       7.390461 9.101138 7.362145 6.9484596
000190 e6 a5 c8 40 9b 41 df 40 44 d5 ef 40 05 b0 7f 40
       6.2702513 6.9767585 7.4947834 3.9951184
0001a0 44 06 ec 40 60 ec e0 bf 95 2c e9 41 0a 66 26 c1
       7.375765 -1.7572136 29.146769 -10.399912
0001b0 08 84 12 c0 f9 7a 4e c1 de 5f 83 bf 46 48 e7 41
       -2.2893085 -12.905023 -1.0263631 28.91029
0001c0 d9 d6 25 c1 2f 22 85 3f b7 94 40 c1 ba c9 ab bf
       -10.364953 1.0401057 -12.036307 -1.3420937
0001d0 cb 6f e5 41 0e 01 27 c1 11 ee 28 3f 49 59 4a c1
       28.679586 -10.4377575 0.6598826 -12.646798
0001e0 e6 95 6d bf a7 25 e7 41 ef 1a 2a c1 61 92 89 3f
       -0.9280685 28.893385 -10.631576 1.0747796
0001f0 7b 66 55 c1 a9 c4 e9 bf 7d 85 e7 41 59 9f 26 c1
       -13.33752 -1.8263141 28.94018 -10.413903
000200 aa 31 0b 40 23 f0 48 c1 22 f0 0c 41 84 c6 01 41
       2.1749063 -12.558627 8.808626 8.110966
000210 8c 00 42 41 a3 c1 27 41 de 8e 0e 41 65 1a 20 41
       12.1251335 10.484775 8.90988 10.006444
000220 5c cb 09 41 f5 fb 23 41 30 db dd 40 c6 e2 13 41
       8.612148 10.249013 6.9330063 9.242865
000230 48 7e 26 3e d3 03 98 c1 a2 dc 27 41 1c c3 1e 40
       0.1625911 -19.001867 10.491365 2.4806585
000240 d2 74 f6 40 9f 84 a3 3d bc 45 94 c1 2a bc 29 41
       7.7017603 0.0798428 -18.53405 10.6084385
000250 ee bc f9 3f 3c 70 e0 40 4f f2 53 3c 0a 7e 94 c1
       1.9510782 7.0137005 0.012936189 -18.561543
000260 ba 58 24 41 6d 9a 83 40 5f 0a 0b 41 e5 6e 49 3f
       10.271662 4.112601 8.690032 0.78684837
000270 07 f3 95 c1 5c b2 29 41 62 b9 af 3f 63 da 1d 41
       -18.743666 10.606045 1.3728449 9.865817
000280 e2 08 08 3f 6e f5 95 c1 03 7c 29 41 82 f7 61 be
       0.53138554 -18.744839 10.592776 -0.22067073
000290 49 c8 f7 40 53 4e c2 40 39 b8 bb 40 77 9d ad 40
       7.743199 6.072061 5.866238 5.425472
0002a0 77 f7 c0 40 c8 0e 1d 41 ab 22 b5 40 f4 da c5 40
       6.030208 9.816109 5.660482 6.1829777
0002b0 d4 67 ed 40 aa 1d f3 40 82 36 ff 40 29 f1 ff bf
       7.4189243 7.597371 7.975404 -1.9995471
0002c0 22 eb e8 41 58 83 98 3e fc a4 1c bf 5f 75 13 3d
       29.11481 0.29787707 -0.61189246 0.036000606
0002d0 6d 0c a6 bf 7d 82 e4 41 07 27 51 3e 1b 39 95 3f
       -1.2972542 28.563715 0.20425044 1.1658052
0002e0 97 c7 71 3f 44 b6 b1 bf 38 5d e5 41 19 27 d2 3e
       0.94445175 -1.3883748 28.670517 0.41045454
0002f0 df 0c ca 3f 28 a8 f9 3e 8b 83 84 bf a5 c7 e4 41
       1.5785178 0.48761106 -1.0352644 28.597483
000300 80 fd 0d 3e 87 88 c1 3f 39 9f af bf 99 79 d9 bf
       0.13866234 1.511979 -1.3720466 -1.6990234
000310 30 7a e6 41 01 14 b1 3e d2 03 21 40 55 cd a2 3e
       28.809662 0.34585574 2.5158582 0.3179728
000320 e0 88 e7 40 37 3d d1 40 99 39 0d 41 60 8c dd 40
       7.2354584 6.5387225 8.826562 6.9233856
000330 ea c0 cc 40 79 b3 bc 40 2a 72 cd 40 08 7e df 40
       6.398549 5.8969083 6.420186 6.9841347
000340 8b d5 66 40 00 5e de 40 ea 60 bf 3c ae 76 95 3d
       3.6067836 6.9489746 0.023361642 0.07298027
000350 5c ac 09 be 53 3b 38 bb b4 12 e3 bd 69 f9 52 3d
       -0.13444656 -0.0028111532 -0.11087552 0.051507387
000360 09 03 a0 3c 4b 51 86 3d ad a6 05 be 0b 9e ac bd
       0.019532697 0.06558474 -0.13051863 -0.08428582
000370 b2 c9 12 be e1 22 ca 3d 36 27 e4 bd 42 e8 14 bc
       -0.14334753 0.09869934 -0.111402914 -0.009088578
000380 e4 30 e9 bd c7 bd 03 3e 12 6f d6 3d e4 97 55 bc
       -0.11386278 0.12865363 0.10470404 -0.013036702
000390 68 b8 a1 bd ac f6 e0 3d 37 6c 27 3e c2 2c 09 be
       -0.07896501 0.10984549 0.16349874 -0.1339598
0003a0 e2 f8 a9 3c 0e 59 d5 bd 4c 6a 3a 3d 30 a9 ca ba
       0.02074856 -0.104173765 0.04551153 -0.0015461799
0003b0 2a a2 ba bd 8e eb f6 bd d4 88 65 3d ab a9 13 be
       -0.091129616 -0.12056647 0.056038693 -0.14420192
0003c0 af b4 84 bd 9d 33 19 be e0 a2 04 be 8b 46 8b 3d
       -0.06479775 -0.14961095 -0.12952757 0.068005644
0003d0 84 2e d9 3d 23 13 00 c0 e3 01 e9 41 5e a4 bf 3e
       0.10604575 -2.001168 29.125921 0.3743009
0003e0 a3 ef 37 bf cb 7e 84 3e fc 39 95 bf be 2a e5 41
       -0.7185003 0.25877985 -1.165832 28.64587
0003f0 7e 2b 2e 3e 0d f2 98 3f 47 e2 72 3f a1 5a ad bf
       0.17008778 1.1948868 0.9487652 -1.3543283

net.0.bias f4 [128]
000000 c8 df 5d 40 65 e4 56 40 8c 5a 66 40 aa 02 97 c0
       3.4667835 3.35769 3.5992765 -4.719075
000010 54 3e 1b 41 a7 78 45 40 5f fc 41 be 90 22 3e 40
       9.702717 3.085489 -0.18943928 2.9708595
000020 51 61 3a 40 26 e1 62 40 07 da 34 40 82 9f 42 40
       2.9121897 3.544992 2.8258073 3.0409856
000030 94 ec 17 41 1d d7 1c 41 dc 09 43 40 88 09 3d 40
       9.495258 9.802518 3.0474768 2.9537067
000040 fb 7b 3c 40 49 d0 19 41 a2 e0 43 40 1b 01 1b 41
       2.9450672 9.613351 3.0605855 9.68777
000050 c3 34 6a 3c a1 4e 57 40 a1 b9 19 be 7c ad 9b 3f
       0.014294806 3.3641741 -0.15012218 1.2162318
000060 85 83 58 40 ba 93 a9 c0 9f 40 1c 41 f1 e2 37 40
       3.3830273 -5.299283 9.765777 2.8732264
000070 29 0d 3d 40 a5 2c 64 40 8f b3 5b 40 00 c7 35 40
       2.9539282 3.565225 3.4328344 2.840271
000080 93 9a 38 40 75 3c 1e 41 92 8a 1b 41 29 39 59 40
       2.8844345 9.88976 9.721331 3.3941138
000090 eb fe 42 40 67 92 19 41 f8 f5 38 40 72 4e 38 40
       3.046809 9.598243 2.8900127 2.879788
0000a0 5b 29 6b 40 a8 b4 19 41 7b 8b 38 40 7d 46 38 40
       3.6743991 9.606606 2.8835132 2.8793023
0000b0 2d 5d ae bd e0 ec b4 bc ec 2a ba 3f c6 6f 56 bd
       -0.085138656 -0.022085607 1.4544349 -0.05235269
0000c0 29 9a 4c 40 4e 69 0f bd 08 d3 3a 40 28 e6 15 be
       3.1969092 -0.035012536 2.9191303 -0.14638579
0000d0 c6 90 18 41 96 e9 33 40 06 41 3b 40 0b 12 37 40
       9.535345 2.811132 2.9258437 2.8604763
0000e0 bb 09 31 40 17 45 1b 41 a5 0f 43 be 7f 20 5e 40
       2.766219 9.704368 -0.19048937 3.4707334
0000f0 3e 7a 30 40 a8 fc 1b 41 44 57 6c 40 1a a3 68 bd
       2.757461 9.749184 3.6928263 -0.05679617
000100 f4 d0 67 40 59 b6 66 40 6f 33 3e 40 27 d4 31 40
       3.6221285 3.6048796 2.9718893 2.7785738
000110 dd 46 19 41 db 80 17 41 45 5c 37 40 6e f8 4b 40
       9.579801 9.468959 2.8650067 3.187038
000120 73 72 60 40 77 f0 37 40 b2 19 1c 41 c1 63 3f 40
       3.5069854 2.8740518 9.756273 2.9904635
000130 5b 96 17 41 82 0e 3a 40 48 46 3a 40 3c 32 20 3d
       9.474208 2.9071355 2.9105396 0.039110407
000140 3f b0 39 40 4f f7 3f 40 90 91 38 40 76 a3 31 be
       2.9013822 2.9994695 2.8838844 -0.17347512
000150 17 d8 18 41 15 90 bc 3f 34 36 43 40 5d be 8f c0
       9.552756 1.473147 3.0501833 -4.4919877
000160 18 54 95 c0 8c 84 3d 40 ba 56 33 40 b0 9e 33 40
       -4.6665154 2.961215 2.8021684 2.8065605
000170 63 70 3a 40 25 ca 6d 40 2a ab 68 40 ca 81 5b 40
       2.9131095 3.715463 3.635447 3.4297967
000180 08 25 18 bd 8c 12 34 40 9e 1f 1b 41 0e 4a 40 40
       -0.03714469 2.813632 9.695219 3.00452
000190 c8 55 1c 41 bb 50 4a 40 e7 d8 3a 40 c2 07 42 40
       9.770943 3.1611774 2.9194887 3.0317235
0001a0 85 23 1f 41 15 c5 34 40 63 88 2d 40 d8 63 32 40
       9.946172 2.824529 2.7114494 2.787344
0001b0 f7 50 39 40 17 55 47 40 db 3a 3c 40 d2 55 18 41
       2.8955667 3.1145685 2.9410923 9.520952
0001c0 67 03 3e 40 85 d8 8e c0 7e f3 1b 41 50 cd 18 41
       2.9689577 -4.4639306 9.746946 9.550125
0001d0 7e 9b 17 41 e8 0f 6c 40 cf fd 68 40 22 88 a6 3f
       9.475462 3.6884708 3.6404912 1.3010294
0001e0 22 5b 3b 40 8c 27 6e 40 6b ca 1a 41 91 b1 1c 41
       2.9274373 3.7211637 9.674418 9.793351
0001f0 f3 5a 4c 40 ac 2f 21 41 e7 33 45 40 b0 cf 63 40
       3.193051 10.074139 3.0812929 3.5595512

net.2.weight f4 [128, 128]
000000 fe 09 9c 40 d3 ca 99 40 d4 63 9c 40 b1 6e 4e c1
       4.8762197 4.806009 4.887186 -12.902024
000010 a2 10 1a 40 60 70 2c 40 1d 31 be 3b e6 ab 2c 40
       2.4072652 2.6943588 0.0058041946 2.6979918
000020 f9 d6 12 40 43 7d 9c 40 34 fc 07 40 41 7e 43 40
       2.294371 4.8902907 2.1247683 3.054581
000030 ed a8 29 40 af 55 22 40 43 fb 04 40 11 17 0b 40
       2.6509354 2.5364797 2.0778358 2.1732829
000040 63 e6 24 40 6c 20 2d 40 7b 67 41 40 a5 58 14 40
       2.5765617 2.7051039 3.021941 2.3179104
000050 65 33 9a bd 55 03 9d 40 3b ad 67 3d 4c 19 0c 41
       -0.07529334 4.9066567 0.05656169 8.756176
000060 cd 48 9c 40 4a 3f 57 c1 e0 82 10 40 1e d8 18 40
       4.883887 -13.452951 2.257988 2.3881907
000070 d5 0a db 3f 22 0a 98 40 c2 c0 97 40 ac ad e4 3f
       1.7112681 4.751237 4.74228 1.78655
000080 eb f0 ce 3f 8c 57 1f 40 0c f3 14 40 61 e1 9d 40
       1.6167272 2.4897184 2.3273344 4.933762
000090 ca 5d 4f 40 ee 81 20 40 2a 93 37 40 42 22 e9 3f
       3.2400994 2.5079303 2.8683572 1.821358
0000a0 25 eb 9a 40 52 1f 1f 40 06 1c eb 3f b3 ac 37 40
       4.841204 2.4862866 1.8367927 2.8699157
0000b0 0d 22 b5 3c 2a dc 48 3d 67 59 15 41 49 20 c2 3c
       0.022110963 0.04903809 9.334327 0.023697035
0000c0 26 c1 8b 40 e5 06 3b 3d 52 04 2c 40 e3 40 4f 3d
       4.3673277 0.045660872 2.6877637 0.05059899
0000d0 b8 3e 21 40 9d b3 2d 40 5a 2a 0f 40 83 17 cb 3f
       2.519453 2.7140877 2.23696 1.586655
0000e0 b0 6e 0a 40 be 63 12 40 b8 90 38 3d 50 1e 99 40
       2.1630058 2.2873378 0.04505989 4.7849503
0000f0 72 e6 42 40 94 0f 1f 40 86 06 9a 40 c1 0f 42 3d
       3.0453153 2.4853258 4.8132963 0.047378305
000100 0e 3e 96 40 92 fd 9f 40 24 8e 48 40 54 7c 67 3f
       4.695075 4.9997034 3.1336756 0.90424085
000110 77 0c 17 40 a2 3d 28 40 35 d0 75 40 e9 ca 8a 40
       2.3601358 2.6287618 3.840833 4.3372693
000120 f8 52 9c 40 f9 90 9e 3f b6 8c 1c 40 01 ad 85 40
       4.885128 1.2387992 2.4460883 4.1773686
000130 1b af 29 40 6c b4 28 40 5e ed 2d 40 b9 6f b2 bd
       2.6513126 2.636012 2.7176127 -0.08712716
000140 4d 92 25 40 e0 bb b6 3f 0b b5 29 40 af 05 58 3d
       2.5870545 1.4276085 2.651675 0.052739795
000150 74 3d 24 40 92 ea 13 41 2e e0 8f 40 0f 67 56 c1
       2.5662508 9.244768 4.4961157 -13.400161
000160 d9 c3 50 c1 d5 c9 a7 3f 81 29 e8 3f a6 dd 41 40
       -13.047814 1.3108469 1.8137666 3.0291533
000170 a2 34 1a 40 7c 80 9d 40 ca 2d 9b 40 a8 c2 9b 40
       2.4094625 4.921934 4.8493395 4.8675117
000180 be 73 9f bd 50 4d 02 40 68 95 15 40 d2 6f 58 40
       -0.07785748 2.0359688 2.337244 3.381825
000190 d9 20 1b 40 13 a4 88 40 92 63 b3 3f 9e a1 13 40
       2.4238799 4.2700286 1.4014761 2.3067393
0001a0 0b 38 0f 40 04 17 5a 40 b2 5c 96 3f ea 13 eb 3f
       2.2377956 3.4076548 1.1747038 1.8365452
0001b0 d6 ee 3d 40 12 37 60 40 3f 95 2c 40 f8 43 1f 40
       2.9677024 3.5033612 2.6966093 2.4885235
0001c0 b9 2e db 3f 5d 20 4f c1 36 de 15 40 ad 06 26 40
       1.7123634 -12.945401 2.3416877 2.5941575
0001d0 bf 98 1f 40 44 f1 9b 40 38 40 98 40 f2 95 14 41
       2.493698 4.8732014 4.757839 9.286608
0001e0 7f 1c 16 40 e3 70 99 40 3c a5 1d 40 30 79 1d 40
       2.3454893 4.79503 2.46321 2.4605217
0001f0 9d e2 9a 40 e8 68 19 40 08 09 8c 40 2f 32 9d 40
       4.8401628 2.397028 4.3761024 4.912376
000200 4d 3c 99 40 3f 73 99 40 f8 83 9c 40 87 8a 51 c1
       4.788611 4.795318 4.8911095 -13.09632
000210 84 92 35 40 a8 fa 17 40 a7 e9 d6 3c ba f3 1c 40
       2.8370676 2.3746738 0.026234461 2.452376
000220 3c 97 0d 40 d6 3f a0 40 b9 bd fb 3f 54 bf 42 40
       2.2123556 5.0077925 1.9667274 3.0429277
000230 50 08 41 40 59 5e 37 40 23 3d f5 3f 7d 48 06 40
       3.0161324 2.8651335 1.9159282 2.0981743
000240 a7 3b 1c 40 c3 20 41 40 fd 8e 30 40 f4 88 36 40
       2.441141 3.0176246 2.7587273 2.852109
000250 e1 a8 ad bd be b4 9f 40 41 69 66 bb d8 21 0d 41
       -0.08479477 4.9908133 -0.003515795 8.820763
000260 5c 48 9e 40 23 07 59 c1 fb 06 2b 40 b7 33 13 40
       4.946333 -13.564242 2.672301 2.3000314
000270 f9 a5 d5 3f ef f4 9c 40 11 ef 9c 40 dc 04 ea 3f
       1.6691276 4.904899 4.904183 1.8282733
000280 2b 49 de 3f 55 cd 3d 40 99 75 32 40 72 1a 9d 40
       1.7366079 2.9656575 2.7884276 4.909478
000290 dd d0 3f 40 d6 cf 35 40 67 2c 32 40 f4 6c d7 3f
       2.997123 2.8408103 2.78396 1.6830125
0002a0 eb 4a 9c 40 b6 b9 34 40 68 35 e9 3f 57 d2 2d 40
       4.8841453 2.823835 1.8219423 2.7159631
0002b0 99 77 1e 3b 91 e9 e7 3c 12 b4 13 41 8d c8 21 3d
       0.0024180172 0.028309615 9.2314625 0.0394979
0002c0 24 d5 89 40 ba 9a 11 bd 97 bf 25 40 15 bb 13 3c
       4.307268 -0.03554795 2.5898187 0.009016772
0002d0 9c d5 38 40 e9 6a 23 40 0a 63 fb 3f 9d c8 d7 3f
       2.8880377 2.5534003 1.9639599 1.6858097
0002e0 4a 2e 06 40 d4 39 2a 40 f8 92 95 bd 0d 19 9f 40
       2.0965753 2.6597795 -0.07303423 4.971808
0002f0 96 7d 34 40 fb 0d 3a 40 e2 0f 9a 40 00 3b 28 bd
       2.8201652 2.9071033 4.814439 -0.04107189
000300 32 f8 99 40 89 9f a1 40 8e 7c 37 40 02 af 6f 3f
       4.8115473 5.0507245 2.8669772 0.93626416
000310 fa 1b 2c 40 f1 7e 41 40 7f 06 80 40 8e 1f 85 40
       2.6892076 3.023373 4.000793 4.160102
000320 c4 75 9e 40 df 4a 77 3f 49 42 3e 40 9c e3 82 40
       4.9518757 0.9659862 2.9727957 4.0902843
000330 77 bd 3e 40 d2 48 19 40 d6 59 1a 40 33 06 c8 3c
       2.980314 2.3950696 2.4117332 0.024417019
000340 a5 97 20 40 d8 65 c0 3f 68 5b 21 40 3f bc e7 3c
       2.5092556 1.503108 2.521204 0.028288005
000350 79 79 3b 40 77 99 11 41 2d 19 90 40 2c 18 57 c1
       2.929289 9.099967 4.503073 -13.443401
000360 32 f3 52 c1 13 55 a8 3f 8e 45 f2 3f a6 6d 30 40
       -13.184374 1.3150963 1.8927476 2.7566924
000370 69 9e 13 40 0b a9 9e 40 73 df 9b 40 d8 6b 9e 40
       2.3065436 4.958135 4.8710265 4.9506645
000380 e9 c0 02 3d 9d ad 02 40 5f 37 2c 40 15 c9 46 40
       0.031922255 2.0418465 2.6908796 3.106023
000390 da 5f 35 40 df 52 86 40 e7 a3 a9 3f 10 88 0e 40
       2.8339753 4.197616 1.3253144 2.2270546
0003a0 9c b2 2a 40 85 e6 4d 40 0e e6 8c 3f e8 2b d8 3f
       2.6671515 3.2171948 1.1007707 1.6888399
0003b0 38 1f 40 40 58 fa 62 40 38 44 20 40 5f b1 3a 40
       3.0019054 3.5465298 2.5041637 2.9170759
0003c0 48 5b e7 3f 02 8c 50 c1 3e 16 31 40 db 34 3f 40
       1.8074732 -13.034182 2.7669826 2.987601
0003d0 24 0e 34 40 65 b3 a3 40 ca e8 9d 40 73 6b 12 41
       2.813363 5.1156487 4.9346666 9.151233
0003e0 85 3a 0c 40 68 0f 9e 40 b3 2d 3d 40 1e 16 3e 40
       2.1910717 4.9393806 2.9559143 2.9701
0003f0 41 53 99 40 e2 85 2f 40 23 1f 90 40 d0 f6 9f 40
       4.791413 2.7425466 4.503801 4.9988785

net.2.bias f4 [128]
000000 8e f6 4d bf 57 1c ab be e1 30 09 c1 b5 99 03 bf
       -0.8045434 -0.3342006 -8.574433 -0.51406413
000010 f7 09 3b 3d fa 66 35 40 86 9f 97 bc 1b a7 8a 40
       0.0456638 2.8344102 -0.018508684 4.3328986
000020 66 7c 8a 40 0d 81 b2 bd 98 d2 06 41 d3 b7 a9 bf
       4.3276854 -0.08716021 8.4264145 -1.3259224
000030 99 7d b1 bd af c6 3b bf 30 5d 8a 40 ea f5 a2 3c
       -0.08666534 -0.7335004 4.3238754 0.019892652
000040 26 80 8a 40 bf 27 27 bf b2 3c 20 bf e7 da fd be
       4.328143 -0.6529502 -0.62592614 -0.49581072
000050 23 12 d4 bc b0 db 8d 40 c5 8d e8 3c 2c 05 cc c0
       -0.025887555 4.4330673 0.028387913 -6.3756313
000060 af 3d fb c0 8c 3b 07 c1 6a 54 aa bd cc b6 86 40
       -7.8512797 -8.452038 -0.08316882 4.209814
000070 2b a5 89 40 7b a9 d0 3f 6a fb 8c 40 62 0e a7 bd
       4.301412 1.6301721 4.40569 -0.0815704
000080 b4 43 08 bd 58 66 25 bd 73 55 8a 40 c2 23 80 bf
       -0.03326769 -0.040380806 4.322931 -1.0010912
000090 56 a2 80 3d a3 c8 39 40 d3 8a 88 40 03 fa 09 41
       0.06280963 2.902871 4.2669463 8.623538
0000a0 81 c4 2a 40 6d 47 a1 bb 7c e4 63 bd 5f 04 ac bc
       2.6682436 -0.0049218447 -0.05563782 -0.020998178
0000b0 d4 fe 8f 40 eb b1 8d 40 05 3a 8b 3d 5b 19 ae bf
       4.499857 4.4279685 0.06798176 -1.3601488
0000c0 4f 97 ca c0 d7 6f f6 3c f8 44 de be 46 ec 55 bf
       -6.3309703 0.030082626 -0.43411994 -0.8356365
0000d0 cd fc b1 bd 03 ba 29 bf 2c a1 8c 40 b4 a4 75 bc
       -0.08690796 -0.66299456 4.3946743 -0.014992882
0000e0 b1 c5 02 bd cc 1e 8c 40 d2 c4 20 bf 6d 81 09 c1
       -0.031926814 4.3787594 -0.62800324 -8.594098
0000f0 dd 27 93 3c 7e 40 a8 c0 dd 73 a9 be f5 62 cd be
       0.017963344 -5.2578726 -0.3309621 -0.4011456
000100 91 e2 ee c0 36 37 f9 bc ea 44 87 40 84 c5 8a 40
       -7.465157 -0.030421834 4.2271624 4.336611
000110 c8 6c 34 40 12 3c 31 40 34 9a a6 bd 03 f2 86 40
       2.8191395 2.7692914 -0.08134881 4.2170424
000120 da ae 80 3c 82 47 42 be 2b 30 8e 40 a2 61 02 c1
       0.015708376 -0.1897259 4.44338 -8.148836
000130 c5 1c 89 40 fc 68 84 40 89 26 45 c0 45 53 d1 3f
       4.284762 4.1378155 -3.080477 1.6353537
000140 9a a9 26 bf f8 1a 05 bd e2 6c 85 40 2e 4d 29 bf
       -0.6510254 -0.032496423 4.1695414 -0.6613339
000150 a5 67 94 3d c8 d8 09 bd ec b7 c0 3c b0 e9 32 40
       0.07246331 -0.033654004 0.0235252 2.7955132
000160 c2 f2 8b 40 b2 7c 24 bd 6b 0d e5 c0 76 bc 94 c0
       4.3733835 -0.04015798 -7.157888 -4.6480055
000170 2f f5 88 38 7e ba 10 3f 06 ba 61 bd e9 45 8d 40
       6.530654e-05 0.56534564 -0.055109046 4.414784
000180 3f 5a de c0 af fc 69 3c a7 d6 8a 40 f7 7d c3 bd
       -6.9485164 0.014281436 4.3387027 -0.0954551
000190 eb 38 a6 bd 0e 9a 08 c1 16 17 36 c0 80 bf f8 40
       -0.08116325 -8.537611 -2.845159 7.7733765
0001a0 c3 57 ed bc df 51 c4 c0 96 1e 04 3d 13 5b f0 c0
       -0.028972512 -6.134994 0.03225573 -7.5111175
0001b0 37 87 13 40 33 a6 1f 3c c5 d8 37 40 24 f3 88 40
       2.3051279 0.009744215 2.8726056 4.2796803
0001c0 22 77 11 bf ba 06 6e bd e0 25 12 bf 0d 67 29 3d
       -0.5682241 -0.058111884 -0.5708904 0.041358043
0001d0 a1 7d 06 c1 99 bf a6 c0 6e 70 74 3c 07 be 48 bf
       -8.405671 -5.2108884 0.014919383 -0.7841496
0001e0 e0 03 b0 c0 6e cb ca c0 9b a8 04 c1 82 83 9c bd
       -5.500473 -6.3373327 -8.291163 -0.076422706
0001f0 86 2d 8a 40 a7 8d c6 bd 6a 3c 11 bf 8c 64 38 40
       4.318057 -0.09694987 -0.5673281 2.881137

net.4.weight f4 [20, 128]
000000 02 b3 7e bf 89 fc 44 bf 19 09 e9 40 d1 f3 4f bf
       -0.99491894 -0.7694784 7.2823606 -0.8123141
000010 d8 01 8d bc 9f 78 98 40 15 85 7a 3d 79 5f 80 40
       -0.017212793 4.7647243 0.061162073 4.0116544
000020 b8 2c 93 40 78 f0 0c bd bf 4a 32 40 ae 28 88 bf
       4.599209 -0.034409016 2.7858121 -1.0637414
000030 37 53 f0 3c f8 47 78 bf 13 66 8e 40 2a 2a 6b bc
       0.029336555 -0.96984816 4.44996 -0.014353314
000040 59 f8 86 40 38 36 27 bf 98 d1 44 bf 50 b9 3d bf
       4.217816 -0.65317106 -0.76882315 -0.7411089
000050 3f c8 40 bd 97 b8 83 40 e2 5a 8a bd c0 64 dc 40
       -0.04706597 4.116283 -0.06755616 6.8872986
000060 2c f5 e5 40 eb d4 e3 40 23 8e 1e 3c d3 19 8a 40
       7.186178 7.119741 0.009677443 4.3156524
000070 fe 48 94 40 b8 38 95 40 98 c0 8b 40 8f 66 fb 3b
       4.63391 4.6631737 4.36726 0.007672138
000080 7d 00 3d 3a ba b0 49 3d 81 36 87 40 a2 3b 83 bf
       0.00072098506 0.049240805 4.2254033 -1.0252573
000090 a0 66 8d bd 41 08 96 40 39 95 8d 40 6a 09 3a 40
       -0.0690434 4.6885076 4.4244657 2.9068246
0000a0 70 fd 92 40 3c 69 16 bc 23 eb 1b 3d 0c 61 42 bb
       4.593437 -0.009180363 0.03806604 -0.0029659895
0000b0 4e f2 8f 40 64 85 89 40 b3 23 93 bd 62 ab 9b 40
       4.498328 4.297533 -0.071845435 4.8646708
0000c0 ed 5a e0 40 98 b7 ad 3d b9 6a 42 bf cc 04 5a bf
       7.0110993 0.08482283 -0.75944096 -0.8516357
0000d0 da 5a 26 bf 94 51 5d bf cb bb 87 40 81 3b 97 3d
       -0.6498238 -0.86452603 4.241674 0.07384396
0000e0 f7 53 ac bc f4 45 91 40 f0 a2 20 bf 88 c0 e7 40
       -0.021036131 4.539789 -0.6274862 7.2422523
0000f0 9c 29 65 3d bb 64 d0 40 08 98 3a bf ef 3e 1e bf
       0.055947885 6.512296 -0.7288823 -0.6181478
000100 0a 29 e2 40 83 be 03 bd 7a d3 89 40 89 58 87 40
       7.0675097 -0.032164108 4.307065 4.2295575
000110 18 ba 96 40 95 58 97 40 2d 74 2f 3d 74 89 80 40
       4.7102165 4.729563 0.042835403 4.016779
000120 46 92 2f bd 8b 39 30 bf c5 11 8a 40 0e 14 e6 40
       -0.042864107 -0.68837804 4.314669 7.189948
000130 fd 55 8e 40 f7 ca 6c 40 84 b4 b7 40 38 2a 91 40
       4.4479966 3.699888 5.7407856 4.5364037
000140 52 9b 6d bf 2d ee 82 bb f6 81 8d 40 20 a1 51 bf
       -0.92815125 -0.003995678 4.4221144 -0.8188648
000150 05 05 8c bb f9 6f a4 3d 9c 32 a9 3d 7c 1f 91 40
       -0.0042730593 0.080291696 0.08261606 4.5350933
000160 f4 9c 8d 40 85 38 1e 3d f3 16 e3 40 c3 ed cb 40
       4.4254093 0.03862812 7.0965514 6.3727736
000170 60 e0 ac 3d 87 e0 8e 40 5c 9a 5f 3d 12 ca 8c 40
       0.08441234 4.464908 0.054590568 4.399667
000180 96 79 de 40 bf 5d 49 bd a7 43 8a 40 e2 24 97 bc
       6.952342 -0.04916167 4.3207583 -0.018450204
000190 2c ea 8c 3d 87 6e e5 40 c9 93 b3 40 b9 c4 04 40
       0.06880602 7.169742 5.61179 2.074507
0001a0 be 7a 4b bc fd 24 dd 40 d6 be 89 3c 3c 02 e3 40
       -0.012419401 6.910765 0.01681463 7.0940228
0001b0 5a 75 93 40 92 41 d9 3c 2d 1e 95 40 25 e2 84 40
       4.608075 0.026520524 4.6599336 4.1526055
0001c0 b0 ec 57 bf b9 a5 97 bd 4f 78 64 bf b4 42 bf bc
       -0.8434553 -0.07404656 -0.89246076 -0.023347236
0001d0 3d 70 e5 40 f0 07 d2 40 27 96 1d 3d b4 d8 53 bf
       7.169951 6.563469 0.038473275 -0.8275254
0001e0 dc 75 d9 40 31 15 db 40 91 bf e9 40 f9 6a 11 bd
       6.795637 6.846337 7.3046346 -0.035502408
0001f0 5d b3 84 40 1c 00 a3 3d 99 fb 65 bf be 47 97 40
       4.146895 0.07959005 -0.8983703 4.7275076
000200 5e 13 69 be e7 98 03 bd a3 85 cf 40 e9 cc 94 be
       -0.22761294 -0.03212824 6.485063 -0.29062584
000210 4b f0 86 bd f7 b0 88 40 97 6b b4 bc 06 cc 7b 40
       -0.06588801 4.271602 -0.02202396 3.9343276
000220 fb 16 87 40 f9 75 6d 3d 15 eb 9a 3f dc ca 06 bf
       4.221555 0.057973836 1.2102991 -0.5265329
000230 e7 35 bc bc 23 79 67 be 6c df 83 40 90 45 f3 3b
       -0.022974921 -0.22604804 4.121023 0.007424064
000240 d7 1d 80 40 cf 30 01 bd f3 9d e1 bd fe 85 fd bd
       4.0036426 -0.031540688 -0.110164545 -0.123790726
000250 e0 a7 9b 3d 4a 92 7e 40 bc 3f 1f 3d 90 e3 d1 40
       0.07600379 3.9776788 0.03887914 6.5590286
000260 63 2d ce 40 42 b3 cc 40 2e b5 a9 3d 48 af 80 40
       6.4430404 6.396882 0.082865104 4.0213966
000270 bc 57 88 40 b8 1e 88 40 87 d0 84 40 d1 8e aa 3d
       4.26071 4.25375 4.150455 0.08328021
000280 27 cb 34 3d 14 83 0d bd ac 64 82 40 78 14 b3 be
       0.044139054 -0.034548834 4.074789 -0.34976554
000290 d6 a4 54 bd ec 37 87 40 ba 78 83 40 a3 67 b9 3f
       -0.051915012 4.2255764 4.108487 1.4484752
0002a0 35 24 88 40 a3 33 21 3c f4 63 25 3d 72 9d 0c bd
       4.25442 0.009838971 0.040378526 -0.03432984
0002b0 a8 5b 86 40 3f ba 82 40 0d 55 8a bd 5f 83 ad 40
       4.1986885 4.085235 -0.067545034 5.4222865
0002c0 62 c7 d3 40 02 ff e2 3b 07 ef 9f bd a7 59 24 be
       6.6180887 0.006927372 -0.07809263 -0.16049825
0002d0 41 3a 11 be 9a 6f 96 be 01 ce 85 40 99 95 96 bd
       -0.14182378 -0.2938202 4.181397 -0.07352752
0002e0 35 95 f6 3c 34 ae 88 40 b6 63 70 bd b3 74 cf 40
       0.030100444 4.271265 -0.05868884 6.4829955
0002f0 3e 56 2d 3d d0 c4 d1 40 fa c8 76 bd a7 82 2a bd
       0.042318575 6.555275 -0.06025026 -0.041628506
000300 af 79 d0 40 0b 64 ae 3d a0 5c 83 40 0b f0 80 40
       6.514854 0.085151754 4.105057 4.029302
000310 c8 46 86 40 5f 24 87 40 ea ed df bb 1d 8d 72 40
       4.1961403 4.22319 -0.0068337815 3.7898629
000320 d7 b9 a6 bc 2a 2e f8 bc 07 d8 84 40 10 d5 cc 40
       -0.020352287 -0.03029545 4.1513705 6.4010086
000330 d2 09 85 40 1e f0 67 40 b7 b9 c6 40 e9 30 88 40
       4.157449 3.6240306 6.2101703 4.2559705
000340 34 06 a6 be 20 47 6d bc 05 d4 85 40 14 03 89 be
       -0.32426608 -0.01448229 4.1821313 -0.2676016
000350 48 42 2f bd 4a c0 70 bd e7 f1 5a 3d 8b 48 84 40
       -0.04278782 -0.05877713 0.053453352 4.1338553
000360 4b 58 86 40 03 21 3e bd 88 f9 d2 40 56 ee d0 40
       4.198278 -0.0464182 6.5929604 6.5290937
000370 b3 10 21 3d 63 61 90 40 e4 7d 2c 3d d4 52 83 40
       0.039322566 4.511888 0.042112246 4.103861
000380 43 3b d1 40 7e e6 89 3d fc a5 81 40 5e 5e a8 bd
       6.538484 0.06733416 4.051512 -0.08221124
000390 05 b0 77 bd 40 c6 cd 40 31 52 c4 40 0b 9f c9 3f
       -0.0604706 6.4304504 6.135033 1.5751661
0003a0 95 ac 9e bd 00 7e d5 40 e1 a3 87 3d e2 d7 cf 40
       -0.07747761 6.671631 0.06623054 6.495103
0003b0 42 1f 85 40 ed 31 51 3d c7 1f 87 40 00 03 7f 40
       4.1600657 0.051073004 4.222629 3.984558
0003c0 12 3c b1 bd a5 8b 50 3d 67 57 74 be 6f d6 3d 3d
       -0.08654036 0.050914425 -0.23861466 0.046347078
0003d0 ac 72 cd 40 1c 57 d3 40 b3 20 a5 3d 2b 10 34 be
       6.420248 6.6043835 0.080628775 -0.17584293
0003e0 39 4b d1 40 4c 32 d5 40 2c 0e cc 40 8d 2e d8 bc
       6.5404325 6.6623898 6.37673 -0.026389385
0003f0 ec 5a 7d 40 f6 1c 99 bd af cb 39 be 93 da 85 40
       3.9586744 -0.07476227 -0.18144105 4.1829314

net.4.bias f4 [20]
000000 a3 c2 20 40 c1 42 1c 40 2e 07 0f 40 89 57 14 40
       2.5118797 2.4415743 2.2348132 2.3178427
000010 21 c9 cb 3f aa 32 c1 3f a7 c8 01 40 0b 7f 07 40
       1.5920755 1.5093586 2.0278718 2.117129
000020 02 0c 2d 3e dd f3 23 40 c6 c9 30 3e 3b c5 a6 3e
       0.16899112 2.5617592 0.1726447 0.3257235
000030 68 aa 6b 3f 17 e9 84 3e 2e 60 5c 3f d8 08 ab be
       0.92056894 0.25959083 0.8608426 -0.33405185
000040 3c e0 ef 3e 90 94 f4 bb c5 12 3c 3f 19 36 dc bc
       0.46850765 -0.007463999 0.7346614 -0.026881265
