realtime_model_ep161.pth (torch, 97610 bytes, 6 tensors)

net.0.weight f4 [128, 35]
0	0xc00e823a	-2.2266984
1	0x41f1d427	30.22859
2	0xbe15c74e	-0.1462681
3	0xbf4466a4	-0.7671912
4	0x3cb124ac	0.021623932
5	0xbfb82acc	-1.438806
6	0x41e7da3b	28.981558
7	0xbdf2009d	-0.11816523
8	0x3f7706cf	0.96494764
9	0x3f254d78	0.6457133
10	0xbfef548f	-1.869768
11	0x41e9f627	29.245192
12	0xbe186464	-0.14882046
13	0x3ff052ba	1.8775246
14	0x3cd83490	0.026392251
15	0xbf94ac19	-1.161502
16	0x41ea26e1	29.268984
17	0xbeb6935f	-0.3565931
18	0x3f92e701	1.1476747
19	0xbf6699cc	-0.90078425
20	0xc003b856	-2.058126
21	0x41eb1201	29.383791
22	0xbe40f328	-0.18842757
23	0x40199323	2.3996055
24	0xbe4cb701	-0.19991685
25	0x40e26251	7.0745015
26	0x40d4825b	6.6409125
27	0x410e5dd4	8.897907
28	0x40e1e511	7.059212
29	0x40cf05f4	6.4694767
30	0x40bd33f9	5.9125943
31	0x40cb8fb0	6.36129
32	0x40e019bf	7.003143
33	0x4072ee04	3.7957773
34	0x40dc678a	6.887639
35	0xc00c20f5	-2.1895115
36	0x41f22329	30.267168
37	0x3bc568c3	0.0060244515
38	0xbf1aefaf	-0.6052198
39	0x3d5d0dae	0.053968124
40	0xbf99a019	-1.2001983
41	0x41e93584	29.15113
42	0xbec3fc3a	-0.3827837
43	0x3f67c1b0	0.9052992
44	0x3f2e6e9f	0.68137544
45	0xbfd8ca32	-1.6936705
46	0x41ea80be	29.312862
47	0xbe489278	-0.19587123
48	0x3ff400eb	1.906278
49	0x3df75876	0.120774195
50	0xbf95b2ec	-1.1695228
51	0x41e9d03e	29.22668
52	0xbecb2bbb	-0.396818
53	0x3f9325c8	1.1495905
54	0xbf3492b5	-0.7053636
55	0xbffd0565	-1.9767271
56	0x41ea1b6d	29.263391
57	0xbeaa4bf0	-0.3326106
58	0x40165a9d	2.3492806
59	0xbf05a6cd	-0.5220764
60	0x40e5d6f2	7.1824884
61	0x40d2a388	6.5824623
62	0x410ec333	8.922656
63	0x40e01a50	7.003212
64	0x40c5dac0	6.182953
65	0x40bae0b6	5.8399305
66	0x40c9e1e6	6.3088255
67	0x40dfe378	6.996517
68	0x40676788	3.615694
69	0x40e0048e	7.000556
70	0xc008042e	-2.125255
71	0x41f30138	30.375595
72	0x3d93ad5a	0.072107986
73	0xbf5fc789	-0.8741384
74	0x3ec39157	0.38196823
75	0xbf96683c	-1.175056
76	0x41eb6466	29.424023
77	0xbd9e26b3	-0.07722225
78	0x3f6502da	0.89457476
79	0x3f7e8e05	0.99435455
80	0xbfdbf63a	-1.7184517
81	0x41ec3c29	29.529375
82	0x3e2bb799	0.16769256
83	0x3fecac08	1.849
84	0x3e9981b2	0.29981762
85	0xbf9488ff	-1.1604308
86	0x41ecf488	29.6194
87	0xbe37a353	-0.17933397
88	0x3fde7d57	1.7382001
89	0xbede0885	-0.43365875
90	0xc0033208	-2.0499287
91	0x41edf738	29.745712
92	0x3cff4ad0	0.031163603
93	0x4015dc96	2.3415885
94	0xbdabab25	-0.083822526
95	0x40efff4e	7.499915
96	0x40e555e8	7.1667366
97	0x410dffc9	8.874948
98	0x40e3d052	7.1191797
99	0x40d6a7e3	6.707994
100	0x40c17c98	6.046459
101	0x40d70bcc	6.72019
102	0x40e83ce2	7.257432
103	0x4071fdf8	3.781126
104	0x40e4a83b	7.145536
105	0xc000f293	-2.0148056
106	0x41f03c37	30.029402
107	0xc125dcd8	-10.366417
108	0xc0080939	-2.125563
109	0xc14f9e88	-12.976204
110	0xbf92dc3e	-1.1473463
111	0x41e95227	29.165113
112	0xc12a8750	-10.658035
113	0x3f5cd815	0.86267215
114	0xc14270d5	-12.152547
115	0xbfbdf7f5	-1.4841295
116	0x41e7e8f1	28.98874
117	0xc12af167	-10.683936
118	0x3f93b6ef	1.1540202
119	0xc14b863c	-12.720272
120	0xbf880cb1	-1.0628873
121	0x41e9e3e9	29.236284
122	0xc12dedf9	-10.870599
123	0x3f3e2017	0.74267715
124	0xc14b0b92	-12.690325
125	0xbff72778	-1.930892
126	0x41e944df	29.158628
127	0xc12b960f	-10.724135
128	0x4006993e	2.1031032
129	0xc14bc5d3	-12.735797
130	0x4109cde7	8.612769
131	0x40ff5467	7.979053
132	0x413ff78f	11.997939
133	0x4125d3d9	10.364221
134	0x410c5271	8.770127
135	0x411e4a4e	9.893141
136	0x41076c56	8.463949
137	0x4121c70a	10.1110935
138	0x40d9dd3c	6.808256
139	0x4111beea	9.10911
140	0x3eda4b95	0.4263579
141	0xc19e36a4	-19.77668
142	0x412c53c2	10.770449
143	0x401c5027	2.442392
144	0x40fb7c38	7.8589134
145	0x3e540124	0.2070356
146	0xc195790e	-18.684109
147	0x4132c1b8	11.172295
148	0x400e36cc	2.2220945
149	0x40e97bb1	7.296349
150	0x3e25b98b	0.1618406
151	0xc19635ed	-18.77633
152	0x412cbb52	10.7957325
153	0x4067f459	3.6242888
154	0x410e433e	8.891417
155	0x3f6dfa84	0.9296038
156	0xc197fade	-18.997494
157	0x41320b63	11.12778
158	0x3fe95c83	1.8231357
159	0x41158967	9.3460455
160	0x3f2459ac	0.6419933
161	0xc196eb33	-18.864843
162	0x4132cf43	11.175601
163	0xbe1c7c94	-0.15281898
164	0x4101bc31	8.108445
165	0x40c9fbd5	6.311991
166	0x40c15b6f	6.0424113
167	0x40b32dd0	5.5993423
168	0x40c68b6d	6.2045197
169	0x412021d1	10.008256
170	0x40ba6887	5.8252597
171	0x40cc1dde	6.378646
172	0x40f35cd1	7.60508
173	0x40f88811	7.7666097
174	0x4102864d	8.157788
175	0xc0112a97	-2.2682245
176	0x41f06f41	30.054323
177	0xbef2e240	-0.4743824
178	0xbf388844	-0.72082925
179	0xbe870330	-0.2636962
180	0xbfb6a5b2	-1.4269316
181	0x41e7210e	28.89114
182	0xbf3b0ee3	-0.7306959
183	0x3f57b53e	0.8426093
184	0x3eb7137d	0.35757056
185	0xbfc507ba	-1.5392983
186	0x41e86522	29.049381
187	0xbf008300	-0.5019989
188	0x40017001	2.0224612
189	0x3d7f082d	0.062263656
190	0xbf96ee84	-1.1791539
191	0x41e8182e	29.011806
192	0xbf4689dd	-0.7755411
193	0x3f6042ad	0.8760174
194	0xbf874560	-1.0568047
195	0xbfe7bf68	-1.8105288
196	0x41e8d04f	29.101713
197	0xbf19a0fe	-0.6001128
198	0x401b4ddc	2.4266272
199	0xbed1958d	-0.4093441
200	0x40de386a	6.9443865
201	0x40ca44ab	6.3208823
202	0x4109b57b	8.606807
203	0x40d60850	6.6885147
204	0x40c5479b	6.164991
205	0x40b5c800	5.680664
206	0x40c5780d	6.1709046
207	0x40d81ba9	6.7533765
208	0x405981c7	3.398546
209	0x40d7355f	6.725265
210	0x3cbf60ea	0.023361642
211	0x3d9576ae	0.07298027
212	0xbe09ac5c	-0.13444656
213	0xbb383b53	-0.0028111532
214	0xbde312b4	-0.11087552
215	0x3d52f969	0.051507387
216	0x3ca00309	0.019532697
217	0x3d86514b	0.06558474
218	0xbe05a6ad	-0.13051863
219	0xbdac9e0b	-0.08428582
220	0xbe12c9b2	-0.14334753
221	0x3dca22e1	0.09869934
222	0xbde42736	-0.111402914
223	0xbc14e842	-0.009088578
224	0xbde930e4	-0.11386278
225	0x3e03bdc7	0.12865363
226	0x3dd66f12	0.10470404
227	0xbc5597e4	-0.013036702
228	0xbda1b868	-0.07896501
229	0x3de0f6ac	0.10984549
230	0x3e276c37	0.16349874
231	0xbe092cc2	-0.1339598
232	0x3ca9f8e2	0.02074856
233	0xbdd5590e	-0.104173765
234	0x3d3a6a4c	0.04551153
235	0xbacaa930	-0.0015461799
236	0xbdbaa22a	-0.091129616
237	0xbdf6eb8e	-0.12056647
238	0x3d6588d4	0.056038693
239	0xbe13a9ab	-0.14420192
240	0xbd84b4af	-0.06479775
241	0xbe19339d	-0.14961095
242	0xbe04a2e0	-0.12952757
243	0x3d8b468b	0.068005644
244	0x3dd92e84	0.10604575
245	0xc01145fc	-2.2698965
246	0x41f0867e	30.06567
247	0xbecbd9ff	-0.39814755
248	0xbf53db70	-0.8275671
249	0xbd281ca5	-0.041042943
250	0xbfa5d4b9	-1.2955543
251	0x41e7ca00	28.973633
252	0xbf43d558	-0.7649741
253	0x3f5f21c7	0.87160915
254	0x3eb92c34	0.36166537
255	0xbfc0ad8b	-1.5052961

net.0.bias f4 [128]
0	0x404c2573	3.1897857
1	0x404533ac	3.0812788
2	0x40547eb1	3.3202326
3	0xc09ac094	-4.836008
4	0x411e1d06	9.882086
5	0x40345cff	2.818176
6	0xbe41fc5f	-0.18943928
7	0x402d0596	2.703466
8	0x40294bb2	2.645245
9	0x40510eed	3.266536
10	0x4023dd4c	2.560382
11	0x403167c0	2.7719574
12	0x411aca44	9.674381
13	0x411fb1ef	9.980941
14	0x40320ec7	2.782152
15	0x402c01d4	2.6876116
16	0x402b6004	2.6777353
17	0x411cb0a4	9.793125
18	0x4032af37	2.7919443
19	0x411dd722	9.865023
20	0x3c6a34c3	0.014294806
21	0x4045872a	3.0863748
22	0xbe19b9a1	-0.15012218
23	0x3fb6c151	1.4277745
24	0x4046bfe9	3.1054633
25	0xc0ad49c7	-5.415256
26	0x411f1a9d	9.943997
27	0x4026d137	2.6065195
28	0x402c1dfe	2.6893306
29	0x40525877	3.2866495
30	0x4049bfa7	3.1523225
31	0x4024d164	2.5752802
32	0x4027aaa2	2.6197896
33	0x41211414	10.067402
34	0x411e5fd8	9.898399
35	0x40475e18	3.115118
36	0x4031b9e5	2.776971
37	0x411c6c46	9.776434
38	0x4027c73f	2.621536
39	0x40275fc7	2.6152208
40	0x40594735	3.3949711
41	0x411c9046	9.785223
42	0x4027932a	2.6183572
43	0x40272369	2.6115363
44	0xbdae5d2d	-0.085138656
45	0xbcb4ece0	-0.022085607
46	0x3fd8302b	1.68897
47	0xbd66c334	-0.056338504
48	0x403b0dac	2.9227095
49	0xbd0f694e	-0.035012536
50	0x4029b462	2.6516347
51	0xbe1c4d06	-0.15263757
52	0x411b6b0c	9.7136345
53	0x4022cc05	2.5437024
54	0x402a3df8	2.6600323
55	0x40262536	2.5960212
56	0x402008fa	2.500548
57	0x411e10b8	9.879082
58	0xbe430fa5	-0.19048937
59	0x404c3122	3.1904988
60	0x401f4756	2.488729
61	0x411ed7e3	9.927707
62	0x405a6ea2	3.4130025
63	0xbd68a31a	-0.05679617
64	0x4055ea45	3.3424237
65	0x4054d252	3.325337
66	0x402cfe43	2.703019
67	0x40210a3b	2.5162494
68	0x411c234e	9.758619
69	0x411a5661	9.646089
70	0x4025fc2f	2.593517
71	0x403a6f31	2.9130366
72	0x404ea0ae	3.228557
73	0x40272b81	2.6120303
74	0x411ee9d3	9.932086
75	0x402de25a	2.7169404
76	0x411a78dd	9.654508
77	0x4028f774	2.6401033
78	0x4029280e	2.6430697
79	0x3d20323c	0.039110407
80	0x4028962c	2.6341658
81	0x402f1125	2.7354214
82	0x40277042	2.6162267
83	0xbe33639c	-0.17518467
84	0x411baa43	9.729068
85	0x3fdaa6c4	1.7082143
86	0x40319f11	2.7753336
87	0xc0937984	-4.6085835
88	0xc09915f0	-4.783928
89	0x402ca67c	2.6976614
90	0x40225c87	2.5368974
91	0x402271bd	2.538192
92	0x4029583f	2.646011
93	0x405bddc5	3.4354107
94	0x4056d5ac	3.3567915
95	0x40499db4	3.1502504
96	0xbd182508	-0.03714469
97	0x40230bf8	2.5476055
98	0x411dfa4d	9.873609
99	0x402f0688	2.7347736
100	0x411f33c9	9.950143
101	0x4038c6d6	2.887136
102	0x4029f9d8	2.6558743
103	0x4030fc73	2.7654083
104	0x41220073	10.12511
105	0x40237e51	2.5545847
106	0x401cb58c	2.4485807
107	0x40217cc6	2.5232406
108	0x4028140f	2.6262243
109	0x4035fe08	2.8436298
110	0x402b1b0f	2.6735265
111	0x411b2a6d	9.697858
112	0x402d1569	2.7044318
113	0xc092911e	-4.5802145
114	0x411ece2b	9.925334
115	0x411ba9db	9.728969
116	0x411a74fb	9.65356
117	0x405a1036	3.4072394
118	0x40571a03	3.3609626
119	0x3fc4939b	1.5357546
120	0x402a4be9	2.6608832
121	0x405c415f	3.44149
122	0x411d9b2c	9.850384
123	0x411f88dc	9.970913
124	0x403a9c61	2.9157946
125	0x412406fd	10.251706
126	0x40339d42	2.8064733
127	0x40520275	3.2814

net.2.weight f4 [128, 128]
0	0x40a0fd2c	5.030905
1	0x409eb5b1	4.959679
2	0x40a14852	5.040078
3	0xc14b774b	-12.716624
4	0x4020a06b	2.5097911
5	0x403664b6	2.849897
6	0x3bbe311d	0.0058041946
7	0x40368a92	2.8522077
8	0x401cb1bc	2.448348
9	0x40a16823	5.043962
10	0x4011e5ff	2.2796628
11	0x404d7959	3.2105315
12	0x40303d47	2.75374
13	0x4028e334	2.6388674
14	0x400ee0fb	2.2324817
15	0x4014fbaa	2.3278604
16	0x402ed6f0	2.7318687
17	0x4033ca44	2.8092203
18	0x404b4c21	3.1765215
19	0x401adc8f	2.4197118
20	0xbd9a3365	-0.07529334
21	0x40a1ede8	5.0602913
22	0x3d67ad3b	0.05656169
23	0x410e625e	8.899015
24	0x40a136de	5.0379477
25	0xc154356f	-13.263045
26	0x4016fe44	2.3592691
27	0x4022d34d	2.5441468
28	0x3feee9e0	1.8665123
29	0x409ced89	4.903996
30	0x409ca528	4.8951607
31	0x3ff87350	1.941019
32	0x3fe2d000	1.7719727
33	0x4025dfcf	2.5917852
34	0x401b7b04	2.4293833
35	0x40a2c7f2	5.0869074
36	0x405945b9	3.3948805
37	0x40270f71	2.6103175
38	0x40418234	3.023572
39	0x3ffd174d	1.9772736
40	0x409fd356	4.994548
41	0x4025b6f5	2.5892918
42	0x3ffeecd6	1.9916027
43	0x4041a86d	3.025905
44	0x3cb5220d	0.022110963
45	0x3d48dc2a	0.04903809
46	0x41179add	9.475308
47	0x3cc095fa	0.023509014
48	0x4090b615	4.522227
49	0x3d3b06e5	0.045660872
50	0x4035f530	2.84309
51	0x3d4f8e8e	0.05067306
52	0x4027c9ed	2.6216996
53	0x4037a3a0	2.8693619
54	0x40191b1a	2.3922791
55	0x3fdef0bc	1.7417216
56	0x40146308	2.3185444
57	0x4018d71f	2.38813
58	0x3d3890b8	0.04505989
59	0x409e00cf	4.9375987
60	0x404ce2c9	3.2013419
61	0x402596b5	2.5873234
62	0x409eed77	4.9664874
63	0x3d420fc1	0.047378305
64	0x409b1f7e	4.8475943
65	0x40a4e722	5.1532145
66	0x40528ed1	3.2899668
67	0x3f87a40e	1.059694
68	0x401d9fdf	2.4628828
69	0x402ed24f	2.7315862
70	0x407fc86f	3.9966085
71	0x408fbc83	4.4917617
72	0x40a13e0e	5.038825
73	0x3fb29943	1.3953022
74	0x402315fe	2.5482173
75	0x408a9ee3	4.3318954
76	0x4030562b	2.7552593
77	0x4032a2fd	2.791198
78	0x4037dc71	2.8728297
79	0xbdb26fb9	-0.08712716
80	0x402f7f20	2.742134
81	0x3fca889e	1.5822942
82	0x4033ab1a	2.8073182
83	0x3d540d0a	0.051770248
84	0x402ad191	2.669041
85	0x41162a64	9.385349
86	0x4094cbfb	4.6499
87	0xc1536db7	-13.214286
88	0xc14dceb0	-12.862961
89	0x3fbb9a9f	1.4656562
90	0x3ffbf1c4	1.9683156
91	0x404bc7fc	3.184081
92	0x40242d2c	2.565257
93	0x40a2680e	5.075202
94	0x40a00ec1	5.001801
95	0x40a0a339	5.0199246
96	0xbd9f73be	-0.07785748
97	0x400c4181	2.191498
98	0x401c17f3	2.4389617
99	0x406262d0	3.537281
100	0x4021a8ee	2.5259356
101	0x408d94a4	4.4243946
102	0x3fc73a7e	1.5564725
103	0x401d888f	2.4614599
104	0x4015bd88	2.339693
105	0x40641362	3.563683
106	0x3faa3be9	1.3299533
107	0x3ffef6b8	1.9919043
108	0x4047d870	3.1225853
109	0x406a2cd7	3.6589868
110	0x4036785f	2.8510969
111	0x4025db1b	2.5914981
112	0x3feefc61	1.867077
113	0xc14c2b82	-12.760622
114	0x401c5d5e	2.4431987
115	0x402c9ccc	2.6970701
116	0x40262c91	2.59647
117	0x40a0d044	5.025423
118	0x409d2259	4.910443
119	0x4116d8c3	9.42792
120	0x40201115	2.5010426
121	0x409e5987	4.9484286
122	0x40242968	2.5650272
123	0x402410ff	2.5635374
124	0x409fd2d9	4.9944882
125	0x401fe85f	2.4985578
126	0x4090fa85	4.530581
127	0x40a21891	5.065499
128	0x409e2168	4.941578
129	0x409e52c2	4.9476023
130	0x40a1521e	5.041274
131	0xc14e4f4a	-12.894358
132	0x40395706	2.8959365
133	0x4021efa1	2.5302508
134	0x3cd6e9a7	0.026234461
135	0x4026d3c7	2.6066759
136	0x401772db	2.3663852
137	0x40a516f2	5.159051
138	0x4007cabc	2.121749
139	0x404cb6ea	3.1986642
140	0x4044ca8f	3.0748632
141	0x403b1fe5	2.9238217
142	0x400488e7	2.0708559
143	0x40103039	2.2529433
144	0x40262d1f	2.596504
145	0x40450dce	3.0789676
146	0x403a725f	2.9132307
147	0x403a4c50	2.9109077
148	0xbdada8e1	-0.08479477
149	0x40a48d51	5.1422505
150	0xbb666941	-0.003515795
151	0x410f0f89	8.941293
152	0x40a3267a	5.098447
153	0xc155b3b7	-13.356376
154	0x402ea112	2.728581
155	0x401d2e9d	2.45597
156	0x3fe98b9d	1.8245732
157	0x40a1c334	5.0550785
158	0x40a1b89c	5.0537853
159	0x3ffdce28	1.9828539
160	0x3ff230f9	1.8921195
161	0x40418b52	3.0241284
162	0x40363010	2.8466835
163	0x40a1eb9d	5.0600114
164	0x4049b613	3.151738
165	0x403991b2	2.8995175
166	0x403c1c5d	2.9392312
167	0x3feb6483	1.8390049
168	0x40a11c27	5.0346866
169	0x403889b1	2.883404
170	0x3ffd06c4	1.976769
171	0x4037ce10	2.871952
172	0x3b1e7799	0.0024180172
173	0x3ce7e991	0.028309615
174	0x4115b462	9.356539
175	0x3d2109e1	0.039316062
176	0x408ec2cb	4.4612784
177	0xbd119aba	-0.03554795
178	0x402fb1e1	2.7452319
179	0x3c1449d4	0.009050805
180	0x403ca236	2.9474006
181	0x402d5b88	2.7087116
182	0x4007a343	2.1193397
183	0x3feba5cc	1.8409972
184	0x401024cc	2.252246
185	0x402de5d2	2.717152
186	0xbd9592f8	-0.07303423
187	0x40a3e08d	5.121161
188	0x403e78bb	2.9761188
189	0x403dd5fc	2.9661856
190	0x409edd2a	4.9644976
191	0xbd283b00	-0.04107189
192	0x409ebfa2	4.9608927
193	0x40a6731f	5.201553
194	0x404179a1	3.0230486
195	0x3f8bc3a4	1.091908
196	0x402ff90a	2.7495751
197	0x404563fe	3.084228
198	0x4084fbe0	4.1557465
199	0x408a0a96	4.313792
200	0x40a34dea	5.103261
201	0x3f8fa938	1.1223516
202	0x404214d4	3.0325212
203	0x4087ceff	4.244018
204	0x40429fe6	3.0410094
205	0x402337b5	2.550275
206	0x402447f1	2.566891
207	0x3cc80633	0.024417019
208	0x402a8230	2.664196
209	0x3fd43e61	1.6581537
210	0x402b5086	2.6767898
211	0x3cdfc17c	0.02731394
212	0x403f5bbb	2.9899738
213	0x41139818	9.224632
214	0x4094fcbb	4.655851
215	0xc153daca	-13.240915
216	0xc14fb9bc	-12.982845
217	0x3fbc2c4f	1.4701022
218	0x40030732	2.0473142
219	0x403a5a9f	2.911781
220	0x401d95ce	2.4622684
221	0x40a37847	5.1084323
222	0x40a0ac77	5.021053
223	0x40a335fe	5.100341
224	0x3d02c0e9	0.031922255
225	0x400ca3e4	2.197503
226	0x402fdd59	2.747885
227	0x4050ba4e	3.2613711
228	0x40391017	2.891607
229	0x408b3caa	4.3511553
230	0x3fbd7fec	1.4804664
231	0x401871c0	2.3819427
232	0x402e56a1	2.7240374
233	0x4057e19b	3.3731449
234	0x3fa0ccac	1.2562461
235	0x3fec0907	1.8440255
236	0x404a07b3	3.15672
237	0x406ceb39	3.7018569
238	0x402a2720	2.658638
239	0x403e9047	2.977556
240	0x3ffb30db	1.9624285
241	0xc14d5318	-12.832787
242	0x4034b9f2	2.8238492
243	0x40431d96	3.0486808
244	0x4037d828	2.8725681
245	0x40a876af	5.2644877
246	0x40a2b2e0	5.0843353
247	0x41146ccb	9.276561
248	0x40163031	2.3466914
249	0x40a2e12c	5.089987
250	0x4040f78d	3.0151093
251	0x4041f7a3	3.0307395
252	0x409e3506	4.9439726
253	0x40331b28	2.7985325
254	0x409507ed	4.6572175
255	0x40a4cb27	5.149799

net.2.bias f4 [128]
0	0xbf345797	-0.7044615
1	0xbe852fcf	-0.26013038
2	0xc10b3b67	-8.702003
3	0xbed663fc	-0.41873157
4	0x3d3b09f7	0.0456638
5	0x401df88b	2.4682949
6	0xbc979f86	-0.018508684
7	0x407ecd15	3.9812672
8	0x407dae50	3.9637642
9	0xbdb2810d	-0.08716021
10	0x410fdd55	8.991536
11	0xbf9a8333	-1.2071289
12	0xbdb17d99	-0.08666534
13	0xbf2282a2	-0.6348058
14	0x407d21dd	3.9551919
15	0x3ca2f5ea	0.019892652
16	0x407e1c8e	3.9704928
17	0xbf16205d	-0.5864313
18	0xbf0a7f58	-0.5410056
19	0xbed06be3	-0.4070731
20	0xbcd41223	-0.025887555
21	0x40828d14	4.0797215
22	0x3ce88dc5	0.028387913
23	0xc0cf6ce2	-6.4820414
24	0xc0ff0755	-7.969645
25	0xc10942d4	-8.578815
26	0xbdaa546a	-0.08316882
27	0x40766a2f	3.850231
28	0x407befa2	3.936501
29	0x3fa18c9d	1.2621037
30	0x40815dd7	4.042705
31	0xbda70e62	-0.0815704
32	0xbd0843b4	-0.03326769
33	0xbd256658	-0.040380806
34	0x407dc724	3.9652796
35	0xbf638ffd	-0.88891584
36	0x3d80a256	0.06280963
37	0x40227fec	2.5390577
38	0x407a144d	3.907489
39	0x4113cbc6	9.237249
40	0x40135013	2.3017623
41	0xbba1476d	-0.0049218447
42	0xbd63e47c	-0.05563782
43	0xbcac045f	-0.020998178
44	0x4084426a	4.133107
45	0x408209ae	4.0636816
46	0x3d8b3a05	0.06798176
47	0xbfd426fa	-1.6574395
48	0xc0cdfbe6	-6.4369993
49	0x3cf66fd7	0.030082626
50	0xbeb8572f	-0.36004016
51	0xbf3d1f64	-0.73876023
52	0xbc171a86	-0.009222632
53	0xbf1150ca	-0.567639
54	0x408120cf	4.035255
55	0xbc75a4b4	-0.014992882
56	0xbd02c5b1	-0.031926814
57	0x40806e0f	4.013435
58	0xbf0dd91b	-0.554094
59	0xc10b8914	-8.720966
60	0x3c9327dd	0.017963344
61	0xc0ab36d1	-5.3504415
62	0xbe87d3b3	-0.265287
63	0xbea8ea67	-0.32991335
64	0xc0f2837e	-7.5785513
65	0xbcf93736	-0.030421834
66	0x40778678	3.8675823
67	0x407e6526	3.9749236
68	0x401d0d09	2.4539206
69	0x4019ac59	2.4011443
70	0xbda69a34	-0.08134881
71	0x40773e3d	3.8631737
72	0x3c80aeda	0.015708376
73	0xbde7469f	-0.11292767
74	0x408276a0	4.0769806
75	0xc1046c33	-8.276416
76	0x407ac6a8	3.918375
77	0x40721e11	3.783085
78	0xc0524bee	-3.2858844
79	0x3fa174d7	1.2613782
80	0xbf0bf71d	-0.5467394
81	0xbd051af8	-0.032496423
82	0x40732380	3.7990417
83	0xbf0f6705	-0.5601657
84	0x3d9467a5	0.07246331
85	0xbd09d8c8	-0.033654004
86	0x3cc0b7ec	0.0235252
87	0x401bab36	2.432325
88	0x40805ebe	4.011565
89	0xbd247cb2	-0.04015798
90	0xc0e8bb77	-7.272884
91	0xc0979658	-4.7371025
92	0x3888f52f	6.530654e-05
93	0x3e51f563	0.20503764
94	0xbd61ba06	-0.055109046
95	0x40818aab	4.0481772
96	0xc0e1dbd3	-7.058084
97	0x3c69fcaf	0.014281436
98	0x407ea87b	3.9790332
99	0xbdc37df7	-0.0954551
100	0xbda638eb	-0.08116325
101	0xc10aa53c	-8.66534
102	0xc0440091	-3.0625346
103	0x4104547e	8.270628
104	0xbced57c3	-0.028972512
105	0xc0c79188	-6.236515
106	0x3d041e96	0.03225573
107	0xc0f41f22	-7.6288004
108	0x3ff84450	1.9395847
109	0x3c1fa633	0.009744215
110	0x40207309	2.5070212
111	0x407ab355	3.9171956
112	0xbef72e45	-0.48277488
113	0xbd6e06ba	-0.058111884
114	0xbef279e5	-0.47358623
115	0x3e8d7c8f	0.27634093
116	0xc108891c	-8.533474
117	0xc0a9d7ad	-5.3075776
118	0x3c74706e	0.014919383
119	0xbf30e1d5	-0.6909459
120	0xc0b329f4	-5.598871
121	0xc0ce2c9e	-6.4429464
122	0xc106b92c	-8.420208
123	0xbd9c8382	-0.076422706
124	0x407dc082	3.9648747
125	0xbdc68da7	-0.09694987
126	0xbef3e693	-0.47636852
127	0x40213e64	2.519433

net.4.weight f4 [20, 128]
0	0xbfa62aa9	-1.2981769
1	0xbf8b85ba	-1.0900185
2	0x40f5e4a0	7.6841583
3	0xbf900e40	-1.1254349
4	0xbc8d01d8	-0.017212793
5	0x409b524e	4.853797
6	0x3d7a8515	0.061162073
7	0x4080ec71	4.0288625
8	0x4093bc0e	4.616706
9	0xbd0cf078	-0.034409016
10	0x4004910e	2.0713534
11	0xbfadc6cf	-1.3576297
12	0x3cf05337	0.029336555
13	0xbfa31ff8	-1.2744131
14	0x408ee757	4.4657397
15	0xbc6b2a2a	-0.014353314
16	0x40877563	4.2330794
17	0xbf78f340	-0.9724617
18	0xbf8ab1dc	-1.0835528
19	0xbf86c23d	-1.0528027
20	0xbd40c83f	-0.04706597
21	0x40843f0d	4.1326966
22	0xbd8a5ae2	-0.06755616
23	0x40e898c8	7.26865
24	0x40f27857	7.57719
25	0x40f0a4e9	7.5201306
26	0x3c1e8e23	0.009677443
27	0x408a9c44	4.3315754
28	0x4094dde3	4.652086
29	0x40999f33	4.8006835
30	0x408c4b1d	4.384169
31	0x3bfb668f	0.007672138
32	0x3a3d007d	0.00072098506
33	0x3d49b0ba	0.049240805
34	0x4087b48e	4.2407904
35	0xbfa9011c	-1.3203464
36	0xbd8d66a0	-0.0690434
37	0x4098e1c7	4.7775607
38	0x408e1ee2	4.44127
39	0x400c1ec7	2.1893785
40	0x409603f5	4.687983
41	0xbc16693c	-0.009180363
42	0x3d1beb23	0.03806604
43	0xbb42610c	-0.0029659895
44	0x40908112	4.5157557
45	0x408a0003	4.3125014
46	0xbd9323b3	-0.071845435
47	0x40a3b16e	5.115409
48	0x40ec8b34	7.3919926
49	0x3dadb798	0.08482283
50	0xbf8a00ba	-1.0781472
51	0xbf942840	-1.1574783
52	0xbf794d6f	-0.9738378
53	0xbf964138	-1.1738653
54	0x40883dc8	4.2575417
55	0x3d973b81	0.07384396
56	0xbcac53f7	-0.021036131
57	0x4091d136	4.5567884
58	0xbf726194	-0.9468014
59	0x40f48d71	7.642266
60	0x3d65299c	0.055947885
61	0x40dc5e71	6.8865285
62	0xbf86abb3	-1.0521148
63	0xbf709601	-0.9397889
64	0x40ee6e56	7.4509687
65	0xbd03be83	-0.032164108
66	0x408a5c89	4.323796
67	0x4087d2fa	4.244504
68	0x4099b262	4.8030252
69	0x409a33e9	4.8188367
70	0x3d2f742d	0.042835403
71	0x40810a4c	4.032507
72	0xbd2f9246	-0.042864107
73	0xbf817267	-1.0113038
74	0x408a9a95	4.33137
75	0x40f2f09c	7.5918713
76	0x408ee247	4.4651217
77	0x406d79c6	3.7105575
78	0x40c1acb4	6.052332
79	0x4095ac8d	4.6773133
80	0xbf9dc04c	-1.2324309
81	0xbb82ee2d	-0.003995678
82	0x408e08c4	4.43857
83	0xbf8fd379	-1.1236411
84	0xbb8c0505	-0.0042730593
85	0x3da46ff9	0.080291696
86	0x3da9329c	0.08261606
87	0x4093f08d	4.623114
88	0x408e26f8	4.442257
89	0x3d1e3885	0.03862812
90	0x40ef5d81	7.480164
91	0x40d78881	6.735413
92	0x3dace060	0.08441234
93	0x409446e6	4.6336546
94	0x3d5f9a5c	0.054590568
95	0x408d55a7	4.4167056
96	0x40eab4a0	7.334549
97	0xbd495dbf	-0.04916167
98	0x408ac06b	4.3359885
99	0xbc9724e2	-0.018450204
100	0x3d8cea2c	0.06880602
101	0x40f23ba1	7.569779
102	0x40bd66e6	5.918811
103	0x3faeda03	1.3660282
104	0xbc4b7abe	-0.012419401
105	0x40e95149	7.2911725
106	0x3c89bed6	0.01681463
107	0x40ef5cba	7.480069
108	0x409725fe	4.7233877
109	0x3cd94192	0.026520524
110	0x4097f8e6	4.749133
111	0x40855f32	4.1678705
112	0xbf9419b5	-1.1570345
113	0xbd97a5b9	-0.07404656
114	0xbf99b16b	-1.2007269
115	0xbe9ad344	-0.30239308
116	0x40f23563	7.569017
117	0x40de19ee	6.9406652
118	0x3d1d9627	0.038473275
119	0xbf91863a	-1.1369088
120	0x40e59a1a	7.175061
121	0x40e74136	7.2267103
122	0x40f68ba1	7.7045445
123	0xbd116af9	-0.035502408
124	0x408530fa	4.1622286
125	0x3da3001c	0.07959005
126	0xbf9ac09b	-1.2090029
127	0x409a2025	4.816424
128	0xbf2a7f95	-0.66600925
129	0xbefea057	-0.49731705
130	0x40e0acde	7.021102
131	0xbf3e98cd	-0.74451905
132	0xbd86f04b	-0.06588801
133	0x408f9272	4.4866266
134	0xbcb46b97	-0.02202396
135	0x4080d45e	4.0259237
136	0x408a0962	4.3136454
137	0x3d6d75f9	0.057973836
138	0x3e86387d	0.26214972
139	0xbf734668	-0.95029306
140	0xbcbc35e7	-0.022974921
141	0xbf2aa22b	-0.666537
142	0x4086b96e	4.2101355
143	0x3bf34590	0.007424064
144	0x4082f0c7	4.091892
145	0xbefd37b0	-0.4945655
146	0xbf110072	-0.56641304
147	0xbf134ce9	-0.5753923
148	0x3d9ba7e0	0.07600379
149	0x40822d86	4.068057
150	0x3d1f3fbc	0.03887914
151	0x40e2d53f	7.088531
152	0x40df3ab2	6.975915
153	0x40ddd6e9	6.932484
154	0x3da9b52e	0.082865104
155	0x40838b83	4.1107802
156	0x408b5307	4.353885
157	0x40917de8	4.5466194
158	0x4087ba9f	4.241531
159	0x3daa8ed1	0.08328021
160	0x3d34cb27	0.044139054
161	0xbd0d8314	-0.034548834
162	0x40853944	4.1632404
163	0xbf4683ed	-0.7754505
164	0xbd54a4d6	-0.051915012
165	0x408e1992	4.4406214
166	0x40866121	4.1993566
167	0x3effa913	0.4993368
168	0x408f50ec	4.478628
169	0x3c2133a3	0.009838971
170	0x3d2563f4	0.040378526
171	0xbd0c9d72	-0.03432984
172	0x40894ce4	4.290636
173	0x40858a96	4.173167
174	0xbd8a550d	-0.067545034
175	0x40bb86a6	5.8601866
176	0x40e4b7b1	7.1474233
177	0x3be2ff02	0.006927372
178	0xbf0a5b69	-0.5404573
179	0xbf1a58da	-0.60291827
180	0xbf1cd0ac	-0.6125591
181	0xbf3de507	-0.74177593
182	0x4088a98c	4.2706966
183	0xbd969599	-0.07352752
184	0x3cf69535	0.030100444
185	0x408b98d6	4.3624067
186	0xbf059915	-0.5218671
187	0x40e097e0	7.0185394
188	0x3d2d563e	0.042318575
189	0x40e29d5e	7.08171
190	0xbf078b22	-0.52946675
191	0xbf0231de	-0.5085734
192	0x40e1720c	7.0451717
193	0x3dae640b	0.085151754
194	0x40864629	4.1960645
195	0x4083be1a	4.1169558
196	0x408d5bae	4.4174414
197	0x408e092c	4.4386196
198	0xbbdfedea	-0.0068337815
199	0x40783f81	3.878876
200	0xbca6b9d7	-0.020352287
201	0xbeffa499	-0.49930266
202	0x4087bfdd	4.242171
203	0x40ddfc70	6.937065
204	0x4087f7ad	4.248984
205	0x406d10e2	3.7041554
206	0x40d6813e	6.7032766
207	0x4091b943	4.553865
208	0xbf43af93	-0.7643978
209	0xbc6d4720	-0.01448229
210	0x4088b885	4.2725244
211	0xbf355eb7	-0.7084765
212	0xbd2f4248	-0.04278782
213	0xbd70c04a	-0.05877713
214	0x3d5af1e7	0.053453352
215	0x408b1bcf	4.3471446
216	0x408940c2	4.289155
217	0xbd3e2103	-0.0464182
218	0x40e3f21c	7.1233044
219	0x40e19ae3	7.050157
220	0x3d2110b3	0.039322566
221	0x409b35ae	4.8503027
222	0x3d2c7de4	0.042112246
223	0x40863f66	4.195239
224	0x40e22f30	7.06826
225	0x3d89e67e	0.06733416
226	0x40847866	4.139697
227	0xbda85e5e	-0.08221124
228	0xbd77b005	-0.0604706
229	0x40dee980	6.9660034
230	0x40d400ad	6.6250825
231	0x3f2108eb	0.6290423
232	0xbd9eac95	-0.07747761
233	0x40e66d33	7.20083
234	0x3d87a3e1	0.06623054
235	0x40e0d824	7.0263844
236	0x408d604a	4.418004
237	0x3d5131ed	0.051073004
238	0x408e029b	4.437818
239	0x4082546b	4.072805
240	0xbf0a7c85	-0.5409625
241	0x3d508ba5	0.050914425
242	0xbf2f5bc5	-0.68499404
243	0xbeca80e2	-0.39551455
244	0x40de9258	6.955364
245	0x40e43b7e	7.132262
246	0x3da520b3	0.080628775
247	0xbf1faff4	-0.6237786
248	0x40e23788	7.0692787
249	0x40e62180	7.1915894
250	0x40dd3055	6.91215
251	0xbcd82e8d	-0.026389385
252	0x408181a6	4.047076
253	0xbd991cf6	-0.07476227
254	0xbf21a102	-0.63136303
255	0x408cb98b	4.3976493

net.4.bias f4 [20]
0	0x4007129a	2.1105103
1	0x3fe9a97d	1.8254849
2	0x3fde3604	1.7360234
3	0x3feba3f9	1.8409415
4	0x3f9df6f9	1.2340995
5	0x3fa9bacc	1.3260131
6	0x3fcf19ef	1.6179789
7	0x3fd91e28	1.6962328
8	0xbd2c4957	-0.04206213
9	0x3ffb6aef	1.9642009
10	0x3ea72d43	0.3265172
11	0x3efa29eb	0.48860106
12	0x3f4d43bb	0.80181473
13	0x3ec9fe03	0.39451608
14	0x3f84221c	1.0322909
15	0xbec7f0f1	-0.3905101
16	0x3eec39a5	0.4613773
17	0x3b5bfaf8	0.0033566337
18	0x3f438fda	0.76391375
19	0x3d8b0ebc	0.0678992
